notebooks/lightning_logs/version_2/checkpoints/epoch=0-step=1351.ckpt (torch, 27867 bytes, 30 tensors)

encoder.0.weight f4 [16, 1, 1]
00000000: 2d51 8a3f 00f0 e1b9 f309 833f 8c09 48bf
00000010: 2455 903f f87f 03bf f8a5 0bbe f8df c8be
00000020: 401f 653d fde6 003e 0806 8abe d8bd e2be
00000030: bea3 52bf bf93 073f 98c0 d8be e3a1 263e
1.0806023 -0.00043094158 1.0237411 -0.7813957 1.1275983 -0.5136714 -0.13637531 -0.39233375
0.055938005 0.12588115 -0.26957726 -0.44285464 -0.822811 0.5295982 -0.42334437 0.16272692

encoder.0.bias f4 [16]
00000000: a18e 9b3e 1e11 38bf 8360 773f ae8b 4abf
00000010: a742 6c3e 001c 8dbc 2e8b 6abf 3ce8 ccbe
00000020: 48db 27be 17ac 9e3e 10e5 b3bd 3a68 d93e
00000030: e4b9 03bf 93ea 63bd 756a c43e 600c 303e
0.30382255 -0.7190112 0.9663164 -0.79119384 0.23072301 -0.017225266 -0.9161862 -0.4002093
-0.16392243 0.3099067 -0.087839246 0.4246233 -0.5145552 -0.05564363 0.3836247 0.1719222

encoder.3.weight f4 [8, 16, 3]
00000000: 242c 1bbd 4ca3 be3d 8edd e7bd e0dd 7b3c
00000010: d405 e73d e599 cfbd c178 04be 1095 cc3d
00000020: 7048 f3bd 40c2 85bb 124f d5bd 20b1 62bc
00000030: 0841 11be c2bb 8d3d b341 0b3d 48b4 9fbd
00000040: 7633 d43d 2065 fb3d 5a19 6bbd a455 f03d
00000050: 4630 113e 8e80 f7bd b8e0 02be 9cb2 bdbd
00000060: a0d8 0a3e 6b09 cabd 4e20 babd 8e08 dd3d
00000070: ac55 bb3d 817c c3bc 5e2d f2bd f889 cf3c
00000080: e066 67bc 5562 b23d 4153 e1bd 7326 1fbe
00000090: 5444 b2bc 08d8 0ebe d2a6 b3bd 19e7 4fbd
000000a0: 082a 663d 5d31 b9bc 1b22 d63d 1313 a7bd
000000b0: d956 9d3c 3724 553d b36b 8c3d 8ace ee3d
000000c0: 0f2d 5f3c 46b6 fabb 3cdf dc3d 2443 0f3d
000000d0: 44fc 343d 6052 96bb fbd7 e3bd 8464 bb3d
000000e0: 3ecc 52bd b4ba b8bd e097 03bc 741b 0abd
000000f0: 3db1 82bd efd9 19bd 5314 13be 2295 60bd
00000100: 060d fabd 4a13 a5bd 14f7 babd 1a09 51bd
00000110: f059 2e3d 1ca8 a7bd 3066 ac3d c86d e43d
00000120: 3ef6 04be 2088 a63b 2ee1 953d 1398 033e
00000130: 945f c3bd 7a38 eabd 4a99 853d 3890 683d
00000140: 3841 0e3e 3e54 473d 7842 bc3c 55ac 9bbd
00000150: 24b6 6fbd ea8e cd3d f0f8 36bc 7a53 6e3c
00000160: c54f cb3d 4419 e13d cb2d fabc e901 0ebd
00000170: d004 b73c 3079 b33d 40f1 1b3d 66e9 7fbd
00000180: 1558 223e cee6 973d eba8 e23d 2868 9a3d
00000190: aca5 db3d 84aa ec3d 3ef2 3abd a9f8 d13c
000001a0: 6da7 0b3e e090 213d e09f e13d 7893 06be
000001b0: d9d4 133e 6c31 cf3d bdf7 f13d c543 83bd
000001c0: 6e1d c73d 0828 f23d 909b a43d b47c f23d
000001d0: 4cc1 0ebd 2db8 ccbd beec be3d 6a0e 043e
000001e0: 74e3 023d 00de 89bb 0285 82bd 07bb debd
000001f0: 78af e73d f8ad 1cbe 3c2c 573d 40c3 7a3b
00000200: c851 083e 4aa3 b73c 4ab5 1bbd b973 d0bd
00000210: b0bd 3abc 70d9 e33d 8138 0ebe 6a07 9c3d
00000220: 1107 613e 1017 a23e d27a 3ebe 9be0 3bbe
00000230: 7cf2 31be ffc7 f63d 92e2 7c3d c2a2 df3b
00000240: 2062 babd 5336 803d c75d 03be 0082 273d
00000250: 826a 85bd 8a6f 06bd 5958 363d 4094 b83c
00000260: e700 78bc 10fa a5bc 80bc d83d 90ff 033c
00000270: d79b 10bd 3ad7 a23d 2cde c4bc 40ed 16bd
00000280: 40a7 623c 8cee 7a3d fe09 0ebd a057 40bd
00000290: fea2 a33d dc38 d13d 70f1 03bc 44a6 08bd
000002a0: 01fe c5bd 30da 7ebc 1c36 f83d 4d73 f7bd
000002b0: dede 0fbe 096e acbb 8d99 dabd e4dc 8bbd
000002c0: bee2 ae3d 19d0 a6bd c95f e8bd 9c5c f0bb
000002d0: b65e 0e3e 7088 163d e0ce 0e3e b285 97bd
000002e0: 9f57 0fbe 0ca0 7f3c 50fe 563d 3c20 4dbd
000002f0: efa5 033e 813f 843d 1511 fcbd dc0e 873c
00000300: 9c8a 343e b6b3 a2ba 8895 d73d a8d6 71bd
00000310: d89c 38bd a084 603d a32e d83d e30c d7bd
00000320: 009d b93b b09c 593c 6859 e03d 286f 2f3d
00000330: 3e48 913a 66b0 693e a13f 253e 4409 e2bd
00000340: 1d3e 90bd d0aa 533d 3e27 00be 74ff 91bd
00000350: 20f0 ea3d 2484 2dbd 2c24 0a3e 9adf 833d
00000360: e55d 11be 2ba2 09be 10bf 25bc 4f5d ffbd
00000370: f900 013e 4754 0fbe c8d1 923d 9230 bb3d
00000380: dc46 ea3d d66e 0fbd 724d 89bd d06c 15bd
00000390: 5097 b13c af5f edbd 904f dbbd 7ff0 8d3e
000003a0: d8e1 733e b46a 233d 43c9 123c 23d4 43bd
000003b0: 71c1 2fbd 238d d23d f4d6 a6bd 2c3a c0bc
000003c0: 6498 733e 4c9a 7c3e 395c 5e3d d6a1 10be
000003d0: 2007 dc3c 8020 ea3a bbce 5f3d a4d6 0a3d
000003e0: f08b 9ebd f8a4 9f3d 6735 adbd 70ec 63bc
000003f0: 44ef c73c 28ab f33d 9af9 9dbd 9355 81bd
-0.037883893 0.0930849 -0.11321555 0.015372723 0.112804085 -0.10136775 -0.12936689 0.09989369
-0.11879051 -0.0040819943 -0.10415472 -0.013836175 -0.14184964 0.069205776 0.033998203 -0.07798058
0.10361378 0.122751474 -0.057397224 0.11735085 0.14178571 -0.12085067 -0.12781036 -0.09262583
0.13559198 -0.098650776 -0.09088193 0.10792647 0.091472 -0.023863079 -0.11825059 0.025334343
-0.014123648 0.087101616 -0.110022075 -0.15542011 -0.021761097 -0.13949597 -0.08772053 -0.0507575
0.056192428 -0.022606546 0.10455724 -0.08157935 0.019206451 0.05203649 0.068564795 0.11660488
0.013621583 -0.007651123 0.10784766 0.03497614 0.04418589 -0.0045874566 -0.111251794 0.09150031
-0.05146431 -0.09019986 -0.008031815 -0.033717588 -0.06381462 -0.037561353 -0.14363222 -0.054829724
-0.12209515 -0.0806032 -0.09129158 -0.05103407 0.04256624 -0.08186361 0.08417928 0.111537516
-0.12984559 0.0050821453 0.0731834 0.1285098 -0.095397145 -0.11436553 0.06523378 0.056778163
0.13892066 0.048664324 0.022980914 -0.07601229 -0.058523312 0.10037024 -0.01116775 0.01454627
0.09927324 0.10991147 -0.030539414 -0.03466979 0.022341162 0.08763349 0.03807187 -0.062478445
0.15853913 0.074170694 0.11067375 0.075393975 0.10724959 0.11555961 -0.045641176 0.025631266
0.13638087 0.039444804 0.11016822 -0.13142192 0.14436664 0.10116848 0.118148305 -0.064094104
0.0972241 0.118240416 0.08037484 0.118401915 -0.03485231 -0.09996066 0.09322499 0.12896124
0.031955197 -0.0042073727 -0.063730255 -0.108755164 0.11312765 -0.15300739 0.05253242 0.003826335
0.13312447 0.02241673 -0.038014688 -0.10178322 -0.011397764 0.11125457 -0.13888742 0.076186016
0.21975352 0.3165822 -0.1860154 -0.18347399 -0.17377657 0.12049865 0.06173951 0.006824822
-0.09100747 0.062603615 -0.12828742 0.040895462 -0.065144554 -0.032821216 0.04451785 0.022531629
-0.015136934 -0.02026084 0.105828285 0.008056536 -0.03530487 0.079512075 -0.024031721 -0.036847353
0.013833821 0.061262652 -0.034677498 -0.046958566 0.07990073 0.10215923 -0.008053169 -0.03336169
-0.09667588 -0.01555495 0.121196955 -0.12082539 -0.14049861 -0.0052621407 -0.10673819 -0.06829241
0.085393414 -0.0814516 -0.113463946 -0.0073352586 0.13903317 0.03675121 0.13946104 -0.07398547
-0.13998269 0.015602123 0.052488625 -0.05007957 0.12856267 0.06457425 -0.12307946 0.016486578
0.17631 -0.0012413177 0.10526568 -0.059042603 -0.045071453 0.05481398 0.1055577 -0.10500505
0.005664468 0.013281986 0.10954553 0.042830616 0.0011084152 0.22821197 0.16137554 -0.110369235
-0.07043097 0.05167657 -0.1251497 -0.07128802 0.114715815 -0.042362347 0.13490361 0.06439133
-0.14195974 -0.13440768 -0.010116354 -0.12468969 0.12598027 -0.13996993 0.07168919 0.091401234
0.114392966 -0.03501781 -0.06704225 -0.036480725 0.021678597 -0.11590516 -0.10708535 0.27722546
0.23816621 0.039896682 0.008959117 -0.04780973 -0.04290909 0.10280826 -0.08146468 -0.023465239
0.23788601 0.24668235 0.05428717 -0.14124236 0.026858866 0.0017862469 0.054640513 0.033896104
-0.07741535 0.07795137 -0.08457451 -0.013911352 0.024406083 0.1189788 -0.07713623 -0.0631515

encoder.3.bias f4 [8]
00000000: e090 cfbd dba0 05bd 6898 eebd d483 b43c
00000010: d7da cb3d 4134 22bc f64d f7bd 68c5 af3c
-0.101350546 -0.032624107 -0.11650163 0.022035517 0.0995385 -0.009900154 -0.12075417 0.021456435

decoder.0.weight f4 [8, 8, 3]
00000000: 68cd ffbc f4f5 24be 44c8 8abd ef14 4bbe
00000010: c0b4 263e d9f6 1cbe f5c0 343e 3b57 cf3d
00000020: 412a 953b 3916 a7bd bb61 cebd 1712 533d
00000030: aa48 ecbc 72ef 0c3e 05c2 c73d 8585 53be
00000040: b2ce c63e 47c5 f5bd 9087 ca3d ff21 813d
00000050: 13ed 22be 6048 15be f140 ccbd d2c2 403e
00000060: e441 c4bd 7c38 f63c 3249 5a3e 940c 53bd
00000070: 5ffd 1cbe 907d d63d 362c c33d fb0e 423e
00000080: 69c3 f4bc b9db 0d3e 9cb8 603d 65d4 433e
00000090: e9d9 863d 2c6f 493e 3091 d93c 58bd bc3c
000000a0: 4e17 cfbc 9064 933c d9a4 a7bd 8b81 1bbd
000000b0: 22ff 433e 14ce febd 201d 15be dc44 0bbd
000000c0: 3213 46be 8c82 103e d2f8 173e ad42 33be
000000d0: 0c72 373e f14a 26be 60c3 c33b a8a3 2bbe
000000e0: 2076 f03c f274 0bbe 0ac2 50be 8828 8cbc
000000f0: 50d2 013e 3974 2ebe 2045 2abe cd7a 2bbe
00000100: 1c38 213e 145d 333e b8de 9cbd e80d 9b3d
00000110: 62c1 d2bd 5c4c e2bd 3a67 95bd 4a64 4b3e
00000120: 880d 34bd 1d83 343e 344c 983d c04f 02bd
00000130: 2096 f13c 20b0 8d3d af6c 793b 2bf7 3fbe
00000140: d36f e3bd 703f 333e 576d fb3d 8c05 313e
00000150: 593e 3dbd ac05 1dbe a096 8abd ba6f 873d
00000160: cb71 863e 34ea b7bd 5077 1e3e bde1 ecbd
00000170: 8adc 2fbe 57bb 4cbe d2a6 153e 4527 a8bd
00000180: b004 72bc bb9f 193e 33ec f83d 205e ad3b
00000190: 2211 313e 08db e73c 339a 483e 15d8 233e
000001a0: 6c73 3cbe f024 943d b465 0bbe 4414 4a3e
000001b0: 74a1 863d 091e d4bd fab3 c4bd e5b3 443e
000001c0: b866 243e 5d12 b53b c3e1 c4bd 036e af3d
000001d0: 6042 6bbd 7870 87bc e653 e8bd c1a5 37be
000001e0: 26e9 36be 8873 7c3d 9404 c9bd b023 c73d
000001f0: c4c1 133e 20a6 703c 488c 81bd a7b7 13be
00000200: c096 063d 4ec3 c6bd d6d9 0d3e 82d6 e9bd
00000210: 4f94 36be becd 353e e866 08bd 5451 233e
00000220: 00d6 ea39 2877 a4bc 207e 9f3b 6088 d23b
00000230: 309e 1cbd 5605 ccbd c865 d33d 447b 32be
00000240: 0c07 91bd 1ab3 1b3d 3dda 72bd a807 fbbc
00000250: c4bc af3d 7ce6 cc3d 8675 0c3e 115c 78bd
00000260: e44e bebc 60b5 163e d4da 47bd dc36 1f3e
00000270: dad4 18be 5ad6 423e 12ba 943c 8702 fe3d
00000280: e98d 933e ff38 483d 4334 1bbe 1092 1ebc
00000290: c01d 003b 2e10 403e a05a f9bd 200a 95bd
000002a0: a016 0f3e 0099 233b 4c34 2cbe a0e8 eb3b
000002b0: f075 57bc 7bbf 19be b002 a03d 5ffb 1abe
000002c0: 4642 48be 4815 12bd b609 d6bd 9c6a e43d
000002d0: cde3 8cbd 0c8c 23be 0ef8 0abe 9da6 223e
000002e0: 3742 823d 01ff 393e b1af d9bd 30c4 9c3c
000002f0: d81b fb3d fc05 033e f459 323e 28ba b43d
-0.031225875 -0.16109449 -0.06776479 -0.19832204 0.16279888 -0.1532854 0.17651732 0.1012406
0.004552156 -0.081585355 -0.10077234 0.051530924 -0.028843243 0.13763216 0.09753803 -0.20656402
0.3882957 -0.12000518 0.09889138 0.06305312 -0.15910749 -0.1457839 -0.09973324 0.18824318
-0.0958288 0.03005623 0.21316984 -0.051525667 -0.15331028 0.10473168 0.09529917 0.18951027
-0.029878335 0.13853349 0.054863557 0.19123991 0.06584532 0.19671315 0.026558489 0.023039505
-0.025279667 0.017992288 -0.08185739 -0.03796534 0.19140294 -0.1244165 -0.14561892 -0.034001216
-0.1934326 0.141123 0.14841011 -0.17505904 0.17914599 -0.16239525 0.0059742182 -0.16761649
0.029353201 -0.1361883 -0.2038652 -0.01710917 0.12677884 -0.17036523 -0.16627932 -0.16746064
0.1574406 0.17515975 -0.07659668 0.07571012 -0.10290791 -0.11049721 -0.072950795 0.19862476
-0.043958217 0.17628141 0.074364096 -0.031814337 0.02949053 0.06918359 0.0038059165 -0.18746631
-0.11105313 0.17504668 0.12276714 0.17287272 -0.046202037 -0.15334195 -0.06767011 0.06613107
0.26258692 -0.089802176 0.15475202 -0.11566494 -0.17173973 -0.1999334 0.14614418 -0.08210615
-0.014771625 0.15002339 0.121544264 0.0052907616 0.17291692 0.028302684 0.19590072 0.16000398
-0.18403405 0.07233608 -0.13613015 0.19734293 0.065737635 -0.10357291 -0.0960464 0.1920925
0.16054809 0.0055258707 -0.09613373 0.08565905 -0.057436347 -0.016533121 -0.11344127 -0.17934324
-0.17862377 0.061633617 -0.09815326 0.09723604 0.14429384 0.014688045 -0.06325585 -0.14425527
0.03285861 -0.0970522 0.13852629 -0.11417867 -0.17830013 0.17754266 -0.033301264 0.15948993
0.000447914 -0.02007635 0.00486733 0.0064249486 -0.038236797 -0.09961955 0.103221476 -0.17429835
-0.07081422 0.0380126 -0.05929016 -0.0306433 0.08580926 0.10004899 0.13716707 -0.060634676
-0.023230977 0.14717627 -0.048792675 0.15548271 -0.14924946 0.19027081 0.018155131 0.12402826
0.28819206 0.04888248 -0.15156655 -0.009678379 0.0019548982 0.18756172 -0.121754885 -0.07277322
0.13973475 0.0024963021 -0.16816825 0.007199362 -0.013150677 -0.1501445 0.078130126 -0.15134953
-0.19556531 -0.035664827 -0.10451071 0.111531466 -0.06879387 -0.15971392 -0.13571188 0.1588387
0.06360286 0.18163683 -0.106292136 0.019136518 0.1226117 0.12795252 0.17417127 0.08824569

decoder.0.bias f4 [8]
00000000: 29d9 a73d bfe0 ac3d d856 54bd 3cac de3d
00000010: cd77 e2bd 1946 cbbd 2207 b0bd 1770 1cbe
0.08195717 0.084413044 -0.051840633 0.10872695 -0.110580064 -0.099254794 -0.085951105 -0.15277134

decoder.3.weight f4 [16, 8, 3]
00000000: 9454 6fbd 03e3 163e 3cb3 1fbe 90eb bf3c
00000010: 53f3 2abe edf2 1b3e f6a3 1abe 6876 06bd
00000020: d0a9 153c 31e5 9bbd 3d92 1ebe 064d 8abc
00000030: 04a5 cfbd 9596 61bd d5ef f9bc 394d dfbd
00000040: 2a1b e8bd b6b0 d1bd fed6 fbbd c019 86bb
00000050: f0c2 083d f44f cdbd 7648 85bd eac0 4a3e
00000060: 959c e93c be18 913e 2ccc 613e ca2f 223e
00000070: dee0 733c c24a aa3b 9a9a 1abe 1224 83bd
00000080: ee81 30be a2c5 023e 1d81 30be 98f2 b2bd
00000090: bc2e f5bd 2971 953e 8a79 bc3d 8322 e3bd
000000a0: f016 603c 8211 05be b544 fdbd e23b 653d
000000b0: 2f49 5b3b 22b3 dcbd 9454 10be 30a2 0fbe
000000c0: 7b8c d5bd 2216 263e 2eb9 9f3d dcb4 f6bd
000000d0: dafe 643e 8e6a 123d 480e 103e 865e 0fbe
000000e0: e8a5 dc3d e49a 97bd 463a 18be 5f69 3ebe
000000f0: 33cc de3d 3bf5 113d aa51 4bbd 1f42 27be
00000100: bc2c 143e e9eb 32be 4a05 c93d 2236 883e
00000110: 7c8b 90bd 640f cb3d 07e6 bc3d 3676 143e
00000120: 80b8 253d acd5 7c3e 2ecd 243e 1b6d 203e
00000130: 0249 5fbd 9db5 c63c c034 313c c022 ce3d
00000140: 91a3 e4bd d42a 293e eb41 5cbe 4ca6 0cbe
00000150: 660b febd 880b 0c3d 4d41 803e bcc0 13be
00000160: 7675 bfbd afff 15be cdd6 72bd 7ff6 4c3e
00000170: 2aab 463e e8ff 2f3e 7f51 48be 631d e4bd
00000180: e58b d6bc 0fb9 453e 906c 03be 379a 6d3d
00000190: 12b8 6abd 3a51 293e 1201 4b3e 8afd 473e
000001a0: 56ed 95bd dbe7 3a3d 973b 9d3d 6b68 fc3d
000001b0: 8875 313e d510 a63e 0c04 31bd 7e25 003e
000001c0: 32a0 1d3e bcce 903d 9139 fa3c 9d3a 823d
000001d0: d64c 9f3d a6a2 eabd 6405 363e 526e 2f3e
000001e0: 0ca6 293e 735e 653e 8d7b 0c3d 40ca 393e
000001f0: 508b 83bd 3852 01be 31ae d8bd 26aa 33be
00000200: d2bd 94bd e485 5ebd 8654 6ebd 118d 2a3c
00000210: e9f2 103d 2d7c 8bbd b6d5 e43d 8ae0 bebd
00000220: a4c0 193e 809c 24bb d7dd ed3d ca7a cabc
00000230: e206 283d 48b1 ffbd 72fd 32be a6d4 5d3d
00000240: a3e8 59bd 5aea 4dbe 06c5 af3d 1f6c 7a3d
00000250: 9738 1abe 0df7 763d 34e5 9c3d a4cd 1c3e
00000260: 9035 9abd ac97 233e 518a b4bd 4fd7 893e
00000270: 21b7 fd3d 87ac a9bd 7182 233d bcff 4ebe
00000280: d4c7 96bd 1c8d 0e3e e6fd 663e 52a1 c83d
00000290: c250 3fbe f1f3 7cbc 57eb 413e c28e 1b3d
000002a0: e2cf cfbd 9e51 7f3e 164e 19be 2ae7 33bc
000002b0: 88cd 2a3e 785a e7bc ce52 b0bd 07a9 b7bd
000002c0: c2bf 25be 94ab e33a 8c65 81be c66e 23be
000002d0: b34c 85bb ff85 883e 3401 c73d 3a96 48be
000002e0: dcb3 0c3e 64f3 50bd 2ea4 d9bc eabf 6d3e
000002f0: be2f 893c e659 193e 84e9 08bd c0dc 583e
00000300: 6e60 debd 9991 083e 497b 2dba f631 063c
00000310: f11c 4ebe 7f8c 30be c4d5 d53d af78 4bbe
00000320: 3cb5 d83d d06f 1f3e b0cb 853e 4490 c2bc
00000330: 5114 edbd cc22 ba3c 904b bebd 440b 18bd
00000340: a1b2 42be 928d 3b3e 8804 2dbe b68e a1bd
00000350: 4274 f8bd f225 9dbd a23d 113e 406e 833b
00000360: e40b ce3d 9528 b7bd 7aa5 1abe 882b 0f3d
00000370: c4d4 ed3d 39ee f7bd f8dc f7bc 74ad 9c3d
00000380: 1c82 343e 957b 4ebe f0e4 eebd db7e a2bd
00000390: b47e 42bd 5c63 11bd b0cf 993d 14b6 d6bd
000003a0: 68c9 a53d 98e0 07bd 2042 a63d 9887 ad3c
000003b0: a478 4ebe f026 873d 540f 83bd c253 163e
000003c0: 0f72 29be 22b6 603e 5373 0a3e 4742 90bd
000003d0: d844 5f3d 9923 033e b8cd 773d 402c df3d
000003e0: ad57 3cbe b9e7 543c ba5b 0ebe 1b4b 6bbe
000003f0: 7642 84be a1b2 d0bd 24b7 2b3e 7917 d2bd
-0.05843027 0.14735036 -0.15595716 0.023427755 -0.16694383 0.15229388 -0.15101609 -0.032827765
0.009134725 -0.07612074 -0.15485473 -0.01688243 -0.10138896 -0.055075247 -0.030509869 -0.10903401
-0.11333306 -0.10238783 -0.12296866 -0.004092425 0.033389032 -0.100250155 -0.065079615 0.19800153
0.028517047 0.2833919 0.22050542 0.15838543 0.0148851555 0.0051969 -0.15098038 -0.06403364
-0.17237064 0.12770703 -0.17236753 -0.08737677 -0.119718045 0.29187897 0.09202869 -0.11090567
0.013677344 -0.1299496 -0.123666205 0.05596531 0.003346037 -0.10776354 -0.14094764 -0.14026713
-0.10427185 0.1621938 0.07798992 -0.12046215 0.22362843 0.03574615 0.14067948 -0.14000902
0.107738316 -0.0740259 -0.1486598 -0.18594883 0.10878792 0.03563426 -0.049638428 -0.16333817
0.1447019 -0.17472805 0.09815462 0.266038 -0.070578545 0.09915045 0.09223562 0.14498219
0.040459156 0.24690884 0.16093895 0.1566662 -0.054512985 0.024256522 0.010815799 0.10065222
-0.1116401 0.16520244 -0.2150952 -0.13735312 -0.12404518 0.034190685 0.2504982 -0.14428991
-0.09348576 -0.14648317 -0.05928688 0.20015906 0.19401231 0.17187464 -0.19562338 -0.111384176
-0.026189754 0.19308876 -0.12834382 0.0580084 -0.05730445 0.16534892 0.19824627 0.19530311
-0.07320659 0.04563127 0.076773815 0.12324604 0.17329991 0.32434717 -0.04321675 0.12514302
0.15393141 0.070706815 0.030545028 0.06358836 0.07778327 -0.11456804 0.17775494 0.17131928
0.16567248 0.22399311 0.034297515 0.18143559 -0.06423056 -0.1262902 -0.105800994 -0.17545375
-0.07262768 -0.054326907 -0.058186077 0.010409609 0.035387907 -0.06810794 0.111735746 -0.09320171
0.15014893 -0.0025117695 0.11614578 -0.024716754 0.04102219 -0.124849856 -0.17479494 0.054157875
-0.053200375 -0.2010893 0.08582501 0.06113827 -0.1506065 0.0602942 0.076609045 0.1531282
-0.075297475 0.15975827 -0.08815444 0.2692208 0.12388445 -0.0828486 0.03991932 -0.20214742
-0.07362333 0.13921016 0.22557792 0.097963944 -0.1868315 -0.01543902 0.18937431 0.03797794
-0.101470724 0.24933478 -0.14971194 -0.010980407 0.16679966 -0.028241381 -0.08609544 -0.08967786
-0.16186431 0.001736986 -0.25272787 -0.15960225 -0.004067981 0.2666473 0.09717026 -0.19588557
0.13740486 -0.051013365 -0.026567545 0.2321774 0.016746398 0.149757 -0.033425823 0.2117796
-0.10858236 0.13336791 -0.0006617797 0.008190623 -0.20128228 -0.17241095 0.10441163 -0.19870256
0.10581443 0.15569997 0.26131964 -0.023750432 -0.11576141 0.02272167 -0.09291756 -0.03712012
-0.19013454 0.18315724 -0.1689626 -0.07888548 -0.121315494 -0.07673253 0.14183667 0.0040109456
0.10060862 -0.08943287 -0.15102187 0.034953624 0.116128474 -0.12105984 -0.030256733 0.07650271
0.17627758 -0.2016433 -0.1166476 -0.07934352 -0.047484115 -0.035495147 0.07510316 -0.104839474
0.08095056 -0.033173174 0.08118081 0.02118282 -0.20163208 0.065992236 -0.06399408 0.14680389
-0.16547416 0.21944478 0.13520555 -0.070438914 0.054509014 0.12806548 0.060498923 0.10897112
-0.1839282 0.0129947 -0.13902178 -0.22977869 -0.25831956 -0.10190321 0.16769081 -0.10258383

decoder.3.bias f4 [16]
00000000: b416 eebc 346e 223e fd4b f43d 04b0 94bd
00000010: 6345 983d dede 263e 6a82 113e 8786 943b
00000020: 64bf df3d 1496 25be 3f09 9cbd 8c36 5fbd
00000030: ccf5 883d eb63 51be 1a6a bcbd a0ed 2cbe
-0.02906356 0.15862352 0.11928556 -0.07260135 0.074351095 0.16295955 0.14209905 0.0045326385
0.10925177 -0.16170532 -0.07618951 -0.05449538 0.06687507 -0.20448272 -0.09199925 -0.16887522

decoder.6.weight f4 [3, 16, 3]
00000000: ce5f 59bd eaa1 03bd c2db c1bc 5659 563d
00000010: 9e42 e43d 3fa0 673d b621 d53d c6c3 913d
00000020: ace1 0d3e 5950 5e3d 4f02 f63c 9b00 f83b
00000030: 3bbf adbb 3d1c d5bb 6c31 c23d e283 94bd
00000040: 9706 123e 6038 de3d d7d2 f73b e89b 913d
00000050: fcbb 61bd 19c5 193e 2229 653e 6819 243e
00000060: 2059 2dbe 6073 65bd fc72 f4bd 7821 4cbd
00000070: 12f4 903d 000e 743b c844 ed3d 6bf3 303e
00000080: 3bbb f93d 5706 0fbd 8a61 963d baa2 b93d
00000090: afff 4b3e b289 42bd a7a0 5a39 c622 91bd
000000a0: 8e75 92bd 5a14 c63d 412f ce3c 254f 113e
000000b0: 4b9c ad3e 8ea0 bcbd 0040 093b 600e 09bc
000000c0: 2243 273e 5477 94bd 1398 053e a343 2d3e
000000d0: 77cf ab3c 7eee 373c 0e5d fe3d f19a 28bc
000000e0: 7597 153e 8f7a 073e 1b3d 10bc 7e27 033e
000000f0: a34c 243c 51a5 ca3d 679a 953d fc2a fd3d
00000100: 81cb 4b3d ee13 bc3d 7d5d 9cbd fb23 9abd
00000110: dcec 8fbc 511a 9f3d 6e4a 893d 281b bdbc
00000120: f1d0 efbd bbf9 cabd 7f0e 9dbd 845d 4c3d
00000130: b60f f5bd 433a 11be a905 9e3e ad76 003e
00000140: 37e4 abbd d4e8 f4bd f12a 17bc 4e14 113d
00000150: 9ba8 413e d267 f23b 6e85 cb3d a709 073e
00000160: 6124 e2bd bded 853d 5ce5 dcbd 0faa dd3d
00000170: 212c b83e 38e3 abbd b408 23bd 3cf2 ea3d
00000180: cfe9 a13d d74f b6bd 65c3 0e3e 5e80 133e
00000190: c217 51bc 6433 153e 1a5e 2e3e eb00 6e3d
000001a0: 9062 4fbd 970e b83d eddc 043e 09dc 83bb
000001b0: 97f3 63bc 67c1 503d fb23 353b 1b92 08bd
000001c0: 79f3 203e c809 45bd 28c6 f3bd 05a6 7ebc
000001d0: f492 d3bc eb60 fd3d 52ad 5a3e 68bb 103e
000001e0: c529 75be f7e5 86bc 2fd8 bcbc 38fb 193d
000001f0: 4805 743d 60b3 9bbb 7fb5 b63d 5525 453e
00000200: 106f 293e b566 1cbd c0a4 e13d 048d ec3d
00000210: 11f6 e43d e277 553d 14fd 0e3e 3776 30bd
00000220: d70b 843c 210e bdbd 4df8 2bbd cce9 df3d
00000230: 8df0 683e 8180 0bbe 10ad cf3d 06fc 003e
-0.053069882 -0.032136835 -0.023664359 0.05233129 0.11145519 0.056549307 0.104068205 0.07117419
0.13855618 0.054275844 0.030030398 0.0075684316 -0.0053023375 -0.0065036104 0.09482083 -0.07251717
0.14260326 0.108505964 0.007562976 0.07109815 -0.055110916 0.15016593 0.22378972 0.16025317
-0.1692853 -0.056018233 -0.11935994 -0.049836606 0.07077803 0.003723979 0.115853846 0.17280357
0.121939145 -0.034918156 0.07342823 0.09064241 0.19921754 -0.047494598 0.00020849948 -0.07086711
-0.07151328 0.096718505 0.025169017 0.14190347 0.33908305 -0.09210311 0.0020942688 -0.008365244
0.16334203 -0.072493225 0.13046293 0.16920333 0.02097295 0.011226295 0.124200925 -0.010290847
0.14608558 0.13230346 -0.008803631 0.12808034 0.010028037 0.09894813 0.073048405 0.12361714
0.049754623 0.09183489 -0.07635019 -0.07526394 -0.017568998 0.07768691 0.067036495 -0.023084238
-0.11709774 -0.099109136 -0.076687805 0.04989387 -0.11965887 -0.14182381 0.30863693 0.12545271
-0.08393138 -0.11958471 -0.009226547 0.035419755 0.18911974 0.0073976303 0.09937559 0.13187276
-0.11042095 0.065394856 -0.10785934 0.10823452 0.35971168 -0.08392948 -0.03980322 0.11471984
0.079059236 -0.08901947 0.13941725 0.14404437 -0.012762012 0.14570385 0.17028084 0.058106344
-0.050631106 0.08987158 0.12974901 -0.004024033 -0.013913057 0.050965693 0.0027639854 -0.033342462
0.15717877 -0.04810503 -0.1190303 -0.015542512 -0.025826909 0.12372001 0.21355179 0.1413399
-0.23941715 -0.016467078 -0.023052303 0.037593096 0.05957535 -0.004751608 0.089213364 0.19252522
0.16546273 -0.038183887 0.11017752 0.11550334 0.11179746 0.052116282 0.13963729 -0.04308149
0.016118927 -0.092312105 -0.041984845 0.10933265 0.22748013 -0.13623239 0.10140431 0.1259614

decoder.6.bias f4 [3]
00000000: 1c70 04bd 93a1 39bd c572 033b
-0.03233348 -0.045320105 0.0020057422

exp_avg f4 [16, 1, 1]
00000000: 7031 36b8 0000 0000 28ae ceb7 0000 0000
00000010: d099 15b8 0000 0000 0000 0000 0000 0000
00000020: 0000 0000 6ca7 78b8 0000 0000 a83d e537
00000030: 0000 0000 b069 c1b8 305f 7238 301e 36b7
-4.3438224e-05 0.0 -2.4638211e-05 0.0 -3.5667617e-05 0.0 0.0 0.0
0.0 -5.928373e-05 0.0 2.7327638e-05 0.0 -9.222643e-05 5.7785946e-05 -1.0855074e-05

exp_avg_sq f4 [16, 1, 1]
00000000: f9be 0038 0000 0000 e991 1635 0000 0000
00000010: a8a4 7c37 0000 0000 0000 0000 0000 0000
00000020: 0000 0000 ce74 0e36 0000 0000 79ce 0536
00000030: 0000 0000 a33a b338 377e aa37 8b4e 2736
3.0695435e-05 0.0 5.609168e-07 0.0 1.50587075e-05 0.0 0.0 0.0
0.0 2.1227638e-06 0.0 1.9938727e-06 0.0 8.546307e-05 2.0324353e-05 2.4930657e-06

exp_avg f4 [16]
00000000: acde 4fba 0000 0000 a269 0bb9 0000 0000
00000010: d83a 52ba 0000 0000 0000 0000 0000 0000
00000020: 0000 0000 c2ac b739 0000 0000 9838 9a39
00000030: 0000 0000 90ab ebba 341a 563a c62a 83b9
-0.0007929604 0.0 -0.00013295424 0.0 -0.00080196327 0.0 0.0 0.0
0.0 0.00035033195 0.0 0.00029415335 0.0 -0.0017980207 0.0008167357 -0.00025018136

exp_avg_sq f4 [16]
00000000: 3cdc b039 0000 0000 f790 e136 0000 0000
00000010: 5bec 4c39 0000 0000 0000 0000 0000 0000
00000020: 0000 0000 ee01 eb37 0000 0000 a3d2 db37
00000030: 0000 0000 3b08 7d3a 58e1 8639 fda6 e737
0.00033733423 0.0 6.7223987e-06 0.0 0.00019543005 0.0 0.0 0.0
0.0 2.8015082e-05 0.0 2.620492e-05 0.0 0.00096524105 0.00025726366 2.7615106e-05

exp_avg f4 [8, 16, 3]
00000000: 65cd f801 75c1 3302 0400 0000 0000 0000
00000010: 0000 0000 0000 0000 f89d 9802 3b6c b202
00000020: 0400 0000 0000 0000 0000 0000 0000 0000
00000030: 389b d301 6dd8 2302 0400 0000 0000 0000
00000040: 0000 0000 0000 0000 0000 0000 0000 0000
00000050: 0000 0000 0000 0000 0000 0000 0000 0000
00000060: 0000 0000 0000 0000 0000 0000 8073 b701
00000070: b59f c101 0400 0000 0000 0000 0000 0000
00000080: 0000 0000 d9d1 e401 8b7f ed01 0400 0000
00000090: 0000 0000 0000 0000 0000 0000 61ed 1800
000000a0: c0f4 f000 0400 0000 e403 ce01 d35d d601
000000b0: 0400 0000 f791 5301 429f 7301 0400 0000
000000c0: 0400 0000 0400 0000 0000 0000 0000 0000
000000d0: 0000 0000 0000 0000 0400 0000 0400 0000
000000e0: 0000 0000 0000 0000 0000 0000 0000 0000
000000f0: 0400 0000 0400 0000 0000 0000 0000 0000
00000100: 0000 0000 0000 0000 0000 0000 0000 0000
00000110: 0000 0000 0000 0000 0000 0000 0000 0000
00000120: 0000 0000 0000 0000 0000 0000 0400 0000
00000130: 0400 0000 0000 0000 0000 0000 0000 0000
00000140: 0000 0000 0400 0000 0400 0000 0000 0000
00000150: 0000 0000 0000 0000 0000 0000 0400 0000
00000160: 0400 0000 0000 0000 0400 0000 0400 0000
00000170: 0000 0000 0400 0000 0400 0000 0000 0000
00000180: f0d9 a3b9 20fa d0b9 087a d4b9 0000 0000
00000190: 0000 0000 0000 0000 ee61 99ba 44ee a2ba
000001a0: 5ec2 a3ba 0000 0000 0000 0000 0000 0000
000001b0: 9041 61b9 004c a0b9 14f3 a3b9 0000 0000
000001c0: 0000 0000 0000 0000 0000 0000 0000 0000
000001d0: 0000 0000 0000 0000 0000 0000 0000 0000
000001e0: 0000 0000 0000 0000 0000 0000 d6bc cdb9
000001f0: 9a23 d1b9 e88b d1b9 0000 0000 0000 0000
00000200: 0000 0000 f88b edb9 8c71 f9b9 e059 e8b9
00000210: 0000 0000 0000 0000 0000 0000 6038 ed38
00000220: 883e 9038 64ea 8c38 7caa d4b9 d234 e0b9
00000230: d40e d0b9 e820 5ab9 a005 66b9 3813 67b9
00000240: 0400 0000 0400 0000 0400 0000 0000 0000
00000250: 0000 0000 0000 0000 0400 0000 0400 0000
00000260: 0400 0000 0000 0000 0000 0000 0000 0000
00000270: 0400 0000 0400 0000 0400 0000 0000 0000
00000280: 0000 0000 0000 0000 0000 0000 0000 0000
00000290: 0000 0000 0000 0000 0000 0000 0000 0000
000002a0: 0000 0000 0000 0000 0000 0000 0400 0000
000002b0: 0400 0000 0400 0000 0000 0000 0000 0000
000002c0: 0000 0000 0400 0000 0400 0000 0400 0000
000002d0: 0000 0000 0000 0000 0000 0000 0400 0000
000002e0: 0400 0000 0400 0000 0400 0000 0400 0000
000002f0: 0400 0000 0400 0000 0400 0000 0400 0000
00000300: 58c5 bdb9 8419 c2b9 7859 49b9 0000 0000
00000310: 0000 0000 0000 0000 2466 74ba 2073 76ba
00000320: d88d 50ba 0000 0000 0000 0000 0000 0000
00000330: 1caa 9eb9 6c2e a3b9 3025 00b9 0000 0000
00000340: 0000 0000 0000 0000 0000 0000 0000 0000
00000350: 0000 0000 0000 0000 0000 0000 0000 0000
00000360: 0000 0000 0000 0000 0000 0000 a80b 94b9
00000370: c88c 94b9 04d7 8eb9 0000 0000 0000 0000
00000380: 0000 0000 2c19 9db9 6af9 8eb9 bcb5 c4b9
00000390: 0000 0000 0000 0000 0000 0000 4075 2e37
000003a0: 407b e136 9e0e d038 9280 8cb9 38ec 7db9
000003b0: f0f4 b1b9 ccd5 2ab9 ec23 2cb9 acbc 14b9
000003c0: 68af 06b9 00c9 7cb9 30b7 b338 0000 0000
000003d0: 0000 0000 0000 0000 5008 87b9 78f7 beb9
000003e0: f081 25b9 0000 0000 0000 0000 0000 0000
000003f0: 30e5 f4b8 80b0 75b9 403e fb38 0000 0000
9.139554e-38 1.3206362e-37 6e-45 0.0 0.0 0.0 2.2425062e-37 2.621687e-37
6e-45 0.0 0.0 0.0 7.7731887e-38 1.203746e-37 6e-45 0.0
0.0 0.0 0.0 0.0 0.0 0.0 0.0 0.0
0.0 0.0 0.0 6.738932e-38 7.112617e-38 6e-45 0.0 0.0
0.0 8.405509e-38 8.7243066e-38 6e-45 0.0 0.0 0.0 2.289207e-39
2.2128319e-38 6e-45 7.567803e-38 7.8745816e-38 6e-45 3.8859304e-38 4.4746313e-38 6e-45
6e-45 6e-45 0.0 0.0 0.0 0.0 6e-45 6e-45
0.0 0.0 0.0 0.0 6e-45 6e-45 0.0 0.0
0.0 0.0 0.0 0.0 0.0 0.0 0.0 0.0
0.0 0.0 0.0 6e-45 6e-45 0.0 0.0 0.0
0.0 6e-45 6e-45 0.0 0.0 0.0 0.0 6e-45
6e-45 0.0 6e-45 6e-45 0.0 6e-45 6e-45 0.0
-0.0003125216 -0.0003985921 -0.0004052671 0.0 0.0 0.0 -0.0011702159 -0.0012430628
-0.0012493839 0.0 0.0 0.0 -0.00021482096 -0.00030574203 -0.0003127089 0.0
0.0 0.0 0.0 0.0 0.0 0.0 0.0 0.0
0.0 0.0 0.0 -0.0003924134 -0.00039890112 -0.00039967825 0.0 0.0
0.0 -0.00045308447 -0.0004757758 -0.0004431745 0.0 0.0 0.0 0.00011311541
6.8781024e-05 6.719379e-05 -0.00040562812 -0.00042763964 -0.000396839 -0.00020802359 -0.00021936605 -0.00022037036
6e-45 6e-45 6e-45 0.0 0.0 0.0 6e-45 6e-45
6e-45 0.0 0.0 0.0 6e-45 6e-45 6e-45 0.0
0.0 0.0 0.0 0.0 0.0 0.0 0.0 0.0
0.0 0.0 0.0 6e-45 6e-45 6e-45 0.0 0.0
0.0 6e-45 6e-45 6e-45 0.0 0.0 0.0 6e-45
6e-45 6e-45 6e-45 6e-45 6e-45 6e-45 6e-45 6e-45
-0.00036195922 -0.00037021574 -0.00019202183 0.0 0.0 0.0 -0.00093230815 -0.000940131
-0.00079557067 0.0 0.0 0.0 -0.0003026285 -0.0003112437 -0.00012220885 0.0
0.0 0.0 0.0 0.0 0.0 0.0 0.0 0.0
0.0 0.0 0.0 -0.00028237444 -0.0002833365 -0.0002724455 0.0 0.0
0.0 -0.00029964128 -0.00027270179 -0.00037519436 0.0 0.0 0.0 1.0398508e-05
6.7198707e-06 9.9209356e-05 -0.00026798673 -0.00024215959 -0.00033942563 -0.00016292109 -0.0001641658 -0.00014184666
-0.0001284458 -0.00024107471 8.5695065e-05 0.0 0.0 0.0 -0.000257554 -0.00036424003
-0.00015784032 0.0 0.0 0.0 -0.00011677516 -0.00023430772 0.00011980208 0.0

exp_avg_sq f4 [8, 16, 3]
00000000: 1cb7 eb2f 1095 8130 a5e8 602f 0000 0000
00000010: 0000 0000 0000 0000 2429 ee30 fe98 7931
00000020: 1ce4 4830 0000 0000 0000 0000 0000 0000
00000030: 39b2 cb2f 7f31 6330 b37b 492f 0000 0000
00000040: 0000 0000 0000 0000 0000 0000 0000 0000
00000050: 0000 0000 0000 0000 0000 0000 0000 0000
00000060: 0000 0000 0000 0000 0000 0000 97b4 cd2e
00000070: be86 592f 75f2 302e 0000 0000 0000 0000
00000080: 0000 0000 3dbb b02e daaa ca2f 50c0 aa2d
00000090: 0000 0000 0000 0000 0000 0000 b111 782a
000000a0: f37f 8d2b ea8f 0d2b 7369 362e e042 6f2f
000000b0: 8d83 1d2d ddd6 672e 5cc4 e42e f3fe a62d
000000c0: ac01 862c 0cd5 842c 0000 0000 0000 0000
000000d0: 0000 0000 0000 0000 947f 8a2d 22f7 892d
000000e0: 0000 0000 0000 0000 0000 0000 0000 0000
000000f0: 78c9 662c 116d 642c 0000 0000 0000 0000
00000100: 0000 0000 0000 0000 0000 0000 0000 0000
00000110: 0000 0000 0000 0000 0000 0000 0000 0000
00000120: 0000 0000 0000 0000 0000 0000 59e2 822b
00000130: 5d8f 822b 0000 0000 0000 0000 0000 0000
00000140: 0000 0000 45bf 412b 385f f02b 0000 0000
00000150: 0000 0000 0000 0000 0000 0000 6c77 4327
00000160: 5967 3127 0000 0000 b09c c12a 2d25 8d2b
00000170: 0000 0000 9e25 f82a 3b02 f82a 0000 0000
00000180: 965c 2939 fe4b 2939 2d5d 2939 0000 0000
00000190: 0000 0000 0000 0000 0394 343a 728d 343a
000001a0: e593 343a 0000 0000 0000 0000 0000 0000
000001b0: e0c6 0939 68b6 0939 cbc7 0939 0000 0000
000001c0: 0000 0000 0000 0000 0000 0000 0000 0000
000001d0: 0000 0000 0000 0000 0000 0000 0000 0000
000001e0: 0000 0000 0000 0000 0000 0000 484b 5b38
000001f0: 044c 5b38 9150 5b38 0000 0000 0000 0000
00000200: 0000 0000 6352 3d38 f422 3538 91d5 3938
00000210: 0000 0000 0000 0000 0000 0000 c702 7c36
00000220: 0da0 7b36 584e 7c36 04a5 1338 47b1 0c38
00000230: e4ab 1038 ee33 ac37 6d2e ac37 c133 ac37
00000240: 4bf8 8a2e 090e 8b2e 1a4d b62d 0000 0000
00000250: 0000 0000 0000 0000 214c 842f 7ead 832f
00000260: 40f2 c02e 0000 0000 0000 0000 0000 0000
00000270: b520 742e 50a5 742e 9f68 9b2d 0000 0000
00000280: 0000 0000 0000 0000 0000 0000 0000 0000
00000290: 0000 0000 0000 0000 0000 0000 0000 0000
000002a0: 0000 0000 0000 0000 0000 0000 5a6c 5b2d
000002b0: 3aca 592d 79b0 a92c 0000 0000 0000 0000
000002c0: 0000 0000 c1b0 262d 01c0 a52d 4e06 a12c
000002d0: 0000 0000 0000 0000 0000 0000 643e 1b29
000002e0: a596 3a29 179a 3627 3e61 a82c 1f8b 3e2d
000002f0: e3a6 282c 05b7 fd2c 4cf5 fb2c 138d 402c
00000300: 2f79 9b38 d618 9b38 014b 9b38 0000 0000
00000310: 0000 0000 0000 0000 9eca ab39 cc9b ab39
00000320: 97b6 ab39 0000 0000 0000 0000 0000 0000
00000330: 28df 7a38 f628 7a38 6386 7a38 0000 0000
00000340: 0000 0000 0000 0000 0000 0000 0000 0000
00000350: 0000 0000 0000 0000 0000 0000 0000 0000
00000360: 0000 0000 0000 0000 0000 0000 4499 d337
00000370: 0483 d337 e790 d337 0000 0000 0000 0000
00000380: 0000 0000 36b3 bf37 d7da bc37 028d c537
00000390: 0000 0000 0000 0000 0000 0000 2e9c cf35
000003a0: c309 ce35 95c3 ce35 e61b 9537 dcb0 9237
000003b0: 0211 9a37 2c38 2537 f610 2537 f326 2537
000003c0: a19d ba38 e6ba ba38 93c2 ab38 0000 0000
000003d0: 0000 0000 0000 0000 29c5 b339 f8ca b339
000003e0: b56b a539 0000 0000 0000 0000 0000 0000
000003f0: 4e2c 9c38 0c4d 9c38 f8bb 8f38 0000 0000
4.2876358e-10 9.428351e-10 2.0455333e-10 0.0 0.0 0.0 1.7328472e-09 3.6321235e-09
7.308374e-10 0.0 0.0 0.0 3.705212e-10 8.2652457e-10 1.832479e-10 0.0
0.0 0.0 0.0 0.0 0.0 0.0 0.0 0.0
0.0 0.0 0.0 9.3544e-11 1.9783905e-10 4.0233112e-11 0.0 0.0
0.0 8.0368136e-11 3.6864983e-10 1.9412166e-11 0.0 0.0 0.0 2.2032963e-13
1.0054166e-12 5.0292984e-13 4.1475667e-11 2.1760682e-10 8.953627e-12 5.2714156e-11 1.040312e-10 1.8985235e-11
3.8086947e-12 3.7753186e-12 0.0 0.0 0.0 0.0 1.574544e-11 1.5684846e-11
0.0 0.0 0.0 0.0 3.2796803e-12 3.2461293e-12 0.0 0.0
0.0 0.0 0.0 0.0 0.0 0.0 0.0 0.0
0.0 0.0 0.0 9.29988e-13 9.276847e-13 0.0 0.0 0.0
0.0 6.8832814e-13 1.7079454e-12 0.0 0.0 0.0 0.0 2.7126425e-15
2.461971e-15 0.0 3.439241e-13 1.0028971e-12 0.0 4.4079752e-13 4.4055197e-13 0.0
0.00016151587 0.00016145405 0.00016151807 0.0 0.0 0.0 0.00068885105 0.0006887532
0.0006888493 0.0 0.0 0.0 0.00013139425 0.0001313329 0.00013139767 0.0
0.0 0.0 0.0 0.0 0.0 0.0 0.0 0.0
0.0 0.0 0.0 5.228378e-05 5.2284464e-05 5.2288702e-05 0.0 0.0
0.0 4.513784e-05 4.3186315e-05 4.4306336e-05 0.0 0.0 0.0 3.7552543e-06
3.7495076e-06 3.7596528e-06 3.5201214e-05 3.3543703e-05 3.449236e-05 2.052818e-05 2.0525616e-05 2.0528098e-05
6.319619e-11 6.323481e-11 2.0725244e-11 0.0 0.0 0.0 2.4064753e-10 2.3952035e-10
8.7741814e-11 0.0 0.0 0.0 5.5508226e-11 5.5626004e-11 1.7667921e-11 0.0
0.0 0.0 0.0 0.0 0.0 0.0 0.0 0.0
0.0 0.0 0.0 1.2472768e-11 1.2379925e-11 4.8228613e-12 0.0 0.0
0.0 9.475255e-12 1.8843595e-11 4.576595e-12 0.0 0.0 0.0 3.447103e-14
4.143096e-14 2.5341106e-15 4.7856432e-12 1.0831141e-11 2.3966877e-12 7.2110117e-12 7.1610825e-12 2.7363153e-12
7.413548e-05 7.395602e-05 7.4049465e-05 0.0 0.0 0.0 0.00032766623 0.0003273174
0.00032751702 0.0 0.0 0.0 5.9812475e-05 5.9642793e-05 5.9729802e-05 0.0
0.0 0.0 0.0 0.0 0.0 0.0 0.0 0.0
0.0 0.0 0.0 2.522453e-05 2.5214169e-05 2.5220636e-05 0.0 0.0
0.0 2.2852426e-05 2.2513252e-05 2.3549892e-05 0.0 0.0 0.0 1.5468156e-06
1.5351037e-06 1.5405118e-06 1.7775175e-05 1.7486913e-05 1.836615e-05 9.847845e-06 9.838715e-06 9.843835e-06
8.898532e-05 8.903984e-05 8.190158e-05 0.0 0.0 0.0 0.00034288436 0.00034292764
0.000315515 0.0 0.0 0.0 7.446912e-05 7.453011e-05 6.853783e-05 0.0

exp_avg f4 [8]
00000000: a815 8a02 0400 0000 403c a7ba 0400 0000
00000010: 7ccd 63ba b82a 52b9 0400 0000 0000 0000
2.0289708e-37 6e-45 -0.0012759045 6e-45 -0.00086899824 -0.00020043075 6e-45 0.0

exp_avg_sq f4 [8]
00000000: b2fa 1731 0635 332d 8fcc e839 af27 1e2f
00000010: fea0 6439 2252 5539 ca4a b828 0000 0000
2.2115896e-09 1.01867455e-11 0.00044402896 1.4384115e-10 0.00021803749 0.0002034386 2.0460538e-14 0.0

exp_avg f4 [8, 8, 3]
00000000: 0400 0080 361a 7801 4050 c201 0000 0000
00000010: 0400 0080 0400 0080 f07d c939 2099 2839
00000020: 36ab 703a 0400 0080 0400 0080 0400 0080
00000030: b008 3639 b07e 0039 e432 0c3a d0c5 d439
00000040: 6096 a138 24ff 1d3a 0000 0000 0400 0080
00000050: 0400 0080 0000 0000 0000 0000 0000 0000
00000060: 0400 0080 3f7c 7600 bcbd 1601 0000 0000
00000070: 0400 0080 0400 0080 7022 9838 a072 9fb7
00000080: 482a a039 0400 0080 0400 0080 0400 0080
00000090: c804 e6b8 8c3c 09b9 a0b0 a638 605b f937
000000a0: 9075 fab8 84e8 2739 0000 0000 0400 0080
000000b0: 0400 0080 0000 0000 0000 0000 0000 0000
000000c0: 0000 0000 0000 0000 0000 0000 0000 0000
000000d0: 0000 0000 0000 0000 0000 0000 0000 0000
000000e0: 0000 0000 0000 0000 0000 0000 0000 0000
000000f0: 0000 0000 0000 0000 0000 0000 0000 0000
00000100: 0000 0000 0000 0000 0000 0000 0000 0000
00000110: 0000 0000 0000 0000 0000 0000 0000 0000
00000120: 0000 0000 96e6 9681 0000 0000 0000 0000
00000130: 0400 0000 0000 0000 bab9 36b9 20c3 8638
00000140: 08cd 5738 0000 0000 0400 0000 0000 0000
00000150: ae6a b039 0498 fd39 f6c9 233a b0c9 0138
00000160: 740f 4f39 1669 b539 0000 0000 0000 0000
00000170: 0000 0000 0000 0000 0000 0000 0000 0000
00000180: 0000 0000 e8e6 9301 e425 cc01 0000 0000
00000190: 0000 0000 0000 0000 6c95 f938 fa14 4b39
000001a0: e00c 5538 0000 0000 0400 0000 0000 0000
000001b0: f8d9 3939 38f8 b738 c0e5 b637 cbc5 8239
000001c0: 605d b138 0024 b9b4 0000 0000 0400 0000
000001d0: 0000 0000 0000 0000 0000 0000 0000 0000
000001e0: 0000 0000 0000 0000 0000 0000 0000 0000
000001f0: 0000 0000 0000 0000 0000 0000 0000 0000
00000200: 0000 0000 0000 0000 0000 0000 0000 0000
00000210: 0000 0000 0000 0000 0000 0000 0000 0000
00000220: 0000 0000 0000 0000 0000 0000 0000 0000
00000230: 0000 0000 0000 0000 0000 0000 0000 0000
00000240: 0000 0000 87b2 3501 0898 8001 0000 0000
00000250: 0000 0000 0000 0000 28b3 4a39 20a0 1538
00000260: 1c7d af39 0000 0000 0000 0000 0000 0000
00000270: 608a 4bb9 9ca7 ceb9 38e7 57b9 308a c138
00000280: c846 69b9 404f d037 0000 0000 0000 0000
00000290: 0000 0000 0000 0000 0000 0000 0000 0000
000002a0: 0000 0000 0000 0000 0000 0000 0000 0000
000002b0: 0000 0000 0000 0000 0400 0000 0400 0000
000002c0: 0000 0000 0000 0000 0000 0000 0000 0000
000002d0: 0400 0000 0400 0000 0400 0000 0400 0000
000002e0: 0400 0000 0400 0000 0000 0000 0000 0000
000002f0: 0000 0000 0000 0000 0000 0000 0000 0000
-6e-45 4.5569212e-38 7.13795e-38 0.0 -6e-45 -6e-45 0.00038431538 0.00016078772
0.0009180786 -6e-45 -6e-45 -6e-45 0.00017360109 0.00012254226 0.00053481595 0.00040583173
7.705088e-05 0.00060270936 0.0 -6e-45 -6e-45 0.0 0.0 0.0
-6e-45 1.088116e-38 2.7686777e-38 0.0 -6e-45 -6e-45 7.254339e-05 -1.9007653e-05
0.0003054908 -6e-45 -6e-45 -6e-45 -0.00010968145 -0.00013087894 7.948396e-05 2.9725663e-05
-0.00011942827 0.0001601298 0.0 -6e-45 -6e-45 0.0 0.0 0.0
0.0 0.0 0.0 0.0 0.0 0.0 0.0 0.0
0.0 0.0 0.0 0.0 0.0 0.0 0.0 0.0
0.0 0.0 0.0 0.0 0.0 0.0 0.0 0.0
0.0 -5.543217e-38 0.0 0.0 6e-45 0.0 -0.00017426061 6.425963e-05
5.1450945e-05 0.0 6e-45 0.0 0.00033648818 0.0004836918 0.0006248051 3.0943833e-05
0.00019746815 0.00034601305 0.0 0.0 0.0 0.0 0.0 0.0
0.0 5.4330606e-38 7.4992135e-38 0.0 0.0 0.0 0.00011901077 0.00019367403
5.0795148e-05 0.0 6e-45 0.0 0.00017724175 8.772354e-05 2.1803076e-05 0.000249429
8.45741e-05 -3.448513e-07 0.0 6e-45 0.0 0.0 0.0 0.0
0.0 0.0 0.0 0.0 0.0 0.0 0.0 0.0
0.0 0.0 0.0 0.0 0.0 0.0 0.0 0.0
0.0 0.0 0.0 0.0 0.0 0.0 0.0 0.0
0.0 3.3372537e-38 4.723793e-38 0.0 0.0 0.0 0.00019330962 3.5673496e-05
0.00033471815 0.0 0.0 0.0 -0.00019411137 -0.0003941626 -0.00020590133 9.2286966e-05
-0.0002224698 2.4832436e-05 0.0 0.0 0.0 0.0 0.0 0.0
0.0 0.0 0.0 0.0 0.0 0.0 6e-45 6e-45
0.0 0.0 0.0 0.0 6e-45 6e-45 6e-45 6e-45
6e-45 6e-45 0.0 0.0 0.0 0.0 0.0 0.0

exp_avg_sq f4 [8, 8, 3]
00000000: ff56 872d c1d8 082f 7b7b 032f 0000 0000
00000010: 6037 c62a a753 032b 2bea ff38 c868 0b39
00000020: 62aa fc38 bb1d 902a 0e99 2a2e a188 7b2e
00000030: 6d2d 7339 93d4 8339 6425 7039 d9f3 1f39
00000040: 9aaa 3639 9299 2b39 0000 0000 dcd7 e727
00000050: 340e be27 0000 0000 0000 0000 0000 0000
00000060: c43a c32c 116c 562e e494 102e 0000 0000
00000070: 2687 352a 38d2 592a e11b 8037 bd9c 8e37
00000080: cb38 8137 ca3b e729 7233 8c2c bb76 f82b
00000090: 4fc9 0238 50f1 0e38 f2d3 0238 55ec 9e37
000000a0: 1127 b837 42ea ad37 0000 0000 ac95 7f26
000000b0: 9be6 a226 0000 0000 0000 0000 0000 0000
000000c0: 0000 0000 0000 0000 0000 0000 0000 0000
000000d0: 0000 0000 0000 0000 0000 0000 0000 0000
000000e0: 0000 0000 0000 0000 0000 0000 0000 0000
000000f0: 0000 0000 0000 0000 0000 0000 0000 0000
00000100: 0000 0000 0000 0000 0000 0000 0000 0000
00000110: 0000 0000 0000 0000 0000 0000 0000 0000
00000120: 0000 0000 b9f5 652a 0000 0000 0000 0000
00000130: 7c49 af25 0000 0000 d5d4 8836 b3cd 8936
00000140: ca8b 1c36 0000 0000 288a 2422 0000 0000
00000150: a1bb b637 2757 c437 b6be 8c37 16da 3137
00000160: bb33 6d37 7d90 1137 0000 0000 0000 0000
00000170: 0000 0000 0000 0000 0000 0000 0000 0000
00000180: 0000 0000 60fb 2d2a 489d eb28 0000 0000
00000190: 0000 0000 0000 0000 f916 b937 6588 b537
000001a0: cbca 9537 0000 0000 1191 ac25 0000 0000
000001b0: 5f1e 1438 e0d4 1238 1c69 ee37 d805 c937
000001c0: efea df37 8df0 b237 0000 0000 d340 6b24
000001d0: 0000 0000 0000 0000 0000 0000 0000 0000
000001e0: 0000 0000 0000 0000 0000 0000 0000 0000
000001f0: 0000 0000 0000 0000 0000 0000 0000 0000
00000200: 0000 0000 0000 0000 0000 0000 0000 0000
00000210: 0000 0000 0000 0000 0000 0000 0000 0000
00000220: 0000 0000 0000 0000 0000 0000 0000 0000
00000230: 0000 0000 0000 0000 0000 0000 0000 0000
00000240: 0000 0000 e9bc 8929 910c 162a 0000 0000
00000250: 0000 0000 0000 0000 a9bd 1138 9764 1938
00000260: 830b 0838 0000 0000 0000 0000 0000 0000
00000270: c36d 9d38 92f7 a638 a1a2 9438 6d55 4b38
00000280: 7dd7 6538 3877 5238 0000 0000 0000 0000
00000290: 0000 0000 0000 0000 0000 0000 0000 0000
000002a0: 0000 0000 0000 0000 0000 0000 0000 0000
000002b0: 0000 0000 0000 0000 2297 a02a 0ab7 8d29
000002c0: 0000 0000 0000 0000 0000 0000 0000 0000
000002d0: a614 962a dcea 032a 90a4 5428 d56b 7d2a
000002e0: 307a 2f2a 7852 1b29 0000 0000 0000 0000
000002f0: 0000 0000 0000 0000 0000 0000 0000 0000
1.5386357e-11 1.2446134e-10 1.195825e-10 0.0 3.521029e-13 4.665664e-13 0.00012202965 0.00013295107
0.00012048033 2.5600168e-13 3.8789465e-11 5.7192143e-11 0.00023191208 0.00025144647 0.00022902113 0.00015254262
0.00017420427 0.0001636504 0.0 6.4349415e-15 5.2750993e-15 0.0 0.0 0.0
5.5487576e-12 4.875395e-11 3.287405e-11 0.0 1.6122918e-13 1.9346406e-13 1.5271771e-05 1.7000706e-05
1.5404445e-05 1.02688325e-13 3.984751e-12 1.7654414e-12 3.11819e-05 3.4080178e-05 3.1191805e-05 1.8945118e-05
2.1952701e-05 2.0732292e-05 0.0 8.867374e-16 1.1303514e-15 0.0 0.0 0.0
0.0 0.0 0.0 0.0 0.0 0.0 0.0 0.0
0.0 0.0 0.0 0.0 0.0 0.0 0.0 0.0
0.0 0.0 0.0 0.0 0.0 0.0 0.0 0.0
0.0 2.0424538e-13 0.0 0.0 3.0407456e-16 0.0 4.0778928e-06 4.1068647e-06
2.332718e-06 0.0 2.2299284e-18 0.0 2.1783462e-05 2.3405604e-05 1.6778107e-05 1.0600799e-05
1.4138345e-05 8.676315e-06 0.0 0.0 0.0 0.0 0.0 0.0
0.0 1.54527e-13 2.6158451e-14 0.0 0.0 0.0 2.2064416e-05 2.1640395e-05
1.7856617e-05 0.0 2.9935545e-16 0.0 3.5314235e-05 3.5007368e-05 2.8420756e-05 2.3963788e-05
2.6693071e-05 2.1331269e-05 0.0 5.101241e-17 0.0 0.0 0.0 0.0
0.0 0.0 0.0 0.0 0.0 0.0 0.0 0.0
0.0 0.0 0.0 0.0 0.0 0.0 0.0 0.0
0.0 0.0 0.0 0.0 0.0 0.0 0.0 0.0
0.0 6.116793e-14 1.3327036e-13 0.0 0.0 0.0 3.474733e-05 3.6571724e-05
3.2435648e-05 0.0 0.0 0.0 7.506788e-05 7.9616104e-05 7.087482e-05 4.847853e-05
5.4798544e-05 5.0178933e-05 0.0 0.0 0.0 0.0 0.0 0.0
0.0 0.0 0.0 0.0 0.0 0.0 2.852658e-13 6.29341e-14
0.0 0.0 0.0 0.0 2.665968e-13 1.171662e-13 1.1804048e-14 2.2508326e-13
1.5585515e-13 3.4488444e-14 0.0 0.0 0.0 0.0 0.0 0.0

exp_avg f4 [8]
00000000: 0078 6bb7 0858 0cba 0000 0000 7223 0c3b
00000010: 28e4 a9b8 0000 0000 645b faba 0400 0000
-1.4035031e-05 -0.0005353694 0.0 0.0021383432 -8.1010454e-05 0.0 -0.0019100723 6e-45

exp_avg_sq f4 [8]
00000000: 0478 993a d3a8 3c39 0000 0000 844b 6e39
00000010: 71e6 0e39 0000 0000 a1f7 dd39 3d5a bd2a
0.0011708741 0.00017991969 0.0 0.0002272558 0.00013628021 0.0 0.00042336903 3.363576e-13

exp_avg f4 [16, 8, 3]
00000000: 0400 0000 0400 0000 0400 0000 0400 0000
00000010: 0400 0000 0400 0000 0000 0000 0000 0000
00000020: 0000 0000 0400 0000 0400 0000 0400 0000
00000030: 0400 0080 0400 0080 0400 0080 0000 0000
00000040: 0000 0000 0000 0000 0000 0000 0000 0000
00000050: 0000 0000 0000 0000 0000 0000 0000 0000
00000060: 00dd 07b8 f8e9 a8b8 80f8 fbb6 88b1 81b8
00000070: 8094 39b8 8056 2137 0000 0000 0000 0000
00000080: 0000 0000 5166 5db8 1c40 8ab8 c1dc 73b8
00000090: 00b5 ba34 9c72 bb37 545c 3138 0000 0000
000000a0: 0000 0000 0000 0000 bca3 8138 e063 3138
000000b0: 3c37 8a38 0400 0000 0400 0000 0400 0080
000000c0: 60df e7b7 48c8 9fb8 807f 05b7 70ba 96b8
000000d0: e041 2ab8 a039 8037 0000 0000 0000 0000
000000e0: 0000 0000 cd9a 81b8 873e 4fb8 01a1 7ab8
000000f0: c876 4237 e4cc f737 a8a5 6938 0000 0000
00000100: 0000 0000 0000 0000 b02c a038 3053 5a38
00000110: 74a6 9a38 0400 0000 0400 0000 0400 0080
00000120: 8055 c0b6 80ef 6eb8 8065 2f37 e081 6fb8
00000130: d0bd 54b8 a0f2 a837 0000 0000 0000 0000
00000140: 0000 0000 940f 7eb8 de15 1db8 1c68 35b8
00000150: e899 acb7 1c6e bc37 5a30 a138 0000 0000
00000160: 0000 0000 0000 0000 1e31 8f38 1421 5c38
00000170: f86b b938 0400 0000 0400 0000 0400 0080
00000180: 60d2 3337 e01c 81b7 308d f637 c06b f6b6
00000190: a077 58b7 e87c 1c38 0000 0000 0000 0000
000001a0: 0000 0000 3701 d8b7 1cc8 8fb6 aad5 dab7
000001b0: b8cc 9e36 a2c1 c937 f2ba 0d38 0000 0000
000001c0: 0000 0000 0000 0000 3e39 0938 144f fe37
000001d0: c2e4 6338 0400 0000 0400 0000 0400 0080
000001e0: 00a0 2538 f0ef 21b8 4091 6638 80af d536
000001f0: 809c 5fb7 f8ae 9938 0000 0000 0000 0000
00000200: 0000 0000 aa06 38b8 d9d1 e4b7 51be d6b7
00000210: 3845 4eb7 4216 3738 38a2 b338 0000 0000
00000220: 0000 0000 0000 0000 f86d 8138 b866 6238
00000230: 9097 c638 0400 0000 0400 0000 0400 0080
00000240: c0d4 9936 f07b b437 d0dd a637 60dd db37
00000250: f8b3 0338 2017 2537 0000 0000 0000 0000
00000260: 0000 0000 c27f ca37 e89b 6c37 f0be ea37
00000270: 3427 40b7 f8c1 98b6 8014 4eb5 0000 0000
00000280: 0000 0000 0000 0000 aa92 0db8 281e f2b7
00000290: 380b f2b7 0400 0080 0400 0080 0400 0000
000002a0: d0cf d9b8 18d5 4bb9 4070 ecb7 48c0 24b9
000002b0: 70d7 f7b8 003a b836 0000 0000 0000 0000
000002c0: 0000 0000 c1c6 09b9 f70e f9b8 f8d0 00b9
000002d0: d2e6 94b8 a2bc 8f38 66da 0839 0000 0000
000002e0: 0000 0000 0000 0000 1433 b938 60d2 8138
000002f0: 7e3d 0739 0400 0000 0400 0000 0400 0080
00000300: c812 d939 0afb ab39 3cc2 9f39 24af bd39
00000310: 34bf b139 c7b2 a739 0000 0000 0000 0000
00000320: 0000 0000 4b34 b338 68e5 9938 e0fd f038
00000330: cc09 d536 c14f a136 8c43 14b5 0000 0000
00000340: 0000 0000 0000 0000 5a49 3a38 c36c 4438
00000350: 2380 0938 0000 0000 0000 0000 0000 0000
00000360: 0000 0000 0000 0000 0000 0000 0000 0000
00000370: 0000 0000 0000 0000 0000 0000 0000 0000
00000380: 0000 0000 0000 0000 0000 0000 0000 0000
00000390: 0000 0000 0000 0000 0000 0000 0000 0000
000003a0: 0000 0000 0000 0000 0000 0000 0000 0000
000003b0: 0000 0000 0000 0000 0000 0000 0000 0000
000003c0: b225 de39 b037 a539 028f c239 ee02 9539
000003d0: 2a72 c039 ca2f d439 0000 0000 0000 0000
000003e0: 0000 0000 d4a3 e036 40be e1b3 4014 3138
000003f0: 6ee3 63b8 e06a 6738 e809 3838 0000 0000
6e-45 6e-45 6e-45 6e-45 6e-45 6e-45 0.0 0.0
0.0 6e-45 6e-45 6e-45 -6e-45 -6e-45 -6e-45 0.0
0.0 0.0 0.0 0.0 0.0 0.0 0.0 0.0
-3.239233e-05 -8.054444e-05 -7.509312e-06 -6.184267e-05 -4.424574e-05 9.616488e-06 0.0 0.0
0.0 -5.2785796e-05 -6.592294e-05 -5.8141308e-05 3.4776895e-07 2.2345506e-05 4.2286076e-05 0.0
0.0 0.0 6.181697e-05 4.2293104e-05 6.590641e-05 6e-45 6e-45 -6e-45
-2.7641363e-05 -7.619016e-05 -7.957104e-06 -7.187284e-05 -4.059251e-05 1.5285623e-05 0.0 0.0
0.0 -6.180033e-05 -4.941088e-05 -5.975459e-05 1.1590957e-05 2.9540104e-05 5.570581e-05 0.0
0.0 0.0 7.637718e-05 5.2052725e-05 7.3742965e-05 6e-45 6e-45 -6e-45
-5.7319994e-06 -5.6966674e-05 1.0454445e-05 -5.7102996e-05 -5.0721515e-05 2.0140142e-05 0.0 0.0
0.0 -6.0572827e-05 -3.7452082e-05 -4.3250722e-05 -2.0575666e-05 2.246262e-05 7.6860844e-05 0.0
0.0 0.0 6.82792e-05 5.2482894e-05 8.841598e-05 6e-45 6e-45 -6e-45
1.0718213e-05 -1.5391444e-05 2.939123e-05 -7.343915e-06 -1.2902456e-05 3.7309626e-05 0.0 0.0
0.0 -2.5749772e-05 -4.285028e-06 -2.608712e-05 4.7325993e-06 2.4051235e-05 3.3791126e-05 0.0
0.0 0.0 3.2716656e-05 3.0315983e-05 5.4334065e-05 6e-45 6e-45 -6e-45
3.9488077e-05 -3.860885e-05 5.4971548e-05 6.3683256e-06 -1.3328274e-05 7.328199e-05 0.0 0.0
0.0 -4.3875225e-05 -2.7277436e-05 -2.5599411e-05 -1.2294673e-05 4.365133e-05 8.565601e-05 0.0
0.0 0.0 6.1716826e-05 5.3978263e-05 9.4696064e-05 6e-45 6e-45 -6e-45
4.5845227e-06 2.1515385e-05 1.9892032e-05 2.620992e-05 3.1400443e-05 9.840151e-06 0.0 0.0
0.0 2.4139768e-05 1.4102996e-05 2.7983886e-05 -1.14532195e-05 -4.552534e-06 -7.677081e-07 0.0
0.0 0.0 -3.375361e-05 -2.886269e-05 -2.8853872e-05 -6e-45 -6e-45 6e-45
-0.000103860744 -0.00019438972 -2.8185663e-05 -0.00015711889 -0.00011818006 5.4903794e-06 0.0 0.0
0.0 -0.0001313938 -0.00011876033 -0.00012284878 -7.1001836e-05 6.853907e-05 0.0001305133 0.0
0.0 0.0 8.8310015e-05 6.190385e-05 0.00012897511 6e-45 6e-45 -6e-45
0.00041403458 0.000328027 0.0003047156 0.0003617938 0.00033902528 0.00031985922 0.0 0.0
0.0 8.5451255e-05 7.338339e-05 0.0001149138 6.349035e-06 4.8074585e-06 -5.523259e-07 0.0
0.0 0.0 4.441417e-05 4.6831334e-05 3.2782682e-05 0.0 0.0 0.0
0.0 0.0 0.0 0.0 0.0 0.0 0.0 0.0
0.0 0.0 0.0 0.0 0.0 0.0 0.0 0.0
0.0 0.0 0.0 0.0 0.0 0.0 0.0 0.0
0.00042371225 0.00031512743 0.00037109113 0.00028421677 0.00036706153 0.00040471397 0.0 0.0
0.0 6.6947923e-06 -1.0511985e-07 4.2218948e-05 -5.4332828e-05 5.5174227e-05 4.3878244e-05 0.0
