notebooks/epoch=5-step=6390.ckpt (torch, 892416 bytes, 33 tensors)

encoder.0.weight f4 [128, 1, 3]
-0.5729002 0.4919391 0.3102914 -0.16905853 0.1927776 0.59139353 -0.5601947 0.4635788
-0.57961833 -0.3980346 -0.44911897 0.50161624 0.18296646 -0.43718144 0.37225798 0.14847775
-0.26568496 0.49337262 0.02902259 0.1909054 0.056718674 -0.22108845 0.57290447 -0.15655513
0.11136635 -0.12824038 0.40663502 0.1288405 0.3035999 0.30201775 0.35776797 0.16313386
-0.007365436 0.40507278 -0.0807325 -0.65607035 0.55628806 0.05290126 0.11485592 -0.1268258
-0.012027981 -0.34437364 0.046863485 0.06341119 0.38914555 -0.06700713 -0.079936646 -0.42578763
-0.59659284 0.07951194 0.007686163 0.47608146 0.08487641 0.46639675 -0.47736627 0.5791482
-0.5144121 0.14332785 -0.30349812 -0.088810794 0.1498597 0.013350437 0.30435556 -0.27794096
0.12621461 -0.046795 0.42966056 0.30595812 0.4072897 -0.59881437 -0.19910128 -0.27082628
0.12751256 -0.21572088 -0.33214992 -0.18477485 -0.54559064 -0.36784843 0.20976882 -0.059716377
-0.011004359 -0.2731784 0.37009168 -0.20531175 -0.60436386 0.25675115 -0.05148871 0.11755844
0.3170442 0.19506101 0.34370995 -0.07077132 -0.030769804 -0.4180182 -0.47634202 -0.53155077
0.4705623 0.5447318 -0.47439927 -0.076854296 0.29585558 -0.26383492 0.32223317 0.13383934
-0.37389672 -0.04939765 -0.41553414 -0.112663075 -0.59817713 0.34117872 -0.23582599 -0.51160556
0.29365927 0.5365913 0.25479078 0.10734046 -0.5115533 0.5035541 -0.16467799 0.54784197
-0.50945663 -0.5975062 0.045531217 -0.14368053 -0.42167455 0.041296095 -0.5760914 -0.5384452
0.5274509 0.16193065 -0.13457586 -0.46120226 0.0010506541 -0.0872761 -0.69412684 -0.5376636
-0.44996852 -0.45850736 -0.47255638 -0.5721229 -0.43966466 0.46482757 -0.12295411 0.48500225
0.51055735 -0.05173335 0.332031 0.45445898 -0.5251389 -0.4357874 -0.5152341 -0.4933358
-0.11947864 -0.06918232 -0.044588424 -0.52806586 -0.17338093 -0.118577994 -0.29873595 0.005762956
-0.51473904 -0.28795192 0.07913888 0.38417622 -0.07049092 -0.34961814 0.5616148 0.28944317
0.30070695 0.065491766 0.5106416 0.24412476 0.20494777 -0.2010534 -0.01632206 0.49545532
-0.47743943 0.12899058 -0.20228535 0.28936875 0.2885249 -0.106291 -0.4853157 0.46886382
0.34632176 -0.50394654 -0.55316293 -0.5000041 0.21962316 0.02754425 0.46556762 -0.24911898
0.5692143 0.10271575 0.2313459 0.44175786 0.08549898 0.13652623 -0.5378599 -0.50661194
-0.025299255 0.5025244 -0.15900928 -0.3814533 0.05812003 0.1910304 -0.44761723 0.19074899
0.18227474 -0.6024312 -0.34628984 0.6030325 0.5595994 0.34054843 -0.5792342 0.5709265
0.13451198 0.19587353 0.21963648 -0.4392014 -0.49680334 0.14452904 0.022584865 -0.47855535
-0.109771006 -0.5638745 -0.20863353 -0.50105065 0.027869778 0.007337647 0.44038475 -0.45301414
-0.40810207 -0.3348366 0.4613649 -0.21959384 0.35297886 -0.20109676 -0.5284396 -0.32877478
0.1443033 -0.22392458 -0.02138289 0.18690133 0.050936226 -0.1463067 -0.58164513 0.31691465
-0.60550106 -0.50544614 0.15566368 -0.28069782 -0.57308024 -0.37832052 0.5583225 -0.27653143
00000000: 96a9 12bf 71df fb3e 84de 9e3e ae1d 2dbe
00000010: 7e67 453e 9165 173f eb68 0fbf 335a ed3e
00000020: de61 14bf 31cb cbbe ecf2 e5be ec69 003f
00000030: 8f5b 3b3e 3fd6 dfbe 9998 be3e 8d0a 183e
00000040: dc07 88be 569b fc3e c8c0 ed3c b57c 433e
00000050: d751 683d 0365 62be dea9 123f fd4f 20be
00000060: 0a14 e43d 7251 03be 7732 d03e c4ee 033e
00000070: 7271 9b3e 12a2 9a3e 5d2d b73e 900c 273e
00000080: c159 f1bb b365 cf3e 1557 a5bd 3af4 27bf
00000090: e568 0e3f feae 583d 9539 eb3d 9fde 01be
000000a0: 0211 45bc be51 b0be edf3 3f3d badd 813d
000000b0: 163e c73e 093b 89bd d3b5 a3bd d600 dabe
000000c0: 4fba 18bf 28d7 a23d 35dc fb3b f3c0 f33e
000000d0: afd3 ad3d 8ecb ee3e 5a69 f4be 0e43 143f
000000e0: 83b0 03bf 89c4 123e 1b64 9bbe 6fe2 b5bd
000000f0: d274 193e cbbb 5a3c 7ed4 9b3e 474e 8ebe
00000100: 673e 013e 1dac 3fbd 78fc db3e 8ba6 9c3e
00000110: 4788 d03e e64b 19bf 35e1 4bbe bea9 8abe
00000120: a792 023e efe5 5cbe 8e0f aabe 9e35 3dbe
00000130: d4ab 0bbf a156 bcbe a3cd 563e 2999 74bd
00000140: a14b 34bc 0ade 8bbe a87c bd3e 3e3d 52be
00000150: 97b7 1abf e374 833e d3e5 52bd 7bc2 f03d
00000160: 9e53 a23e 13be 473e c0fa af3e 8ef0 90bd
00000170: f510 fcbc 7b06 d6be 1ae3 f3be b613 08bf
00000180: 8bed f03e 8b73 0b3f 76e4 f2be c965 9dbd
00000190: 627a 973e 5f15 87be bffb a43e 2e0d 093e
000001a0: 646f bfbe 3155 4abd e4c0 d4be e6bb e6bd
000001b0: 2322 19bf faae ae3e 5e7c 71be 95f8 02bf
000001c0: 825a 963e 0c5e 093f f073 823e 51d5 db3d
000001d0: 28f5 02bf ece8 003f 59a1 28be 5f3f 0c3f
000001e0: c06b 02bf 2bf6 18bf f17e 3a3d fd20 13be
000001f0: bae5 d7be 1826 293d ba7a 13bf 8bd7 09bf
00000200: 0607 073f 26d1 253e 41ce 09be b422 ecbe
00000210: 1ab6 893a d0bd b2bd 4cb2 31bf 52a4 09bf
00000220: 4662 e6be 7ac1 eabe e9f2 f1be a576 12bf
00000230: ba1b e1be e1fd ed3e 5dcf fbbd 3752 f83e
00000240: e3b3 023f 59e6 53bd f8ff a93e d9ae e83e
00000250: 816f 06bf 871f dfbe 62e6 03bf 8396 fcbe
00000260: 38b1 f4bd 76af 8dbd 5aa2 36bd 532f 07bf
00000270: c58a 31be 05d9 f2bd ebf3 98be 2ed7 bc3b
00000280: f0c5 03bf 6f6e 93be 9113 a23d bfb2 c43e
00000290: 8b5d 90bd 2601 b3be fdc5 0f3f e531 943e
000002a0: 43f6 993e 8c20 863d 68b9 023f d7fb 793e
000002b0: d4dd 513e f1e0 4dbe d7b5 85bc 52ac fd3e
000002c0: f172 f4be 1b16 043e e423 4fbe 2428 943e
000002d0: 89b9 933e 19af d9bd 4d7b f8be eb0e f03e
000002e0: 1651 b13e a402 01bf 169c 0dbf 4500 00bf
000002f0: e5e4 603e 7ba4 e13c e15e ee3e 0c19 7fbe
00000300: 07b8 113f a35c d23d f1e5 6c3e 162e e23e
00000310: 171a af3d 88cd 0b3e 30b1 09bf 52b1 01bf
00000320: 6240 cfbc 70a5 003f 54d3 22be d94d c3be
00000330: 450f 6e3d 799d 433e 162e e5be b453 433e
00000340: 3ba6 3a3e ee38 1abf e74c b1be 5760 1a3f
00000350: e841 0f3f 5d5c ae3e b148 14bf 3d28 123f
00000360: 82bd 093e 1293 483e 63e8 603e 02df e0be
00000370: 025d febe 6cff 133e e503 b93c 3505 f5be
00000380: 9fcf e0bd 145a 10bf 07a4 55be db44 00bf
00000390: 294f e43c a570 f03b 1c7a e13e 78f1 e7be
000003a0: c1f2 d0be b46f abbe 0538 ec3e 35dd 60be
000003b0: a5b9 b43e 4fec 4dbe d147 07bf 2b55 a8be
000003c0: 3fc4 133e 7c4c 65be 2c2b afbc 1063 3f3e
000003d0: 81a2 503d 6cd1 15be b2e6 14bf a342 a23e
000003e0: 1e02 1bbf eb64 01bf 4d66 1f3e a0b7 8fbe
000003f0: 63b5 12bf 3ab3 c1be 39ee 0e3f 8795 8dbe

encoder.0.bias f4 [128]
0.2865902 -0.42960778 -0.0384595 0.44164333 0.086028814 0.5259623 -0.484377 -0.3738657
-0.04210829 0.5163388 0.18409152 -0.073974505 0.19589213 0.5344132 -0.14713904 0.47565135
-0.20323943 0.43110237 0.11033489 0.20759305 0.077349186 -0.22417694 -0.3854792 0.32923698
-0.45200446 -0.47075975 0.17254625 -0.59673804 0.07533218 0.27636275 -0.18350235 0.20264873
0.10829817 0.4285478 0.18943487 -0.5299272 -0.44321078 0.23105237 0.03273907 0.26103443
-0.50036556 -0.17952642 0.49994215 0.3742705 -0.47879267 0.54124 -0.47233012 0.50893646
0.26651058 -0.31177518 0.36107585 -0.20714025 -0.3207991 0.023060279 0.004242055 0.482326
0.21673582 -0.03178442 -0.015179482 -0.19661628 -0.2809896 0.14414069 0.16702846 -0.51754504
-0.4770669 -0.32468247 0.1835362 0.2815166 0.14475526 -0.06955498 0.48674312 -0.022621512
-0.514597 -0.52247995 -0.19392724 0.10033109 0.31845537 0.27942035 0.44377238 -0.1341401
0.41444102 0.4348051 -0.38541692 0.4258919 -0.16181281 0.11661814 0.5530281 -0.3299713
0.44232705 -0.00251664 0.08704099 -0.24162869 -0.20964983 -0.07625016 0.38013703 -0.11956904
-0.20944929 0.2874866 -0.29540274 0.19120458 0.45604864 -0.25009596 0.2807475 -0.48463747
0.4008095 -0.37763658 -0.46363282 -0.2627742 0.086345255 0.30460018 -0.066089444 -0.51461625
-0.50942576 0.13301218 -0.51221955 0.5538513 0.5659543 0.5625971 0.4773796 -0.1815
-0.12023062 -0.18602286 -0.3833378 0.1644358 0.2939912 -0.37606424 0.16756922 0.22966388
00000000: f3bb 923e 8df5 dbbe b587 1dbd 131f e23e
00000010: e02f b03d 77a5 063f 4300 f8be 536b bfbe
00000020: be79 2cbd c82e 043f 7d82 3c3e f27f 97bd
00000030: f297 483e 4ecf 083f 9eab 16be 9388 f33e
00000040: ff1d 50be 73b9 dc3e 42f7 e13d 4693 543e
00000050: 4069 9e3d a48e 65be 885d c5be c091 a83e
00000060: 216d e7be 6c07 f1be f7af 303e d3c3 18bf
00000070: c247 9a3d 6b7f 8d3e 0ae8 3bbe 2683 4f3e
00000080: 6ecb dd3d 9e6a db3e 37fb 413e 4fa9 07bf
00000090: 86ec e2be fe98 6c3e 6719 063d 4ea6 853e
000000a0: f517 00bf c6d5 37be 6bf8 ff3e 62a0 bf3e
000000b0: 5024 f5be b48e 0a3f 41d5 f1be a949 023f
000000c0: 1374 883e ffa0 9fbe efde b83e 931c 54be
000000d0: c83f a4be e9e8 bc3c f000 8b3b 6ff3 f63e
000000e0: ffef 5d3e 6130 02bd 5db3 78bc c755 49be
000000f0: dedd 8fbe 9e99 133e 8209 2b3e d57d 04bf
00000100: 1d42 f4be c83c a6be eaf0 3b3e f222 903e
00000110: b93a 143e d772 8ebd 6536 f93e c050 b9bc
00000120: a1bc 03bf 3fc1 05bf dd94 46be 637a cd3d
00000130: 950c a33e 2f10 8f3e 2236 e33e 065c 09be
00000140: 9d31 d43e c69e de3e 5e55 c5be 810e da3e
00000150: 42b2 25be 7ed5 ee3d 4093 0d3f 00f2 a8be
00000160: b178 e23e 36ee 24bb 8c42 b23d 836d 77be
00000170: 72ae 56be 0b29 9cbd 52a1 c23e 9de0 f4bd
00000180: e079 56be 7231 933e 073f 97be 22cb 433e
00000190: 357f e93e 940c 80be 23be 8f3e 6722 f8be
000001a0: e736 cd3e 9559 c1be 4861 edbe 578a 86be
000001b0: c8d5 b03d 8ef4 9b3e e759 87bd e4bd 03bf
000001c0: ba69 02bf 5834 083e d220 03bf 33c9 0d3f
000001d0: 62e2 103f 5d06 103f 196b f43e 23db 39be
000001e0: 793b f6bd c77c 3ebe da44 c4be dc61 283e
000001f0: 0486 963e 7e8b c0be 4497 2b3e 022d 6b3e

encoder.3.weight f4 [64, 128, 3]
0.02852496 -0.030003054 -0.054772884 -0.0087130405 0.04833675 -0.0072731473 0.03720287 0.0545771
0.006562458 0.03309337 0.04309756 -0.015623754 -0.044191904 0.0009438107 0.020213341 -0.0023710087
-0.022578193 0.0032088943 -0.016366221 -0.016077854 0.0011661099 0.02651128 -0.023464188 0.024042882
0.012879276 0.05978269 -0.0045056995 -0.031189485 -0.029131794 0.0014622965 0.021022918 -0.04502187
-0.004864235 0.055357672 9.513291e-05 0.042354114 -0.0008718145 0.048945256 -0.016092382 0.015650019
0.012279051 -0.024346756 -0.040067203 0.046726335 -0.022195263 0.024226377 -0.006098637 0.008851933
-0.04394138 -0.02986633 -0.115092725 -0.043416012 0.046527956 -0.01850797 -0.00037442986 -0.039438706
0.06253276 -0.0060977265 0.01636546 -0.017497808 0.015149402 0.03449557 0.012421235 -0.008743869
-0.016961025 -0.04435083 -0.044884328 -0.050962206 -0.011097262 -0.011762565 -0.03273884 0.02109346
0.05751581 -0.05296222 -0.062833056 -0.036783937 -0.061833512 -0.036617443 -0.0403568 0.014052691
0.04071644 0.03591791 -0.0025012644 0.040900934 0.023511754 0.0058350977 -0.0015646963 0.003991554
0.022497268 -0.04834241 0.04937126 -0.031794433 0.014447722 -0.040231407 0.032183453 0.046981826
0.011150697 -0.016208826 0.015630309 -0.01717134 0.01488062 0.022041805 -0.010742819 -0.035463843
0.033326406 -0.01946885 0.0077752396 0.026887389 0.019455716 -0.013764398 -0.052350763 -0.037751608
0.015900925 -0.027282467 0.010960195 0.0008690704 0.047938045 -0.05842182 0.023969742 0.012299081
-0.041023344 -0.05178811 -0.06902478 -0.050529964 -0.053187054 -0.038365647 0.039594013 -0.0015824683
0.006153902 -0.021619428 0.016226325 0.021538384 -0.0015312376 -0.049376123 -0.08113662 0.0022889427
0.04428931 -0.022921903 -0.047273785 -0.02467173 0.019879194 0.0017183893 -0.024469277 0.022194872
0.022301806 0.006774743 0.037442226 0.031338472 -0.046416275 -0.03080148 0.04157737 -0.045523208
-0.03616228 -0.039448794 -0.030974984 -0.020309515 0.0016343106 0.039668683 0.027454376 -0.021828517
0.04682114 0.02399429 0.05945215 -0.0025434487 0.029555261 0.045985576 -0.022895353 -0.03312351
-0.032974944 -0.032128226 0.035184313 -0.018596645 -0.037744712 0.06578409 -0.005610653 -0.011564518
0.050318517 0.019845065 -0.043292053 -0.007254109 -0.025369436 -0.045600623 -0.054670572 0.0041996995
-0.046542473 0.031431045 0.039219264 -0.021023255 0.011115505 -0.0040529 -0.041333865 -0.018166883
0.01964038 0.041607987 -0.051068686 -0.00030002528 -0.009176018 0.0025991632 -0.011248912 0.0020724605
0.0529234 -0.029724019 0.022227228 -0.013657986 0.0021789332 0.044326212 0.025044061 0.036440548
-0.015238693 0.076061495 0.02972316 -0.03249854 -0.055470426 0.041432902 0.012175309 0.023503423
-0.05251147 0.023691103 0.02614101 0.022632612 -0.09823792 -0.07521314 -0.07976743 -0.017834367
-0.07796264 -0.03600346 0.025410661 -0.02561336 0.046408195 0.028118389 0.0017155041 0.049741093
-0.022008708 -0.010575863 0.026202336 -0.046944067 0.015483678 0.005382425 -0.015658483 -0.020787835
0.021292161 -0.043073755 0.0047110836 0.043115553 -0.051803056 0.033930693 0.025444927 -0.030754002
0.01948746 -0.017504148 -0.037855513 0.054428257 -0.028419707 -0.030109141 -0.03093668 0.052954525
00000000: 2dad e93c f7c8 f5bc 8859 60bd 24c1 0ebc
00000010: c2fc 453d 9553 eebb 0962 183d 3d8c 5f3d
00000020: e309 d73b ea8c 073d 1187 303d c6fa 7fbc
00000030: 9202 35bd 106a 773a 7396 a53c ed62 1bbb
00000040: e7f5 b8bc 504c 523b 7412 86bc b4b5 83bc
00000050: 28d8 983a 2f2e d93c f837 c0bc 94f5 c43c
00000060: 9903 533c b2de 743d 8ca4 93bb 1781 ffbc
00000070: cda5 eebc 87aa bf3a 4138 ac3c da68 38bd
00000080: 2964 9fbb babe 623d 1882 c738 827b 2d3d
00000090: 7b8a 64ba d27a 483d 2cd4 83bc 7834 803c
000000a0: 132e 493c d972 c7bc 821d 24bd 1d64 3f3d
000000b0: d7d2 b5bc 6576 c63c 13d7 c7bb b307 113c
000000c0: e0fb 33bd 3caa f4bc bcb5 ebbd fdd4 31bd
000000d0: 1994 3e3d 079e 97bc 204f c4b9 7b8a 21bd
000000e0: 2d11 803d 70cf c7bb db10 863c 9057 8fbc
000000f0: 3335 783c 3a4b 0d3d 7082 4b3c 7242 0fbc
00000100: d9f1 8abc 37a9 35bd a1d8 37bd bfbd 50bd
00000110: 4ad1 35bc c6b7 40bc 2919 06bd 31cc ac3c
00000120: b395 6b3d eaee 58bd 9eae 80bd c1aa 16bd
00000130: 2345 7dbd 2cfc 15bd 2c4d 25bd 423d 663c
00000140: 48c6 263d a91e 133d 41ec 23bb bd87 273d
00000150: b99b c03c 5934 bf3b 7f16 cdba 95cb 823b
00000160: 314c b83c b102 46bd 8539 4a3d e13a 02bd
00000170: 23b6 6c3c b0c9 24bd ccd2 033d 0470 403d
00000180: 6ab1 363c 5fc8 84bc 220b 803c e9aa 8cbc
00000190: d8cd 733c 0491 b43c a602 30bc 8942 11bd
000001a0: 4581 083d 237d 9fbc 70c7 fe3b f142 dc3c
000001b0: 9861 9f3c 1284 61bc c16d 56bd 6ea1 1abd
000001c0: a842 823c 7b7f dfbc 6492 333c 54d2 633a
000001d0: af5a 443d b84b 6fbd 315c c43c 1682 493c
000001e0: 1808 28bd c51f 54bd dd5c 8dbd 82f8 4ebd
000001f0: abda 59bd 4c25 1dbd 552d 223d d36a cfba
00000200: aca6 c93b 3a1b b1bc 12ed 843c 4471 b03c
00000210: cfb3 c8ba 9e3e 4abd f52a a6bd 1602 163b
00000220: b568 353d b7c6 bbbc 28a2 41bd 5e1c cabc
00000230: b1d9 a23c 943b e13a cb73 c8bc 05d2 b53c
00000240: 47b2 b63c aafe dd3b 055d 193d c55c 003d
00000250: fe1e 3ebd 6353 fcbc 084d 2a3d 8b76 3abd
00000260: e61e 14bd 0f95 21bd 40bf fdbc 2460 a6bc
00000270: 5d36 d63a a17b 223d 00e8 e03c b8d1 b2bc
00000280: 86c7 3f3d ac8f c43c 1984 733d fdaf 26bb
00000290: e01d f23c 5f5b 3c3d 098f bbbc 85ac 07bd
000002a0: bc10 07bd e398 03bd 6d1d 103d fe57 98bc
000002b0: 339a 1abd cfb9 863d 92d9 b7bb 1b79 3dbc
000002c0: ca1a 4e3d 1e92 a23c 0253 31bd e0b3 edbb
000002d0: 90d3 cfbc b8c7 3abd 40ee 5fbd a29d 893b
000002e0: 52a3 3ebd d7bd 003d 61a4 203d f638 acbc
000002f0: cf1d 363c 30ce 84bb b34d 29bd b7d2 94bc
00000300: dde4 a03c 236d 2a3d 662d 51bd b64c 9db9
00000310: 0257 16bc b956 2a3b 5b4d 38bc 1ed2 073b
00000320: 35c6 583d c97f f3bc e015 b63c bfc5 5fbc
00000330: 6fcc 0e3b 678f 353d 3429 cd3c af42 153d
00000340: b6ab 79bc 21c6 9b3d fc7d f33c 301d 05bd
00000350: f534 63bd 8cb5 293d f27a 473c 408a c03c
00000360: 4416 57bd d813 c23c ac25 d63c 0768 b93c
00000370: f630 c9bd 5909 9abd 1b5d a3bd 6119 92bc
00000380: e0aa 9fbd 5d78 13bd 052a d03c 1cd3 d1bc
00000390: 8516 3e3d 8958 e63c c4da e03a 51bd 4b3d
000003a0: 9b4b b4bc 6246 2dbc 48a6 d63c 6c48 40bd
000003b0: 41af 7d3c 0e5f b03b 3846 80bc 404b aabc
000003c0: e66c ae3c 1b6e 30bd 6f5f 9a3b ef99 303d
000003d0: 712f 54bd e9fa 0a3d e171 d03c d1ef fbbc
000003e0: 2aa4 9f3c dc64 8fbc 620e 1bbd 2af0 5e3d
000003f0: 72d0 e8bc 72a7 f6bc ec6e fdbc d8e6 583d

encoder.3.bias f4 [64]
-0.01563005 0.0115665225 -0.043533824 -0.025951179 0.02809419 0.024861433 -0.039588988 0.04623427
0.007048906 -0.002088812 -0.027634934 -0.041133817 0.006845017 -0.020744756 0.0017102773 0.025406178
0.0318553 0.019778823 -0.03217096 -0.03627605 -0.01479685 0.051295303 0.051338244 -0.04029467
-0.023750316 -0.047991212 0.0114811 -0.027739387 0.04636518 0.01275834 0.02267449 0.00094055553
0.000284894 -0.0049027624 0.033027325 0.00020198445 0.006740905 0.028243579 0.012142644 0.055711225
0.04029715 -0.010217512 0.030595014 0.0147818625 -0.034235276 -0.0070899217 -0.023409571 0.026844893
-0.02638454 0.009937587 -0.0031030877 0.034823705 0.025203113 0.054021098 0.049746096 0.00024360213
-0.030853594 0.0011936886 -0.025480274 0.021807529 -0.0042894804 -0.03196062 -0.0311736 0.035672236
00000000: 970a 80bc 8381 3d3c 8650 32bd 9197 d4bc
00000010: c925 e63c 34aa cb3c 1028 22bd 2560 3d3d
00000020: 82fa e63b 73e4 08bb a862 e2bc ef7b 28bd
00000030: 2a4c e03b e8f0 a9bc 622b e03a 9e20 d03c
00000040: b47a 023d 3307 a23c b2c5 03bd 3296 14bd
00000050: 7d6e 72bc 061b 523d 0d48 523d 060c 25bd
00000060: 0690 c2bc 6f92 44bd 391b 3c3c b63d e3bc
00000070: 6ae9 3d3d 5b08 513c dabf b93c 9d8f 763a
00000080: d35d 9539 5aa7 a0bb a947 073d cacb 5339
00000090: cfe2 dc3b 145f e73c f1f1 463c 7431 643d
000000a0: a00e 253d 5a67 27bc 65a2 fa3c a02f 723c
000000b0: 4a3a 0cbd 9352 e8bb 6ec5 bfbc d2e9 db3c
000000c0: 6424 d8bc 43d1 223c 2c5d 4bbb 4da3 0e3d
000000d0: c276 ce3c 3a45 5d3d 90c2 4b3d 736f 7f39
000000e0: adc0 fcbc 8b75 9c3a 02bc d0bc b4a5 b23c
000000f0: c58e 8cbb 24e9 02bd c75f ffbc 0d1d 123d

encoder.6.weight f4 [32, 64, 3]
-0.061080806 0.052758437 0.05365498 -0.0009326354 0.00839116 0.01663333 0.02510739 -0.014702696
-0.05538275 0.005901636 -0.042981528 -0.020845685 -0.00184071 0.059011012 -0.003021176 0.058625676
0.026495432 -0.07275998 -0.0022625818 -0.05574737 -0.04291835 -0.009743482 -0.04951975 0.05176438
0.015345839 -0.019782234 0.056215562 0.0122805815 0.023340065 -0.072855875 0.011705747 0.07137077
-0.04653748 -0.053703565 0.012868887 -0.046849083 0.031743377 0.053674586 -0.07260994 0.028417526
0.035568662 -0.041228525 0.0007276911 -0.017769778 -0.024852209 -0.04955704 0.072982386 -0.009755531
0.026342172 0.0013577663 -0.04345144 0.018548088 -0.031338345 -0.02246334 -0.06354642 0.049225565
-0.019610357 -0.04925886 0.058881246 0.050018694 0.0010800458 0.027267694 -0.0072081494 0.038584873
-0.0204092 0.013988507 -0.064981885 -0.0469598 -0.023599511 -0.032426096 -0.042619515 -0.049352188
0.07131716 0.042824607 -0.056561615 -0.051788565 -0.009622413 0.052849542 0.051063094 -0.022999113
0.053656906 -0.011224329 0.058295213 -0.052335422 -0.026089247 -0.04982248 -0.030333677 0.028188698
-0.08365546 -0.0028284793 -0.028973665 -0.046223883 0.01022589 0.007434815 0.041225746 -0.014358535
0.015865317 -0.02627916 -0.052270398 0.04867346 -0.050614648 -0.06699321 -0.07524596 0.009652689
0.04465117 0.07178358 0.01270302 0.00116197 -0.047659293 0.018627176 0.026118655 -0.02025664
0.025383737 -0.0019383684 -0.021642147 0.0020261344 0.006159555 0.019079376 0.029330526 0.067081906
-0.045096986 0.07370511 0.00015143094 0.00670128 0.0383076 -0.0068889637 -0.016386172 0.023150835
0.012572328 -0.05439376 0.06445542 -0.021997677 0.020851636 -0.08144389 -0.008808172 -0.029122727
-0.077074945 -0.041058414 -0.0043736836 0.0464523 0.038711514 0.023749446 -0.08890947 -0.04357314
-0.07086629 0.009071211 -0.053668555 0.0417026 -0.02788513 0.069455735 0.040719934 0.03197536
-0.0020113837 0.01723966 0.034546692 -0.004493294 0.063521795 -0.053219732 0.08040909 -0.01856231
-0.02319556 -0.04636044 0.0040256525 0.011618537 -0.04571532 0.07102737 -0.047400966 0.040551905
0.0038213567 -0.06321716 -0.04463671 0.1091267 0.027830085 0.07638454 -0.021418631 0.025331192
0.0069436976 0.061922453 -0.00410862 0.079590574 0.061454583 -0.051765308 -0.060778655 -0.037273232
0.010099672 -0.034264524 -0.024304971 -0.052190483 -0.05261276 0.01135068 0.015273337 0.004645487
0.004538524 -0.031040331 -0.0909111 -0.06196781 -0.007707865 -0.031872038 0.05212543 -0.04314783
0.014076316 0.06774708 -0.01217316 0.040128928 -0.02894227 -0.006054138 -0.0251366 -0.00066701905
0.04166262 0.020598385 -0.008554765 -0.015249051 -0.06503432 0.09681268 0.122367464 0.018640386
-0.037169915 -0.036220532 0.0137351565 -0.028431457 -0.05070666 -0.02770945 0.026755754 -0.0446977
-0.05675733 0.033608496 -0.011273586 -0.025216393 -0.048632823 -0.013358328 0.035210166 -0.0741748
0.07280071 0.044748075 -0.02228042 0.038996167 -0.04883454 -0.030135376 -0.025379399 -0.023822812
0.009604607 0.047682993 -0.04673214 0.031958055 0.03279596 0.08884578 0.05702455 0.032624718
0.03879637 -0.0032420526 -0.032598007 0.02662252 0.012047582 -0.011405208 -0.029508496 0.13476326
00000000: de2f 7abd 3b19 583d 53c5 5b3d 1a7c 74ba
00000010: 137b 093c 9f42 883c 03ae cd3c 94e3 70bc
00000020: 06d9 62bd 8362 c13b 660d 30bd 92c4 aabc
00000030: fb43 f1ba 88b5 713d ecfe 45bb 7a21 703d
00000040: f30c d93c 2f03 95bd d347 14bb 5b57 64bd
00000050: 27cb 2fbd 20a3 1fbc 39d5 4abd e306 543d
00000060: 1d6d 7b3c 5a0e a2bc 4a42 663d 7e34 493c
00000070: aa33 bf3c 7635 95bd 76c9 3f3c d72a 923d
00000080: 169e 3ebd 45f8 5bbd 06d8 523c d3e4 3fbd
00000090: 5805 023d e2d9 5b3d 85b4 94bd dfcb e83c
000000a0: 72b0 113d 3edf 28bd 86c2 3e3a ed91 91bc
000000b0: dc96 cbbc 53fc 4abd ca77 953d aad5 1fbc
000000c0: 8acb d73c 14f7 b13a 23fa 31bd 29f2 973c
000000d0: a35c 00bd 0a05 b8bc a024 82bd bfa0 493d
000000e0: e6a5 a0bc a9c3 49bd 762d 713d 67e0 4c3d
000000f0: 5390 8d3a 8060 df3c 5732 ecbb 2c0b 1e3d
00000100: 3231 a7bc 0d30 653c 3915 85bd eb58 40bd
00000110: c353 c1bc 3ad1 04bd cd91 2ebd 8525 4abd
00000120: bb0e 923d db68 2f3d 27ad 67bd 3f20 54bd
00000130: 53a7 1dbc c378 583d 8927 513d a368 bcbc
00000140: 58c7 5b3d 3fe6 37bc f6c6 6e3d ab5d 56bd
00000150: 1eb9 d5bc a812 4cbd 557e f8bc fceb e63c
00000160: 8e53 abbd 025e 39bb 2e5a edbc 4155 3dbd
00000170: 7e8a 273c c09f f33b 54dc 283d 1040 6bbc
00000180: fbf7 813c 6547 d7bc 7c19 56bd d25d 473d
00000190: 4e51 4fbd bc33 89bd 8e1a 9abd 5026 1e3c
000001a0: 25e4 363d 4503 933d 5420 503c 3e4d 983a
000001b0: 6436 43bd 0598 983c caf6 d53c 41f1 a5bc
000001c0: 8ef1 cf3c da10 feba df4a b1bc e5c8 043b
000001d0: 18d6 c93b 5a4c 9c3c 9246 f03c 3d62 893d
000001e0: 9eb7 38bd b4f2 963d 6fc9 1e39 6996 db3b
000001f0: 6ee8 1c3d d1bc e1bb 4b3c 86bc d2a6 bd3c
00000200: 2afc 4d3c fecb 5ebd 3401 843d 7934 b4bc
00000210: 0dd1 aa3c 0ecc a6bd 2750 10bc c992 eebc
00000220: 78d9 9dbd de2c 28bd 1e51 8fbb c444 3e3d
00000230: f78f 1e3d 338e c23c 2b16 b6bd c079 32bd
00000240: 5822 91bd 6b9f 143c 8fd3 5bbd 58d0 2a3d
00000250: 5b6f e4bc cf3e 8e3d f2c9 263d 98f8 023d
00000260: 6bd1 03bb 303a 8d3c d580 0d3d 7b3c 93bb
00000270: b717 823d effc 59bd 85ad a43d fc0f 98bc
00000280: 9d04 bebc 72e4 3dbd 9fe9 833b ad5b 3e3c
00000290: fd3f 3bbd cc76 913d 8427 42bd c119 263d
000002a0: ba6f 7a3b 0078 81bd fcd4 36bd d27d df3d
000002b0: ebfb e33c 7f6f 9c3d 2076 afbc 5c83 cf3c
000002c0: f587 e33b 66a2 7d3d 9aa1 86bb 6200 a33d
000002d0: cdb7 7b3d dc07 54bd 0af3 78bd d1ab 18bd
000002e0: 1879 253c f558 0cbd 381b c7bc b0c5 55bd
000002f0: 7a80 57bd 34f8 393c 053d 7a3c 2b39 983b
00000300: e6b7 943b 4b48 febc 992f babd f5d1 7dbd
00000310: 4292 fcbb 418c 02bd 7a81 553d c7bb 30bd
00000320: 59a0 663c fbbe 8a3d ef71 47bc 3b5e 243d
00000330: 5718 edbc ca61 c6bb 45eb cdbc e4da 2eba
00000340: 6ca6 2a3d f2bd a83c 4929 0cbc 28d7 79bc
00000350: b730 85bd ba45 c63d cb9b fa3d b9b3 983c
00000360: 7b3f 18bd fb5b 14bd 6c09 613c 16e9 e8bc
00000370: c9b1 4fbd eefe e2bc e22e db3c ef14 37bd
00000380: 607a 68bd 10a9 093d d9b4 38bc 9c92 cebc
00000390: 3633 47bd e3dc 5abc 8938 103d f5e8 97bd
000003a0: 8a18 953d c249 373d 6d85 b6bc 72ba 1f3d
000003b0: ba06 48bd 77de f6bc 75e8 cfbc 0f28 c3bc
000003c0: a45c 1d3c 3e4f 433d 336a 3fbd 73e6 023d
000003d0: 0e55 063d c7f4 b53d 9392 693d 7fa1 053d
000003e0: f1e8 1e3d 9e78 54bb 7d85 05bd 7917 da3c
000003f0: 3963 453c e9dc 3abc cdbb f1bc 61ff 093e

encoder.6.bias f4 [32]
-0.033760585 0.014821503 0.061363075 -0.054999493 -0.04932252 -0.024356978 0.052565727 -0.048057895
0.047013547 0.05878399 -0.011197494 0.06496122 0.024557933 0.05260683 0.022480085 -0.050295006
-0.08558206 0.013012225 -0.03769554 -0.052319236 0.07460008 0.01349292 -0.050467998 0.0057365377
0.005319381 0.053078786 -0.061132282 0.041242354 0.004804054 0.045622807 0.002100938 0.041631933
00000000: 8a48 0abd e4d5 723c d957 7b3d 2647 61bd
00000010: 6906 4abd 4988 c7bc 294f 573d 5bd8 44bd
00000020: 4791 403d 7bc7 703d b275 37bc 630a 853d
00000030: b82d c93c 427a 573d 2828 b83c 2302 4ebd
00000040: a645 afbd 3a31 553c a366 1abd b24c 56bd
00000050: edc7 983d 6911 5d3c 88b7 4ebd 91f9 bb3b
00000060: 344e ae3b 2469 593d d865 7abd beed 283d
00000070: 536b 9d3b fbde 3a3d e4af 093b 3f86 2a3d

decoder.0.weight f4 [32, 64, 4]
0.0155831 0.02770082 -0.08340783 0.03236264 0.010680129 0.02443348 0.058059167 0.04520612
0.008284545 -0.01526116 0.025072686 -0.07528069 -0.0069021643 -0.0672697 -0.013900154 -0.005149203
0.019798577 -0.04966951 -0.00862517 -0.023928644 0.016854953 0.0058492557 -0.06183337 0.035746213
0.0029267012 -0.030418104 -0.061484087 -0.100902185 0.06260221 0.02286962 0.003845508 0.002117218
0.0316568 -0.06479426 -0.040493548 -0.023164723 0.020015666 0.0035729427 0.05024089 0.020544404
0.035843406 0.04781204 -0.054294433 -0.05159595 0.01506148 -0.013280228 0.05012174 -0.009340233
-0.027645484 -0.02612605 0.007166244 -0.044430766 -0.023556521 0.03209213 -0.04577955 -0.038662203
-0.05087308 0.0010720093 -0.041939292 0.026819829 -0.049619608 0.03204945 0.00066646066 0.02419984
-0.08450418 -0.023976076 0.03439521 -0.0913266 0.029516477 0.043704163 0.021224907 0.05004422
0.07698795 0.020902507 0.04364242 -0.0059495256 0.02755082 -0.018260624 0.0073304856 -0.025982661
0.018261345 0.012738017 -0.019998504 -0.045372613 0.016888998 -0.014869138 -0.01028389 0.031166878
-0.040347833 0.053253114 -0.016305286 0.0028301023 -0.025223397 -0.019742506 0.039084356 0.0051454324
-0.028315283 0.02790182 0.029154181 -0.04872526 -0.027709948 -0.0054781237 0.007467919 0.019790668
0.02971263 0.0077463603 0.03002037 -0.051504273 -0.019694656 0.055238184 -0.03489844 0.04352111
-0.047136784 0.00909669 0.0393264 -0.060509972 0.0051203053 0.013247092 -0.06392359 -0.053166285
-0.038669385 0.027616931 -0.044541523 0.04571118 -0.008572978 -0.0022186618 -0.062176682 0.02538152
-0.0437619 -0.039051116 -0.00548081 -0.027928133 0.03701392 -0.02258576 -0.011821578 -0.048378028
-0.04996368 -0.055061337 0.047547318 -0.053300947 -0.056562763 -0.046939194 -0.042776827 0.032977033
0.014080021 0.012544972 -0.012592896 -0.032102507 0.05246522 0.025543798 -0.020633718 0.052754615
0.028793877 -0.028002014 -0.004826216 -0.017459322 0.04392769 0.006826813 -0.055798516 0.045344826
0.051847864 -0.014674206 -0.06195108 -0.063395865 -0.006978528 0.03275268 -0.06597002 0.036687855
0.028669719 -0.0100989975 0.027001804 0.06369313 -0.00035147715 -0.030928684 -0.028762981 -0.039179288
-0.03339385 0.013724307 0.060871325 -0.034134105 -0.04564529 -0.027756162 0.040742867 0.042581066
-0.0064220205 0.0034963132 -0.060343366 -0.049232956 0.076966554 0.045867797 0.03140691 0.034173887
-0.0042538843 0.024427611 0.06849586 -0.008031031 0.01070218 -0.0828856 0.03969047 0.05039209
-0.044349298 -0.027273363 -0.024114333 0.040175922 0.011225551 -0.03454489 0.040297467 -0.056318015
0.035931468 0.03486883 -0.015779918 0.013348324 -0.021999676 0.037348725 -0.03876577 0.016234064
0.016097492 0.03963579 -0.02035607 -0.014991918 -0.02956584 0.036282923 0.041156825 -0.050780468
-0.01818729 -0.037736062 -0.0026265988 0.028464913 -0.07361783 0.0024863875 -0.052673496 0.01956874
-0.024752233 0.034804177 -0.058529347 -0.019345174 -0.022278933 -0.030361822 -0.025461504 -0.031021709
0.023043608 -0.048227742 0.024846599 0.051218957 -0.07645009 0.038948048 0.054245602 -0.033857215
-0.0035340253 0.05981944 -0.0003535293 0.02641309 -0.0046145082 -0.0073521286 -0.013239259 -0.012011856
00000000: 4250 7f3c d4ec e23c b9d1 aabd b08e 043d
00000010: b5fb 2e3c b928 c83c 73cf 6d3d 0d2a 393d
00000020: e6bb 073c f209 7abc 3c65 cd3c c32c 9abd
00000030: 8d2b e2bb b2c4 89bd 79bd 63bc a5ba a8bb
00000040: a030 a23c 4272 4bbd 9650 0dbc 0106 c4bc
00000050: 6613 8a3c 1dab bf3b fd44 7dbd 9f6a 123d
00000060: e6cd 3f3b 632f f9bc bdd6 7bbd cea5 cebd
00000070: 9635 803d 1259 bb3c eb04 7c3b 06c1 0a3b
00000080: 90aa 013d dab2 84bd 90dc 25bd f2c3 bdbc
00000090: e5f7 a33c 0828 6a3b 64c9 4d3d bd4c a83c
000000a0: 89d0 123d 8fd6 433d d763 5ebd 4656 53bd
000000b0: 6dc4 763c 5095 59bc 744c 4d3d c707 19bc
000000c0: c878 e2bc 4c06 d6bc d0d2 ea3b 09fd 35bd
000000d0: 9bf9 c0bc 0a73 033d 5683 3bbd 425c 1ebd
000000e0: 4a60 50bd aa82 8c3a 89c8 2bbd 42b5 db3c
000000f0: ee3d 4bbd 4946 033d 6bb5 2e3a be3e c63c
00000100: 8710 adbd 7a69 c4bc fee1 0c3d 7109 bbbd
00000110: 8acc f13c 2303 333d dbdf ad3c 2bfb 4c3d
00000120: dcab 9d3d bc3b ab3c 65c2 323d 3df4 c2bb
00000130: 42b2 e13c 4e97 95bc 9234 f03b 97d9 d4bc
00000140: d198 953c 1eb3 503c e7d3 a3bc a2d8 39bd
00000150: cc5a 8a3c af9d 73bc c37d 28bc ae51 ff3c
00000160: c543 25bd f01f 5a3d aa92 85bc 3d79 393b
00000170: 4ca1 cebc 09bb a1bc eb16 203d 049b a83b
00000180: 74f5 e7bc 5c92 e43c c0d4 ee3c 2394 47bd
00000190: f9ff e2bc d581 b3bb 72b5 f43b 0a20 a23c
000001a0: e767 f33c 2ed5 fd3b 47ed f53c 25f6 52bd
000001b0: b056 a1bc 6f41 623d abf1 0ebd 3143 323d
000001c0: 8012 41bd 490a 153c b814 213d 4ed9 77bd
000001d0: 3cc8 a73b 550a 593c 5fea 82bd e4c4 59bd
000001e0: ca63 1ebd e73c e23c 2c71 36bd a53b 3b3d
000001f0: ad75 0cbc f866 11bb faac 7ebd e8ec cf3c
00000200: ae3f 33bd 10f4 1fbd 5e98 b3bb 8ac9 e4bc
00000210: e89b 173d c605 b9bc 4baf 41bc 0a28 46bd
00000220: b7a6 4cbd ff87 61bd fac0 423d 1852 5abd
00000230: 5bae 67bd 5043 40bd c136 2fbd ed12 073d
00000240: e3af 663c 6d89 4d3c 6f52 4ebc eb7d 03bd
00000250: c5e5 563d 3a41 d13c 0b08 a9bc 3915 583d
00000260: 23e1 eb3c 7b64 e5bc 3c25 9ebb da06 8fbc
00000270: 85ed 333d 75b3 df3b fc8c 64bd 7fbb 393d
00000280: 6d5e 543d 156c 70bc 6ac0 7dbd b1d5 81bd
00000290: 23ac e4bb ad27 063d 4a1b 87bd 0146 163d
000002a0: c2dc ea3c 4476 25bc e332 dd3c 8b71 823d
000002b0: 7746 b8b9 275e fdbc 58a0 ebbc 767a 20bd
000002c0: fdc7 08bd eadb 603c 3654 793d 34d0 0bbd
000002d0: 8ef6 3abd e460 e3bc fee1 263d 7c69 2e3d
000002e0: d06f d2bb 6722 653b 9b2a 77bd 7fa8 49bd
000002f0: a4a0 9d3d dfdf 3b3d 88a4 003d ebf9 0b3d
00000300: 2b64 8bbb 6a1c c83c 8f47 8c3d 9694 03bc
00000310: 3258 2f3c edbf a9bd 7992 223d f067 4e3d
00000320: 9ca7 35bd 636c dfbc 6c8b c5bc 828f 243d
00000330: 60eb 373c f17e 0dbd f50e 253d b8ad 66bd
00000340: e02c 133d 9ed2 0e3d e344 81bc eeb2 5a3c
00000350: aa38 b4bc fafa 183d dbc8 1ebd 4dfd 843c
00000360: e3de 833c 2359 223d c6c1 a6bc a9a0 75bc
00000370: 0f34 f2bc 679d 143d 0f94 283d 2eff 4fbd
00000380: 83fd 94bc 2191 1abd 0423 2cbb 402f e93c
00000390: f2c4 96bd a9f2 223b 2ac0 57bd 9f4e a03c
000003a0: 32c5 cabc d38e 0e3d 78bc 6fbd c579 9ebc
000003b0: 4f82 b6bc 5bb9 f8bc a594 d0bc 3d21 febc
000003c0: f3c5 bc3c 748a 45bd 188b cb3c f8ca 513d
000003d0: dd91 9cbd fd87 1f3d a330 5e3d ddad 0abd
000003e0: 1b9b 67bb 3b05 753d e659 b9b9 4460 d83c
000003f0: 4d35 97bb 20ea f0bb 7ae9 58bc 60cd 44bc

decoder.0.bias f4 [64]
0.0041841753 -0.02458413 0.01080617 -0.014122068 0.0049795224 0.003643025 0.053693533 0.044519298
-0.021942498 0.017803714 0.02006316 -0.05255453 0.0447651 0.05467155 0.021956278 0.024969181
0.031322107 -0.012894286 -0.009134514 -0.020930327 0.0024590308 -0.038867954 0.0024068996 -0.0054723276
-0.009854374 -0.03703657 -0.042307884 -0.048989225 0.018994778 -0.021937823 -0.011288182 -0.025841968
-0.03107335 0.004206084 0.053415544 -0.017762233 -0.029976506 -0.055513877 0.017143298 -0.015037461
0.013763778 0.051803403 0.041989326 -0.0253254 0.052305937 -0.032380812 0.0027789602 0.056940556
0.012692144 0.029947415 0.029033953 -0.026821002 0.006397914 0.011227174 0.02736932 -0.004592986
-0.017446687 0.03375612 0.047947127 -0.040916402 -0.0069387336 -0.04882012 0.014333825 -0.035477668
00000000: 681b 893b a864 c9bc 5d0c 313c 3f60 67bc
00000010: 432b a33b d1bf 6e3b c0ed 5b3d de59 363d
00000020: c1c0 b3bc 18d9 913c 7f5b a43c 6b43 57bd
00000030: 9c5b 373d 46ef 5f3d a7dd b33c 2b8c cc3c
00000040: 9c4b 003d 8e42 53bc eea8 15bc 1476 abbc
00000050: b127 213b 0134 1fbd 13bd 1d3b 3651 b3bb
00000060: 3e74 21bc a9b3 17bd 084b 2dbd eda8 48bd
00000070: f09a 9b3c f3b6 b3bc 11f2 38bc 89b2 d3bc
00000080: 8a8d febc 31d3 893b 42ca 5a3d 1a82 91bc
00000090: 4a91 f5bc 8562 63bd 1a70 8c3c af5f 76bc
000000a0: 7881 613c ce2f 543d 00fd 2b3d 3777 cfbc
000000b0: c03e 563d bea1 04bd 371f 363b 803a 693d
000000c0: b6f2 4f3c 4854 f53c 9dd8 ed3c b8b7 dbbc
000000d0: 98a5 d13b 2ef2 373c a035 e03c c280 96bb
000000e0: 5bec 8ebc db43 0a3d 3564 443d f597 27bd
000000f0: 515e e3bb 9bf7 47bd 6bd8 6a3c 0851 11bd

decoder.2.weight f4 [64, 128, 4]
-0.024801584 -0.04934167 -0.015576864 -0.021270297 -0.04543527 0.005147428 0.0021860336 0.004924166
-0.04622428 -0.017595531 0.02319303 -0.040440213 -0.025838275 0.006356935 -0.0017727498 0.048576698
0.0112532675 -0.055637117 -0.040204003 -0.017629884 0.011095066 0.035007358 -0.002985793 -0.009582961
0.016938033 0.022850832 -0.013166993 0.01782864 -0.040414315 -0.05561392 0.010219012 -0.017960612
-0.023905423 0.03248569 -0.022987913 -0.034648236 -0.013852144 0.008547669 -0.0031320564 0.01041969
0.0018820263 -0.014308728 -0.023478271 0.04216308 -0.051924404 0.0048225946 -0.045443293 -0.011335174
-0.037166618 0.016478227 -0.019989252 -0.002846846 -0.032823242 0.0284455 0.02865795 -0.01654925
-0.033156335 -0.01538242 -0.04569155 0.025087269 0.007196142 0.032108087 -0.039580654 -0.05527702
-0.002162743 -0.040765893 0.03455863 0.023147592 -0.01816595 -0.015302743 0.020649372 0.018618966
0.033680025 -0.012073948 0.0504898 -0.0024197875 0.012804889 -0.005325156 -0.029131722 -0.024980942
0.022831306 0.030770434 0.0061786394 0.03194893 -0.008510892 -0.008862807 0.03515325 0.016264196
-0.026064465 0.02484223 -0.004284409 0.029015016 -0.0049208594 -0.016751347 0.018645557 -0.023746187
0.023931952 -0.03763036 0.040935926 -0.00606948 0.019022843 -0.0075080628 0.020283334 0.0049739797
-0.03206924 -0.0056555765 0.028662741 -0.01926176 0.0065780007 -0.018585369 -0.028215822 -0.014639077
-0.011435786 -0.04237406 0.0014504938 -0.008732606 -0.026997639 0.051109895 0.005845316 0.045979597
-0.021311326 0.033400323 0.046521433 0.0053249057 -0.014692857 0.013111351 -0.024594167 -0.029263513
-0.029763559 0.002076832 -0.019050544 -0.049193688 -0.009819929 -0.03356168 -0.013765537 -0.046515588
-0.016615698 -0.014267364 0.02777897 -0.048699044 0.030497858 0.03399909 -0.009811102 0.008989267
-0.031466868 0.03756208 0.010922564 0.025675092 -0.02353272 -0.06981022 -0.02763762 -0.01708034
-0.032743655 -0.0283195 0.01254127 -0.018996239 0.0013886896 -0.00023163106 0.009375802 0.019790567
0.022181626 0.030759392 -0.028721537 -0.015620742 0.01716427 -0.016353931 -0.00023373369 0.03483475
-0.017778287 0.01972703 -0.024398342 0.0136937015 -0.020611752 0.0031272196 -0.0387648 -0.036569368
0.0085976105 0.047464006 -0.0020959931 0.03592527 -0.0021047178 0.028735675 0.026621442 0.027035827
0.022166103 -0.012224771 -0.026045896 -0.002228207 -0.01929779 -0.052169446 -0.037542764 -0.03039477
-0.02438788 0.0019056073 0.0021090235 0.0017047182 -0.0033224763 -0.030738048 -0.026453506 -0.022620255
-0.03297015 0.009438585 0.04800575 0.024360226 0.05042384 0.060061272 0.03358688 -0.0014434939
0.04970351 0.0045547816 0.0007763408 0.021044943 -0.0018955135 -0.028163964 -0.011910799 0.036773782
-0.01432595 0.0035538475 0.02159197 0.00539923 0.05923679 -0.020276539 0.018358542 -0.037140913
0.050067212 0.02098832 0.0048416774 -0.033682495 0.033799443 -0.04852696 0.024876166 -0.049626384
-0.00023693772 0.0021032167 -0.006931725 -0.008022342 -0.014192352 0.036898065 0.039143752 0.008337235
-0.0064137843 0.0033400785 0.042288 -0.033493258 -0.031169044 0.021185022 -0.034739 0.0043408857
0.016711412 0.042649075 0.02445134 -0.025521707 0.049843866 0.0028126503 0.029768083 -0.018994147
00000000: b12c cbbc 7e1a 4abd 1a36 7fbc 0c3f aebc
00000010: 551a 3abd c1ab a83b 8f43 0f3b e65a a13b
00000020: ac55 3dbd 8124 90bc 4fff bd3c a3a4 25bd
00000030: caaa d3bc d64d d03b 9d5b e8ba 5cf8 463d
00000040: a05f 383c bfe3 63bd f4ac 24bd 8c6c 90bc
00000050: 14c8 353c e063 0f3d 4bad 43bb da01 1dbc
00000060: a1c1 8a3c ab31 bb3c 5fba 57bc 5e0d 923c
00000070: 7b89 25bd 6ccb 63bd a56d 273c 2222 93bc
00000080: 4ed5 c3bc b70f 053d 2651 bcbc 4feb 0dbd
00000090: 1af4 62bc 860b 0c3c 3043 4dbb 59b7 2a3c
000000a0: 53ae f63a 286f 6abc 8155 c0bc 32b3 2c3d
000000b0: afae 54bd db06 9e3b bf22 3abd 2ab7 39bc
000000c0: 063c 18bd 59fd 863c 80c0 a3bc 2692 3abb
000000d0: aa71 06bd 8a06 e93c 14c4 ea3c 4b92 87bc
000000e0: f0ce 07bd 8c06 7cbc 1027 3bbd d183 cd3c
000000f0: 9dcd eb3b c583 033d 531f 22bd 286a 62bd
00000100: cebc 0dbb 23fa 26bd 5a8d 0d3d 05a0 bd3c
00000110: c2d0 94bc 5bb8 7abc df28 a93c cd86 983c
00000120: 11f4 093d cfd1 45bc 64ce 4e3d 4c95 1ebb
00000130: 99cb 513c a57e aebb a6a5 eebc d5a4 ccbc
00000140: b808 bb3c 4712 fc3c 2f76 ca3b e2dc 023d
00000150: 4571 0bbc 4f35 11bc dbfc 0f3d 7e3c 853c
00000160: 2585 d5bc ef81 cb3c 3a64 8cbb e6b0 ed3c
00000170: 293f a1bb 1f3a 89bc 91be 983c 5d87 c2bc
00000180: f10c c43c 4b22 1abd 6eac 273d 7de2 c6bb
00000190: cbd5 9b3c 3206 f6bb 3c29 a63c c4fc a23b
000001a0: 095b 03bd 6a52 b9bb 20ce ea3c d7ca 9dbc
000001b0: 458c d73b 5840 98bc de24 e7bc bdd8 6fbc
000001c0: 2a5d 3bbc 6c90 2dbd 7f1e be3a 3413 0fbc
000001d0: 272a ddbc 9c58 513d 118a bf3b 1a55 3c3d
000001e0: 1795 aebc c7ce 083d 428d 3e3d 8c7c ae3b
000001f0: 4fba 70bc fed0 563c b579 c9bc 09ba efbc
00000200: b5d2 f3bc 761b 083b e30f 9cbc 527f 49bd
00000210: c4e3 20bc f977 09bd d988 61bc 2187 3ebd
00000220: a51d 88bc a9c1 69bc b990 e33c a678 47bd
00000230: a5d6 f93c a142 0b3d bfbe 20bc b847 133c
00000240: 67e3 00bd b2da 193d 8ef4 323c 9254 d23c
00000250: b1c7 c0bc a9f8 8ebd 4a68 e2bc 12ec 8bbc
00000260: 361e 06bd 4cfe e7bc e679 4d3c 009e 9bbc
00000270: b104 b63a fde1 72b9 f79c 193c d41f a23c
00000280: 3eb6 b53c 1ffb fb3c 6e49 ebbc 24ee 7fbc
00000290: 159c 8c3c aef8 85bc 6916 75b9 e2ae 0e3d
000002a0: c5a3 91bc 959a a13c 08df c7bc 8c5b 603c
000002b0: fad9 a8bc 0af2 4c3b d7c7 1ebd c3c9 15bd
000002c0: fedc 0c3c 9e69 423d ee5c 09bb 6026 133d
000002d0: 4eef 09bb 1467 eb3c 3615 da3c 3d7a dd3c
000002e0: b095 b53c 684a 48bc 345e d5bc 1c07 12bb
000002f0: 6616 9ebc a1af 55bd 71c6 19bd 74fe f8bc
00000300: 17c9 c7bc 92c5 f93a 8b37 0a3b da70 df3a
00000310: e7bd 59bb 5cce fbbc 06b5 d8bc 1d4e b9bc
00000320: b50b 07bd 4ba4 1a3c ada1 443d 198f c73c
00000330: 3a89 4e3d cf02 763d 6592 093d 9e33 bdba
00000340: e895 4b3d 4740 953b 5983 4b3a 7266 ac3c
00000350: e172 f8ba 1db8 e6bc 8325 43bc 1ba0 163d
00000360: 64b7 6abc abe7 683b a5e1 b03c 06ec b03b
00000370: 47a2 723d fc1a a6bc a764 963c 1221 18bd
00000380: 4713 4d3d b2ef ab3c efa6 9e3b a8f6 09bd
00000390: 4971 0a3d 35c4 46bd 1ac9 cb3c 0945 4bbd
000003a0: 7c72 78b9 1fd6 093b 8623 e3bb 2470 03bc
000003b0: 0a87 68bc 6d22 173d 3355 203d e698 083c
000003c0: b92a d2bb 38e5 5a3b 2f36 2d3d 3a30 09bd
000003d0: 3956 ffbc 368c ad3c 7b4a 0ebd fd3d 8e3b
000003e0: 5fe6 883c ccb0 2e3d 2d4e c83c e612 d1bc
000003f0: 1529 4c3d 7154 383b 32dc f33c 9d99 9bbc

decoder.2.bias f4 [128]
-0.0045320317 -0.00013113124 -0.03352569 -0.000770178 0.03192358 -0.01623705 0.023882281 0.02640407
-0.01492917 0.036042966 0.014106066 0.03581907 0.0023780297 -0.024144555 -0.003168262 0.008363586
-0.034086496 0.033308163 0.010633384 0.019334817 0.015592355 0.027156083 0.02169893 -0.028188154
-0.04777902 -0.014615311 0.04142681 0.008821629 -0.04091454 -0.034184895 -0.006128949 0.017853323
0.00716712 -0.00083952624 0.02444685 0.030769473 0.013805708 0.026427304 -0.014762433 -0.0012196155
-0.007930806 0.011160948 0.029907683 -0.03080754 -0.024258377 0.0004241289 0.028547136 0.029205475
-0.0062424736 0.0075368322 0.03637305 0.00022503543 -0.015770063 0.017350677 0.01466075 -0.015645713
0.033270296 -0.016970444 0.024442181 0.0053551923 -0.026452914 0.04740685 0.033132244 -0.005759913
0.028499203 0.0072081056 0.01470052 0.024388209 0.034792703 0.03854277 -0.014048397 0.018352808
-0.0047181854 0.003911684 0.0029469577 0.0012485029 0.030243255 -0.020513635 0.024625877 0.024118692
0.004254011 0.02524647 -0.037256844 0.0075763096 -0.01977117 -0.008469972 -0.032311544 0.042687654
-0.028639304 0.005856769 0.032929424 -0.023057016 0.020287018 0.033814438 -0.029120054 -0.011564225
-0.017967675 0.039363988 0.033969287 0.04388817 0.016945357 0.025975661 0.017850682 0.03650364
0.0047148475 0.0004064665 0.012016528 -0.031350516 0.0012151749 0.00827712 -0.009179638 -0.0022833608
0.02191301 -0.0006198378 0.010972136 -0.026754728 0.031815376 0.018443918 -0.01217652 -0.011497111
-0.02978094 -0.0016866077 -0.043265555 0.043630574 -0.014035639 0.038430206 -0.007779803 -0.03463234
00000000: 7081 94bb 4680 09b9 3c52 09bd c5e5 49ba
00000010: 4dc2 023d 9003 85bc c6a4 c33c 594d d83c
00000020: 7a99 74bc caa1 133d 211d 673c 04b7 123d
00000030: b8d8 1b3b cdca c5bc 9ea2 4fbb 6c07 093c
00000040: 489e 0bbd 246e 083d a537 2e3c 0d64 9e3c
00000050: 1477 7f3c 6f76 de3c f4c1 b13c d8ea e6bc
00000060: efb3 43bd 0f75 6fbc 29af 293d 9888 103c
00000070: 0196 27bd 7605 0cbd 5ad5 c8bb 2241 923c
00000080: 29da ea3b a713 5cba c344 c83c 4310 fc3c
00000090: 5631 623c 137e d83c 22de 71bc 81db 9fba
000000a0: 36f0 01bc 69dc 363c f500 f53c 1860 fcbc
000000b0: 81b9 c6bc 9e5d de39 afdb e93c 5240 ef3c
000000c0: aa8d ccbb 88f7 f63b e8fb 143d 7df7 6b39
000000d0: 3830 81bc 0223 8e3c a433 703c 702b 80bc
000000e0: 6f46 083d 9a05 8bbc f83a c83c 9c7a af3b
000000f0: c8b3 d8bc af2d 423d adb5 073d a7bd bcbb
00000100: 2977 e93c f931 ec3b 73da 703c c8c9 c73c
00000110: cb82 0e3d 06df 1d3d 3f2b 66bc a158 963c
00000120: 029b 9abb 952d 803b bf21 413b cea4 a33a
00000130: b4c0 f73c 360c a8bc 35bc c93c 9094 c53c
00000140: 3b65 8b3b afd1 ce3c a29a 18bd b142 f83b
00000150: 26f7 a1bc a3c5 0abc 1c59 04bd 40d9 2e3d
00000160: f99c eabc 24ea bf3b 01e1 063d 11e2 bcbc
00000170: f630 a63c 0281 0a3d 2e8d eebc e077 3dbc
00000180: f230 93bc 223c 213d 6123 0b3d 15c4 333d
00000190: fdd0 8a3c e9ca d43c 983b 923c d784 153d
000001a0: 027f 9a3b 031b d539 f9e0 443c 6669 00bd
000001b0: 8146 9f3a c29c 073c 3166 16bc 70a4 15bb
000001c0: ea82 b33c 9c7c 22ba 79c4 333c bb2c dbbc
000001d0: d750 023d b317 973c 0780 47bc 615e 3cbc
000001e0: 28f7 f3bc 2a11 ddba 3937 31bd f9b5 323d
000001f0: bdf5 65bc fe68 1d3d b8ed febb a4da 0dbd

decoder.4.weight f4 [128, 1, 4]
0.13709585 0.5050813 0.28189117 -0.110821754 0.43990967 0.32727405 0.23952684 0.010962046
-0.35236552 -0.45241553 -0.11127361 -0.39648843 -0.17498215 -0.4608298 -0.15597099 0.114851885
0.08635935 0.37509096 0.1515605 0.12498332 -0.13195233 0.11811582 -0.08487777 -0.37147662
-0.48297945 -0.29677793 0.4030421 0.15181184 0.2628383 0.44189316 -0.08116071 -0.24722645
0.43906972 -0.3107983 -0.29864913 0.5087683 -0.32969606 0.4426743 0.33659655 0.008586967
0.11391134 0.1913086 -0.23288515 -0.31483328 0.08458983 0.38059455 0.20628937 -0.38155013
0.2181094 -0.47478396 0.37475124 0.19151868 0.4690876 -0.02383128 0.43673915 -0.1453003
0.008031451 0.20206589 -0.18165864 0.4101739 0.12245648 0.24114183 -0.11799361 0.09449916
-0.101309635 -0.42598772 -0.031510327 -0.23675027 -0.3678676 0.29028156 -0.35933724 0.45331815
-0.12002458 -0.11357262 -0.041760202 -0.16629043 -0.19919802 0.061661888 0.08906672 -0.053546518
-0.08323984 0.23581629 0.019758137 -0.43960688 0.17403302 0.4533868 -0.3140839 0.35795903
0.31923681 -0.1741356 0.24223736 -0.26108217 0.43811616 -0.41025385 -0.3396609 -0.1396784
0.2502776 -0.41950184 0.47722805 -0.39802566 0.1589838 -0.13900289 0.39310429 0.4988964
-0.4948533 0.33848867 0.49540135 0.08758363 -0.14545844 0.34371808 -0.36932945 0.083542585
-0.4843905 0.024250757 -0.4384541 0.49054834 0.4360781 -0.045172434 -0.340775 0.21520334
0.27457765 0.15502384 -0.34653577 -0.07196993 0.39067852 -0.41603082 -0.36256158 0.045028556
0.28390387 0.34225538 0.2565896 -0.2538922 0.16115879 0.25096968 0.02260634 0.29884467
0.20169523 0.3287491 0.10631358 -0.027058464 0.35113305 -0.3223136 -0.25409982 -0.42619884
0.16974503 0.10086987 -0.41892862 -0.12680772 -0.22569822 0.49747637 0.3526981 -0.4461813
0.3756892 -0.19423354 0.39221764 0.075106 -0.026701365 0.24977551 -0.38982514 0.055779003
-0.27825367 -0.14670539 -0.14011917 -0.41962335 0.13671829 -0.016538784 0.37783766 0.38343728
0.46954194 -0.037385095 -0.056863517 -0.48986176 -0.075490884 0.48003843 -0.42803228 -0.109869435
-0.022071157 0.31912413 -0.43525046 -0.2814162 0.22609587 -0.25549647 0.26599932 0.38953075
0.49335688 0.23209372 -0.46195668 -0.058055636 0.261152 0.30944487 -0.34576938 0.09296364
-0.4176752 0.4104409 0.17365637 -0.32565984 0.4176177 -0.08789955 0.4011289 0.37058112
0.22313209 -0.18647987 -0.48233238 -0.057114508 -0.50585574 0.020845268 -0.14256065 0.019368079
0.08785061 0.23372518 0.04058561 -0.054723132 0.04317879 0.25518912 0.32501346 0.277953
0.056346737 -0.29987788 0.07442512 0.060743548 0.20242415 -0.2547944 -0.2851503 0.0073780813
-0.22090064 -0.40351206 0.43204176 0.030989418 -0.0026298687 -0.14085597 -0.45234895 -0.26914874
0.41892585 0.4136303 0.4720384 0.110395946 0.3017964 -0.46215376 -0.36825112 -0.20862725
0.32225376 -0.38008595 0.2272047 0.39538983 -0.054887082 -0.46277937 0.40024757 0.10791764
-0.26794687 0.34304765 -0.49070615 0.31283095 -0.37211287 -0.18509693 -0.22887357 0.14072388
00000000: db62 0c3e 024d 013f 0a54 903e 84f6 e2bd
00000010: d73b e13e 7790 a73e 8646 753e 279a 333c
00000020: 4169 b4be 02a3 e7be 6be3 e3bd 8800 cbbe
00000030: 852e 33be e2f1 ebbe dcb6 1fbe 7737 eb3d
00000040: 2cdd b03d ec0b c03e ad32 1b3e 41f7 ff3d
00000050: 831e 07be b5e6 f13d 65d4 adbd 2f32 bebe
00000060: 1549 f7be 47f3 97be 895b ce3e 9074 1b3e
00000070: be92 863e d23f e23e 9637 a6bd ee28 7dbe
00000080: bfcd e03e f420 9fbe 8ae8 98be a43e 023f
00000090: eccd a8be 35a6 e23e 6256 ac3e 5ab0 0c3c
000000a0: 594a e93d 67e6 433e 7279 6ebe d431 a1be
000000b0: 6f3d ad3d 4add c23e 853d 533e 8a5a c3be
000000c0: 1258 5f3e e216 f3be 65df bf3e 791d 443e
000000d0: 402c f03e d139 c3bc 469c df3e 9ac9 14be
000000e0: 5996 033c 5cea 4e3e b904 3abe 5002 d23e
000000f0: 77ca fa3d e2ed 763e a2a6 f1bd c788 c13d
00000100: 6d7b cfbd 101b dabe f910 01bd aa6e 72be
00000110: 2459 bcbe c99f 943e 0dfb b7be 5119 e83e
00000120: 72cf f5bd c398 e8bd bf0c 2bbd 0a48 2abe
00000130: 91fa 4bbe 2d91 7c3d 9d68 b63d 9853 5bbd
00000140: a679 aabd d379 713e d1db a13c 2714 e1be
00000150: b635 323e 5122 e83e 9bcf a0be 6846 b73e
00000160: 0273 a33e 9a50 32be 120d 783e 90ac 85be
00000170: c350 e03e cb0c d2be 09e8 adbe db07 0fbe
00000180: 6324 803e f2c8 d6be 3c57 f43e 05ca cbbe
00000190: a6cc 223e c656 0ebe f744 c93e 596f ff3e
000001a0: 695d fdbe 634e ad3e 3fa5 fd3e 0c5f b33d
000001b0: 0ff3 14be d1fb af3e c018 bdbe 6018 ab3d
000001c0: 0802 f8be 86a9 c63c 0e7d e0be 2729 fb3e
000001d0: a145 df3e bb06 39bd 107a aebe 445e 5c3e
000001e0: 7195 8c3e 92be 1e3e 236d b1be f864 93bd
000001f0: 0407 c83e fe01 d5be aca1 b9be dd6f 383d
00000200: d95b 913e 193c af3e b65f 833e 29fe 81be
00000210: cf06 253e 197f 803e ee30 b93c 2b02 993e
00000220: 3289 4e3e cd51 a83e efba d93d b6a9 ddbc
00000230: b6c7 b33e 4a06 a5be 5f19 82be bc36 dabe
00000240: a4d1 2d3e dd94 ce3d d07d d6be e2d9 01be
00000250: 6f1d 67be 39b5 fe3e d894 b43e e071 e4be
00000260: 565a c03e 28e5 46be c0d0 c83e 2dd1 993d
00000270: d2bc dabc 27c5 7f3e 2997 c7be 8678 643d
00000280: 4477 8ebe f039 16be 667b 0fbe dfd8 d6be
00000290: e1ff 0b3e 587c 87bc f073 c13e e451 c43e
000002a0: cd67 f03e 1d21 19bd b8e9 68bd 29cf fabe
000002b0: f79a 9abd 99c7 f53e 0c27 dbbe 3a03 e1bd
000002c0: 92ce b4bc 3d64 a33e 26d9 debe c915 90be
000002d0: ad85 673e 6fd0 82be 1031 883e 9370 c73e
000002e0: 4699 fc3e faa9 6d3e 9685 ecbe bfcb 6dbd
000002f0: b7b5 853e 8f6f 9e3e af08 b1be b963 be3d
00000300: 86d9 d5be 4f25 d23e fad2 313e e3bc a6be
00000310: fdd1 d53e ae04 b4bd c460 cd3e cfbc bd3e
00000320: bd7c 643e 94f4 3ebe 45f4 f6be e7f0 69bd
00000330: c37f 01bf b2c3 aa3c 6bfb 11be cea9 9e3c
00000340: 05eb b33d a755 6f3e 193d 263d 5d25 60bd
00000350: 3edc 303d 26a8 823e 2a68 a63e db4f 8e3e
00000360: d6cb 663d 9889 99be 336c 983d 3ace 783d
00000370: 4748 4f3e 6974 82be 38ff 91be d5c3 f13b
00000380: c733 62be 2299 cebe 9434 dd3e 85dd fd3c
00000390: e059 2cbb 8c3c 10be 489a e7be ddcd 89be
000003a0: 737d d63e 5ac7 d33e 04af f13e 4517 e23d
000003b0: 0f85 9a3e 6b9f ecbe 698b bcbe 62a2 55be
000003c0: 72fe a43e a09a c2be 59a8 683e 8970 ca3e
000003d0: 47d1 60bd 6bf1 ecbe 40ed cc3e ec03 dd3d
000003e0: 5530 89be f1a3 af3e d63d fbbe 612b a03e
000003f0: 9485 bebe 0d8a 3dbe d55d 6abe ec19 103e
