notebooks/epoch=1-step=1578.ckpt (torch, 892416 bytes, 33 tensors)

encoder.0.weight f4 [128, 1, 3]
000000 cd 7d cf bd 87 80 d2 3e 01 50 e4 3e 7f 26 f8 be
       -0.101314165 0.41113684 0.44592288 -0.4846687
000010 9f 85 b6 be 8b 19 94 3e 8d a1 ca be 6b f3 68 bc
       -0.3564882 0.28925738 -0.39576378 -0.014218192
000020 e0 2c 67 bd dc 12 ba 3e ea 67 0c bf dd 7d 98 be
       -0.05643928 0.36342514 -0.5484606 -0.29783526
000030 81 a3 e7 be ad 47 ad 3e 33 61 89 bd 73 69 aa be
       -0.4524193 0.33843747 -0.067079924 -0.33283576
000040 6f 7e dd be e1 f0 96 be bc e0 0d bf a4 6d 02 3f
       -0.43260524 -0.2948065 -0.5542104 0.5094855
000050 d9 8a 15 be 43 10 ff 3d f4 fe 92 3e 2e 91 1e be
       -0.14603747 0.124542736 0.2871014 -0.15485069
000060 5b 6e 04 3f 76 d4 fe bc 79 73 bc 3e 79 52 73 3e
       0.5173089 -0.031107169 0.3680685 0.2376193
000070 aa 59 a4 bd bc 9e 98 3e 01 7c ce 3e 9e 8c f0 be
       -0.080249146 0.29808605 0.40328982 -0.46982282
000080 e6 ca 9f be 34 eb a0 bd 2a ab f0 be 8d e9 a7 be
       -0.31209487 -0.078573614 -0.47005588 -0.32795373
000090 cf a7 e2 be c9 98 0e bf b3 ae 83 be 4c 2f bb be
       -0.44268653 -0.5570188 -0.25719222 -0.36559522
0000a0 1a a2 b4 be ee 60 54 3e 30 ca ef be 1b ed 3b 3e
       -0.35279924 0.207401 -0.46833944 0.18352167
0000b0 d5 1b 03 be aa 0b 91 3c ec 0d ee 3e 0f be 0d 3f
       -0.12803586 0.017705757 0.46494997 0.5536813
0000c0 81 bc 03 3f 04 b4 f9 3d 13 a4 e4 3e fc 3e 93 be
       0.5145951 0.121925384 0.4465643 -0.2875899
0000d0 78 f8 d9 bd 9d 2e 51 3e 06 53 83 be 28 f5 00 3e
       -0.10643095 0.20427938 -0.2564928 0.1259352
0000e0 06 8a 31 be 22 e6 d9 be 05 63 39 3e 64 ac 38 3e
       -0.17337808 -0.4255839 0.18104179 0.18034512
0000f0 93 78 e3 be ce 8b d7 3e 2d c3 05 3f 1e 3f 15 bf
       -0.44427928 0.4209885 0.5225094 -0.58299434
000100 01 ae f6 bd b2 36 04 bf 2a 4e d3 3e 3e 59 b3 be
       -0.12044907 -0.5164596 0.41270572 -0.35029024
000110 d2 00 09 bf d6 e0 d6 3e 15 fc 9f 3e 22 d3 58 3e
       -0.53516877 0.4196841 0.3124701 0.21174291
000120 18 0f 9b bd f4 36 29 3d 0a 2b 86 be 18 27 40 3e
       -0.07571238 0.041312173 -0.2620471 0.18764913
000130 63 4d d5 3e 91 43 ce be 31 8c cb be a7 9b ac 3e
       0.41660604 -0.40285924 -0.39755395 0.33712503
000140 6b a3 4e 3e cd 57 f7 3e b7 b2 cc 3e 32 05 ec be
       0.20179527 0.48309174 0.399801 -0.46097714
000150 94 d6 6c 3e ee f7 b6 bc 0d 84 fa bb e8 ba f3 3e
       0.2312873 -0.022335019 -0.007645136 0.47603536
000160 06 f9 2c 3e 89 5b b1 3d de 8d 6d be ae 16 56 3e
       0.1689187 0.08660037 -0.2319865 0.20907089
000170 cd 37 e4 3c fa f1 04 3f e4 cb 00 3f e6 c1 cc 3e
       0.02785864 0.51931727 0.5031111 0.39991683
000180 98 c6 0b bf 89 24 27 bd 49 8f d2 3e fb 65 37 3a
       -0.54599905 -0.040806327 0.41124943 0.0006996092
000190 88 fb fd bd f4 57 e3 3e 79 10 a1 be 76 bf 98 3c
       -0.124014914 0.4440304 -0.3145788 0.018645983
0001a0 df e0 b8 3e 90 79 15 3f 21 81 8a 3e be fc a3 bd
       0.36109063 0.58388615 0.27051643 -0.08007191
0001b0 00 06 66 be c0 da 0c 3e c4 9f 68 3e 13 0e 2d be
       -0.22463226 0.13755322 0.22717196 -0.168999
0001c0 ed 93 ab be 68 8d cb 3e 79 90 e7 3e bf 29 e5 be
       -0.33511296 0.39756322 0.4522741 -0.44758412
0001d0 f4 5f b7 3e c9 52 db bd cc c6 49 3e 62 3f 53 bd
       0.35815394 -0.107091494 0.19704741 -0.05157412
0001e0 05 78 cb be a8 c6 57 3e 37 5a fa bc d4 d7 0f 3e
       -0.39740005 0.21071875 -0.030560596 0.14047176
0001f0 7b 23 04 3d 7b bc a2 3e d9 ff 3a be 0f 43 b7 bc
       0.0322604 0.31784424 -0.1826166 -0.022370843
000200 07 1b c2 be be 38 65 3e 9e 41 60 be af fe 5e be
       -0.37911245 0.22384927 -0.21900031 -0.21776842
000210 9b f0 0b 3f 03 c9 94 3e 75 92 60 be f0 02 c2 3e
       0.5466401 0.2905961 -0.21930869 0.37892866
000220 82 5c 83 3e 45 29 38 bd 53 94 0b 3f b4 35 ce 3d
       0.25656515 -0.044961233 0.545232 0.10068837
000230 56 64 fb 3e d6 f3 14 3e 8f 42 74 be 80 7d ad 3e
       0.49099988 0.14546141 -0.23853515 0.3388481
000240 f7 6c 77 3e a9 18 a0 bd 21 dc 0c 3e fa 72 9e 3e
       0.2416266 -0.078172036 0.13755848 0.30947095
000250 be f2 89 3e fc d2 05 3f 10 69 f8 be 1e 4d dc be
       0.2694301 0.5227506 -0.48517656 -0.43027586
000260 ee 12 2a 3e 83 fb 41 be be 72 ad bd 98 e2 c5 be
       0.16608784 -0.189436 -0.08469151 -0.3864944
000270 93 7d bb be 20 8b 0a bf 26 2d e2 3e df 2d 0d 3f
       -0.36619243 -0.5411854 0.4417507 0.5514812
000280 be 9a a5 3e ca 2f 90 be 20 d2 02 bf 68 50 a4 be
       0.3234462 -0.2816146 -0.51101875 -0.32092595
000290 03 b1 f6 3e ac 3b 47 ba bb dd 06 3f 51 82 14 bf
       0.48181924 -0.00076001394 0.52682084 -0.5801135
0002a0 21 17 6f 3e 2d 36 05 3f 11 d8 e2 3b c0 3e 17 3e
       0.23348667 0.5203579 0.00692273 0.14770031
0002b0 09 7e df be 42 b7 c2 3e e0 28 da 3e f1 bf b1 3e
       -0.43650845 0.3803044 0.4260931 0.34716752
0002c0 7f 82 a0 bd 98 14 b3 3e a4 08 93 3d a4 9b dd 3e
       -0.0783739 0.3497665 0.071793824 0.43282807
0002d0 c0 08 3e bc 5f 18 3e be bf 3d 0e 3e fb 2e a3 be
       -0.011598766 -0.18563984 0.13890742 -0.3187178
0002e0 d5 d3 a4 3e 14 0d a4 be ff 8a 2e bd ae 35 0c bf
       0.32192865 -0.32041228 -0.042613026 -0.5476941
0002f0 6d 9d 25 3e 30 4b 36 be 4a 09 9c bd 5a 47 0d 3d
       0.16173334 -0.1780212 -0.07618959 0.034491874
000300 86 c7 40 3e 5d d5 0f bf 4c df a5 3c 46 d7 9d bd
       0.18826112 -0.5618494 0.020248078 -0.07707076
000310 1b 04 d8 bd 76 cd 90 be a9 61 b6 be 7b e9 e5 bd
       -0.10547658 -0.28281754 -0.35621384 -0.112261735
000320 b3 0e 0f bf 0c 8d 8d 3e 67 55 07 3e 1a b8 e3 3e
       -0.55881804 0.27646673 0.13216172 0.44476396
000330 6f 94 69 be 1d cd 21 3e 22 29 c4 bd c5 c3 e5 be
       -0.22810529 0.15800901 -0.09578158 -0.44875923
000340 b0 66 80 3e f2 59 5e 3e 5d a1 d5 3e d4 7d 85 bd
       0.25078344 0.21713999 0.41724673 -0.065181404
000350 e3 bb 0f 3f de c9 86 3e dd 33 d5 3d 25 c0 dc bc
       0.5614607 0.26325887 0.10410283 -0.02694709
000360 e8 9b 45 be 51 94 04 3f ea ba 9d be 12 97 79 be
       -0.19297755 0.5178881 -0.30806667 -0.24374035
000370 0d ee 99 3d 4f e0 f9 3e 7f a1 3e 3e cc cf 21 be
       0.07516108 0.48803946 0.18616293 -0.15801924
000380 b5 d4 a6 be 3b 32 94 be 3a d2 12 3f c4 24 ef be
       -0.32584158 -0.28944573 0.5735203 -0.46707737
000390 c9 40 45 be 0c ea e3 3e c1 32 bf 3e 16 1b 60 bd
       -0.19262995 0.445145 0.3734341 -0.05471333
0003a0 f2 a5 79 be ec 49 fa be 4b ad 1e 3e 22 cb 8d 3c
       -0.2437971 -0.48884523 0.15495794 0.017308775
0003b0 2a f7 de be df 8e 6b 3e 29 0b 17 3e 02 6b be bc
       -0.43547946 0.2300372 0.14750351 -0.023244385
0003c0 99 6d 91 be e1 95 cf be dc db de 3e 5e 69 91 be
       -0.2840393 -0.40544036 0.43527114 -0.284007
0003d0 f9 87 73 be 3e e3 1f 3e 57 ba 01 3f 77 9f eb be
       -0.23782338 0.1561403 0.5067496 -0.460201
0003e0 f5 dc 57 3e 5f 20 06 3f 42 ec 0f 3f 86 38 d5 be
       0.21080382 0.52393144 0.56219876 -0.41644686
0003f0 6a 03 df 3b 19 b7 c2 3e 70 68 c6 be b2 4a 06 bf
       0.006805827 0.38030317 -0.38751554 -0.52457726

encoder.0.bias f4 [128]
000000 e3 d3 11 3f 0e 03 f1 3e 6a 6d ee 3d 16 f7 a1 be
       0.5696394 0.47072643 0.11641963 -0.31633824
000010 2a 59 f5 3e 07 3c ce be 91 70 a4 bd 13 57 14 3f
       0.4791959 -0.40280172 -0.08029283 0.57945365
000020 5d 7f 94 3e c8 17 82 bd c4 e8 12 3f df f6 f8 be
       0.2900342 -0.06352192 0.5738642 -0.48625848
000030 57 c7 13 bd 1d 0d d0 3e 50 9b 40 be 7b a9 2a 3d
       -0.036078777 0.40635005 -0.18809247 0.041665535
000040 d3 25 cc bc 3d ea 1b 3e c4 64 54 3d 89 50 14 3f
       -0.02492038 0.15226074 0.05185391 0.57935387
000050 09 ac 03 bf ae db 06 3f 4c 61 44 bd 48 67 51 bd
       -0.5143438 0.52678955 -0.047944352 -0.051123887
000060 c3 c8 81 3e ce 36 c2 be b0 f2 a6 be 5b 5a f3 3e
       0.25348482 -0.37932438 -0.3260703 0.47529873
000070 dc 2e d9 be c2 6e bc 3e 69 3e 88 be 36 c1 ae 3e
       -0.42418563 0.36803252 -0.26610115 0.34131783
000080 09 49 35 be 53 e0 0a 3f 4d ed b0 be 6c 4c 16 be
       -0.17703642 0.5424854 -0.34556046 -0.1467759
000090 79 01 25 be 44 37 a5 be e9 d2 86 be 3a 92 14 3f
       -0.16113843 -0.32268727 -0.26332787 0.58035624
0000a0 a7 8b 50 be c6 78 ff 3d 4b e0 53 bc 13 0a f4 3e
       -0.20365773 0.124742076 -0.012931894 0.47663936
0000b0 da 55 06 bf 58 c2 b4 3e 24 ab 72 bd 56 d4 0d 3e
       -0.5247475 0.35304523 -0.059245244 0.13850531
0000c0 ff 77 07 be be 53 e6 be 0d a5 67 be c9 4f e8 3e
       -0.13229369 -0.44985765 -0.22621556 0.4537337
0000d0 b0 4b 05 3e f5 e4 81 be e1 14 0a bf 3f c6 ff be
       0.13017154 -0.25369993 -0.5393811 -0.49955937
0000e0 28 91 2d 3e 8d dc 04 3f 65 8b 8a be 5d 30 58 3e
       0.16949904 0.51899034 -0.27059475 0.21112199
0000f0 92 2a 06 bf 77 ca 78 bd e7 57 85 be b7 27 ff be
       -0.5240871 -0.06073996 -0.26043627 -0.49834988
000100 db 0e af 3e f2 1e b7 be 24 5c d9 be 45 60 f9 be
       0.3419102 -0.35765797 -0.4245311 -0.4870626
000110 dc 1c ed 3d cf 56 6d 3e 51 ec f1 3d 13 49 75 3d
       0.1157777 0.23177646 0.11812652 0.059884142
000120 dc 67 87 3e e9 73 1a 3e 6e f4 6f 3e 0e 8d f5 3e
       0.26446426 0.15083279 0.23433086 0.4795918
000130 1d 45 0e bf 79 4c df bd 68 6e f0 bd 97 22 01 3e
       -0.5557421 -0.10903258 -0.11739808 0.12610851
000140 19 a3 07 be 76 94 e4 be 69 e4 01 bf d0 ba 9d be
       -0.1324581 -0.44644517 -0.5073915 -0.3080659
000150 9a 2b 74 3e 60 24 09 3d a3 f1 b9 3e 6b d0 cf be
       0.23844758 0.033481956 0.36317167 -0.40588698
000160 4b cc 78 3e b2 9e 00 3e 7f 18 05 bf 5b 81 e6 be
       0.24296682 0.12560537 -0.51990503 -0.45020565
000170 53 de ec 3d ca 3a df be b3 5c 4e 3e db c9 86 bd
       0.115658425 -0.4359954 0.2015255 -0.065814696
000180 0c f3 d6 be ef c1 93 3d a8 36 99 3d 91 fc 3e be
       -0.41982305 0.07214724 0.07481128 -0.18651034
000190 1c 5c a9 3e 8c a5 15 3f bd 30 4d 3e 04 c7 30 3e
       0.33078086 0.5845573 0.20038123 0.17263418
0001a0 09 4a 3c be 29 b1 92 3d fa 33 ae be 88 4c 9c be
       -0.18387617 0.07162697 -0.3402403 -0.3052714
0001b0 75 9b 47 3e ac c8 09 3f 38 f9 bd 3e 4e 33 c7 3e
       0.19492896 0.53821826 0.371042 0.3890633
0001c0 18 04 4e 3e b2 e7 c0 3e c0 8a b0 3e a1 23 97 3e
       0.20118749 0.3767677 0.34480858 0.2951937
0001d0 b6 98 90 3e 1d 14 40 be 38 27 26 be 89 78 50 be
       0.2824151 -0.18757673 -0.16225898 -0.2035848
0001e0 f2 61 b8 be 63 72 8d 3e 0d 91 0e 3e 0d 89 95 be
       -0.36012226 0.27626333 0.1392252 -0.29206124
0001f0 57 62 e7 be fa 9a c3 be 65 0d bc be c7 04 ca 3d
       -0.45192215 -0.38204175 -0.3672897 0.098641925

encoder.3.weight f4 [64, 128, 3]
000000 6f 94 6a 3d be 6b 3f 3d 73 66 c4 bb 57 e2 5c 3a
       0.057270464 0.04673361 -0.005993658 0.0008426061
000010 c2 bb ce 3c e2 f7 e8 3b 00 62 72 3c 47 50 80 39
       0.025236014 0.007109628 0.014793873 0.00024473874
000020 24 56 41 3b 5e e1 69 bc 16 01 4d bd 22 e1 d9 3c
       0.0029500807 -0.014274923 -0.050049864 0.02659661
000030 88 c4 36 bd 64 48 1c 3a 6a 2c 5d 3d 76 53 00 3d
       -0.04462102 0.0005961715 0.053997435 0.031329595
000040 99 d5 b5 3c ef b6 c7 3c 37 44 64 bd 01 02 5e bd
       0.022196578 0.024379222 -0.055729117 -0.05420113
000050 83 75 2f bd fa ac 30 39 de de 0a bd 35 6b 26 3c
       -0.042836677 0.00016849107 -0.03390395 0.010157396
000060 3e f8 83 3c be b2 f3 bc e9 3c d5 3c ba 57 24 3d
       0.016109582 -0.029748317 0.02603002 0.040122725
000070 5c ca 18 bd 53 62 ef bc c1 21 b7 3c 35 6e 33 3d
       -0.03730236 -0.02922169 0.022354962 0.043806273
000080 71 43 61 3d e0 3f 3e bd 8f 9b b2 3b ea 69 4f 3d
       0.054995958 -0.046447635 0.005450673 0.050638117
000090 78 0d 23 bb 0b 79 0d 3d db 81 d6 3c 30 53 16 bd
       -0.0024879854 0.034539264 0.026184967 -0.036700428
0000a0 04 aa ed bc 1d 59 9e 3c 8d 11 0b 3d f5 61 dc ba
       -0.029011734 0.019329602 0.033952285 -0.0016813861
0000b0 83 94 82 bb 8e 97 97 bb 4c fe 29 bd 4a cb 30 bc
       -0.003984989 -0.004626221 -0.041502282 -0.010790655
0000c0 f4 dd 44 3d f3 73 2a bd ae b3 ae 3c 3b 74 27 bd
       0.048063233 -0.041614484 0.021325912 -0.04088233
0000d0 ba 14 9b 3c 4f 80 6f 3c 48 8c ee 3b f9 7f a1 3c
       0.018930782 0.0146179935 0.0072799064 0.019714342
0000e0 c3 76 49 3c 35 13 80 bc b2 b7 b6 3c 1e 26 91 ba
       0.012296381 -0.015634159 0.02230439 -0.0011073982
0000f0 3f 43 27 3b 77 5d 8d 3c f6 7b 56 3d 5c 39 4e bc
       0.002552226 0.017256482 0.052364312 -0.012586918
000100 68 3b 2f bd 4f d1 eb bb 87 49 55 bd 33 7f cf 3c
       -0.042781264 -0.0071965824 -0.052072074 0.025329208
000110 f1 50 16 bb f3 a1 a5 bc 1b 69 d6 bc 04 ec 25 bd
       -0.0022936428 -0.020218825 -0.026173165 -0.040508285
000120 0d a0 d5 3c e1 93 4c 3d ae 69 a8 bc 09 36 11 3d
       0.026077295 0.049945716 -0.020558205 0.035451923
000130 ca af 7e ba 6f 74 89 bd cc f0 0f 3c dd 8c 05 3d
       -0.00097155257 -0.06711661 0.008785438 0.03260504
000140 ff d9 38 3c 8a b7 64 3d 2c 6c 0b bd b4 2a a0 3c
       0.011282443 0.0558391 -0.034038708 0.019551612
000150 5b b8 25 3d 96 53 29 bd fa 44 aa bb ef b8 11 3d
       0.04045902 -0.04133948 -0.005196211 0.035576757
000160 f1 85 53 3d a1 11 4c 3c 92 38 f6 3c 62 71 41 bc
       0.05164141 0.012455375 0.030056272 -0.011806818
000170 3c 53 74 bc 7d 41 0d 3c 47 f4 25 3c ca 49 02 bb
       -0.014912423 0.008621571 0.010129041 -0.0019880407
000180 96 8b 23 3b 98 70 2c bc c9 3c b7 bc e3 e1 11 3d
       0.0024955026 -0.010524891 -0.022367852 0.035615813
000190 2f 89 f6 3c 7f 23 e5 bb f8 2e 34 3c ee 8f 64 bd
       0.030094711 -0.006992757 0.010997526 -0.055801325
0001a0 df 8f 02 3d 31 d8 c2 3a 76 34 87 3b 00 5c 0c bd
       0.031875487 0.0014865455 0.004126127 -0.034267426
0001b0 5c 67 88 3c 6b 2c 4f 3b 6d 3f 3b bd 18 b7 a3 bc
       0.016650848 0.0031612169 -0.045714784 -0.019984767
0001c0 92 c4 3e 3d 32 8e 68 3d 37 dd 0c bd eb 9b 48 3d
       0.046574183 0.056776233 -0.034390654 0.04897682
0001d0 a1 e0 38 3c 0c 9d 11 3d 7d bb a0 3c 4a d9 18 3d
       0.011284024 0.035550162 0.019620651 0.037316598
0001e0 0f 19 fc bc 90 d8 c0 3c 3d 8a 2c 3d 4f 72 e4 3b
       -0.030773668 0.023540765 0.04212402 0.0069716345
0001f0 a1 4b f3 bc 41 60 dd 3c 0e 59 46 3d df ca e5 3c
       -0.029699149 0.027023437 0.048424773 0.028050838
000200 0f ff 95 bc b7 bc 52 3d c6 b8 66 3d 00 3c 0c 3d
       -0.018310098 0.051449504 0.056328557 0.034236908
000210 5d 22 eb bc c3 11 3c 3d 3c 27 18 bd ee 48 67 3c
       -0.02870291 0.045915376 -0.03714679 0.014116509
000220 1c e9 08 bc a2 ec bb 3b 6b 03 3b 3d 76 5b 65 3b
       -0.008356359 0.005734996 0.045657557 0.0034997142
000230 3f c3 af bb c4 12 45 3d e3 a9 22 3d b9 1a ef 3c
       -0.0053638513 0.0481136 0.039712798 0.029187547
000240 29 d8 2f 3d d7 ad e3 bb 39 25 34 bd 4e a8 2b bd
       0.042930756 -0.0069482136 -0.04398081 -0.041908555
000250 2e da 19 3c b8 77 cf bc 08 a7 23 bd 3d 1e 4e bb
       0.009390397 -0.025325641 -0.039954215 -0.003145113
000260 8f 2c 3a 3c 90 84 4d 3d a4 6b cf bb ec 08 84 3c
       0.011363163 0.05017525 -0.0063299704 0.016117536
000270 48 1b 4f bc 19 98 d6 3c 8a b0 07 bd c1 55 9a bc
       -0.012640782 0.026195573 -0.033127345 -0.018839719
000280 a9 18 cb bc 4b b9 11 bd 9f 7e d4 3a 46 ab 3c 3d
       -0.024792032 -0.0355771 0.0016212052 0.046061777
000290 93 15 07 3d ee 58 44 3d bd ee 70 3d 4f f6 a5 ba
       0.03297956 0.047936372 0.05882143 -0.0012661907
0002a0 f8 9a 27 bc 37 1b e2 3c 1a b7 2b bc a6 97 1b 3c
       -0.0102298185 0.027600868 -0.0104806665 0.009496605
0002b0 4d 1b 39 3d 78 fd b8 bc a2 a5 be 3c 3d ab bb 3c
       0.04519205 -0.0225818 0.02327234 0.022908801
0002c0 1b 4c f9 3c 4c ee 12 3d e2 94 54 bb 4b 92 a9 3c
       0.030431798 0.03587179 -0.0032437374 0.02069964
0002d0 21 3c 15 3d 16 42 56 3d 7f 49 4d 3d e4 e9 05 3d
       0.036434297 0.05230912 0.05011892 0.03269376
0002e0 6f c8 08 bc df d3 91 bc e6 31 89 bc 15 3b 1f bd
       -0.008348568 -0.017801223 -0.016747426 -0.038874704
0002f0 de de 12 3d 0a 5f ee 3b 53 aa f9 3c 4c ed c7 3c
       0.035857074 0.007274513 0.030476725 0.024405144
000300 db 7c 33 bc 5c 71 2b 3d 59 37 04 3d 05 06 68 bc
       -0.010955061 0.041856155 0.032279346 -0.014161591
000310 84 73 b2 3c 0d 09 40 bd b3 2c 49 bd ca 6f 20 bd
       0.021783598 -0.04688363 -0.049114894 -0.03916911
000320 0e 07 5a 3c 17 ec d8 3c 77 18 26 bc 50 96 1b bc
       0.013307346 0.026479764 -0.010137669 -0.0094962865
000330 f4 0a 1c 3d f5 48 32 3d 3f 7a 5e 3c f2 1a a6 bc
       0.038096383 0.04352661 0.01357895 -0.02027652
000340 19 e3 ce bc f7 19 f4 3c 08 ca 1a 3d 67 48 e3 bc
       -0.025254773 0.029797537 0.03779033 -0.027744485
000350 94 cf d9 3c 0a cb 08 bd 07 0a 98 3c 63 7f 47 3d
       0.026588239 -0.03339676 0.018559469 0.04870547
000360 58 37 25 3d 8a e4 ec 3c 58 15 fb bc 93 16 02 3d
       0.040335983 0.02891757 -0.030649826 0.03175981
000370 ba c0 53 3c 77 b7 26 bc 39 3f 09 3c dc cc 26 3d
       0.012924368 -0.010175577 0.00837689 0.040722713
000380 f8 5a cc bc 07 bb 02 3d 2f 5c 36 3c 96 63 5b bc
       -0.024945721 0.031916644 0.011130377 -0.013390442
000390 73 4a 25 3d 15 14 0a bc bb b5 3b 3c 3c 8e 2d bd
       0.040354203 -0.0084276395 0.011456902 -0.042371973
0003a0 d3 72 3f bd 6b cd 24 bc 52 78 02 bc 5f 00 30 bd
       -0.046740364 -0.010058741 -0.007963257 -0.042969104
0003b0 c8 6d 62 3c ea ab 9b 3c 4b 27 12 bc 75 57 34 bd
       0.013820119 0.019002873 -0.008920501 -0.044028718
0003c0 9d 7d 3e bd 26 ff fa 3c e6 59 12 bd 4b 99 04 bd
       -0.046506513 0.030639242 -0.035730265 -0.032372754
0003d0 93 70 0c bc bf 0b 40 3d e1 a1 62 bd 77 b1 3e 3d
       -0.008571762 0.046886202 -0.05533016 0.046555962
0003e0 35 58 4a bd 32 2f 3c bc b9 26 3c 3d ac 1f d5 bb
       -0.049400527 -0.011485862 0.045935366 -0.0065040197
0003f0 0a b6 16 bd e9 22 66 bb 98 00 66 3a a7 14 39 3d
       -0.0367947 -0.0035116023 0.0008773892 0.04518571

encoder.3.bias f4 [64]
000000 e4 4a 55 3d dd 0a d2 3c 75 1d a9 3b 32 63 19 3d
       0.052073374 0.025639946 0.0051609823 0.037448116
000010 7d 10 61 bc 4b f9 5b 3d 04 88 b0 bc be 0e 4a 3d
       -0.013736841 0.05370454 -0.021549232 0.049330465
000020 65 07 5f bc 98 aa 72 3d 97 2b 00 3d 69 a6 8c bc
       -0.013612603 0.059244722 0.03129157 -0.017169194
000030 bc 57 4b bd a5 35 ac bc e1 4f bf bc 8e b5 19 bc
       -0.049644217 -0.021021673 -0.023353519 -0.009381665
000040 ec e7 0e bd ca 85 10 3d 0b 38 43 3d 5a 32 a8 bc
       -0.034889147 0.03528384 0.04766087 -0.020531822
000050 15 61 1d 3d 4a 01 3d bd eb 3a 3a 3d e0 a1 46 bc
       0.038422663 -0.046143807 0.045466345 -0.012123555
000060 d3 49 46 3d 27 90 37 3c b2 a6 e8 bc 61 69 7c bc
       0.048410248 0.011203802 -0.028399799 -0.015405984
000070 16 44 29 bd ae 37 bd 3b 46 3c c7 bc e1 ba e4 bc
       -0.041324697 0.00577446 -0.024320733 -0.027921142
000080 eb bf 11 bd 1f a5 ad bb 9e db 6c 3d c9 60 04 bc
       -0.035583418 -0.005299225 0.05782663 -0.008079716
000090 11 bd 15 3a 90 d5 05 bd 92 ff ae 3c 64 d2 bd bc
       0.0005712072 -0.032674372 0.0213621 -0.023171611
0000a0 86 8d bb bc e8 07 4a 3d f1 09 69 bc ac 76 7d 3d
       -0.022894632 0.049323946 -0.014223562 0.061880752
0000b0 6a 19 16 bd 3e 23 fb 3c 51 dd fd ba ab 92 a0 bc
       -0.03664533 0.030656453 -0.0019368326 -0.019601187
0000c0 a6 5b 7d 3c 66 ed 1a bd ab f2 29 bd 45 88 5a bb
       0.015463745 -0.037824057 -0.04149119 -0.0033345383
0000d0 4d 8c 01 bd 34 af 2a bc aa 9b 91 ba f9 ff ef 3c
       -0.031627942 -0.010417748 -0.0011109014 0.029296862
0000e0 1a 0f 8d bc 09 cd 6a bc 42 73 d5 3a 83 67 0b 3d
       -0.017219115 -0.014331111 0.001628496 0.034034263
0000f0 85 a5 3e 3b b0 19 5f 3d 00 1b 37 3d 5f f5 a6 ba
       0.0029090357 0.054467857 0.044703484 -0.0012737921

encoder.6.weight f4 [32, 64, 3]
000000 43 45 92 3d ab 5d 0e bc 89 01 39 3c c4 f9 30 bd
       0.07142117 -0.008689324 0.01129187 -0.043206945
000010 18 2d 03 bd d9 50 6e bc 51 1e ba 3c 53 4b 57 bd
       -0.032025427 -0.014545643 0.022719534 -0.05256207
000020 04 16 6f 3c 45 10 9a bc 61 8d d9 bb 17 82 4f bc
       0.014592651 -0.018806586 -0.006639168 -0.012665293
000030 ce 81 71 bd df 11 30 3d 99 21 00 bd 28 07 90 3d
       -0.058961682 0.042985793 -0.03128204 0.07032615
000040 e1 fb 6b 3d 74 60 aa 3c cb b6 a6 bc 56 ce 28 bd
       0.057613257 0.020797946 -0.020350834 -0.041212402
000050 14 65 1e bd a4 3f 4d bd 5a 3c 31 bd d6 b3 f8 3c
       -0.038670614 -0.05010952 -0.043270446 0.03035919
000060 0a b0 35 3d 4c df 4c bd 48 6f 29 3d 76 e5 7a 3d
       0.044357337 -0.05001764 0.04136589 0.061253987
000070 ce ca 85 3d 01 18 93 bc 5d 43 1b 3a 25 39 91 bd
       0.065328225 -0.017955782 0.00059228187 -0.070909776
000080 2a 20 55 bd fe 2e 21 bc e9 07 01 bd 99 16 5b bd
       -0.052032627 -0.009837864 -0.031501684 -0.053488348
000090 c0 59 93 3c b6 85 76 bd 39 f7 41 3d f4 4a 1f bd
       0.017987132 -0.06018611 0.04735491 -0.03888984
0000a0 fb e8 8d bc f7 77 56 bc d4 33 3d bc 36 d3 9b 3d
       -0.017323008 -0.013090125 -0.011548001 0.07608645
0000b0 ef 54 25 3d 49 63 5e 3d bd e6 b9 3b da e1 eb b9
       0.040364202 0.054293904 0.005673258 -0.00044990965
0000c0 54 0c c0 bb b9 ff 65 bd 41 15 83 bd 62 02 2a 3c
       -0.0058608446 -0.05615208 -0.06400538 0.010376545
0000d0 31 80 f4 3c 5f 0f 4c bd ab d0 b0 bc 13 e2 88 bd
       0.029846283 -0.049819347 -0.021583876 -0.06683745
0000e0 64 2e b3 bc 54 90 ba bc c2 d3 d6 bc 38 50 be bd
       -0.021872707 -0.0227739 -0.02622402 -0.09292644
0000f0 2e 35 6a bc 93 7e 53 3d 07 35 7f bd 3b 95 ed 3c
       -0.014294906 0.051634382 -0.06230643 0.029001823
000100 81 46 48 3d 49 12 1e bd 75 29 ec bc cc ad 80 bd
       0.048895363 -0.038591657 -0.028828362 -0.06283149
000110 b4 68 b5 bc c5 63 44 3d e9 1d f0 bb 79 41 74 bd
       -0.022144653 0.04794671 -0.0073277843 -0.059632752
000120 b9 ef 35 bd 29 f3 35 3d 0c ad 5c 3d 41 67 06 3d
       -0.04441807 0.04442135 0.053875968 0.032813314
000130 c4 ef 6e 3d 71 01 99 3c bc b1 3d bd ec 7f 93 3c
       0.058334127 0.018677445 -0.04631208 0.018005334
000140 f4 c2 5b 3d 19 16 21 bd 4e fd 4d bd d4 b5 8d 3c
       0.05365272 -0.039327715 -0.0502904 0.017298616
000150 bb bc 39 3d a9 f8 38 bd d4 07 1e 3d 87 97 6d 3c
       0.045346003 -0.045159016 0.038581684 0.014501459
000160 c5 e3 8c bc 63 00 5e 3c 7f ec aa ba ed b2 86 bd
       -0.017198453 0.013549897 -0.0013040452 -0.06577096
000170 29 03 3c bd 4a fe 83 3c bd 68 2d 3d e6 d2 68 3d
       -0.04590145 0.016112465 0.042336214 0.056841753
000180 13 13 82 bc 8d 7d 19 bc 4c 59 a2 bc 4b 60 85 bc
       -0.015878236 -0.009368313 -0.01981797 -0.016281268
000190 33 2a 69 bd 7c 8a 5b 3c c1 ef 3d bd a5 4d 16 bd
       -0.05692501 0.0133997165 -0.046371225 -0.03669514
0001a0 a7 61 c8 3d 05 2e 18 bd c9 3f f5 bc d0 e2 86 3d
       0.09784251 -0.037153263 -0.029937642 0.0658623
0001b0 17 a9 6d 3d e2 4a 35 3d 9e 42 90 3c 25 ee d9 3c
       0.058022585 0.044260867 0.01760989 0.026602814
0001c0 f4 0d 71 3d 0b 52 43 bd ed 97 f3 bc 4a da 88 3b
       0.058851197 -0.047685664 -0.02973553 0.0041764127
0001d0 b2 86 b0 bc ff cc 88 bd e1 e3 1f 3d c6 ce 94 3c
       -0.021548603 -0.06679725 0.03903568 0.018165004
0001e0 52 04 3d 3d cb 3c 6c 3c 44 07 d3 3b d6 fb 3f 3d
       0.0461467 0.014418791 0.006440075 0.04687103
0001f0 1b 57 0b 3a 4c db 09 3d 78 2b fa 3a b7 67 a0 bc
       0.0005315409 0.033656403 0.0019086441 -0.019580705
000200 94 fc a8 3c 49 14 9b bc 36 79 7d 3d 62 5e 45 3d
       0.020628251 -0.018930571 0.061883174 0.048185714
000210 94 e9 0a 3c 03 7d 92 bc 0d ce 86 bd 1b cb 5f bc
       0.008478541 -0.017881876 -0.0658227 -0.013659264
000220 bb f4 a3 bb dc 81 d5 3c 42 87 2c bd ad 22 83 3d
       -0.0050035394 0.026062898 -0.04212118 0.06403098
000230 9f 2c 25 bd 7a 68 35 3d a9 df b2 3c 6c 7a 9f 3c
       -0.040325757 0.04428909 0.021835165 0.019467555
000240 ac 64 d8 bc f2 be 96 bc e7 d1 9f 3c 15 6f 6f 3d
       -0.026415192 -0.018401597 0.019509269 0.058455545
000250 a2 c2 95 3d 24 32 0b bc 66 b6 01 3c 04 96 b9 bc
       0.07312514 -0.008495841 0.007917022 -0.02265454
000260 70 c7 0c bd 62 e3 10 3d 21 3e 88 3d 17 a1 02 3d
       -0.034369886 0.0353731 0.06652475 0.03189191
000270 04 dd 2e 3d 65 17 b9 3c dd e3 37 3d 6a 12 7a 3b
       0.042691246 0.022594163 0.04489504 0.0038157948
000280 cd c5 aa 3c 51 bb 99 3d 31 76 0e 3b f1 e5 08 3d
       0.020846272 0.07506431 0.0021737928 0.033422414
000290 d0 c2 5e 3d b0 c6 be 3c 57 b1 4a b9 3a 39 67 3d
       0.054385006 0.023288101 -0.00019330285 0.05645106
0002a0 31 90 4d bc a3 ca 36 bc aa 87 af 3c 6f 8a a8 bc
       -0.012546585 -0.011156711 0.021426994 -0.020573823
0002b0 04 af 48 bd 94 fa ea bc bb 3d 75 bd 42 e6 09 3d
       -0.048995033 -0.028683938 -0.059873324 0.033666857
0002c0 90 9b 46 bd 2f 55 66 3d de 51 49 bd e0 bd 8c bd
       -0.0484882 0.05623358 -0.04915034 -0.06872153
0002d0 eb c2 5b 3c eb df 3d 3d be 3f 2a 3c 8f 82 7c bd
       0.013413171 0.046356123 0.010391174 -0.061647948
0002e0 e7 58 30 3d f8 f4 a3 ba 11 b8 fc bb 45 15 70 bd
       0.043053534 -0.001250892 -0.007712372 -0.058614034
0002f0 1a f8 10 3d 3e 96 93 3d ab 6a 94 ba e5 a1 e8 bc
       0.035392858 0.07206391 -0.0011323293 -0.02839751
000300 f8 dd db bc 5a 23 7d bd 6d 18 36 3d 75 d9 81 3d
       -0.026839241 -0.061801292 0.044456888 0.06340305
000310 a5 14 fd 3b da 16 80 bd 64 4f 82 3d 51 a4 82 bd
       0.0077234083 -0.062543586 0.06362799 -0.06378997
000320 70 9e 6a bc 97 7d 43 3c 8e ec 99 bc bd cd 1c bd
       -0.014320001 0.011931798 -0.018789556 -0.038282145
000330 32 dc 5b bd 88 d7 9b bc 6f ea 65 bd e3 42 5e bc
       -0.05367679 -0.019023672 -0.056131776 -0.013565752
000340 53 cd 14 3d d0 48 8c 3c 79 c3 72 bc 80 4c f4 3c
       0.036328625 0.017124563 -0.014817112 0.029821634
000350 f9 97 9e 3a ff 79 27 3d af 8c 9b bc b2 e6 57 bc
       0.0012099735 0.04088783 -0.018987982 -0.013177561
000360 3a 91 5e bb 0a f6 35 3d b2 7b 36 bd a5 89 24 bd
       -0.0033961073 0.044424094 -0.04455156 -0.04017033
000370 bc d7 ae 3c 6e 89 da bc 46 c8 a7 3c ff 33 27 bc
       0.021343105 -0.02667686 0.02048124 -0.010205268
000380 ab ca ec bc bf 92 2d bd b2 56 2a bd 87 80 76 bd
       -0.028905233 -0.042376276 -0.041586585 -0.060181167
000390 bc 79 80 3d 3c da 46 bd 69 12 72 3a 86 aa 9e bb
       0.06273219 -0.04854797 0.0009234311 -0.0048421053
0003a0 c5 05 0e 3d ba c9 9a 3c 59 ca 29 3d 87 5c f0 3c
       0.03467347 0.018895019 0.04145274 0.029340995
0003b0 6e 15 83 3d ac 2b 26 3d 14 03 2f 3d c2 7e 52 bd
       0.06400572 0.040568992 0.042727545 -0.051390417
0003c0 e6 5c 27 bd 86 d0 7d bd 95 f4 aa 39 5b 30 27 3d
       -0.04086008 -0.06196644 0.00032607155 0.0408176
0003d0 53 1c 62 bd 7a 88 c8 3b cb 4a 44 bd a9 a1 10 3d
       -0.055202793 0.006119785 -0.04792289 0.03531042
0003e0 6e 8f 44 bb 77 b5 4e 3d 8e c2 a4 3c 69 10 87 bd
       -0.0029992717 0.050466027 0.020112302 -0.06594927
0003f0 34 74 69 bd c2 c0 c7 3a fc 27 7d 3d 5f 43 5b bd
       -0.056995586 0.0015239941 0.06180571 -0.053531047

encoder.6.bias f4 [32]
000000 d1 ce 47 3d 9d 41 41 bd 92 d1 c5 3c 00 81 07 3d
       0.04878122 -0.047181714 0.024147782 0.03308201
000010 b1 2a 4d 3d fb 30 c4 3c 77 74 2e 3d 80 07 6f 3d
       0.05008954 0.023949137 0.04259154 0.058356762
000020 96 5b b0 bd 9e 89 11 3d 36 d6 87 3d b8 5f bd 3c
       -0.08611219 0.035531633 0.06632654 0.023116931
000030 51 69 51 3d 67 09 08 bd 22 cb 7f bd 7c 47 9f 3c
       0.05112583 -0.03321209 -0.062449582 0.019443266
000040 18 2c e1 3c a8 86 10 bd 90 60 69 3d 18 94 7a 3d
       0.027486846 -0.03528467 0.056976855 0.06117639
000050 36 60 8e bc bb 78 8f bd 61 77 64 bd 68 f7 62 3d
       -0.017379861 -0.070054494 -0.05577791 0.055411726
000060 91 22 25 3b 25 1f 8c bd 08 cf 1f bd 77 ff 38 bd
       0.0025197605 -0.06841878 -0.0390158 -0.045165505
000070 6a 98 cf 3a bb 27 16 bd 1c 88 1e bd 90 74 3e bd
       0.001583827 -0.036658984 -0.038704023 -0.04649788

decoder.0.weight f4 [32, 64, 4]
000000 44 75 f3 3b 33 e3 5b 3d 69 98 64 bb 05 d6 24 3d
       0.0074297506 0.05368347 -0.0034880883 0.040243167
000010 a9 78 40 bd 5b 1a 65 3d b7 ec 18 3d 8b 99 c0 3c
       -0.04699007 0.055933338 0.037335124 0.023510715
000020 4e e7 4a 3d 58 19 49 bd ba 38 0b 3d 47 ec 2c 3c
       0.049536996 -0.049096435 0.033989646 0.01055438
000030 0b 3c c5 3b 12 1d 01 3d 28 34 69 bd 03 d1 88 bc
       0.0060191206 0.031521864 -0.056934506 -0.016701227
000040 73 c3 cd 3c 8b 08 ae 3b 8e ba 00 3d df 7f e3 3c
       0.025117612 0.005311077 0.031427912 0.027770935
000050 c3 9e 3b 3d bb a3 43 bd ce 99 22 bd a6 12 55 bd
       0.045805704 -0.047763567 -0.03969746 -0.052019738
000060 a2 57 5c 3c 71 f0 ef 3c e0 6a 96 bc 49 8c 2e bc
       0.013448628 0.029289456 -0.018361509 -0.010653564
000070 96 7b fc 3c 62 64 39 bc f5 fc 03 bc 9e a0 13 3d
       0.03082065 -0.011315437 -0.008055915 0.03604185
000080 58 b6 c6 bb 15 b4 8c 3d 20 6f fc 3c ec c5 14 bc
       -0.0060642175 0.068702854 0.030814707 -0.009080391
000090 7b 29 e9 bb fe 56 72 3d 48 9b 6c bd 48 fb 9d bc
       -0.0071155406 0.059164993 -0.057765275 -0.01928486
0000a0 6f bc 40 3d bb 6b 85 3d 6b df 0e bd c8 7d 23 3d
       0.047054704 0.065146886 -0.034881037 0.039914876
0000b0 ad 28 8f 3d 79 4d e9 bc a7 32 07 3d 3e 2b b5 bc
       0.0699018 -0.028479325 0.03300729 -0.022115346
0000c0 f5 e0 01 3b 51 70 49 3c ea ea ae bc c8 be 83 bd
       0.0019817923 0.012294845 -0.02135225 -0.06432873
0000d0 e0 9c 2c 3d a3 08 59 bd e6 fb 2e bd 6c b2 59 3c
       0.042141795 -0.052986752 -0.042720698 0.013287168
0000e0 76 0c 38 3d 82 13 6a bd 33 a9 d5 3b 4b eb 80 bd
       0.04493376 -0.05714751 0.0065204143 -0.062948786
0000f0 e3 6c 51 3d 23 b2 f3 bc e1 7e 04 3d 39 d4 f6 bb
       0.051129233 -0.029748028 0.032347564 -0.007532623
000100 22 a0 59 3d 1c ea 35 3d cf ae 92 bb 1f 80 a0 bc
       0.05313123 0.044412717 -0.004476405 -0.019592343
000110 b7 e0 d0 3c 88 74 49 3c ae 46 01 bd 1a 25 7d bd
       0.025497777 0.01229585 -0.031561546 -0.06180296
000120 d2 4e 0a 3c fc 63 d4 3c 76 35 23 3d f7 a2 d6 38
       0.008441644 0.025926583 0.039845906 0.0001023467
000130 12 fa 2a 3d 80 dd 22 3c f9 10 86 3c cf 8d f7 3c
       0.041742392 0.009940505 0.016365515 0.030218987
000140 35 44 1a bd a2 cf 9c 3c e3 82 5b bc 68 e4 5a bd
       -0.037662704 0.019141976 -0.013397905 -0.05344048
000150 ae 2e 51 3c 65 cb 34 3d 46 f5 90 3c a1 08 00 bd
       0.012767477 0.044139285 0.01769508 -0.03125823
000160 5a a6 32 bd 7f ff a6 bc a6 9c 1c 3d 23 b9 8e bc
       -0.043615676 -0.020385502 0.03823533 -0.017422264
000170 3f 05 8c bc 00 16 81 3b 6f d8 4f 3d 3c ce 10 3d
       -0.017092345 0.00393939 0.050743517 0.03535293
000180 7e 5a 87 3c 66 a7 78 3b 84 e4 00 bd 65 6f c9 3c
       0.016522642 0.0037941574 -0.03146793 0.02458925
000190 11 d3 f9 3c 6e 0f b9 bc 33 6c 39 bb 58 43 12 3d
       0.030496152 -0.022590365 -0.0028293252 0.035708755
0001a0 09 60 52 bd aa 38 51 3d e4 db 59 bd ff 56 4c bd
       -0.051361118 0.05107943 -0.05318822 -0.049887653
0001b0 2f 03 69 3d 9a 46 57 3d 4e 7f 51 3a 54 e6 80 bb
       0.0568878 0.052557565 0.0007991687 -0.0039337073
0001c0 c0 07 ff 3b 3f a1 7b 3d 68 4b 9f bc 5f df 17 3d
       0.0077829063 0.061433073 -0.019445136 0.037078258
0001d0 f1 e3 dc ba 41 d3 1c bd 26 a5 25 3d 4f a9 20 3d
       -0.00168526 -0.038287405 0.0404407 0.039223965
0001e0 88 be 2a bd 50 b6 5c 3c e0 c8 6b 3d 36 ae e5 3b
       -0.04168561 0.013471201 0.057564616 0.007009293
0001f0 79 eb 7b 3d 8d 67 53 bc 3f f7 f2 bc ec 9b d6 bc
       0.06150386 -0.012903106 -0.029658912 -0.026197396
000200 cf f3 7a bb 3b 94 c9 bc 28 e2 0f bd 82 a5 35 bd
       -0.0038292294 -0.024606815 -0.03512779 -0.044347294
000210 14 14 35 bd b6 46 55 3d aa b2 c3 bc d2 61 6d bd
       -0.0442086 0.05206939 -0.023888905 -0.057954617
000220 1a 02 82 3d 74 ec 25 bd 85 b0 84 bd 40 77 37 3d
       0.06348057 -0.040508702 -0.06478981 0.04479146
000230 4a 1f a1 bd eb 1b 62 3b 3a 45 b4 bb 24 af 1e 3a
       -0.07867296 0.0034501504 -0.0055014165 0.00060533197
000240 c6 06 ef bb 0f cb 5e bc 92 37 db bc e5 8f 10 ba
       -0.0072945086 -0.013598218 -0.026759896 -0.0005514606
000250 45 0d ba 3c 8e 82 3c 3d 8d 85 9b 3c d0 a4 69 3d
       0.022711406 0.046022944 0.01898458 0.057041943
000260 a6 39 ae bc 73 d4 34 bd 72 9c 6d 3b bb 4c 95 3d
       -0.021267723 -0.04414792 0.0036256579 0.07290026
000270 8a 05 ca bc e3 f7 00 3d 61 63 85 bc a1 fe 33 bd
       -0.024660844 0.031486403 -0.01628274 -0.043944005
000280 79 35 16 bd 91 d2 8a 3d 0d 67 07 3d 60 41 86 bb
       -0.03667209 0.067784436 0.03305726 -0.004097149
000290 01 fa 24 3d 67 72 d5 3c 5b 19 30 3d 44 7e 24 bd
       0.040277485 0.026055528 0.04299293 -0.04015948
0002a0 c4 34 33 3d b1 9b 48 3d 37 08 7c bd 4a c7 f1 3c
       0.043751493 0.048976604 -0.06153127 0.029513974
0002b0 a7 b3 e4 bc 49 3b 2b 3c f7 69 0d bd 44 62 68 3d
       -0.027917696 0.010451146 -0.034524884 0.05673434
0002c0 5b a5 1c 3d a6 77 38 bd 07 92 b8 3c 2a 87 4a 3d
       0.038243633 -0.04503598 0.022530569 0.04944531
0002d0 41 aa 81 3b 9a 40 76 3d a9 cc 67 bc 95 73 8a ba
       0.0039570634 0.060120203 -0.014147916 -0.0010563011
0002e0 ef ea 38 bd b7 09 4a bd ba 4d 05 3d 85 e4 0f bc
       -0.045145925 -0.04932567 0.03254483 -0.008782511
0002f0 80 5a 94 3c 8f 5d b5 3a 93 af 14 bd cc b2 55 bd
       0.01810956 0.0013837087 -0.036300253 -0.052172467
000300 a8 e3 35 3c 17 32 e9 bc 72 f2 8e 3b 74 fa 54 bd
       0.011101641 -0.028466268 0.004362398 -0.051996663
000310 6d 2c 32 bd b8 4a 7d 3c a7 30 a2 3d 86 bb 73 3d
       -0.0434994 0.015459709 0.07919436 0.05950501
000320 8e 48 b2 bc b2 59 20 bd 17 87 ba bc 47 8c 4a 3d
       -0.021763112 -0.03914804 -0.022769494 0.049450185
000330 26 30 1c bc 00 8b 48 bd eb 58 1b 3d e2 22 3f bd
       -0.009532964 -0.048960686 0.037926596 -0.046664126
000340 46 c9 10 bd 96 ed 64 3d 8c b0 60 3c 7b c2 b2 bc
       -0.0353482 0.055890642 0.013713967 -0.021821251
000350 73 32 70 bd 0f 40 aa 3c 69 12 54 3d 74 de 95 3c
       -0.058641862 0.020782499 0.05177537 0.01829455
000360 3f 6e b0 3c bb cf 8a 3c 86 27 9b 3c 09 1f 56 3d
       0.021536944 0.016944757 0.018939745 0.05227569
000370 1e b6 47 3d 6a 89 5a bd 87 43 0b 3c 8e 26 30 3d
       0.048757665 -0.053353705 0.0084999865 0.04300552
000380 ea e4 bb bc 60 7a 87 3d 31 93 30 bc a3 f7 6a bd
       -0.022936303 0.06615138 -0.010777281 -0.05736507
000390 e0 68 10 bd 5f 9a da 3c 9b 0e ed 3c f3 91 72 3d
       -0.035256267 0.026684938 0.028937628 0.05922122
0003a0 6c a5 33 bc 04 cb d2 bc 77 05 f8 3c 50 65 db 3c
       -0.010964733 -0.025731571 0.030276043 0.026781708
0003b0 6b ab e2 bb 19 e1 f3 3c 3c 80 39 3d 1c 80 27 3d
       -0.0069174073 0.02977042 0.04528831 0.04089366
0003c0 f5 5c 21 3c 5a 48 3d 3b 1a 03 41 3d 41 56 5c bb
       0.009848823 0.0028882236 0.0471221 -0.0033620747
0003d0 b8 5d 8b 3c ee d9 33 bd 4f ce 7a bb b5 83 8d 3c
       0.017012462 -0.043909006 -0.0038269942 0.017274717
0003e0 99 0c 7c 3d 76 d7 f7 bc b5 b8 a4 3c 90 13 29 3d
       0.06153545 -0.030254107 0.020107606 0.041278422
0003f0 9f 5d 50 bd 95 30 8e 3d d9 36 66 bd 81 15 4d bd
       -0.050870534 0.0694286 -0.05620465 -0.050069336

decoder.0.bias f4 [64]
000000 e4 c6 a0 bb 39 04 e6 bc 3e 6e bd bc a5 02 ba bc
       -0.004906522 -0.028078185 -0.023123857 -0.02270634
000010 13 d8 2b 3d ed 84 0f bd 4a 22 29 3d f1 ca 2c bc
       0.04195411 -0.035038877 0.041292466 -0.010546432
000020 2d 0f 0c bc 97 a6 df 3c e7 1c bb 3c 54 7f a0 bc
       -0.00854854 0.027301116 0.02284093 -0.019591965
000030 0a 07 df bc a6 7c 21 bd f9 f7 45 bd 11 d3 12 3c
       -0.027225036 -0.039425515 -0.04833219 0.008961455
000040 22 6a 0e bc f3 a9 2a bd 32 14 00 3d 52 7c 69 3c
       -0.008692296 -0.041665982 0.03126926 0.014250832
000050 a3 c1 b6 3b 44 37 f4 bc 94 65 23 bc 8d 3e 5b bd
       0.0055772825 -0.029811509 -0.009972949 -0.05352645
000060 79 45 7a 3d 02 44 35 bd 43 95 0c bd 02 de dc 3c
       0.06110141 -0.04425431 -0.034322035 0.02696133
000070 25 c5 46 3d d7 3e 0d bc 72 8e 7b bd 33 05 08 bc
       0.048527855 -0.008620939 -0.061415143 -0.008302021
000080 69 82 9f bc dd 43 bf 3c 2b 45 f7 bc 85 d6 05 3d
       -0.019471364 0.02334779 -0.030184349 0.032675285
000090 28 d9 08 3d 35 e3 8a bc 9d 02 bc bc b0 51 24 bd
       0.03341022 -0.016954044 -0.022950465 -0.040116966
0000a0 36 69 40 3d c6 77 85 bc 3c 5c a1 3c af a9 de 3c
       0.046975337 -0.016292464 0.019697301 0.02718052
0000b0 38 c4 b7 3b e4 22 bf bc 5a 41 63 3d cc 68 bc bc
       0.005608108 -0.023332067 0.055482246 -0.02299919
0000c0 24 67 55 3c 17 12 d7 bc d2 41 20 3b 81 94 16 bd
       0.013025079 -0.026253743 0.0024453294 -0.036762718
0000d0 bb 62 5d 3b c3 de 27 bd c3 81 4a 3d 4d f3 b9 bc
       0.0033780772 -0.040983927 0.049440157 -0.022699023
0000e0 32 b9 44 3d 21 95 f6 3c 37 ae a8 3c 0f 7d 8c 3c
       0.04802818 0.030100407 0.020590885 0.017149476
0000f0 01 d0 5c bd c7 e6 51 bc 14 49 9b 3c 89 c0 2b 3d
       -0.053909305 -0.012811369 0.018955745 0.041931663

decoder.2.weight f4 [64, 128, 4]
000000 d6 d5 f8 3c e1 7f 4c 3d 6d 90 c7 bc 03 86 3d 3d
       0.030375402 0.049926642 -0.02436086 0.04627038
000010 9a 14 17 bd cc 4d 70 3c 8c 1e 8d 3c c9 1b 0f 3d
       -0.03688488 0.014666986 0.01722648 0.034938607
000020 7c e2 97 bc ce 04 18 bd 1d 3c ea 3b 0f 86 f2 bb
       -0.018540613 -0.037113957 0.0071482793 -0.007401235
000030 b5 b0 be bc ee 5b a4 bc 33 4a a9 3c 46 e2 90 3c
       -0.02327762 -0.020063367 0.020665264 0.01768602
000040 9c cf a9 bc 2e 02 2c bc 8e cf 22 3d b6 e4 58 3c
       -0.020728879 -0.010498567 0.03974872 0.013238123
000050 8c 8e 50 3c 8c a5 23 3d 30 12 94 3c 81 18 1f 3d
       0.012729298 0.0399528 0.018075079 0.038841728
000060 e1 71 15 3c b6 d0 85 3a ba 19 66 3d 35 1e cc 3c
       0.009121389 0.0010209295 0.05617688 0.024916748
000070 d7 aa 59 3c 44 65 37 bd b4 40 31 bd f6 d0 db bc
       0.01328536 -0.04477431 -0.043274596 -0.026833039
000080 fe c9 38 bd 20 63 6d bb 3a e0 51 3c d9 26 f7 bc
       -0.04511451 -0.0036222413 0.012809807 -0.030169891
000090 c4 4b 6a 3d 97 41 96 bb f9 1d 19 3d ec 71 0f 3d
       0.057201162 -0.0045854556 0.0373821 0.035020754
0000a0 cd c2 f4 bb eb df 3a 3c bc 76 27 bc 1e 6a c9 bc
       -0.007469511 0.011405925 -0.01022118 -0.024586733
0000b0 60 09 3d bb 33 83 19 bd 92 19 31 bd 01 a7 be 3c
       -0.00288447 -0.037478637 -0.043237276 0.023272993
0000c0 b6 8f b9 3c 32 81 6b bc ad 9f 76 bc 59 f1 f2 bb
       0.022651535 -0.014374064 -0.015052718 -0.007414025
0000d0 d3 3d be 3c 73 77 6d bc 48 cb 04 bd ac 59 52 bd
       0.02322284 -0.014493811 -0.032420427 -0.05135505
0000e0 36 04 25 bd 12 ad 60 3d 7a e1 9d bc 05 09 38 bd
       -0.04028722 0.054852553 -0.019272555 -0.044930477
0000f0 6f ba 35 3d d1 60 1a 3d 49 c5 7d 3d 31 98 84 3c
       0.04436725 0.037689988 0.061955724 0.016185852
000100 d7 f3 52 3c f5 25 96 bc 2e 08 0b 3d ad fd c7 3c
       0.012875519 -0.018328646 0.033943348 0.024412954
000110 c4 13 80 3d e1 e7 ab 3a b7 7f 18 bd d9 12 a1 bb
       0.0625377 0.001311537 -0.037231173 -0.004915577
000120 50 2c db bc d3 ac 99 3c db c7 b8 3c 51 6c 46 3c
       -0.026754528 0.018759167 0.022556236 0.012110786
000130 8b 91 b6 3c 9b 6e 17 3d 72 68 3e bc a4 4d c0 bc
       0.022286197 0.036970716 -0.011621581 -0.023474522
000140 60 92 a1 bc 75 a2 b5 3b 08 dd 35 bc 2e b1 13 3d
       -0.019723117 0.005543048 -0.011100061 0.036057644
000150 8a 06 c7 3c 36 68 c3 3c 71 c4 a4 3c 52 6a 8b bc
       0.02429511 0.023853403 0.020113202 -0.01701847
000160 07 fb 49 bd 84 95 00 bd 0a 65 bd 3c 69 45 87 bd
       -0.049311664 -0.03139259 0.023119468 -0.06605036
000170 20 67 e4 bc 26 89 52 3d 49 65 5b bc e3 80 0b bd
       -0.027881205 0.051400326 -0.0133908475 -0.034058463
000180 ad 66 d2 3c 86 4e 1f 3d af d4 2e 3d 86 53 12 bd
       0.025683725 0.038893245 0.0426833 -0.035724185
000190 05 1e 92 b9 82 d9 d5 3c b4 34 21 3c c4 32 34 3d
       -0.00027869656 0.026104692 0.009839226 0.043993726
0001a0 77 85 89 3c 55 6f 5e 3c 22 07 64 3c ab b9 01 3d
       0.016787274 0.013576348 0.013917716 0.031671207
0001b0 b5 4f 0f bd 09 84 0f bd c8 26 b6 bc 2b df 6c bd
       -0.034988124 -0.035038028 -0.02223529 -0.057830017
0001c0 b5 c3 f7 bb 1b ac 5b 3d f3 9e f6 3c 0a 8f 70 3d
       -0.007561172 0.05363093 0.03010509 0.058730163
0001d0 86 71 26 3a 23 e8 13 3d 02 d8 f9 3c b9 45 58 3d
       0.0006349314 0.036110055 0.030498508 0.052800868
0001e0 85 4a 11 3d 5d 82 8d bc cd d0 28 3d 04 14 32 3c
       0.035471458 -0.017274076 0.041214753 0.01086903
0001f0 74 37 55 bc 32 f4 1b 3b dd 1a 27 bd 82 7e ce 3a
       -0.013013709 0.0023796675 -0.040797103 0.0015754255
000200 8d 6a 8a bb 43 21 9c bc 73 1a 0d 3d 2c c0 78 3c
       -0.0042241276 -0.01905883 0.034449052 0.015182536
000210 03 8f 8c bc 37 4b df bc 61 66 86 3c 85 ca c8 bb
       -0.017158037 -0.027257545 0.01640624 -0.006127658
000220 25 eb 17 bd 87 88 ba 3c f5 5e 30 3d e5 c4 6f bd
       -0.037089486 0.02277018 0.043059308 -0.058537383
000230 18 4b 2b 3d be 62 e4 bc 30 0c 3d 3d 0d 2a 06 3b
       0.04181966 -0.027879115 0.0461542 0.0020471842
000240 6b 0a 5f bc 43 4f db bc 38 6e 54 bd 03 c1 3e 3b
       -0.013613324 -0.026771193 -0.051862925 0.0029106743
000250 3c 4c c4 bc 7d 8a ed 3c 3c d2 d2 3c 19 0f 5f bc
       -0.023962133 0.0289967 0.025735013 -0.013614439
000260 74 b8 6c bc 67 67 d1 bb 71 e8 7a bc 72 fd 65 3c
       -0.014448274 -0.0063905003 -0.015314207 0.014037477
000270 50 bd 9d 3a 4e f6 82 3c e9 5b b2 3c 6a f7 93 bb
       0.0012034569 0.015986588 0.021772342 -0.004515578
000280 ad 71 2c bd 22 b3 05 3d df 93 14 bd 7a 88 1e bd
       -0.042100597 0.032641537 -0.036273833 -0.038704373
000290 e6 bf 61 3a d6 e4 33 bd ec 7b 31 bd a4 7b 29 bc
       0.0008611664 -0.043919407 -0.04333107 -0.01034442
0002a0 50 41 38 bc 34 fd 29 bd a1 44 d3 3c c4 99 8d bc
       -0.01124604 -0.04150124 0.02578956 -0.017285235
0002b0 a8 55 21 3d 3e 06 d8 3c 72 e7 df 3c 56 16 29 3d
       0.03938833 0.026370164 0.027332041 0.041281067
0002c0 dc 44 75 bc ea 2d 87 bc f8 41 f2 3c 26 6b d7 3c
       -0.014970031 -0.016501386 0.029572472 0.02629621
0002d0 6d 15 fa bc 86 77 b0 bc 32 57 cd bc 87 ce 77 bd
       -0.030527795 -0.021541368 -0.025065992 -0.060499694
0002e0 97 25 76 3d e3 b1 c1 bc 66 57 13 3d ee 6c a5 bc
       0.060094442 -0.023644393 0.03597202 -0.020193543
0002f0 24 43 bc bc 0b 2f 68 3a 7e 19 2e 3c 89 fd d7 ba
       -0.022981234 0.00088571076 0.010626195 -0.0016478758
000300 6d ad 09 bd 83 7e 59 3c 2e dd 16 bd 13 c1 22 bd
       -0.033612657 0.013274792 -0.036832027 -0.03973491
000310 da ad a1 3b 82 8d 45 3c f3 89 4f 3c 16 ac 24 bd
       0.004934055 0.012057664 0.012667167 -0.040203176
000320 df f6 0b bd e1 ae 30 bc c8 f1 a3 bc 27 a0 d9 bc
       -0.03417098 -0.010783882 -0.020012751 -0.026565624
000330 ed ff 9d 3c a6 ac 42 3c b5 41 e2 bc b0 35 44 bd
       0.019287074 0.011881983 -0.027619222 -0.047902763
000340 7c 26 02 ba 23 4c eb bc e9 97 df ba 75 cd 32 3c
       -0.0004964841 -0.028722828 -0.0017058823 0.010913243
000350 7f 94 d9 bc 51 05 8f 3b 57 ac d4 bb 11 f3 e4 bc
       -0.026560066 0.0043646474 -0.006490271 -0.027947934
000360 91 71 d6 3b b7 38 9d 3b ab a6 e1 3c 53 10 a4 3c
       0.0065443 0.0047980207 0.027545294 0.020027315
000370 88 19 7b bc 10 09 02 bd a6 dc c8 bc a9 93 a5 3c
       -0.015325911 -0.031746924 -0.024519276 0.020212011
000380 fe 70 40 bc 64 9a 94 bc f9 f6 0f 3d d4 d2 3b 3d
       -0.011745689 -0.018140025 0.03514764 0.04585536
000390 a1 c0 02 bd 6e 4b 0a bd 4d fd 78 3c 8f c6 b6 bc
       -0.031921986 -0.03376334 0.01519711 -0.022311477
0003a0 2f 1b 3a b9 8e fd eb 3c ad e4 6f 3c 64 a4 53 3d
       -0.00017748469 0.028807428 0.014641923 0.051670447
0003b0 a6 c4 06 bd 7d 06 0d bb 68 14 f6 3a 7f 26 3a 3c
       -0.032902382 -0.002151876 0.0018774392 0.011361717
0003c0 fe 72 41 3d 4b cd 0c bd 66 72 cf bc 4e b1 f3 3c
       0.047228806 -0.03437547 -0.025323104 0.029747631
0003d0 47 4b 24 bd 14 c6 71 3c 88 fc 06 3c 65 bf a6 ba
       -0.040110853 0.014756698 0.008238919 -0.0012721835
0003e0 ea f9 46 bd 2a 42 82 3b 0d c6 c3 ba 3c 31 97 bb
       -0.04857818 0.0039751725 -0.0014936343 -0.0046140235
0003f0 45 98 cc bc 71 56 bd 3c 06 b9 b1 3c 1f 4d 83 bd
       -0.024974952 0.023112508 0.021694671 -0.06411194

decoder.2.bias f4 [128]
000000 80 ff 25 3d 68 27 7a bc 91 da e9 3b a3 be 65 3c
       0.040526867 -0.015268184 0.007136651 0.014022502
000010 aa e5 06 bb 8e 48 0b 3d 84 8b c0 3c 7d e8 3b 3b
       -0.0020583668 0.03400474 0.023504026 0.002867251
000020 90 bb c1 3b a2 f8 b6 3c 86 63 03 3d 84 9e 19 3d
       0.005912252 0.022335354 0.032077335 0.037504688
000030 40 2c df 3b 2b 9f 14 3d 79 03 eb bc 9d f3 76 3b
       0.006810695 0.036284607 -0.02868818 0.0037681826
000040 e5 6b 03 3d 78 37 13 bd 82 0f 21 3d f4 27 ef bc
       0.032085318 -0.03594157 0.03932143 -0.029193856
000050 72 8a 33 3c 89 ff 51 3b cd 30 91 3b ce 56 79 bc
       0.010958301 0.003204318 0.0044308663 -0.01521845
000060 6f e8 8b 3c 19 f5 18 3c 4c 18 2d 3c b0 5a 49 3c
       0.017078606 0.00933578 0.010564875 0.012289688
000070 57 da 04 3c 35 43 7a 3c 05 6e 10 3d 56 86 ea bc
       0.008108697 0.0152748125 0.035261173 -0.02862851
000080 84 c8 5b bb c1 e4 2f 3c e6 12 e2 bc f9 cc 76 bb
       -0.0033536265 0.0107356915 -0.027596902 -0.0037658794
000090 4b 30 1c bd f6 b9 d6 bc c1 f7 76 3c 38 54 c9 bb
       -0.038131993 -0.02621172 0.015073718 -0.006144073
0000a0 af 43 ab bc 07 00 58 3c ba 1f 17 3d d2 1b 53 bc
       -0.020906297 0.0131836 0.03689549 -0.012885051
0000b0 45 14 e8 bc 09 ea 8a bc c5 1d c2 3b 03 e5 9b 3c
       -0.028329978 -0.0169573 0.005923959 0.0190301
0000c0 d8 c5 01 bc ea 13 f1 3c 7d 67 7c 3c 66 8a 06 bd
       -0.007920705 0.029428441 0.015405533 -0.03284683
0000d0 18 77 b3 bc d4 31 21 bd 41 94 a5 3b bd 5a 97 bc
       -0.021907374 -0.03935416 0.0050530736 -0.018475885
0000e0 6f 6b 15 3d 6b 56 05 3d ca 96 0d 3c 1e 44 48 bd
       0.03647941 0.032553118 0.008641908 -0.048893087
0000f0 48 47 01 bd da fc 0d bd 6f 6c a7 3c 43 c7 fa 3b
       -0.03156212 -0.034664966 0.020437447 0.0076531484
000100 77 6a 38 bd 59 b6 9d 3c 59 d9 6e ba 44 ed 10 bc
       -0.045023408 0.01925199 -0.0009111367 -0.008845631
000110 3d 9f 06 bc 3f 55 9c 3b 3f b5 5e bb 8b bf 05 3d
       -0.008216676 0.0047709043 -0.0033982543 0.032653373
000120 01 b8 13 3d b7 04 c7 3c f0 3a 1b 3d d9 f7 af 3b
       0.03606415 0.02429424 0.037898004 0.005370122
000130 eb 8b 45 3c 68 70 3f 3c 04 b6 26 bc 1c ba 4f 3c
       0.012057285 0.011684515 -0.010175232 0.012678649
000140 74 8e 7b 3c fc 52 ae 3b 1b e3 be bc f3 b6 ce 3b
       0.015353788 0.005319951 -0.023301652 0.0063084303
000150 a9 4b 16 bc 74 3d 13 bd bc a6 fe 3c db 4b 52 bc
       -0.009173312 -0.03594728 0.031085365 -0.012835468
000160 98 d0 76 3c 2b f7 81 ba b5 d5 e4 3c 4f e4 97 3c
       0.015064381 -0.0009915581 0.027933935 0.018541483
000170 df eb f6 bc 80 d7 a8 b9 e4 10 f7 3b 2e d0 55 3c
       -0.030141769 -0.00032204017 0.0075398553 0.013050122
000180 eb f3 24 3d 5c 24 b9 bb e2 a4 39 bc 6b 99 45 bc
       0.04027168 -0.0056500863 -0.011330815 -0.0120605035
000190 a1 1b bd 3c e5 c2 1e 3d 43 ef 70 bb 67 f9 fb 3c
       0.023084464 0.038760085 -0.0036763705 0.030758573
0001a0 02 3a d0 3b c1 a8 21 bd be 8b 93 3c b9 29 3f 3d
       0.0063545713 -0.039467577 0.01801097 0.04667065
0001b0 e1 61 82 bc 8d 58 bf 3c 32 2b 47 3b 55 a7 2e 3d
       -0.015915813 0.023357654 0.0030390737 0.04264005
0001c0 ee 1f 0f 3d b5 97 87 3c 8f 00 c5 3c 2b 4b 5f ba
       0.03494256 0.016551832 0.024048118 -0.0008517976
0001d0 e1 a9 4a bc 41 87 47 3c 74 82 f8 3b 8b 6e d8 3c
       -0.012369604 0.012178243 0.0075839106 0.026419898
0001e0 45 0b 8a bc a6 3b 5b ba 16 47 8d b9 33 3e 91 bc
       -0.016851077 -0.00083630753 -0.0002694658 -0.017729854
0001f0 83 36 07 3d bb 92 06 3d 3c db 9e bc a5 90 f0 bc
       0.03301097 0.032854777 -0.019391648 -0.029365847
