notebooks/epoch=4-step=4812.ckpt (torch, 892416 bytes, 33 tensors)

encoder.0.weight f4 [128, 1, 3]
00000000: 5219 fbbe 4666 f13d 7acc 0dbf fc45 833e
00000010: 47cb 433e 90c9 ca3d ea08 0f3f 383f 07bf
00000020: 70a7 c0be dc95 6e3e 30f5 353d e6f0 71bd
00000030: 621b 063f 3d96 0d3f 71ce 973e e909 ba3e
00000040: 4bd0 f73c 0936 bd3e b4c8 013e 87a7 ab3d
00000050: 4093 7d3e 6f9b 86be 12f2 ab3e 2d93 f9be
00000060: 2240 ef3e 0255 5f3e 317d 78be 2771 d8bd
00000070: 749a a6be 42b1 3e3e 3def a9be 9cc0 3a3e
00000080: e8a9 12bd 5871 4ebd be2d dcbe aa85 04bf
00000090: 6d0b 0b3e 1399 023f 2a60 06bf afa9 c93d
000000a0: a460 773d 28ba 453e c3ca 3a3e 2074 e53e
000000b0: 225e 203e 9188 8b3e 1b84 013f d29f bcbd
000000c0: 9239 623e 1a49 503d 75b8 f6be b9b8 14bf
000000d0: 50ca 0c3f 57ca 143f e71e aa3e 22f5 d33e
000000e0: 3852 e7bd 56cb d03d 955d 283e 491a 1cbe
000000f0: 21dd d93c 442e c83e 5fd4 0b3f aa71 d93d
00000100: d9a4 5ebd 230e b13e 4af0 c83e 308a a03d
00000110: cf40 c43e bfc3 93bd 878c 8ebe 775a 2fbe
00000120: 7e83 0cbe c964 fbbe 598f d7bd f74e 0ebf
00000130: 2d07 c5be 8a58 063f 07ed 8abe 95a1 d53e
00000140: c246 dabe 2ea4 95bd e789 f5be 9f94 1cbe
00000150: 5553 023f b3f1 833e 4004 0ebf 2650 aebe
00000160: e3e0 413e e01b 0f3f 2d8b 01bf 23ed ce3e
00000170: 74af 973e 0ce4 b2be 02f1 32be a3d6 03be
00000180: a03e 0cbf a317 043f 7425 86bd 033d 2d3e
00000190: 9631 64bd 59d0 1c3e 676c 0d3f 5cc8 cebe
000001a0: 9137 fd3d ad41 ce3e 7f22 b3be 8df9 bd3d
000001b0: 41cc 02bf f0cc b73e 8735 e9be 7b4c ffbe
000001c0: aadf d43e 6879 fc3e 3aeb 36be cd18 12be
000001d0: 90c1 c43e d8b6 ef3e eb28 123d d565 07be
000001e0: 5a47 573e 4d15 553d 8ac9 4f3e 01f7 3f3d
000001f0: 53f0 c3be ab35 ae3d c18a 2cbe caa7 f33e
00000200: a4b3 653e 4592 d73e dbbb 9dbe 6023 b53e
00000210: cab0 c3bc d7a5 693e 1353 033f 76ce 2f3e
00000220: c951 693e 25e4 33be 0f5b b1be 757e 083f
00000230: 927f 123f 95d2 db3e 6fb2 b73e 32e4 05bf
00000240: de5b 01bf 7e92 cd3e c5ca 65be 35cd 4c3b
00000250: 4e37 bc3e 7854 6d3e 80a5 063f 76ad d0be
00000260: cbb1 02bd 6b34 08bf dfb3 4b3e e231 a3be
00000270: 9767 b2bd b181 b1be dcf9 133f 84c5 f5be
00000280: 6148 433e 31fb 943d e9da 743d 39ed 583e
00000290: 54a4 90bc 0528 51be e871 1abe c2b9 01be
000002a0: 0436 a7be b797 bcbe 6418 8cbe 8129 c53e
000002b0: c624 f3be 2817 143f 9f58 18be 20ba b33e
000002c0: 4b1d cebe 82dc d8be bca6 113f d96f 28be
000002d0: c7e3 023e cf1d 10bf 9aae 893e e8f8 b7be
000002e0: 0b3b f93d 46e3 c23e 4889 1e3c 095b 1f3c
000002f0: d15b e53e d672 11bf 4372 d5be fa0c 76bd
00000300: 73e3 70be 4770 ff3e 4125 d7be 3db9 c1be
00000310: ccfc 243e a93c 0b3f 3086 38bd 3332 adbe
00000320: c54c a6be 2f61 843c b74c c93e 7d03 c53e
00000330: 4606 f63d c984 1c3f 2739 0e3e 56d6 f5bd
00000340: f235 973e 5a44 53bc 8b0d 04bf bf58 d1bd
00000350: 564c e93e 9a70 4dbe a0eb 06bd ef1e c8be
00000360: 0375 69be a06d e6be ccf5 2d3c d198 e03e
00000370: 3739 c1bc b545 ffbd 3926 d6be 1d86 09bf
00000380: 7b66 c2be 7614 59bd f0d6 a7be e2a0 a7be
00000390: f321 9cbe da5f 90bd eb72 06be 2c29 85bd
000003a0: 6e8c 0dbf 050e 043e 38cf 733e 1148 c0be
000003b0: d07b bbbe 81d2 083f 354e b1bd 1d15 803e
000003c0: 09dc 01bf 4353 623e cb91 7abe 4925 f73e
000003d0: 5791 473e 98f1 c4be be87 04bf d550 4b3e
000003e0: e8d0 efbe 503c 043f daf8 e43e b798 b43e
000003f0: baa6 51be 555e 65be dc88 27be 5996 02bf
-0.49042755 0.11787085 -0.5539013 0.2563933 0.19120513 0.09901726 0.55872977 -0.5283084
-0.37627745 0.23299354 0.044423282 -0.05906763 0.5238553 0.5530737 0.2964969 0.36335686
0.030250689 0.36955288 0.12674218 0.08381563 0.24763203 -0.2629046 0.33583122 -0.487451
0.46728617 0.21809772 -0.24266507 -0.10568457 -0.32539713 0.18622306 -0.33190337 0.18237537
-0.035806566 -0.05040106 -0.4300365 -0.51766455 0.13578577 0.5101482 -0.52490485 0.09846818
0.060394898 0.19309294 0.1824141 0.4481516 0.15660909 0.2725263 0.505922 -0.09210171
0.22092274 0.050850965 -0.48187605 -0.58094364 0.54996204 0.58121246 0.33226702 0.4139796
-0.11294979 0.10195033 0.16441949 -0.15244402 0.0265947 0.39097798 0.5462093 0.10617383
-0.05435643 0.34581098 0.39245826 0.07838857 0.38330695 -0.0721507 -0.2784159 -0.17124353
-0.13722035 -0.4910033 -0.10525388 -0.5558924 -0.38482037 0.5247885 -0.27133963 0.4172484
-0.4263211 -0.073067054 -0.47956774 -0.1529107 0.50908405 0.2577034 -0.55475235 -0.34045523
0.18933444 0.5590191 -0.5060299 0.40415296 0.29626048 -0.3493961 -0.1747475 -0.12874846
-0.5478306 0.51598567 -0.06550112 0.16917805 -0.05571135 0.15313853 0.55243534 -0.40387237
0.12364114 0.40284482 -0.34987256 0.09276114 -0.51092917 0.35898542 -0.4554865 -0.49863037
0.41576892 0.49311376 -0.1786317 -0.14267273 0.38428926 0.46819186 0.035683554 -0.1322244
0.21023312 0.052022267 0.20291725 0.04686642 -0.3826929 0.0850633 -0.16849805 0.4758895
0.22431809 0.42103782 -0.30807385 0.3537855 -0.02388801 0.22817169 0.51298636 0.17168602
0.22785105 -0.17567499 -0.34639785 0.5331796 0.57225907 0.429341 0.35878322 -0.52301323
-0.50530803 0.40150827 -0.22440632 0.0031250243 0.36760944 0.23176754 0.5259628 -0.4075734
-0.031907838 -0.53204983 0.19892834 -0.31873995 -0.087111644 -0.3466926 0.5780313 -0.48002255
0.19070579 0.072744735 0.05977908 0.21184243 -0.017656483 -0.20425422 -0.15082514 -0.12668517
-0.32658398 -0.368345 -0.2736236 0.38508227 -0.47488993 0.57847834 -0.14877556 0.3510294
-0.40256724 -0.42355734 0.5689504 -0.16448916 0.12782203 -0.56295484 0.26891023 -0.35932088
0.12169465 0.3806402 0.009676285 0.009726294 0.44796613 -0.5681585 -0.41688737 -0.06007097
-0.23524265 0.49890348 -0.4202061 -0.37836638 0.1611206 0.54389435 -0.045049846 -0.3382736
-0.32480446 0.016159622 0.3931634 0.38479224 0.12012915 0.61140114 0.1388899 -0.12003772
0.29533345 -0.012894714 -0.51583165 -0.10222005 0.45566052 -0.20062485 -0.032939553 -0.390861
-0.22798543 -0.45005512 0.010617685 0.4386659 -0.023586852 -0.124644674 -0.41826037 -0.53720266
-0.3796881 -0.05299803 -0.32781172 -0.3273993 -0.3049465 -0.07049532 -0.13129775 -0.065019935
-0.55292404 0.12895973 0.23809516 -0.37554982 -0.366179 0.53446203 -0.08657495 0.25016108
-0.5072637 0.22102074 -0.24469678 0.48270634 0.19489037 -0.3846557 -0.51769626 0.19855054
-0.4683907 0.5165453 0.4472111 0.35272762 -0.20473757 -0.22399266 -0.16360801 -0.5101066

encoder.0.bias f4 [128]
00000000: 94e9 aabe 8c52 10bd 11e9 dd3e ba30 923c
00000010: 0f41 c3be 5498 c23e a281 ebbd 2359 cb3e
00000020: 6537 973e 7ea4 5dbe 6091 133f d8f8 8d3e
00000030: f319 28be 18e1 7c3e 0a69 9a3d 01c5 c2be
00000040: cf6c bdbd ef1b 7cbd 2863 bfbe f068 143e
00000050: 5d36 0d3f d4f2 6a3e 3539 b5bd 6b01 1fbf
00000060: cc3e fdbe 8782 97bd 84c3 06be e81c f3be
00000070: 390b 003f 1e27 2e3d 3f44 993e 2fd7 d2be
00000080: ffc8 833c 18eb c8be bd50 963e 9421 a4be
00000090: b4e9 f13e e4db 0cbe 389c e8be 7c48 103d
000000a0: 85ec 0a3f 8838 a83d d08f 3dbe e1ec 8f3d
000000b0: 1cfe 48bd 7fd2 3e3e 9aa6 f6be 7564 1cbd
000000c0: ffaa e43c 5e76 bdbe cae6 1ebf 6d9b 89bd
000000d0: bc5c 0bbf a970 a93e ab4f 91bd 7565 9e3c
000000e0: e4f6 90be 5546 25be 4221 cc3e 3cd0 b33e
000000f0: f870 a5bc e900 20be d4b2 db3e 77d4 8a3e
00000100: 3a4e eb3e 9b73 d9bd 5a85 453e 141e b43e
00000110: 1219 f93d 2762 f2be 2930 f83e b052 fcbe
00000120: e076 453e 01b8 e33e 2142 5e3e 326e 34be
00000130: 30fd 8e3e 239b edbd 8f30 efbe 8bf8 a33e
00000140: 4285 b83d 1d20 4ebe 3ccd 10bf eee1 73be
00000150: 1f66 0c3f 78f0 00bf 040e 933e 3cd3 a2be
00000160: 0413 bbbe c8b8 a3be 6b37 b4be 50c4 c3be
00000170: 0914 9cbe ab87 05bf 9f3c 0ebf 350f 4abe
00000180: 39c6 04bf 814a a83e e58b 62be 3b02 003f
00000190: 57af 763e eacc c4be edd0 7b3e 1670 edbe
000001a0: 96d3 35bd 85dd d6be dd10 c3be 1be0 e13b
000001b0: 295c 8bbe 46d3 913e f6fa a43e a14e f2be
000001c0: 2c09 ef3e 4dd5 5a3e ec0e f5be fbd3 b5be
000001d0: cc9c 00be a15a 6c3e 2aff 18be c157 683d
000001e0: d809 e1be e807 35bd 0cff 8f3c 4803 f7bb
000001f0: fa4f 7d3e ceb8 0ebf e348 a5be f0c8 80be
-0.3338133 -0.035234973 0.43341878 0.0178455 -0.38135573 0.38006842 -0.11499335 0.39716443
0.2953445 -0.2164478 0.576437 0.27728915 -0.16416149 0.24695241 0.07539566 -0.38040927
-0.09249269 -0.061550077 -0.37380338 0.14493155 0.55161077 0.22944194 -0.08848802 -0.6211154
-0.49461973 -0.07397943 -0.13160521 -0.4748299 0.50017124 0.042517774 0.2993488 -0.41179797
0.016087053 -0.39241862 0.29358473 -0.32056868 0.47248614 -0.13755757 -0.45431685 0.035225376
0.5426715 0.082139075 -0.18511891 0.07027603 -0.049070463 0.18634985 -0.48173982 -0.03818174
0.027913569 -0.3700437 -0.62070906 -0.06719098 -0.54438376 0.33093765 -0.070952736 0.019335488
-0.28313363 -0.16140111 0.39869124 0.35119808 -0.02019547 -0.15625347 0.42909873 0.27115223
0.4595812 -0.10617753 0.19289151 0.35179198 0.12162985 -0.4734051 0.48474243 -0.49281836
0.19283628 0.4447632 0.21704914 -0.17620161 0.27927542 -0.116018556 -0.46716735 0.3202556
0.09009792 -0.20129438 -0.5656316 -0.23816654 0.54843324 -0.50366926 0.2872163 -0.31801784
-0.36537945 -0.31976914 -0.3519853 -0.38235712 -0.30484036 -0.5216014 -0.5556125 -0.19732364
-0.51864964 0.32869342 -0.22123678 0.50003403 0.24090324 -0.38437587 0.24591418 -0.46374577
-0.044391237 -0.4196588 -0.38098803 0.0068931705 -0.2721875 0.284815 0.32222718 -0.47325614
0.46686685 0.2137043 -0.47862947 -0.3551329 -0.12559813 0.23081447 -0.14941087 0.056724314
-0.43952823 -0.044196993 0.01757767 -0.007538233 0.2473754 -0.5575074 -0.3228217 -0.25153303

encoder.3.weight f4 [64, 128, 3]
00000000: 8a18 65bc 8199 513b 2b44 0c3d 0717 8fbc
00000010: 6229 52bd 13d5 cc3c fc89 a8bc ba87 57bd
00000020: 44d0 413d 5593 08bd 07f2 4ebc eff4 013d
00000030: a980 173c 76dd 103d 10d1 40bd 71f5 4e3d
00000040: 60f9 1ebd 6056 27bd 2b5e 2b3b f573 4cbd
00000050: 5831 81bc d4d0 04bd 3336 703c c970 073d
00000060: 89e7 b2bb 8079 06bb d2be 843c 56f3 183d
00000070: c740 81bc 8654 543d 7233 57bc ea63 56bd
00000080: f454 06bd 9a8a 9f3c 2229 ce3a 965c 3dbb
00000090: 1800 a5bc 4e3f feba b701 2dbc 449d 7bbc
000000a0: deb1 ccbc 01de ebbb 9276 61bd 73e8 56bd
000000b0: 1ef8 d93c e4fd 11bd 5d53 29bd dd01 32bd
000000c0: ff15 15bc 86e5 92bc 129d 87bc 6db8 43bc
000000d0: cb0e 433c 44eb 2dbc a12d ac3c 993e 0dbd
000000e0: 2057 49bc 357e 1d3d eb8b 263d e840 4f3b
000000f0: 5b0f eebc 55fe 82bc 1c62 d8bb 5f4f fabc
00000100: e3b8 4a3d f1ef 27bc 4170 d9bc 7407 13bd
00000110: d751 d4bc b85e c9bb c3ef cebc 42f0 87bc
00000120: cb72 64bc 46be d0bc 0c04 1e3c 9686 f7bc
00000130: e312 2e3d b633 8f3c 0b84 84bc 3f0f 4dbb
00000140: ab79 e13a d96b 0b3d 3a39 46bd 5539 28bc
00000150: 9b44 5f3c 7f19 e5bc 26fe 113c 1c90 2d3c
00000160: fe19 13bc d97c afbc 8f9b 37bd 1bef 38bc
00000170: cdbd 1cbd 176a febc cadd 433c 2977 5ebc
00000180: 7b18 1fbd 5dd1 973c a1ba ac3a aef6 183d
00000190: fdc6 6dbd 10cf fdbc 9bb2 1d3d 97a4 003d
000001a0: 40c4 773d d9e3 39bd a83b 383d 5170 8abc
000001b0: 03db 893b 0b7f 4f3c 9be8 313d 7725 dc3c
000001c0: 310c 8cbd 3f06 083d b13a 5639 d82a 983c
000001d0: 83da 3b3d 7a03 ebbb 9910 363c 6712 853b
000001e0: dc63 48bc d874 023a 4d9b 6e3c fe32 88bb
000001f0: 8f4b 97bc 57be b2bc 3172 4abd 5819 473c
00000200: 019a 663c 7752 183d 7596 e73c ce3a 58bb
00000210: c43e 763c 22ae 0d3c 5942 fdbc 1ae4 15bd
00000220: f36e 233d 8713 b13c 00b3 e0bc ac16 073d
00000230: 8fa8 e13c c6df 93bc cfec 493c 8c6d c23c
00000240: 8d6a a73a ba96 653c 9d06 5e3d 1241 8fbb
00000250: 05c6 793c d43f 9dbc fc3b 233d 39f0 f0bc
00000260: 034f 05bd fd89 b73c 5238 74bb 50bf 48bc
00000270: 36f3 f53c 374c edba 14e5 a43b 4be1 53bd
00000280: 8af6 3abd 1ccd c23c 9e8a 31ba 1d43 57bd
00000290: eb1d a33c b78e 733c 7884 afbb d908 0abb
000002a0: f5bc 9c3c 1601 d7bc 7e7e 94bc bba9 29bc
000002b0: e11a a73c 0010 39bc 0244 43bd f532 c5bc
000002c0: 2792 0f3d 0dd0 893c a760 773c a8ec 133c
000002d0: e332 cfbb 4417 073d 5145 2e3d 4899 fc3c
000002e0: cab2 8abb 68e0 333d 4c1c 073d 7777 023b
000002f0: 3452 59bd 773e a43a 6f51 f23c cbde 0bbc
00000300: ad09 a53c 5f98 d73a 3379 233d ce05 b43a
00000310: 7170 033b 6a6a 113b 6121 17bd d5c1 67bd
00000320: 8f58 2bbd 274f 503d 6ce3 7fbc 1400 a4bc
00000330: a0df 393c 97c1 0f3d e911 633c 59b9 283b
00000340: c36c 61bd 81f0 c4bc a52b b1bc ea80 7d3b
00000350: ccaf a9bc 39cd acbc 8bf3 683c 3741 353c
00000360: 355b a4bc eb10 d93a a7f6 053d 1839 0bbc
00000370: 84e2 473d 27b2 8a3c 1fe8 3bbd 4697 cfbc
00000380: 6512 a73c 76dc 6a3c 33b6 31bd b6e2 493c
00000390: 47c9 51bd 0698 66bd d3c4 333c dcf2 f73c
000003a0: 2404 c33c 750b a7bc 395c 4bbd 86de f4bc
000003b0: 4a74 c33c d703 b8bc 36b6 383d 6adc 3cbd
000003c0: 5c2a 9fbc bc81 0ebd 1fad 233c 2cf7 77bc
000003d0: fff1 e1bb 885c 5b3d 132c bb3b 93a9 9fbb
000003e0: 0d8c 033b cfda 39bc 7999 b93c 14d8 033d
000003f0: c02d d53c f802 163c 05a3 d93c 63fa 44bd
-0.013982901 0.0031982365 0.034244698 -0.017467035 -0.051308997 0.025003945 -0.020573609 -0.052619673
0.04731776 -0.03334363 -0.012630946 0.031727728 0.009246984 0.03536745 -0.047074378 0.05052704
-0.03881204 -0.040853858 0.0026148658 -0.049915273 -0.0157706 -0.032425717 0.01466136 0.033066545
-0.00545973 -0.0020519197 0.016204271 0.03734144 -0.015777959 0.05183842 -0.013134824 -0.05234138
-0.03279586 0.01947527 0.0015728811 -0.0028894297 -0.020141646 -0.0019397528 -0.010559491 -0.015357319
-0.024987157 -0.007198096 -0.055044718 -0.052467775 0.02660757 -0.03564252 -0.041339267 -0.04345881
-0.009099483 -0.01793171 -0.01655439 -0.011945826 0.011905382 -0.010615174 0.021017851 -0.034483526
-0.012288839 0.03845044 0.04066078 0.003162438 -0.029060056 -0.015990416 -0.0066034924 -0.030555425
0.049492728 -0.010250078 -0.026542785 -0.03589578 -0.02591793 -0.0061453246 -0.025260812 -0.016594056
-0.013943384 -0.025481354 0.00964452 -0.030215543 0.04249848 0.017480712 -0.016176244 -0.0031289605
0.0017202398 0.0340384 -0.04839442 -0.010267575 0.013627197 -0.027966259 0.008910691 0.01059344
-0.008978365 -0.021421837 -0.044826087 -0.011287476 -0.038266946 -0.031056447 0.011954734 -0.013578215
-0.038841706 0.01853245 0.0013178178 0.037344627 -0.0580511 -0.030982524 0.03850041 0.031406965
0.060489893 -0.045383308 0.044978768 -0.01689926 0.0042070164 0.012664567 0.04343472 0.026873333
-0.06838263 0.03320908 0.00020430495 0.018575117 0.045862686 -0.0071720453 0.011112356 0.0040610316
-0.01223084 0.00049765175 0.014563394 -0.0041564694 -0.018468646 -0.021819277 -0.049425308 0.0121520385
0.014074803 0.03718802 0.028269986 -0.0032994035 0.015029613 0.0086474735 -0.030915426 -0.036594488
0.03990073 0.021615757 -0.027429104 0.032980606 0.027546195 -0.01805104 0.012324526 0.023733877
0.0012772843 0.014012987 0.054205526 -0.0043717707 0.015244965 -0.019195475 0.039852127 -0.029411422
-0.032546055 0.022404665 -0.0037265015 -0.012252644 0.030023199 -0.0018104379 0.005032191 -0.051728528
-0.045645274 0.023779444 -0.000677267 -0.05255424 0.019911727 0.014865569 -0.0053563677 -0.0021062403
0.01913307 -0.026245635 -0.018126722 -0.010355408 0.020398559 -0.011295319 -0.04767228 -0.02407215
0.03505149 0.01682284 0.015098727 0.009028591 -0.006323205 0.032981172 0.042546574 0.030834809
-0.004232739 0.043915182 0.03298597 0.0019907632 -0.05305691 0.0012530823 0.029579846 -0.008537005
0.020146215 0.0016448608 0.039910506 0.001373464 0.0020056034 0.0022188672 -0.036897067 -0.056581337
-0.041832503 0.050856736 -0.015618186 -0.020019569 0.01134482 0.03509673 0.013859251 0.0025745241
-0.055035364 -0.024040462 -0.021627257 0.0038681575 -0.02071371 -0.021093952 0.014218221 0.011062912
-0.020063022 0.0016560828 0.03270593 -0.008497499 0.048800007 0.016930653 -0.045875665 -0.025340687
0.020394513 0.014334789 -0.04338665 0.0123221185 -0.051217344 -0.056297325 0.0109722195 0.030267172
0.023805685 -0.020391205 -0.049648497 -0.029891264 0.023859162 -0.022462768 0.045095645 -0.04610864
-0.019429378 -0.034791693 0.009990006 -0.015134614 -0.0068953033 0.05355504 0.005712041 -0.0048725097
0.002007249 -0.011343672 0.02265619 0.03218849 0.026022792 0.009155981 0.026566992 -0.04809035

encoder.3.bias f4 [64]
00000000: 4dcd babc f41c 8f3b ed56 23bd 1cc6 05bd
00000010: 2d80 053d 5ccd 063d 9c3e 713a 3f63 7f3c
00000020: 1bc2 113d 44ad 893c 8da8 1e3c 8105 b23c
00000030: 5f04 f1bb 642b b1bb 5c35 153d 307c d83c
00000040: d0f4 0c3d 9de2 9f3c f734 8cbc 3ce8 383d
00000050: 095c ce3b 8cb2 86bb fbb5 8e3c 3fd2 423c
00000060: 1a25 7f3c e351 2abd e3a1 0e3d cc4e 95bc
00000070: ab4a 1e3d e04b 29bb 580d 0b3b e822 5b3d
00000080: 8fcc 40bd 61ef 963c 0c35 0b3d bfaa 35bd
00000090: 7a7d 30bd 812a 2cbd 3394 b4bc d527 013c
000000a0: a8eb c9bc 2e44 98bc 72be f73c 4583 72bc
000000b0: c958 f6bb 530d 213b 8057 f13b 2feb a3bc
000000c0: dbe1 a73c c8ac 21bc de83 b0bc 5f41 c6bc
000000d0: 77b2 0cbd 9a1e 873d 9402 88bb 7a97 553d
000000e0: dc87 4a3d b293 edbc 679f 25bd a366 363d
000000f0: 51e1 ac3c 3754 413d cd29 f83c 2d42 9ebc
-0.022802973 0.004367465 -0.03987782 -0.032659635 0.03259294 0.03291069 0.000920275 0.015587627
0.035585504 0.016806252 0.00968374 0.02173114 -0.0073552574 -0.005406784 0.03642784 0.026426405
0.03441316 0.019517237 -0.0171151 0.04514335 0.0062975925 -0.00411064 0.01742076 0.011890947
0.015572811 -0.041582 0.034822356 -0.01822605 0.038645428 -0.0025832579 0.002121767 0.053500086
-0.047070082 0.018424692 0.033986136 -0.04435229 -0.043088414 -0.042032722 -0.022043323 0.007883032
-0.024648502 -0.018587198 0.030242179 -0.014801805 -0.0075179082 0.0024574592 0.007365167 -0.020009605
0.020493438 -0.009867854 -0.021547254 -0.024201093 -0.034349885 0.06597634 -0.004150698 0.052146412
0.04944597 -0.02900109 -0.04043522 0.044531476 0.021103533 0.047199454 0.03029337 -0.019318664

encoder.6.weight f4 [32, 64, 3]
00000000: b839 54bd 4f79 fc3c 680b 43bd 2e9d 383c
00000010: 7594 013d 382c 333d 0dd9 9d3c 1e37 2739
00000020: a569 3fbd fd23 fb3c 004e de3c e955 2a3d
00000030: dd39 183c 399a 123d 5cef 0cbc 4eaa 043a
00000040: c55a 563b 29d0 78bd 9d1a 98bb 54c0 9bbc
00000050: 2a95 46bc 923e f5bc 1e24 6cbd be9d 153d
00000060: 1136 5fbd 17d5 85ba e6a3 633d 963c 253d
00000070: 1eb6 9fbd b328 7e3c 205d 0fbd a4e8 4fbd
00000080: 402b b0bc f67c ecbd 1ab5 9f3d 101c 6fbd
00000090: f28f 20bc 20a6 453c 9c9b 84bd 70a5 ab3c
000000a0: 8612 63bd b56d 173d 4a9a d8bb e70c 2ebd
000000b0: 1185 203a 088a bbbd 5738 c33c 68cd 833c
000000c0: 6af5 8abd 5610 86bc 023a 5d3d 9834 acbd
000000d0: 2ccb 633d 6ccd c83c 512e 87bd acf1 983d
000000e0: 9927 41bd 0dbc f6bd 0271 c53c 79ab 863d
000000f0: fd25 03bd a6b1 3f3d c3e4 bcbd 1423 96bd
00000100: 186a 263d 9ef2 643b f8a3 06bd 6500 82bd
00000110: b08c 823c 0322 e33c 6b2b 653c ea60 e4bc
00000120: 2d3e 4e3b 4467 0bbc d5d1 283d 7050 363d
00000130: 251f 4abc bbcb 0d3d a3aa b1bd 79fe e33b
00000140: 7ace a23b 2631 c63c 7d84 ceba 5841 843d
00000150: 3d88 14bd 6474 61bd 66b3 a3bc 54d6 fabc
00000160: dc88 32bb 5895 003d 4be8 18bd 1d0a 103d
00000170: 11e2 dfbc 6cbd 7ebd 7903 9c3c ae32 8a3b
00000180: 77e6 8fbd 48d7 413c 51c8 62bd 38dd b4bd
00000190: 9efd adbc 8100 35bd 4558 b1bd f2a2 9a3c
000001a0: 8951 a139 19a5 3d3d 2276 8c3b 7aa1 793d
000001b0: c905 68bd f475 523d c6f4 f83c 84a3 c43c
000001c0: e443 683d ff09 51bd e936 13bd bed1 813c
000001d0: e98d d1ba 8e49 8d3b c651 afbd 97cc f2bb
000001e0: 2bea e2bc 962c 963c a487 463b b975 6b3d
000001f0: 4a39 853d 6f7b 4dba 864a f43c 641c 3abd
00000200: eaa5 c2bc 2a98 3dbd d988 923d e70d 303d
00000210: 35c5 00bd 9c1b 213c 71c7 523d dec8 63bc
00000220: 8bd8 d1bc 5192 133c 14aa 21bc 29d9 46bd
00000230: 641a 04bc 5502 bcbd 2023 ad3d f868 25bd
00000240: dbe8 03bd 1188 0d3d d1fa 8dbc f5e4 cdbd
00000250: f151 86bd cca4 c63c e9ee 983d fc53 57ba
00000260: 28fb f33c 6d1e a1bd c7ab a23c 9eb9 373c
00000270: 851a debc 603e 913c 849e cdbc b6ab 10bc
00000280: e926 05bd 595d b7bc 9d0a 9bbd a31e 0f3d
00000290: ba34 54bd ac12 48bd 4e20 5e3c a9de 993d
000002a0: 8165 0c3d b81c ae3d d1ca 6e3d 828f 34bd
000002b0: 4a04 9a3d 6002 2abd 78bb bcbc a87e 173d
000002c0: 6c1c 003d 0d69 e6bc 599b 2f3d d2c0 903c
000002d0: c8cb 6dbd 3027 2b3d 99e5 043d e538 3e3d
000002e0: 53a2 cabb c91c 383c b8f6 9b3c 99de 0fbd
000002f0: 6bdf 863d 90b5 adbc 87fe dfbc 00a9 4cbd
00000300: 943b d8bc 1635 69bd dc16 07be 416c 96bd
00000310: 2c1b 613d 5120 af3c fd02 713d e414 1a3c
00000320: e034 80bc 161c f23d 20e7 b93b 6217 40bd
00000330: dec2 fd3d f982 063d 7def 1fbd bfe6 973b
00000340: 3d6d 823d 73b5 9f3d c113 babc 65d5 d4bc
00000350: aa2d a73c 8d07 8c3d 71a9 5c3d fba7 393e
00000360: b0d5 34bc ff23 56ba f285 183d 9853 e2bc
00000370: d6d0 75bc f5cc a43d fece 4d3d e761 643b
00000380: dcae d23c 36b0 35bd bffc 5dbc 9e4f 3c3d
00000390: 52fa c1bc 6031 60bd 7799 843b 7161 bd3c
000003a0: b788 97bc 4a05 b73d fc3a d43c 15b2 233d
000003b0: cd44 9dbc dda9 fcbb c4c1 933d c5cc 67bd
000003c0: f3c5 d9bc db03 1a3d 8786 fdbb af69 dbbb
000003d0: b979 39bd 2962 0f3d 55fd c03c e913 923d
000003e0: 1805 afbd e580 8ebd a4f8 acbd 6bf8 743d
000003f0: c543 74bd 208e 343d 301f 8dbd 0b65 bc3c
-0.051812857 0.030819563 -0.0476183 0.011267943 0.03163572 0.043743342 0.019268537 0.00015946894
-0.04673161 0.030656809 0.027136803 0.041585837 0.009291139 0.03579161 -0.00860199 0.0005060778
0.0032707911 -0.060745392 -0.0046418444 -0.019012608 -0.012120524 -0.029937062 -0.05765163 0.036527388
-0.05449492 -0.00102106 0.055576228 0.040340982 -0.07798408 0.015512633 -0.03500092 -0.050758973
-0.021504998 -0.11547272 0.07798214 -0.05837637 -0.009799944 0.012063533 -0.06474993 0.02095291
-0.055437587 0.03696986 -0.0066101896 -0.042492773 0.0006123344 -0.09157187 0.023830576 0.016089156
-0.0678509 -0.016365211 0.0540104 -0.08408469 0.05561368 0.024512015 -0.06600631 0.0746797
-0.047156904 -0.120475866 0.024101738 0.065756746 -0.03201865 0.046800278 -0.0922332 -0.07330909
0.040628523 0.003493465 -0.032871217 -0.063477315 0.015936226 0.027726179 0.013987402 -0.027878243
0.0031470165 -0.008508507 0.041215736 0.044510305 -0.012336527 0.03461812 -0.086751245 0.0069578257
0.0049684616 0.024193358 -0.0015756037 0.06457776 -0.03626274 -0.05504264 -0.019983005 -0.030619778
-0.002724222 0.031392425 -0.037330907 0.035165895 -0.027329477 -0.062192366 0.019044625 0.0042174673
-0.070263796 0.011831112 -0.055366818 -0.08831257 -0.021239098 -0.044189934 -0.08659414 0.018876527
0.0003076906 0.046300028 0.0042865435 0.06094501 -0.056646142 0.05138202 0.030390155 0.024003752
0.05670537 -0.051034924 -0.03594104 0.015847083 -0.0015987727 0.004311747 -0.08560519 -0.007409643
-0.02769955 0.018331807 0.003029325 0.057485316 0.06505068 -0.00078385224 0.029820692 -0.04543723
-0.023760755 -0.046287693 0.07155008 0.04298201 -0.03143807 0.009833243 0.051459733 -0.013902871
-0.025615951 0.0090070525 -0.00986721 -0.048546944 -0.008062933 -0.09180132 0.08453965 -0.04038331
-0.03220449 0.03455359 -0.017331513 -0.10053436 -0.06558598 0.024248503 0.074674435 -0.0008214114
0.029782847 -0.078671314 0.0198573 0.011213688 -0.027112255 0.017729938 -0.0251 -0.008830002
-0.03250781 -0.022383379 -0.07570384 0.034941327 -0.051808096 -0.048845932 0.013557507 0.07513172
0.03427649 0.085015714 0.05829889 -0.044082172 0.07520349 -0.04150617 -0.02303861 0.036986023
0.031277105 -0.028126264 0.04287276 0.017670069 -0.05805567 0.04178542 0.032445524 0.046440978
-0.0061839013 0.011237332 0.019038543 -0.035124395 0.06585582 -0.02120474 -0.027343048 -0.04996586
-0.026395597 -0.056935392 -0.13192314 -0.073448665 0.054957554 0.021377714 0.05884074 0.009404395
-0.015650213 0.11821763 0.005673304 -0.0468973 0.123906836 0.03283975 -0.039046753 0.0046356614
0.06368492 0.077982806 -0.022714498 -0.02598066 0.020407517 0.06837378 0.05387253 0.18130486
-0.011037275 -0.0008168816 0.037237115 -0.027627751 -0.015003404 0.08046905 0.05024623 0.0034848393
0.025718145 -0.0443575 -0.013549029 0.045974366 -0.023678932 -0.054734588 0.0040466147 0.023117753
-0.018497808 0.08936556 0.025907032 0.039964754 -0.019197846 -0.007710679 0.07214692 -0.056591768
-0.026583647 0.037601333 -0.007736984 -0.006695948 -0.0452821 0.035005722 0.023558298 0.07132704
-0.085458934 -0.069581784 -0.08445862 0.059807222 -0.059634943 0.044080853 -0.06890714 0.0229974

encoder.6.bias f4 [32]
00000000: 22fe 2dbc 933f 8bbc 5c84 2bbd 1275 29bd
00000010: cbcf 253d e5a2 463d 6d93 403d cae6 9d3d
00000020: b343 5abc 858d b63c a2d4 d13c 31f6 963d
00000030: b5be b43c b93f 133d ec8e 1fbc fe1e 803c
00000040: ba77 fe3c e461 2cbd 3b8a 163d e933 cb3c
00000050: 5106 233d 160d 433d 08d8 a03d a1d8 9dbc
00000060: e1e3 37bc a450 92bd b8bc fcb8 cb87 42bc
00000070: dbc9 033d 070b 0dbd a7ca 92bd 9860 863d
-0.010619672 -0.016998088 -0.041874275 -0.041371413 0.04048137 0.048495192 0.047015596 0.07710035
-0.013321805 0.022284279 0.025614087 0.07371176 0.022063592 0.035949443 -0.009738665 0.015639778
0.03106295 -0.042085543 0.03675292 0.024805026 0.039800946 0.0476199 0.07853705 -0.019268336
-0.011223764 -0.07144287 -0.00012051448 -0.011873196 0.032174926 -0.034434345 -0.07167559 0.065613925

decoder.0.weight f4 [32, 64, 4]
00000000: 88c2 15bd be7d ad3c 1c27 5c3d cb03 103c
00000010: 86af 953d dfa7 ee3c 7d5c a9bc d768 73bc
00000020: 02d6 08bd be10 5c3d a87f e7ba 76c0 213d
00000030: 514c 87bd 8320 a3bb 17e9 1e3d 62f0 8cbd
00000040: e1fc 1b3d e531 313d 7134 633d 309d 2d3d
00000050: 4b9d 44bd 46df 273d 90ff 52bc 0458 52bd
00000060: a10f a9bc 642e b5bc 36ca 47bd 4576 0b3d
00000070: deb6 6bbc a6cf 943c 7af0 153d 03d6 bebc
00000080: 608d b63b d598 89bc 95a3 f23a 836a e2bc
00000090: 7c42 9cbd 03d7 943d 07bd 403d 7903 2cbc
000000a0: 800d 29bd 1caf 8b3c b494 feba 8af7 243d
000000b0: 6d37 633d 8cf5 343c 263e 923d 89ef eabc
000000c0: bf06 e23c d9c2 3fbd ed68 5dbd 3977 5d3a
000000d0: 7668 01bd 56a7 ab3d abaa 723d d62c 35bd
000000e0: 2f9b 08bd 52cf 493c 5d22 0abd 4581 3c3d
000000f0: d624 173d 61c9 d23c c50a 2b3d 1da9 3abb
00000100: 8841 603c f227 a33c 0021 11bd 25a5 143c
00000110: cd09 aabd 9bd5 6dbd 53b4 ac3c 9b7b 7b3d
00000120: 7c44 283d d346 303d 35e8 063d 533b 303d
00000130: e550 a93c b597 81bc 3425 f5bc cd70 2c3d
00000140: 5652 01bd 1f2b 2e3c 1eb4 503c bcad 123c
00000150: 5bdd 3dbd 70ca 4c3b e462 24bc 8d2b 2abc
00000160: ed94 d23c 10e2 ec3c aa65 5f3d a2ac e1bb
00000170: 3f09 92bd 6628 ecbc 74a4 3e3c 25ee b1bc
00000180: 9413 a4bd 8651 5d3d 1932 553a 5192 0a3d
00000190: 3300 2d3d 74a6 953d e208 633c 28a6 213d
000001a0: 6b78 c1bb 02b3 363d fea1 82bd ff33 103d
000001b0: e555 c63b a361 e23b 9474 943c 3219 93bc
000001c0: 2469 36bd 4ff2 7ebc 877a 973b 563e 103d
000001d0: aa1d 2abc 59d2 d1bc 2ad2 05bc 0704 6ebc
000001e0: 3db4 fc3c e01e 24bd 6c64 f03a feea 07bb
000001f0: cc47 b13c bca6 1e3d 75d2 f5bc 0a74 47bb
00000200: 7fed a0bd d3ff 3a3d b356 f2bc fc9a 1dbd
00000210: dfa2 75bd 6054 853d f2a8 d8bc 0197 e5bc
00000220: 933d 22bd 9d1b eebc 9db4 2d3d 93ee 5fbd
00000230: b0f0 bd3d bf16 383d 573c 193d 3f16 2e3d
00000240: 8112 3e3d 1f6f 39bd 2e37 4e3d d30d 8abb
00000250: 2618 8bbd c2d8 853d cfec 49bd 8094 17bd
00000260: 4b92 fbbc be89 0f3b 0f36 6a3a 2ec1 f1bc
00000270: 8631 5eba a39e 823d fa19 46bc 8096 ef3c
00000280: 742a 04bd b730 a83d 6957 12ba 7c50 473c
00000290: aafb d9bd df8f 8cbd 78d4 b03c 051c d0bc
000002a0: e733 6bbb 2292 873d 1ff5 f43b 1f7d 833c
000002b0: 3bd6 8a3c 80de 683c d875 36bd fb06 3d3d
000002c0: cd62 743d d409 a83c 0ff5 fa3c 7c5c f1bc
000002d0: d4ed 693c 0aa7 0a3c e26c a9bc 1c3e 69bd
000002e0: d1d0 07bd d513 ac3c 7bd2 85bc 6193 a23a
000002f0: 5a03 8fbd b431 bcba d907 453d 1ac3 1a3c
00000300: f247 c0bc 2ac4 2e3d d9d7 313c 434b fcbc
00000310: 4bb7 c73c 0e25 343d 8950 85bc 2e10 5dbd
00000320: 6ba7 d4bc 6303 48bd f65d 89bd 622d d6bb
00000330: c25a c9bc 7d16 a33d 331b b1bc 7ea3 2c3d
00000340: d0cf 87bc e635 8cbc bf86 7abd 0805 43bd
00000350: ded6 673d 474d 44bd 8cd3 b1bc dd79 b83c
00000360: 4a50 e0bd 7bb4 5fbc 0cac 813c f02a 2c3d
00000370: f267 243c a97e ceb9 126c 5b3c 53a2 33bd
00000380: 34d3 fd3c e296 7b3d c696 e93c 89c9 0bbd
00000390: 3346 b73c 0b5d 31bc 5221 1fba 3f0d 303c
000003a0: 66f6 b33d f7cd 383c f7c6 0bbd 8f78 c73c
000003b0: b4ae 2d3d 0c9d 1e3d 7abc 0f3d 1233 593c
000003c0: 7629 12bd de02 a23d 9933 86bc fb5f 35bd
000003d0: 7001 dd3c 7b80 073d d522 853c 42f5 ec3c
000003e0: 698e 433d f8d1 5e3d af7b d139 5d2e 1bbd
000003f0: 2c64 4d3c dec8 0dbc 044c ae3c 31e9 3f3d
-0.036562473 0.021178123 0.053748235 0.008789967 0.07308869 0.029132782 -0.020673985 -0.014856539
-0.03340722 0.053726904 -0.0017661946 0.039490186 -0.06606353 -0.004978241 0.03879651 -0.06881787
0.03808296 0.043260474 0.055469934 0.042386234 -0.04800157 0.040984415 -0.012878314 -0.05135347
-0.020637335 -0.022116847 -0.048776828 0.034048337 -0.014386861 0.01816542 0.03660629 -0.023295408
0.0055710524 -0.016796509 0.0018511886 -0.02763868 -0.076298684 0.07267573 0.04705527 -0.010498875
-0.04127264 0.017051272 -0.0019422979 0.040275134 0.05547278 0.011044871 0.0714076 -0.028678672
0.027591107 -0.04681668 -0.054055143 0.00084482465 -0.031593762 0.08381526 0.059244793 -0.044232212
-0.03335112 0.012317495 -0.033724178 0.04602172 0.036900364 0.02573079 0.041758318 -0.0028482147
0.013687499 0.019916508 -0.035431862 0.009072577 -0.083026506 -0.05806504 0.021082079 0.061397176
0.041080937 0.043036293 0.032936294 0.043025326 0.020668456 -0.01581941 -0.029924966 0.042099763
-0.031572662 0.010630398 0.012738256 0.008952554 -0.04635368 0.0031248592 -0.010033343 -0.01038636
0.025705779 0.028916389 0.054540314 -0.0068870345 -0.0713067 -0.028827857 0.011635888 -0.021720001
-0.08011547 0.054032825 0.00081327703 0.033830944 0.042236518 0.07307139 0.013857098 0.0394651
-0.0059042475 0.04460431 -0.06378554 0.035205837 0.00605272 0.006908612 0.018121995 -0.01795635
-0.044533864 -0.015560701 0.0046227607 0.0352157 -0.010383049 -0.025612997 -0.008167783 -0.014527327
0.030847663 -0.040068507 0.0018340475 -0.0020739431 0.02164068 0.03873323 -0.03000758 -0.0030434155
-0.07857799 0.04565413 -0.029582357 -0.038477883 -0.05996978 0.06510234 -0.026447747 -0.028026106
-0.039609503 -0.029065901 0.042408574 -0.05467088 0.09274423 0.044943567 0.03741106 0.042501684
0.046404365 -0.04527199 0.050345592 -0.0042130738 -0.06791715 0.06535484 -0.049298104 -0.037006855
-0.030709406 0.002190217 0.0008934447 -0.02951106 -0.00084760075 0.06377914 -0.012091154 0.029246569
-0.03226705 0.082124166 -0.0005582483 0.012165185 -0.10643704 -0.06863379 0.021585688 -0.025403986
-0.003588909 0.066196695 0.00747551 0.016050873 0.016947856 0.014213204 -0.04454598 0.046149235
0.059664536 0.020512499 0.030634431 -0.029463045 0.014277894 0.008462677 -0.020681802 -0.056943998
-0.033158127 0.02100555 -0.016335716 0.0012403541 -0.06983061 -0.0014358074 0.048103187 0.00944593
-0.023471806 0.042667545 0.010854685 -0.030797606 0.024379393 0.04398065 -0.016273754 -0.05397051
-0.025958737 -0.048831355 -0.06707375 -0.006536172 -0.02457941 0.07963274 -0.021619415 0.042148106
-0.016578585 -0.017115545 -0.06116366 -0.04761222 0.056601398 -0.04792526 -0.021707319 0.022519046
-0.10952814 -0.01365387 0.015829109 0.042033136 0.010034548 -0.0003938575 0.013392465 -0.043855976
0.030984499 0.06142319 0.028514277 -0.034127746 0.02237234 -0.010825406 -0.0006070334 0.010745346
0.08787231 0.011279575 -0.034125295 0.024349479 0.042402938 0.03872399 0.035091855 0.013256805
-0.03568407 0.07910703 -0.016382026 -0.044280987 0.026978225 0.033081513 0.01625196 0.028925542
0.047743235 0.05439946 0.00039955738 -0.037886012 0.01253609 -0.0086538475 0.021276481 0.046853248

decoder.0.bias f4 [64]
00000000: 939b d2bc 75d5 a3bc cde3 dd3c 03cd b2bc
00000010: 2358 cc3c 0daf 233d 4cb2 30bd 2294 953c
00000020: 719f 5b3d b713 103d 485e 40bb b0cc 19bd
00000030: df7e 10bd 4a54 db3a 8a30 393d 97a9 b3bb
00000040: 7aa6 58bd 55c5 9ebb 2bb7 2c3b c651 17bd
00000050: 1fc7 4dbd 7c54 0dbd 5cdf 6c3c 45c1 bf3c
00000060: 37eb 923c e609 0abd b0ff 24bd 568e ea3b
00000070: eadb 253d 3089 c73c fd15 c5bc 8554 f03b
00000080: 3f0c 4cbc c1a1 ebbc 48dd 1d3a c937 c5ba
00000090: f559 3abd 8baf d43b c3af 323d a803 2ebd
000000a0: 7ead c03b 00ed 2c3d 3f2f 803d 689d afbc
000000b0: 13c5 d7ba 1408 ac3c 9f24 2cbd 0893 e63c
000000c0: 33b8 383d 7252 ef3b 232c 073c d14e f2bb
000000d0: 88f5 523d 75d2 58bd 859c 243d e0c5 41bd
000000e0: 6cc7 c73c 9ded 64bd 626b b73c ee22 55bd
000000f0: b36b 133d efa7 63bd 7ffa 0ebd 9465 953b
-0.02570895 -0.019999245 0.027086163 -0.021826273 0.02494437 0.039961863 -0.043138787 0.018259112
0.053618852 0.03517505 -0.002935307 -0.03754872 -0.035277244 0.0016733494 0.045212306 -0.005482863
-0.05289314 -0.004845301 0.0026354294 -0.03694322 -0.050238725 -0.0345044 0.01445755 0.023407588
0.017934425 -0.033700846 -0.040282905 0.007158081 0.04049293 0.024357408 -0.024058336 0.0073342943
-0.012454092 -0.028763654 0.0006022048 -0.0015046532 -0.045495946 0.006490653 0.04362465 -0.042483956
0.005880057 0.04221821 0.062590115 -0.021437362 -0.0016461931 0.020999946 -0.042027112 0.028146282
0.04509754 0.0073035294 0.008250269 -0.0073946496 0.051503688 -0.052935082 0.04018833 -0.04730785
0.024387084 -0.05589067 0.022390071 -0.052035265 0.03599138 -0.055580076 -0.03490686 0.004559228

decoder.2.weight f4 [64, 128, 4]
00000000: 94d0 47bc 7d1b 8c3c b782 163d 2084 9fbc
00000010: c5ef 963b 12ea 0abd 44eb 213d 2a6e 063d
00000020: 839e b03c d3af 97bc a0af 48bd a6ff 643b
00000030: 21c1 e0bc ac25 13bd 98f9 2bbd 34c5 1a3d
00000040: 3bbf 4dbc 4258 05bd 9bcd 323c 446b 9a3b
00000050: 7bba 5abc 3f9e f8bc 70a9 3c3c cb84 e63c
00000060: 7e12 603c 8f1a 81bc 122b e5bc 7577 12bd
00000070: 95ac 14bc 5e71 19bc 1056 f13c a5c4 a0bb
00000080: d2e0 0b3d 1c94 0c3c 38cf 003c 015b 00bd
00000090: 5151 363d 1e4b febc fa3e 1c3b c045 64bc
000000a0: beb8 443c 7d43 59bc 1817 64bb 195e f73c
000000b0: ea87 e33b 005f 0d3d 0e02 1a3d 884a dabc
000000c0: 8020 05bd 26f7 01bd 5a98 e3bc 5e7b 95bc
000000d0: 82fc d03b 14a7 1cbc 14e6 6e3c 0422 453c
000000e0: be4f 7a3c 43c4 853c c8bb 29bc b84a 113d
000000f0: 8806 0ebd ccd2 3d3d b281 be3c ad4d 24bd
00000100: 8ab0 e03b bb82 2f3d 4dd5 143d 36b1 b33c
00000110: 0f0d 733c f846 153d db49 1fbd cc8f 9e3c
00000120: 662a cbbc b283 a9bc 6d7c 1c3d 31f2 20bd
00000130: 145f 22bd 8e3a be3c 205b 4d3c ad75 cd3c
00000140: f509 0d3d 3930 2a3d e712 c33c 5bb3 00bd
00000150: ca3d 303c 5a45 b83b 4304 183c 5b36 18bd
00000160: a9ff 893c f693 c03b 9fcd a43b 1706 273d
00000170: 76ba 1ebd 91ca 12bd ceee 8b3c 540a dcbc
00000180: 020f 91bc 3d7b e7bb f0cb b5bb 6b83 d2bb
00000190: 26ee 6b3b 074c 013c 6f40 38bd bcea 2f3d
000001a0: 8a52 2b3d 8a9b 143d 48c0 723c d00c 1c3d
000001b0: 87e3 233d f8df f23b 2588 683b 3fe2 33bb
000001c0: 872d 163d 9408 913c 7029 f6bc 7ef9 f73c
000001d0: aadc d2bc f3d7 15bd b328 043c e48e 93bc
000001e0: 93f3 a4bc 97a2 a53c a82d 553c 55dc 24ba
000001f0: dd76 3bbb e5f1 ad3c 112d 243d f420 04bd
00000200: bb37 ef3c 3460 ffbc 3ddb e8bc 5bcc 183c
00000210: e0d5 e33c 4019 253b 0ccb 1f3d 27be ef39
00000220: b3d9 28bd fd8c 3bba d90c d83c 720b 013d
00000230: 2d6b 283d 8771 593c dee1 97bc 56b1 22bd
00000240: e509 14bd f0de 473c 5b27 a23b 3173 973c
00000250: 9f9d 18bd 5437 303c 4576 75bc fa70 9d3b
00000260: 024d 4a3c 7214 22bd 2462 e1bc aa9d 133c
00000270: c3ed fcbb 7ec1 40bd 1e36 183c b1dc c7bb
00000280: f0a6 15bc 6584 153d a3c3 02bc 949d 093d
00000290: 655d fa3c 8073 90bc d996 2c3d e289 a7bb
000002a0: 51e9 0f3d 6063 b7bc 038b 40bc c0c5 b2bb
000002b0: ed13 953c af1a 9cbb 5ef6 133d 4380 24bd
000002c0: 3e3f 3bbd 4b4e 2c3c bc11 2abd f2a3 eb3b
000002d0: ccd1 75bc b000 57bc 6d0a 91bc 067b 243d
000002e0: ff30 00bc 0d07 933c e00a 16bd 84fe a83c
000002f0: ca64 96bc d2c1 80bb c810 e53b ce2e f93c
00000300: 8991 3fbd 6973 033b 198f 42bc 025a d83c
00000310: 8ba6 8ebc 3cca 0c3d 4b2b 17bc dd4f 043d
00000320: afb4 14bc 1aa3 90bc f927 343b 954b 12bd
00000330: d8a9 fbbc 602d 45bd 17dc 0e3d d27c 8abc
00000340: b4de d4ba b293 c938 1658 eebc 5aa5 a73b
00000350: 0148 3d3c c5b1 9dbc aec2 e0bb bb81 263d
00000360: 1cdd 7a3c fcdd 263d 0973 2dbd 288f adbc
00000370: 4a23 0ebd 1b2e 93bc 2e1d cf3c b648 0bbd
00000380: f45d 2dbd 1334 193d cd2e 083c b07d abbc
00000390: 0ea6 9e3c 4f32 42bd d046 16bd 0455 c73c
000003a0: 4b41 a4bc ce5c ccbc 4b30 223c 1b86 7f3c
000003b0: 7419 153d b6aa 013d a08d 173d 4335 60bc
000003c0: 5d7f e6bc e796 b63b f3fc 273c 1ce4 c8bc
000003d0: 9e61 71bc ec2d 243d d8b5 8b3c c62c d33c
000003e0: aae0 9e3c 6a39 f23c b51f d3bc 3897 85bc
000003f0: d37f a93c 5709 183d c164 ea3b 9021 3d3b
-0.012195725 0.017102951 0.036745753 -0.019472182 0.0046062195 -0.033914633 0.039531007 0.032819904
0.02155996 -0.018516457 -0.048995614 0.0034942417 -0.027435841 -0.0359246 -0.041986078 0.037785724
-0.0125578 -0.032554872 0.010913278 0.004712494 -0.0133501245 -0.030348895 0.011515006 0.028139492
0.013676284 -0.015759734 -0.02797464 -0.035758454 -0.00907435 -0.009365408 0.029459983 -0.0049062544
0.034149952 0.008580234 0.007861905 -0.031336788 0.044511143 -0.031041678 0.0023841248 -0.013932645
0.012006937 -0.013260719 -0.0034803804 0.030196236 0.0069436925 0.034514427 0.037599616 -0.026646867
-0.032501698 -0.03172984 -0.027782608 -0.018247303 0.0063777575 -0.009561319 0.014581222 0.012032036
0.015277801 0.016328936 -0.010359712 0.035471648 -0.034674197 0.04634361 0.023255203 -0.04011314
0.0068569826 0.042849284 0.036336232 0.021935087 0.014834656 0.036444634 -0.038888793 0.019355677
-0.02480049 -0.02069268 0.0382046 -0.03929347 -0.039641455 0.02322128 0.012533933 0.025080526
0.034433324 0.041549895 0.023812724 -0.031421047 0.010756919 0.0056235017 0.00927836 -0.037161212
0.016845541 0.0058770133 0.0050293948 0.040777292 -0.03875204 -0.035837714 0.017081644 -0.026860394
-0.017707352 -0.0070642517 -0.005547993 -0.0064243576 0.0036000102 0.0078916615 -0.044983324 0.04294847
0.041826762 0.036281146 0.014816351 0.038098156 0.04001191 0.007411953 0.003548154 -0.0027448086
0.036664512 0.017704286 -0.030049056 0.030270334 -0.025739986 -0.0365829 0.008066344 -0.018012471
-0.020135676 0.02021913 0.013011374 -0.00062889355 -0.0028604784 0.021233508 0.04008204 -0.03225799
0.029201379 -0.031173803 -0.028424853 0.009326066 0.027811944 0.0025192052 0.039012 0.00045727307
-0.04122324 -0.0007154493 0.026373314 0.031505056 0.041117836 0.013271696 -0.018540319 -0.039719902
-0.03614225 0.012199149 0.004948539 0.018487545 -0.037259694 0.010755379 -0.014981811 0.0048047276
0.012347462 -0.03957028 -0.027512617 0.009009758 -0.007718773 -0.04705953 0.009290246 -0.0060993065
-0.009134039 0.036503214 -0.007981214 0.033597544 0.030562112 -0.0176332 0.042136047 -0.0051128725
0.035134617 -0.022386253 -0.011751893 -0.0054557025 0.018197978 -0.004763923 0.036123626 -0.040161382
-0.04571461 0.010516713 -0.04152082 0.0071911747 -0.015003633 -0.0131227225 -0.017705167 0.040156387
-0.007824182 0.017947698 -0.036631465 0.020629175 -0.018358607 -0.003929355 0.006990526 0.030417826
-0.046769653 0.0020057803 -0.011874937 0.026410107 -0.017413398 0.034372553 -0.00922663 0.032302726
-0.009076281 -0.017655898 0.0027489646 -0.035716612 -0.030720636 -0.048138976 0.034877863 -0.016905222
-0.0016240687 9.611937e-05 -0.029094737 0.005116147 0.011552812 -0.019249806 -0.006859145 0.040651064
0.015311506 0.040739045 -0.042346034 -0.021186426 -0.034701623 -0.01796632 0.025282469 -0.03400489
-0.04232593 0.037403177 0.008311939 -0.020933956 0.01936629 -0.04741126 -0.036688626 0.02433253
-0.020050665 -0.024946596 0.009899209 0.015595938 0.036401227 0.031656943 0.0370003 -0.013684574
-0.028136903 0.005572188 0.010253179 -0.024522834 -0.014732746 0.040082857 0.017054483 0.025778186
0.019394238 0.029568393 -0.025771955 -0.016307458 0.020690834 0.037118282 0.007153124 0.0028859116

decoder.2.bias f4 [128]
00000000: 589a 413d 85f0 0bbc 9eba 2fbd 9bd2 02bd
00000010: 26fe 863c adb2 903c cf36 2a3d fea6 1bbd
00000020: 6e28 993c dff2 fe3c fe4a c7bc 6618 06bd
00000030: d127 ed3c 5b2a 0abd 1c45 943c bf42 043d
00000040: f1dd 39bc 2e43 24bd d7f9 2abc 38b8 9b3c
00000050: 055d f5bc 403c d93c d8a7 25bc 5c0f 0f3d
00000060: 80ec 11bd e3b6 6b3c 96b6 ffbc 04d8 113d
00000070: 0f9d ad3c 5fe8 f339 9179 edbc 9e8d d7bc
00000080: 534e 9b3c d2c9 353a 89a5 1d3d ffdd 89bc
00000090: 2219 89bc 11cb 16bc 97e7 1cbd 235f 8ebb
000000a0: 3d3b 18bd 3a32 be3c 87d6 8a3c 25f5 e5bb
000000b0: e887 a1bb d2fc 6d3c 4985 fb3c d737 45bd
000000c0: 7408 bc37 025f a8bb a355 10bd a076 c93b
000000d0: 8c83 723b d13d ffbc f7a2 9f3a 5e15 2fbd
000000e0: 0625 e13c d938 173d 8684 153d 7467 2b39
000000f0: 9669 6c3c 33d4 45bd 5496 42bd bd67 6abc
00000100: 0c3a a7bc 9e09 3b3c 9f5a bf3b 203e 32ba
00000110: 8478 5c3c f39f adbc a52c cc3b cbcf ce3c
00000120: 85f1 f1bc 65da d73c 4e5d 553c 272c 72bc
00000130: 0de7 17bd 1d8b 213d 3bf2 bf3c d36d ed3b
00000140: de38 73bc 3623 303c b865 6c3c 9feb a5bb
00000150: e54c a23c 0a45 31bd 87b3 27bd 297b 053d
00000160: 85b4 233d 062f 1bbd 88e9 8abc 34db 243c
00000170: 66b9 0bbd 395f 273d b6cb bb3c 3275 bdbc
00000180: a09c 033c 1746 1a3d ba62 a7bc cd6e d4bc
00000190: b773 27bd bcbf 93bc a8d7 86bc 3237 f8bb
000001a0: bf24 0ebb a9d8 c93c f934 263d b645 f4bc
000001b0: 9210 4b3c 74b5 9abc 1bde 723c fd5e b43c
000001c0: a83b b0bc 06d3 c73c 3c53 58bd a512 253d
000001d0: 8a27 36ba 1df6 cc3c 5a84 3bbb b6e0 14bd
000001e0: 07d9 1f3c c127 00bd 0697 0f3d 98d1 fe3b
000001f0: 3afc f03b b67e 62bc 28cc 113d 979e 22bd
0.047266334 -0.008541231 -0.04290258 -0.03193913 0.01647861 0.017663324 0.041556176 -0.038001053
0.018696036 0.03112167 -0.024327751 -0.032738112 0.02894965 -0.0337318 0.01809936 0.032290217
-0.011344419 -0.04010313 -0.010435543 0.01900874 -0.029951582 0.026517987 -0.010110818 0.034926757
-0.035625935 0.014386865 -0.031214993 0.0356064 0.021193055 0.00046521702 -0.028988631 -0.026312646
0.018958246 0.00069346756 0.038487945 -0.016829489 -0.016735617 -0.009203688 -0.0383068 -0.0043448373
-0.03716587 0.02321731 0.016947998 -0.007017749 -0.0049295314 0.014525609 0.030703204 -0.048148956
2.2415283e-05 -0.005138279 -0.03523792 0.0061481744 0.0037004678 -0.031157406 0.0012179305 -0.042744987
0.027483474 0.03691945 0.036503337 0.0001634637 0.0144294705 -0.048298072 -0.047506645 -0.01430696
-0.020413421 0.011415867 0.0058396603 -0.00067994185 0.013456468 -0.021194434 0.006230908 0.025245568
-0.02953411 0.026349256 0.013022734 -0.014781035 -0.03708558 0.03943931 0.023430934 0.007245758
-0.014845101 0.010750582 0.0144285485 -0.0050634886 0.019812057 -0.04327873 -0.040942695 0.032588158
0.03996708 -0.037886642 -0.01695706 0.010062028 -0.034112357 0.040862296 0.022924285 -0.023127172
0.008032948 0.0376645 -0.020432819 -0.02593174 -0.04088184 -0.018035762 -0.016460255 -0.007574939
-0.0021689383 0.024639444 0.040577862 -0.029818397 0.012394087 -0.018885352 0.014823462 0.02201795
-0.021512821 0.024392616 -0.052813753 0.040300984 -0.0006948641 0.0250197 -0.0028612823 -0.036347114
0.009756333 -0.031287912 0.035056137 0.0077764504 0.0073542865 -0.013824156 0.03559509 -0.039702024

decoder.4.weight f4 [128, 1, 4]
00000000: a01f dfbe 61da b43e 13b8 fe3e aa2a fe3d
00000010: c499 833e 235c a8be ed34 1bbe d727 1d3a
00000020: 367e c03e 52ed a73e b2be 413e 1221 363e
00000030: 6865 90be 233e f3bd 6a5a c1be 5fce 273e
00000040: 6cfb c23e 0a44 843d 296a bfbc 8961 e7be
00000050: 4624 2dbe ab80 b1be 7917 1fbe 7ae3 d33e
00000060: 43bb 38be 1d81 d9be 3961 a9bc e5f9 84be
00000070: a1b1 963e 1d1c cd3e 7ee3 db3d 6150 dfbe
00000080: b6d0 56be 280f ba3d bc2c 633e eb5a 713d
00000090: 571d 9e3e 184d 45be 9b9d d43c 930c 94be
000000a0: 860d 68bc 7e76 f2be 5a2d d9be e06a 93be
000000b0: c87b b6bd 3516 ecbe 4262 45be 72e2 a73e
000000c0: 95b9 28bd 0820 4dbe 7c43 1cbe 7022 e83e
000000d0: 00ea dc3d aca7 4b3e 1b19 8cbe c4cf 503d
000000e0: f29b f5bd 9847 1f3d 6eff b5be 40a4 80be
000000f0: 8820 e43e 2d5d 393d b436 223c 0785 e1be
00000100: 8be2 1e3e d5ff 4abe f378 c1be b073 2abe
00000110: 7ed9 283e 151b ac3e 7301 743d 593c aabe
00000120: 499e 35bb a4d5 d5be 4fcf 9abe ba3e 23bd
00000130: 3394 663e 8d3c fd3e 6289 e3be bba5 583e
00000140: e989 c8be 40f9 023e 3bf8 0c3e ad97 91be
00000150: 0645 a9be 69c0 fd3e feed 9a3e 234c 4abd
00000160: 59da f7be 8640 623c 6275 06bd cc29 0cbd
00000170: fa1a 4e3e 90a5 823e b645 653b 79cc d43e
00000180: 6831 04bd 2d39 d1be f2b0 d23e ab57 a23e
00000190: e76b 483e d75e fe3e 6639 ec3d 0428 ed3e
000001a0: 07ad fabc 26af 9fbd c9ff f9bd aff7 b4bc
000001b0: 1f85 9dbd 5920 f93e b388 d63b a74f d63e
000001c0: a335 803e 5e56 75be 4511 ca3d 52c6 c83d
000001d0: 3480 483d 9a2a fa3e 7cf0 d33e e2e9 ef3e
000001e0: f772 ad3e c015 fd3e 3145 e83e b3fb bb3e
000001f0: e947 eebe 4d4c c6be 4a09 8cbe e630 db3d
00000200: 9790 c8be cd6a 97be 224d 9a3d 0ef7 c9be
00000210: 6b54 883e 23c5 a5be df3d d5be a5f3 f4be
00000220: aaa4 f93e 277b 103e dfdb 2dbe 898a dc3e
00000230: a70b b63e e7cf 0dbe b3e7 67be 8440 963d
00000240: b338 d03d f722 dcbe afa7 f4be ca40 0ebe
00000250: 02d1 313e 6376 253d 8150 a3bd 4efe 103e
00000260: b7b9 e73d 83dc a0be 2fe3 a8bd 18d4 8bbe
00000270: f777 afbe fa0c c53e f79f d5be 3231 e53e
00000280: 3f10 263e fdd7 a4bd 643b 1f3e 9712 46be
00000290: 8fc1 39be cdbd 903e 140a cb3e dd93 64bd
000002a0: 5972 d63e 0821 8d3e 9dc0 cb3e cda4 e3be
000002b0: 187f 963d 27d4 e3be da02 c23e 7727 643c
000002c0: 5334 f53e bfea 843e adfc fa3e d17c aa3e
000002d0: 5dfe 5abc 8af6 c7bd d155 6d3e fcf4 90be
000002e0: ae2d 2d3e 28d8 d6be 2713 b0be 9b44 543e
000002f0: ce4b 803b 70c8 e03e 6294 80be 2052 47be
00000300: 964f 7e3e d103 e2be a29a adbe a52e 91be
00000310: 10b5 f8be 3fcd 96be 2310 183d 3afa b63d
00000320: 3c3c be3e f8bd 3f3e 8c2f 803d ed2f 90be
00000330: fa75 fd3e 8fb9 13be 934b 92bd 9e37 d43e
00000340: 366d 9ebc 5bd6 603e 8389 abbe 1361 e6bd
00000350: 1a13 b83d 5f88 a43c 3c00 c63e f948 61be
00000360: 6267 3cbe a998 d4bd e8b3 883d ad76 c5be
00000370: 7cc1 803e 97c0 c13e 17a7 8a3e 6961 5ebe
00000380: 540f 60be 4d5c a03d 9b67 b93e f595 da3e
00000390: 16f7 b53d 3ae4 81bd 5e5a 66be ebc0 ca3e
000003a0: 4ae0 cfbd 02b6 88be 6ab0 57be b1e3 2bbe
000003b0: 41ad a43e 2008 4d3e f149 b73d f203 783d
000003c0: 9d9b 063d 4aae df3d eaac e9be 2cf9 a13e
000003d0: ddc7 353c 9177 17be ad48 923e 3f50 84be
000003e0: c37f e63e 1945 b53e 5a56 11be a3c1 30be
000003f0: e39f f5be 4692 933e 42f5 553e 780e b43d
-0.43578815 0.3532286 0.49749812 0.12410481 0.2570325 -0.32882795 -0.15156908 0.00059950113
0.3759629 0.3279825 0.189204 0.17786053 -0.28202367 -0.11877086 -0.37764293 0.16387318
0.38082445 0.0645829 -0.02336605 -0.451916 -0.16908368 -0.34668478 -0.15536298 0.41384488
-0.18040185 -0.42481318 -0.020676242 -0.25971904 0.29432395 0.4006051 0.1073675 -0.43616012
-0.20978054 0.09084922 0.22185034 0.058924597 0.3088176 -0.1926769 0.025954058 -0.28915843
-0.0141633805 -0.47356027 -0.42417413 -0.28792477 -0.08910328 -0.46110693 -0.19275764 0.32789952
-0.04119261 -0.2003175 -0.15260118 0.45338774 0.107868195 0.1988818 -0.27362904 0.05097939
-0.11992635 0.038886636 -0.3554644 -0.25125313 0.4455607 0.045254875 0.009900738 -0.44046804
0.15516107 -0.19824155 -0.3778759 -0.16645694 0.16489217 0.33614412 0.059571695 -0.33249167
-0.0027712754 -0.41764557 -0.3023629 -0.039854743 0.22517471 0.4946026 -0.44440752 0.21156971
-0.39167717 0.12790394 0.13766567 -0.28436032 -0.33060473 0.4956086 0.302597 -0.049389016
-0.48408774 0.013809329 -0.03282679 -0.034219548 0.20127478 0.2551694 0.0034984178 0.4156225
-0.03227368 -0.40863934 0.41150624 0.3170751 0.19572411 0.49681732 0.115343854 0.46319592
-0.030600084 -0.07797079 -0.1220699 -0.022090761 -0.076914065 0.48657492 0.0065470575 0.41857645
0.25040922 -0.23958728 0.09866575 0.098034516 0.04895039 0.48860627 0.41394413 0.46858126
0.33876774 0.49430656 0.4536529 0.3671547 -0.46539238 -0.38730088 -0.27350837 0.10702686
-0.39172813 -0.2957367 0.07534243 -0.394463 0.26626906 -0.32376966 -0.41648766 -0.47842136
0.4875844 0.14109479 -0.16978405 0.43074444 0.35555765 -0.1384884 -0.2264698 0.07336524
0.101670645 -0.42995426 -0.47784182 -0.13891903 0.17364886 0.040396105 -0.07974339 0.1415951
0.11314719 -0.31418237 -0.08246457 -0.27310252 -0.34271213 0.38486463 -0.41723606 0.44764096
0.16217135 -0.08049009 0.1555 -0.19343029 -0.18140243 0.28269807 0.39656126 -0.055805076
0.41884115 0.27564263 0.3979539 -0.4446167 0.0734846 -0.44497797 0.378928 0.013925425
0.47891483 0.25960347 0.490209 0.33298352 -0.013366309 -0.097638205 0.23177268 -0.28311908
0.16911957 -0.4196179 -0.34389612 0.20729296 0.0039152866 0.43902922 -0.25113207 -0.19464922
0.24835047 -0.44143537 -0.33907038 -0.283559 -0.4857564 -0.29453465 0.037124764 0.08934446
0.3715533 0.18724811 0.06259069 -0.28161564 0.4950407 -0.14426254 -0.07143321 0.41448683
-0.019339185 0.2195677 -0.3350335 -0.11248984 0.08988018 0.020084558 0.38672054 -0.22000493
-0.18398812 -0.1038068 0.066749394 -0.38567105 0.25147617 0.37842247 0.27080604 -0.21716847
-0.21880847 0.07830105 0.36211857 0.42692533 0.088850185 -0.06342359 -0.2249541 0.3960031
-0.101502016 -0.2670136 -0.2106339 -0.16786076 0.32163432 0.2002263 0.0894965 0.060550638
0.03286325 0.10921915 -0.45639735 0.31635416 0.011095014 -0.14791705 0.28571072 -0.25842473
0.4501935 0.3540428 -0.14193097 -0.17261367 -0.47973546 0.28822535 0.2089434 0.08791822
