notebooks/epoch=3-step=4234.ckpt (torch, 892416 bytes, 33 tensors)

encoder.0.weight f4 [128, 1, 3]
000000 0d c6 41 3d f5 12 e6 be f2 b4 cb 3e 95 4d 95 bc
       0.047308017 -0.44936338 0.39786488 -0.01822547
000010 b6 9a ba 3e 7f 87 4b be 6f 02 cf 3e c1 21 9f bb
       0.3644616 -0.19875906 0.40431544 -0.0048563187
000020 a3 0f 12 3f 9b ee c3 bc a7 1c 4c 3e 80 af c7 be
       0.5705511 -0.023917487 0.19932805 -0.39001083
000030 72 5d 22 bb 0b 50 13 3f 86 8b 51 be 91 c9 44 be
       -0.0024774936 0.5754401 -0.2046338 -0.19217516
000040 9a a2 0a bf bb 74 6c be 3e 84 51 be 5f 74 d5 be
       -0.5415436 -0.23091404 -0.20460603 -0.41690347
000050 65 a6 82 be 4d 6c b7 be 44 88 a6 be 02 7a 1e 3e
       -0.25517574 -0.35824814 -0.32525837 0.1547623
000060 a5 6d 00 be 3e 20 bb be 2d 62 e5 bd 11 00 0a 3e
       -0.12541826 -0.36548036 -0.11200366 0.13476588
000070 10 a2 13 bf ee ed 5a be 28 e1 06 3f e8 0f ac be
       -0.5766916 -0.21379825 0.5268731 -0.33605886
000080 81 76 fb 3e 56 d0 97 be 04 45 63 3e 5d da b3 3e
       0.4911385 -0.29651135 0.22194296 0.35127535
000090 36 c0 14 bf c2 22 24 3e fa 0a c2 3e 58 7b 83 3e
       -0.5810579 0.16028884 0.37899 0.2568004
0000a0 c5 7d 93 be 83 9d a3 3e a5 3b 66 3e ff de 45 3e
       -0.28806892 0.3195611 0.2248369 0.19323348
0000b0 ac 68 c7 bd 0f 03 1e 3e c4 85 f6 be 8e 46 02 bf
       -0.097367615 0.15430854 -0.4814893 -0.5088891
0000c0 d3 0c da be c6 11 0d 3e 22 fd e4 3e 39 6c f5 3e
       -0.4258791 0.13776311 0.44724375 0.4793413
0000d0 3d 44 88 3e f9 a6 00 bf 62 fc de 3e 26 99 87 3e
       0.26614562 -0.5025478 0.43551928 0.2648403
0000e0 0b 96 ac be 67 af c9 bd e0 59 b4 3c 0c b2 4e be
       -0.33708224 -0.098479085 0.022015512 -0.20185107
0000f0 ab 12 68 3e 24 98 6b be 66 e6 09 be 60 33 2d be
       0.22663371 -0.23007256 -0.13466796 -0.1691413
000100 96 e8 d5 3e 64 b4 eb be bc 37 5c be 8d 6a 90 be
       0.4177901 -0.46036065 -0.21505636 -0.28206292
000110 e1 04 18 3f 05 b1 3b be ef 60 91 3c cf d0 f4 3e
       0.59382445 -0.18329246 0.017746417 0.47815558
000120 78 99 c2 be 5c 64 e6 3e a7 0d af 3d c0 ea 02 bf
       -0.38007712 0.44998443 0.08547526 -0.5113945
000130 97 40 5a 3e 4d 44 44 3e 44 43 f1 be e0 c4 fe 3e
       0.21313702 0.1916668 -0.47121632 0.4975958
000140 5f 4d 8b 3d 17 ca b4 be 71 c5 8c be 4d f7 70 3e
       0.06801867 -0.35310432 -0.27494386 0.23531838
000150 b6 d4 b3 bd df 31 d1 be 17 6f a3 3e 91 d3 9f 3c
       -0.08780806 -0.4085836 0.31920692 0.019510062
000160 d1 39 9b bd 04 c4 9c 3e 6a 17 eb 3e 3a df 9c be
       -0.07579387 0.30618298 0.459163 -0.30639058
000170 65 f6 10 3e a0 fb b7 3e 7f 7c eb 3e d0 40 63 3e
       0.14156492 0.35934162 0.4599342 0.22192693
000180 97 0b e3 3d 44 d7 96 bd e6 ad c8 be 9e 14 a2 3e
       0.11086195 -0.073652774 -0.39195174 0.31656355
000190 01 cc 9b be d3 04 c2 3e a2 d8 97 3e e5 39 a0 3d
       -0.3042908 0.37894306 0.29657465 0.078235425
0001a0 7e be dd 39 df 05 6f 3e e5 20 03 3e e4 b2 f5 3d
       0.00042294333 0.23342083 0.12805517 0.11997011
0001b0 85 84 d2 3e bb 47 a6 be 87 9a ed 3e 59 74 0b bf
       0.4111673 -0.324766 0.46406958 -0.5447441
0001c0 80 6e 0b bf b9 60 06 bf 66 1b f0 3e 7c 3d d3 3e
       -0.54465485 -0.5249134 0.46895903 0.41257846
0001d0 1d 14 0d 3f e1 85 ef 3e 13 45 d9 bd 57 4d 14 be
       0.55108815 0.4678183 -0.10608878 -0.14482628
0001e0 a9 77 ba 3e 74 a8 e4 3e e2 77 81 be 29 88 8a 3e
       0.36419418 0.4465977 -0.25286776 0.27057007
0001f0 38 b5 a8 be 06 7e 9b bd cc 16 3d 3d fe a5 63 bd
       -0.3295076 -0.075923964 0.04616432 -0.055578224
000200 47 79 59 be 69 81 87 3e 96 0e 93 3d e4 eb e6 be
       -0.2123767 0.2646592 0.071805164 -0.45101845
000210 cc db 25 3e 8a 2c ee 3e f1 9a 0c 3f 4a 56 e5 3e
       0.16197127 0.46518356 0.5492392 0.44792396
000220 6b 18 b8 be e9 58 01 3f 59 17 63 be 61 96 4d be
       -0.3595613 0.5052629 -0.22176875 -0.20076896
000230 7c 11 ff be 9e 80 5f 3c 02 f2 cc be af d4 30 3e
       -0.49818027 0.013641505 -0.40028387 0.17268632
000240 92 27 1e 3e 12 45 06 bf 00 58 c7 be e7 1f 1e be
       0.15444782 -0.5244914 -0.38934326 -0.15441857
000250 38 41 08 bf 62 9c ab bd 75 b0 56 be 72 a9 0e 3d
       -0.53224516 -0.08379437 -0.2096575 0.034829564
000260 ea be 8c 3e cf 74 a8 be 29 df 6e 3d 29 f2 10 3f
       0.27489406 -0.32901618 0.05831829 0.5661951
000270 07 82 cc 3e 41 0b d4 bd d8 e1 06 3e b0 fe ee bc
       0.39942953 -0.10353709 0.1317209 -0.029174179
000280 b2 f8 c1 be 79 71 43 3e b1 1b a8 be 29 e2 04 be
       -0.37885052 0.19086255 -0.32833627 -0.12976898
000290 df 49 69 3e e9 7d ea 3d 82 97 89 be 9e 78 b8 be
       0.22782086 0.11449797 -0.26873404 -0.36029524
0002a0 c0 24 a1 3e 0c 63 f7 3e 23 6e 39 3e e3 84 02 bf
       0.3147335 0.48317754 0.1810842 -0.5098402
0002b0 38 ee 47 be 7a e9 24 bd 2a 21 77 3e c9 89 81 3e
       -0.19524467 -0.040261723 0.24133745 0.25300434
0002c0 c6 22 15 bf 41 40 13 be 9c 57 88 bd f1 e0 31 3e
       -0.58256185 -0.1437998 -0.06657335 0.17370965
0002d0 81 a7 4b bd bb 35 4a be 07 75 6d be 64 de 2f bd
       -0.04972029 -0.19747059 -0.23189174 -0.042936698
0002e0 4d 08 be 3a 7b cf 10 3f 89 82 c0 be f8 da a3 be
       0.0014498323 0.5656659 -0.3759959 -0.32002997
0002f0 3c d0 04 3d 43 8a 72 be 8c 29 47 be 5f 02 fe be
       0.03242515 -0.23685555 -0.19449443 -0.49611184
000300 be 9c f7 3e e1 cb b4 3e 9a ec 84 3e c1 75 a3 be
       0.48361772 0.35311797 0.25961763 -0.31925777
000310 fa a8 f9 3d e1 77 0f 3f 11 fb 72 be ad 29 be 3e
       0.12190433 0.56042296 -0.23728587 0.3714117
000320 f3 9a 9a be 71 87 c5 bd 84 73 d5 3d 26 de f1 3e
       -0.30196342 -0.09644974 0.104224235 0.47239798
000330 43 d8 05 3f c5 bb 70 3e 46 97 fa be ed 4a 30 be
       0.52283114 0.23509128 -0.48943537 -0.17216082
000340 7f c8 64 3e 08 a3 53 3e 3a d7 df bd b2 71 f4 be
       0.22342108 0.2066766 -0.10929723 -0.47742993
000350 9c 9f d2 3b be fc 4b 3e 71 06 2e 3e eb b8 54 3e
       0.0064277183 0.19920632 0.16994645 0.20773666
000360 1a be 99 3e fc f0 cc 3e 57 38 1a be 7a ba ed be
       0.30027848 0.40027606 -0.15060554 -0.46431333
000370 15 61 be 3e 70 5e 8a be 0e e1 af be 87 44 51 3e
       0.37183443 -0.27025175 -0.3435139 0.20436297
000380 e0 19 26 be bd dd 0c 3f 0b 09 ea bd 50 e5 0d 3f
       -0.16220808 0.55025846 -0.11427506 0.5542803
000390 a3 01 ed 3b ad 34 02 3f 43 83 01 3f ca 81 06 bf
       0.007232861 0.50861627 0.50590914 -0.5254179
0003a0 2f 1f b9 3d 2a 47 06 3f a5 a7 5d 3e 54 d6 95 3e
       0.09039151 0.5245234 0.21645983 0.29265082
0003b0 07 2f 07 3f 57 cd 19 3e f3 ab 9e be c6 b2 d9 be
       0.52806133 0.15019737 -0.30990562 -0.42519206
0003c0 eb 17 0b 3f 85 3f 11 bf 3e 9d 36 3e 13 ef e6 3e
       0.5433337 -0.5673755 0.1783342 0.45104274
0003d0 1e b8 8f be ab 7b 63 3c 0a 2e ac 3d 43 b4 77 be
       -0.28070158 0.013884465 0.08407219 -0.24189858
0003e0 a7 e6 0d 3f 72 6b 3c be be ef 3f 3e 6d 67 b2 3c
       0.5543007 -0.18400362 0.18743798 0.021777833
0003f0 da 33 11 3f 3f 28 1b be 8b 52 09 bf bb 21 bf 3e
       0.56719744 -0.15152071 -0.53641576 0.37330422

encoder.0.bias f4 [128]
000000 3e b1 91 bc 95 9d 32 bd dc 41 10 bf 6d 8d 8a 3c
       -0.017784711 -0.043607313 -0.56350493 0.01691314
000010 9a a4 09 3f 2a f4 8d 3e e7 11 83 be 66 77 0e bc
       0.5376679 0.27725345 -0.25599596 -0.008695459
000020 06 bb 9f bd e7 7a 07 bf 08 fc 33 3e a3 2c b9 bd
       -0.07799344 -0.5292191 0.17576611 -0.09041717
000030 f5 71 12 3f 27 a7 95 bd bf 73 8d be 7e 2b e7 3d
       0.57205135 -0.073072724 -0.2762737 0.11287592
000040 8e af 2c 3e 61 fc be be 3b 74 fc be 03 89 eb 3e
       0.16863844 -0.37301925 -0.49307427 0.4600297
000050 e5 9d 3b 3e 65 bb 0a bf fb 6b cb be 5e bf 46 3e
       0.1832195 -0.5419219 -0.3973082 0.19408938
000060 a7 a2 ca bd 55 bb d1 3e 38 4e 10 3f c4 f3 ab be
       -0.09894305 0.40963235 0.5636935 -0.33584416
000070 0b 32 b5 be b4 53 18 bf 22 dc 70 3e 60 fe e9 be
       -0.35389742 -0.5950272 0.23521474 -0.45701885
000080 0c 1e 8b be fa 16 08 3f 04 b4 a8 bd f2 78 68 be
       -0.2717136 0.5316006 -0.0823746 -0.22702387
000090 b2 e9 1f 3d 37 41 48 3e 2f 75 8b 3e a9 88 03 bf
       0.03904123 0.19556127 0.2723784 -0.513804
0000a0 2e da 24 bd fe f0 b6 bd 88 f9 09 3f f2 46 81 3e
       -0.040247135 -0.08932684 0.5389638 0.2524944
0000b0 6f 79 30 bd bf 6d 1b 3e dd 9c 87 bd 3f e1 e8 3e
       -0.043084558 0.15178584 -0.06621716 0.4548435
0000c0 c8 05 11 3f c4 4a e4 be 20 91 1f 3e fa 5f 0c 3f
       0.56649446 -0.44588292 0.15582705 0.5483395
0000d0 2f f5 36 be 6a 47 04 bf e6 a7 f6 be 66 e4 a0 be
       -0.17866968 -0.5167147 -0.4817497 -0.31424254
0000e0 cd 94 ca bd 74 5a d4 be f0 8b 80 be 89 0b 00 3f
       -0.09891663 -0.4147526 -0.25106764 0.500176
0000f0 e9 d5 c1 3e ce cd 19 3e ee 1b f0 3e d5 b7 0d 3f
       0.37858513 0.15019915 0.4689631 0.5535863
000100 58 bb 01 bf 08 b5 ef 3e 51 57 e9 bd c7 55 08 3f
       -0.5067649 0.46817803 -0.113936074 0.53255886
000110 88 e0 00 3f eb 2f fb 3e 5d aa 4a be 88 f7 95 be
       0.5034261 0.49059996 -0.19791551 -0.29290414
000120 9b 40 1d 3e ef 7e 20 be d8 8b 01 3f cb 3d 9e be
       0.15356676 -0.15673421 0.5060401 -0.3090652
000130 76 a6 08 bf 51 69 ec 3e 61 a3 fd 3e b3 18 5e be
       -0.53379 0.461741 0.4953871 -0.2168911
000140 a5 f6 53 be de 42 09 bf c7 d6 b6 3e 2a a5 16 3e
       -0.20699556 -0.53617656 0.35710737 0.14711443
000150 14 91 0e 3f 25 54 5a be 8a d4 97 3e 64 b4 09 3f
       0.5569012 -0.21321161 0.29654342 0.5379088
000160 e9 86 19 be 71 c4 14 3f 03 af 00 3f 3b ee f5 3d
       -0.1499287 0.58112246 0.50267047 0.120083295
000170 6c cb 05 3e 90 62 eb be b5 fc 0e 3f 5d ca 8b be
       0.1306588 -0.45973635 0.5585435 -0.27302828
000180 13 a2 d1 be 55 05 64 bd 1e 34 89 be 87 ad d0 3c
       -0.40943965 -0.055669148 -0.26797575 0.02547337
000190 f2 ac fd be 23 f7 21 3e d4 b6 97 3e c7 e7 a2 3d
       -0.4954601 0.15816931 0.29631674 0.07954364
0001a0 f5 6d 3a be 79 3c 29 3e 12 8c 16 be 9e 87 21 be
       -0.18206008 0.16526975 -0.1470187 -0.1577439
0001b0 89 17 f9 3e da e2 f3 3b b7 1a c8 be 6c 96 15 3f
       0.48650768 0.0074428143 -0.39082882 0.5843265
0001c0 27 fe 95 be b7 1e 4c 3e bc 6d ed bd 84 71 2d 3e
       -0.29295465 0.19933592 -0.11593196 0.16937834
0001d0 16 e4 13 3f 49 9b 03 be 53 2d 2c be 04 f3 d8 3e
       0.57769907 -0.12852205 -0.16814165 0.42372906
0001e0 e0 94 81 bc 6f f3 9d 3e 71 27 00 bf f1 3c 1e be
       -0.01581806 0.30849788 -0.5006018 -0.15452935
0001f0 f9 a5 0d 3f db 38 f4 3e 7d 30 b1 be 1a bc c0 3e
       0.5533138 0.47699627 -0.34607306 0.3764351

encoder.3.weight f4 [64, 128, 3]
000000 3d 25 b4 ba 09 cc b4 3d fa 25 ab 3d dd 39 0e 3d
       -0.0013744008 0.08827979 0.08356853 0.03472315
000010 78 3c 25 bc 0b 32 64 3d 18 9b 58 3d 41 0c 8a 3c
       -0.010085218 0.055711787 0.052882284 0.016851546
000020 cc 75 60 bb 5e 0a a0 3c e7 0d b0 3b 79 32 14 3d
       -0.00342499 0.019536193 0.005372751 0.036180947
000030 aa a1 fd 3c c6 fb 4f bd 08 ed 44 bd 92 07 3b 3d
       0.030960876 -0.05077722 -0.048077613 0.045661516
000040 82 25 44 3d 00 09 0f bd a7 42 1a bc 53 cf 27 3d
       0.047887333 -0.034920692 -0.009415305 0.040969204
000050 8f 29 0c 3d ef c1 66 bd 43 6e fe 3b e9 3a 4d 3d
       0.03421932 -0.056337293 0.007764609 0.05010501
000060 e0 c5 37 bd 53 2f a3 bb 36 ba 82 bc 62 fb 84 bd
       -0.044866443 -0.0049800067 -0.015957933 -0.0649326
000070 4b 61 5f bc 24 b6 13 bc f2 82 1c bd 87 7c cc 3c
       -0.013634036 -0.009015594 -0.038210817 0.024961723
000080 31 f0 cd bb 1b a7 56 bd 02 42 eb 3c 30 84 6d bb
       -0.0062847366 -0.052405458 0.028717998 -0.003624212
000090 67 3b dc bc b5 1b df 39 3d 61 e7 bc 75 98 19 3d
       -0.026883794 0.00042554518 -0.028244609 0.03749891
0000a0 e7 1e 7b bc e0 e4 46 3c 84 6c a1 bc 10 62 26 3d
       -0.015327192 0.012139529 -0.019705065 0.040620863
0000b0 57 1b 9c bb 4b 65 07 bd 9e 01 f6 bb 02 4a 2a 3d
       -0.0047640014 -0.033055585 -0.007507517 0.041574486
0000c0 8c 9b 48 bd f0 4f 30 bd 1f d4 b6 3c cc 06 13 3d
       -0.048976466 -0.043044984 0.022317944 0.035895154
0000d0 cb ed 90 3b 16 74 2d 3c 12 e9 71 bb a8 47 3f 3b
       0.0044228784 0.010586759 -0.0036912602 0.0029186998
0000e0 b5 ba 2f 3d 29 09 0c bd cc 5d 39 3d fb 2e c6 3a
       0.042902667 -0.034188423 0.045255467 0.0015120202
0000f0 67 bb 10 bd 20 80 8c bc 4c ec 5c bc d4 c0 02 3d
       -0.03533497 -0.017150939 -0.013484072 0.031922176
000100 74 ca a3 bd 6d de 45 3d 5d 9a 1c bd 69 ca be 3a
       -0.07997599 0.048307825 -0.03823315 0.0014556173
000110 45 b6 a6 3c 2f a5 32 bc b1 94 f2 3a 4e e6 bc 3c
       0.020350585 -0.010903641 0.0018507448 0.023059037
000120 a6 17 1b 3d 05 cc d6 3c f4 70 a0 bc 4a 51 88 bc
       0.03786435 0.026220331 -0.01958511 -0.016640324
000130 eb 29 01 bd bd 98 d7 3c 39 65 76 3c 8f b0 40 bd
       -0.031534117 0.026317948 0.015038782 -0.04704338
000140 f5 9f 0d bd ea 62 07 bd 07 96 e6 3c 92 1a 3e 3d
       -0.034576375 -0.033053316 0.02814771 0.04641206
000150 9e 37 85 bd ee 83 2e bd 7d 3b f9 3c ad 63 ad bc
       -0.06504749 -0.042606287 0.030423874 -0.021165693
000160 65 ca f9 bc 33 ea 55 3d 96 c2 ed bb 69 9e 82 bc
       -0.030492017 0.052225303 -0.0072558625 -0.015944676
000170 ee 12 45 bc 4d a2 55 3c 39 e8 df 3c b6 45 44 3d
       -0.012028439 0.013039184 0.027332412 0.047918044
000180 d4 6c 37 bd 95 98 c7 bc a6 e7 5d bd d7 a0 f2 3c
       -0.04478152 -0.024364749 -0.054175995 0.02961771
000190 84 9a e9 3c 81 7d ee bc 97 21 3d bb 7b 55 d4 3c
       0.028516062 -0.02911258 -0.0028859132 0.025919667
0001a0 84 d2 21 bd 38 85 70 3c f5 64 28 bd be 4c a0 3c
       -0.039507404 0.014680199 -0.041111905 0.019567844
0001b0 ad f5 c2 3c d8 ed 90 bc 55 b0 08 3d ef cf 38 bd
       0.023798788 -0.017691538 0.03337129 -0.045120176
0001c0 96 9c 1a bd 39 8a e3 bc ef 72 8b bb f6 1e 97 bc
       -0.03774699 -0.02777587 -0.0042556445 -0.01844738
0001d0 3e 57 31 3d e9 7a 28 3d a9 27 fd 3c eb 89 9a 3d
       0.04329609 0.04113284 0.0309027 0.07545837
0001e0 c4 d0 55 3d 8c 18 2c 3d e3 7b 02 3c f9 9a 1d 3d
       0.052201048 0.042015597 0.007964107 0.03847787
0001f0 87 9b 22 3c 84 fb 9f bc 7e a0 48 3d aa 47 0d 3d
       0.009924776 -0.019529112 0.048981182 0.034492172
000200 b3 41 6e bb 6a 49 9e bc 10 f6 1c bc ee c0 94 ba
       -0.0036355078 -0.019322116 -0.00958015 -0.0011349001
000210 99 69 29 3d b1 02 02 bd d8 4d 4a 3d 15 38 48 3d
       0.04136047 -0.031740848 0.049390644 0.04888161
000220 c1 6f ac 3c b3 e0 50 bb ed b4 19 bd 01 d4 3f bd
       0.021049382 -0.0031872212 -0.03752606 -0.046833042
000230 e1 74 8d bc eb eb c4 3b 12 06 2c bd ec a9 a8 3b
       -0.017267646 0.006009569 -0.041997977 0.0051472094
000240 4c d8 a9 3b 68 8d 4b 3d 11 1d 7d 3a 80 85 f9 bc
       0.0051832553 0.049695402 0.00096555153 -0.030459166
000250 1f 75 ce 3c 60 0d 9f 3c 26 76 02 3d 46 b1 c4 bb
       0.025202332 0.019415557 0.031850956 -0.006002578
000260 53 1e 56 3b 58 e6 e1 3b 4c 95 43 bd 7b 0e 86 3c
       0.0032671883 0.006893914 -0.047749802 0.016364327
000270 0e 54 31 3c 38 c2 28 bd a9 1f b6 3c 42 5e 5a bd
       0.010823263 -0.041200846 0.022231894 -0.053312548
000280 e1 6d 69 bd 83 7f 96 bc 67 97 99 3c 89 bf 3f bb
       -0.056989554 -0.01837135 0.018748952 -0.002925845
000290 01 3b 84 bc 32 08 fc bc d5 8e 00 3d 83 95 53 bd
       -0.016141417 -0.030765627 0.031386215 -0.051656257
0002a0 db ec f8 3b 3e 88 10 bd 88 b4 08 3b 6c a8 9b 3c
       0.0075965947 -0.03528618 0.0020859558 0.019001208
0002b0 1a e8 f4 3c da 30 8b 3c c6 69 2e bd 39 df 9d bd
       0.02989583 0.016991068 -0.042581342 -0.07708592
0002c0 8f 23 30 bd 78 52 24 3d 35 b9 38 3b a4 65 0d bd
       -0.04300266 0.04011771 0.0028186564 -0.03452076
0002d0 bf ab 63 bc 5a 4c b3 bc 47 fa e0 3c 31 2b 49 bb
       -0.013895928 -0.021886993 0.027463092 -0.003069591
0002e0 0b 0f 20 bb 39 1d 4e bd aa be 80 bc 03 0a 1a 3d
       -0.0024423029 -0.050320838 -0.015715916 0.037607204
0002f0 67 a6 0f 3d b1 c0 1f 3d 21 62 b5 bc 91 0e 94 3c
       0.035070803 0.039002124 -0.022141518 0.018073352
000300 91 84 38 3d 7e 16 49 3c 55 ac 7c 3c 45 27 75 bc
       0.0450483 0.012273429 0.0154219465 -0.014962976
000310 ea 31 3f bd a2 38 a7 bb e2 44 32 3d 06 80 c9 bc
       -0.04667846 -0.0051031867 0.043522723 -0.02459718
000320 91 00 51 3d 6a 5e 33 bc 84 b6 48 bd 4a 27 ea bc
       0.05102593 -0.010947803 -0.049002185 -0.028583188
000330 1c bb 36 3d e7 da 41 3d 83 4b 00 bc 78 1d ae 3c
       0.044612035 0.047327902 -0.007830503 0.021254286
000340 8f b0 3d 3c a0 cc 97 bc 7d 66 a5 3a a4 74 c0 bc
       0.011577739 -0.01853019 0.0012619045 -0.023493119
000350 7a 2e ee 3c 22 09 f8 3b 06 88 16 bc f5 5e b1 3b
       0.029074896 0.007569448 -0.009187704 0.005412931
000360 9c 6a 1a bd 49 0c d0 bc c9 02 8b 3a ca 08 56 bd
       -0.037699327 -0.025396483 0.0010605688 -0.052254476
000370 26 66 0f bd 56 b6 dd bb e6 fb 1b 3d 32 fd bc bc
       -0.035009526 -0.006766121 0.038082026 -0.023069952
000380 50 a2 84 3c 3d 9e ff bb 91 f5 f7 bc 2a 1f 72 bc
       0.016190678 -0.007800846 -0.030268462 -0.014777938
000390 23 54 02 bd 92 8e 3e bc b6 61 16 3c 6b a0 ee bc
       -0.03181852 -0.011630671 0.00917857 -0.029129228
0003a0 b5 1f 8a bb b6 10 8e bc 4b 04 d3 bb b6 f2 22 3d
       -0.0042152056 -0.017341953 -0.0064397207 0.03978225
0003b0 f6 e5 93 3c 9e bb 34 bd 72 ae 06 3d 70 c2 b8 bc
       0.01805399 -0.04412424 0.032881208 -0.022553653
0003c0 b1 7a 87 3d d0 a3 83 3b 48 5f d7 bc a8 52 7c 3d
       0.066151984 0.0040173307 -0.02629055 0.061602265
0003d0 f9 a1 95 bb 58 77 a2 3c 15 68 4c 3c 14 41 d4 3c
       -0.004566428 0.019832298 0.012475987 0.025909938
0003e0 fd db 0b bd ad 8c 5d bd ce 66 98 3b 2c c9 9d 3b
       -0.034145344 -0.054089237 0.004650927 0.0048152413
0003f0 18 b2 33 3d 0c 39 35 bd 6f d3 82 bc 0e 34 de 3b
       0.043871015 -0.044243857 -0.01596996 0.0067811077

encoder.3.bias f4 [64]
000000 c5 58 6f 3c c9 1c f4 3b 62 bc 14 3c de 5a 85 3a
       0.014608567 0.0074497205 0.009078117 0.0010174175
000010 a3 31 4c 3c e8 4e 80 bb 95 97 15 3d 12 ed b3 3c
       0.012463006 -0.0039156564 0.036521513 0.02196363
000020 b4 9e 89 3c e2 b7 d9 bc ba 03 3c 3d 4a 9b b3 bc
       0.016799308 -0.02657694 0.04590199 -0.021924634
000030 8a 64 41 3c a7 fe f8 bc 61 0a 1b 3d 65 4b 60 3c
       0.011803756 -0.030394865 0.037851695 0.01368985
000040 c5 68 20 3d 32 33 86 ba 55 72 81 3d 28 48 41 bd
       0.039162416 -0.0010238646 0.06320635 -0.047187954
000050 1d 43 85 3d 7a b9 22 bd 40 c8 20 bd 65 17 6b bd
       0.065069415 -0.039727665 -0.039253473 -0.057395358
000060 ee 14 25 3d 8a ba 31 3c e2 01 39 bc b7 15 31 3d
       0.040303163 0.010847697 -0.011291953 0.0432336
000070 e1 d3 c1 bc 18 b8 37 3d 9e cd 96 3c ba 76 19 bd
       -0.023660602 0.0448533 0.018408593 -0.037466742
000080 ba eb 1b bd 58 77 ef 3c a7 25 a0 3c c7 8f 5e 3c
       -0.038066603 0.029231712 0.019549204 0.013584084
000090 73 ff 2a 3d e2 11 33 3d 21 6e 5f bc ba 64 1d bd
       0.04174752 0.043718226 -0.013637097 -0.03842614
0000a0 67 a6 a7 bc 82 4a f2 bc 15 27 dd bb e1 40 36 3d
       -0.020465089 -0.029576544 -0.0067490437 0.044495467
0000b0 fb 11 30 3c c7 63 b6 3c 4e 59 43 bd 47 99 2f 3d
       0.010746474 0.022264374 -0.04769259 0.042870786
0000c0 7a 9d 71 bc 59 40 8e bc b7 14 22 3d ea 7f 0d bd
       -0.014747018 -0.017364668 0.039570536 -0.034545816
0000d0 55 38 47 bc 67 7a cd bc 7b 3f 5a 3d 48 0d 64 3d
       -0.012159427 -0.02508278 0.053283196 0.05567673
0000e0 b2 f3 0c bd 6d 7c 6d 3d c3 31 91 bc 50 c1 1a bd
       -0.034412093 0.05797999 -0.017723924 -0.037782013
0000f0 29 3d 70 3c 6d 64 f2 3c a6 bd 8c bc ca 01 04 bb
       0.014663019 0.029588902 -0.017180275 -0.0020142668

encoder.6.weight f4 [32, 64, 3]
000000 6d 2e f2 3b 92 91 14 bd 32 c6 9b 3c a3 2b 81 3d
       0.0073907883 -0.03627164 0.019015405 0.06307151
000010 ad 5f 9a bc 9c ee 23 3d 39 91 08 bd a9 58 e5 3c
       -0.01884445 0.040022478 -0.03334162 0.027996378
000020 54 cd 07 3d 76 64 61 3d 24 44 4c bd 87 ba 7e 3d
       0.0331548 0.055027448 -0.04986967 0.062189605
000030 f3 ca a4 bc 88 04 9a 3d 67 9b f0 3c 24 7f f5 bc
       -0.020116305 0.075203955 0.029370977 -0.029967852
000040 d8 b6 6e bd 4a 75 3c bd 48 5e be bc 9a d8 71 bd
       -0.058279842 -0.046010293 -0.023238316 -0.059044458
000050 80 01 ae 3c 76 09 e7 3c 7b bf 98 bb f6 94 3e 3d
       0.02124095 0.028202754 -0.004661498 0.04652878
000060 79 a5 8c b9 b1 a0 75 3d a1 b7 46 3d 68 58 8d 3d
       -0.00026826168 0.0599677 0.048514966 0.06901628
000070 b6 5c 37 bd da 90 90 bc 28 d6 81 3c 4d d4 49 3d
       -0.04476615 -0.017647196 0.015849188 0.04927473
000080 03 a0 9f 3b b5 d3 d8 3c 39 6a 0a 3d 63 7f 7b bd
       0.00487137 0.026468137 0.033792708 -0.061400782
000090 17 d9 f7 3c 89 da da bb b6 78 43 3d d8 68 75 3d
       0.030254884 -0.0066788835 0.04772254 0.05991444
0000a0 c0 51 4a bd 79 6f 9d 3c 55 9a e9 bc 2e 8a 1a 3d
       -0.04939437 0.019218193 -0.028515974 0.037729435
0000b0 56 3b 8e 3b 97 04 fe 3c 2f 56 2b 3a 0f 78 5a 3d
       0.0043405695 0.031008048 0.00065359747 0.053337153
0000c0 94 6e 95 bd 77 21 12 bd f9 01 cf bc 08 57 2d 3d
       -0.07296482 -0.035676446 -0.025269495 0.042319328
0000d0 e0 29 48 3d 70 8f 66 bd 6e 3c cd 3c b4 07 86 3b
       0.04886806 -0.056289136 0.02505323 0.0040902738
0000e0 78 d5 32 bd 35 b6 87 bd 5c 05 ac bc d1 7f 59 3d
       -0.04366061 -0.0662655 -0.02099865 0.05310041
0000f0 ef b1 12 bd 2e eb 0d bd 85 00 5d bd 8a 0e 99 3c
       -0.035814222 -0.034648113 -0.053955574 0.01868369
000100 57 2e 1e 3d e2 a4 8e 3d ee 60 46 3c 81 88 4e bc
       0.038618412 0.06965043 0.012108071 -0.012605787
000110 ee 60 85 bc d5 7c fc 3c 4c ac 28 bd a5 51 7e 3d
       -0.016281571 0.030821243 -0.04117994 0.06208958
000120 8f 0f 41 3d ee 5c 25 3d df 43 14 bd cd b0 65 bd
       0.04713398 0.040371828 -0.03619754 -0.056076813
000130 1b b1 92 bd 81 f0 7f 3d f7 bf 80 bd c6 75 0d 3d
       -0.071626864 0.06248522 -0.062866144 0.034536146
000140 56 4e a2 3d 23 3e 4b 3d 88 c8 ae 3b 69 4b b0 3c
       0.07925098 0.049619805 0.005333964 0.021520333
000150 eb 8e fc 3b 48 08 9b 3b 6d 4d d7 3c 86 da d4 3c
       0.007707467 0.004731212 0.026282037 0.025983106
000160 8e b2 68 3d 76 50 b3 bc 4c e4 d3 bb 56 84 b8 bc
       0.056810908 -0.021888953 -0.006466424 -0.02252404
000170 7b d7 73 bd 55 d5 cc 3d 7d 9a 81 3d b3 95 1a bb
       -0.05953167 0.10001627 0.063282944 -0.0023587763
000180 5a 78 97 bd f2 d0 78 bd 12 ef 62 3d 27 f9 96 bd
       -0.07396002 -0.06074614 0.055403776 -0.07371741
000190 15 fb 38 bd 6a 13 f7 3c 82 9c 81 bd 72 7b 62 3d
       -0.045161325 0.030160625 -0.063286796 0.055293508
0001a0 65 34 a6 bc 5c b0 12 3d 74 d1 85 3d 35 35 90 3d
       -0.020288656 0.03581272 0.06534091 0.070413984
0001b0 7b b4 d5 bc 6b cc 88 3d f4 bb a3 3b bb 98 ce 3c
       -0.026087036 0.06679615 0.004996771 0.025219312
0001c0 fc 41 81 bd 85 9e 24 3d de a5 13 bd 30 3b 4b bd
       -0.06311414 0.04019024 -0.036046855 -0.049616992
0001d0 b7 38 02 bb d0 f7 67 bd ba 94 0f 3d 88 a7 05 3d
       -0.001987023 -0.056632817 0.035053946 0.032630473
0001e0 5c 7d cf bd ad c3 8a bc b4 79 d7 3c 0d 1a 89 3d
       -0.10131332 -0.016939009 0.02630315 0.06694422
0001f0 1d f6 06 3d 33 af 7d bd 9a 05 98 bc 0e bf 0d 3d
       0.032949556 -0.06193466 -0.018557359 0.034606032
000200 fe d6 9f 3d d7 33 fa bc 88 c4 1a bd 68 8a da 3c
       0.078046784 -0.030542297 -0.037785083 0.026677325
000210 38 95 18 3d 39 7e 27 3d 0e ca 48 bd b9 c0 0a bd
       0.03725168 0.04089186 -0.04902082 -0.0338752
000220 23 3d 21 3d 9c 7c 72 3c fb 73 8a bd 0a 60 b5 bb
       0.039364945 0.014800217 -0.06760403 -0.0055351304
000230 20 60 be 3c f0 f3 9f bc bc 7b 02 bd cc 51 f2 3c
       0.023239195 -0.019525498 -0.031856284 0.02958002
000240 a6 4b f1 3c 72 27 7e 3d 44 c9 5f bc 0e 78 b5 bc
       0.029455017 0.062049337 -0.013658825 -0.022151973
000250 68 1b 90 3d 1f c6 a1 3d 22 66 9c 3d 08 59 25 bb
       0.07036477 0.07899117 0.07636668 -0.0025230069
000260 e1 5d a0 3c 4c 06 1b 3d 68 92 65 bd 82 9f 35 3a
       0.019576015 0.037847802 -0.056047827 0.00069283706
000270 df d6 67 bd a7 4a 96 bd fd b6 a3 bc 3c 2f 0b bd
       -0.0566014 -0.073384576 -0.019984717 -0.033980593
000280 f8 d3 41 3d 70 b9 34 bd f2 21 3f 3b a2 11 6c 3d
       0.04732129 -0.04412216 0.002916452 0.057634003
000290 cb 65 35 3c a8 f5 72 3d e5 53 54 3d 51 65 b6 bc
       0.011071633 0.059316307 0.05183782 -0.022265108
0002a0 0f 3c da bc 6e 61 1c 3d cd 04 03 3d 9a 4b ab bc
       -0.026639966 0.038178854 0.031987 -0.020910073
0002b0 86 1b 1f 3d fc ce a5 3d 8b 0d 92 3d 69 4d 8b 3d
       0.038844608 0.0809612 0.07131489 0.06801874
0002c0 1b 04 6e bd e9 95 be 3b 30 8b 04 3d ec 1e 36 3d
       -0.058109384 0.0058162105 0.032359302 0.044463083
0002d0 26 70 aa 3c 74 e3 ae bb 5b 94 f1 3c b4 c6 2a 3c
       0.02080543 -0.005337173 0.029489687 0.010423351
0002e0 d7 08 17 3d 1a 6b 08 3d fa 80 84 3c fb 6d 1c 3c
       0.036873665 0.033305265 0.016174782 0.009547706
0002f0 9f 97 6c bc e8 11 73 3d e3 0d 84 bd 5b df d0 3c
       -0.014440446 0.05934325 -0.06447961 0.02549713
000300 10 2a 7b 3d 09 f3 ee bc dc 0c a7 3c 7a da 9e bb
       0.06131941 -0.029168623 0.020391874 -0.004847822
000310 f4 92 dc bb fb 16 b3 bd 64 fd 46 bd 3a da 45 bd
       -0.0067313854 -0.087446176 -0.048581496 -0.04830382
000320 19 fa 27 3d 4f 0b 1c b9 d1 61 42 bd a4 a9 90 3d
       0.041009996 -0.00014881532 -0.047456566 0.070636064
000330 57 c8 62 3d 2e 67 1a bd d8 09 18 bd c4 11 62 3d
       0.05536684 -0.037696056 -0.037118763 0.055192724
000340 cc dc d9 3c 06 a6 33 bd ed 28 f5 3c 7c 0e ee 3c
       0.026594542 -0.043859504 0.029926741 0.029059641
000350 62 05 25 3d 44 08 8b 3d 99 5d 02 bd 9c c2 85 bd
       0.040288337 0.06788686 -0.031827543 -0.065312594
000360 58 a3 2c bc 45 9c af bb 55 bd 34 bd 82 87 d6 3c
       -0.010536991 -0.005359205 -0.044125874 0.026187662
000370 46 e8 be 3d 01 7a 71 3d c4 ff 05 bd e5 14 2b bd
       0.093216464 0.058954243 -0.03271462 -0.041767973
000380 97 99 56 3d d9 8e 07 3c f0 cb 28 bd 13 0a 41 bd
       0.05239257 0.008273804 -0.041210115 -0.04712875
000390 6c 63 96 3d 5c c8 04 3b fa 0c 28 3d eb 05 da 3c
       0.07343182 0.0020261025 0.041028 0.02661415
0003a0 9c c4 bb 38 ee a4 f9 bb 31 77 52 3d 20 37 8e 3d
       8.953476e-05 -0.007618538 0.0513832 0.06944108
0003b0 96 e3 3f 3c 61 f5 f6 3b 2d ec 72 3b 46 42 ac 3d
       0.011711976 0.0075365757 0.0037067041 0.08411078
0003c0 af af 6d bd 28 5d 45 39 88 1d 6f 3d 07 a7 75 bd
       -0.058028873 0.00018822087 0.058377773 -0.059973743
0003d0 d0 6b 02 3d 03 68 01 3b e4 24 45 bc d9 7d 32 3d
       0.0318411 0.0019745834 -0.012032721 0.04357705
0003e0 77 bb 76 3b 43 81 34 bd da 3d f3 3b 07 08 d5 3c
       0.003764836 -0.044068586 0.0074231448 0.026004804
0003f0 13 a5 a4 3c f3 b8 da 3c b6 b7 cb bd 6c 55 ff 3c
       0.020098245 0.026699519 -0.099471495 0.031168662

encoder.6.bias f4 [32]
000000 db 45 22 bd d9 cc 80 bd 46 1e 0d bd b8 55 1b bd
       -0.0396174 -0.062890716 -0.0344527 -0.037923545
000010 bc 16 78 bc c5 d7 8c bd 96 0e 59 3d df cf c8 bc
       -0.015142139 -0.06877092 0.052992426 -0.024513183
000020 f4 84 7a 3d bb 13 75 bd 54 c0 67 bd d5 6d 28 bc
       0.06116195 -0.05983327 -0.056579903 -0.010280092
000030 fe 52 f2 bc 96 2e 57 bb 49 bc de bb 8b 47 7f bd
       -0.02958059 -0.0032834164 -0.0067973477 -0.062324088
000040 32 51 00 3d 46 74 83 3b 1c 6a 4f bd 16 d5 38 3d
       0.031327434 0.0040116636 -0.050638303 0.04512509
000050 d0 1f a9 37 77 51 3b 3c 30 18 73 bd ea 39 a6 3b
       2.0161184e-05 0.011432997 -0.05934924 0.005072822
000060 34 f7 1f 3d 5d db a1 3c 91 56 0f bd 9a b0 57 bb
       0.03905411 0.01975792 -0.034994666 -0.003291166
000070 50 37 3e 3d c4 4f 5f bd 61 8c 00 bd ff 86 14 bd
       0.04643947 -0.05451943 -0.031383876 -0.036261555

decoder.0.weight f4 [32, 64, 4]
000000 53 7d f7 3c a1 96 ae bc d2 2d 39 3d 05 c6 78 3d
       0.030211126 -0.02131206 0.045209713 0.06073572
000010 d1 7e 77 bd 2a fc 6d bd 38 3a 2c bc 29 9b 60 3d
       -0.060423676 -0.05810181 -0.010511927 0.054835472
000020 eb b6 73 bd 55 7e 8b bb 9e ea 08 3c b1 0c 89 3d
       -0.059500616 -0.0042570033 0.008356718 0.06691874
000030 fa f9 c9 bc 57 1e dd 3c 13 ac c4 3c 11 7a 04 bd
       -0.02465533 0.026992006 0.024007833 -0.032342974
000040 b0 89 f6 3a 7c 8f ac 3c f5 cc 87 bd ac c7 4c 3c
       0.0018809345 0.021064512 -0.06630889 0.012498777
000050 45 e1 e4 bc db 17 fb bc 07 ee 1f 3d 4a ed 1c 3d
       -0.027939448 -0.030651024 0.03904536 0.038312234
000060 83 35 78 bc 5a d7 5c bb 81 4f ed 3c bc bc f6 bb
       -0.015149477 -0.0033697695 0.028968574 -0.007529823
000070 b8 3d dc bc 82 98 32 bd 98 db 3b bd 00 d0 71 3b
       -0.026884899 -0.043602474 -0.045863718 0.003689766
000080 b9 21 b9 3b 38 76 f1 3c 7f 11 96 3b e4 eb 20 bd
       0.005649772 0.029475316 0.0045797224 -0.039287463
000090 42 f2 25 3d a3 0c b8 bc 2d 22 6f 3d e0 01 65 3c
       0.04051424 -0.022466963 0.058382202 0.013977498
0000a0 cf 49 20 3d cd aa f4 3c 93 74 6d bd 03 03 77 3c
       0.03913289 0.0298666 -0.057972502 0.015076402
0000b0 26 ca e4 3c 90 ed 57 3d 82 7a 66 3d 5a 94 28 bd
       0.027928423 0.05271679 0.056269176 -0.041157104
0000c0 e5 97 91 bc af 88 70 ba 1c 3f 22 3d 95 18 de 3c
       -0.017772624 -0.0009175641 0.039610967 0.027111331
0000d0 d5 2a 04 3d d9 af 58 bd fe fb 34 3d ff 6d 0a bc
       0.03226741 -0.052902076 0.04418563 -0.008449077
0000e0 4b 61 7e ba 7e ca 5d 3d c0 4e e7 3c 7e 2f 25 bd
       -0.0009703829 0.05414819 0.028235793 -0.040328495
0000f0 83 09 37 3c 3d c9 d8 3b b5 d1 f5 3c 1f b6 4d 3d
       0.011171701 0.0066157863 0.030007223 0.050222512
000100 1c 0b 49 3d 76 9a 0e 3d 48 1a 84 3d dd 7e 28 bb
       0.04908286 0.034815274 0.06450325 -0.0025710382
000110 2d f2 4b 3c 0a 8b e9 bc 46 22 49 3c 75 43 fd 3c
       0.012447876 -0.028508682 0.012276238 0.030915955
000120 f1 2e 90 3b f8 3b 3d bd 64 8a 85 3d 32 9d 91 3b
       0.004400127 -0.04619977 0.065205365 0.004443788
000130 ba f0 3c bd 06 30 80 3c 40 9a e9 bc 2e 6c 5a bd
       -0.046128012 0.0156479 -0.028515935 -0.053325824
000140 29 e3 1d 3d de 53 46 3d e2 15 70 3d 9e 72 38 3d
       0.038546715 0.048419826 0.05861462 0.045031182
000150 ec b1 98 3c a9 9d 21 3d b9 52 12 bd 91 2e 8e 3d
       0.018639527 0.039456997 -0.03572342 0.069424756
000160 eb 25 98 3b d3 01 cd bc 66 67 ee 3c 24 5c dc 3c
       0.004643192 -0.025025284 0.029102039 0.026899405
000170 0d 6b 88 bc 7c c8 8b 38 37 14 04 3d 3d 0f 9e 3c
       -0.016652608 6.6653796e-05 0.03224584 0.019294376
000180 99 ca 58 3d 09 4e 3c bd 87 d4 08 bd e9 77 21 bd
       0.052927587 -0.045972858 -0.033405807 -0.039420996
000190 79 86 c8 3c 69 a3 fd 3c d7 56 9f bc df 17 8c bc
       0.024478184 0.03096171 -0.019450588 -0.017101226
0001a0 4c b5 4d bd b8 d9 7c 3d 3b 02 1d 3c 36 e9 57 3d
       -0.050221726 0.06173107 0.009583051 0.05271264
0001b0 eb 60 68 bc d2 e4 cb 3c f4 e5 3e 3d 18 bc 67 bd
       -0.014183263 0.024889383 0.04660602 -0.056575865
0001c0 02 6d a9 bb 5e c3 d0 bc eb 3c 99 3c d3 c8 51 3d
       -0.0051704654 -0.025483783 0.018705806 0.05121691
0001d0 7a 1a 1a 3d e8 38 98 3a 6b be c3 3c d9 90 61 bd
       0.037622906 0.0011613639 0.02389451 -0.055069778
0001e0 af 4a a8 3c 3c c7 28 bd d8 89 b6 bc 27 28 c5 3c
       0.020543424 -0.04120563 -0.022282526 0.024066998
0001f0 b1 33 f2 3a 8d 59 cd 3c 9f 22 28 bd ed 18 6a 3d
       0.001847854 0.025067115 -0.041048642 0.057152677
000200 38 96 0a 3d 4d 06 33 bd 2b d5 66 3d 1d 78 75 bd
       0.033834666 -0.04370718 0.056355637 -0.059929002
000210 bb 25 a7 bc 37 c2 4b bd b0 9d 06 3d c5 71 75 3d
       -0.020403733 -0.049745765 0.032865226 0.059922952
000220 47 09 ba bd 4a 23 10 3d fb e8 f3 bc 03 51 34 bd
       -0.09083801 0.035189904 -0.02977418 -0.04402257
000230 ca 76 37 bd ed 9f 01 3d 6a 8c 6e 3d a4 79 33 bd
       -0.04479102 0.031646658 0.058239378 -0.043817177
000240 65 7c 81 3c dd bc 57 bd 6c 2f 92 bd c0 c8 89 3c
       0.015806386 -0.05267035 -0.07137951 0.016819358
000250 f4 1d af bc e3 58 76 3d ec 64 ed 3c 97 cc 0d bd
       -0.021376587 0.060143363 0.028978787 -0.03461894
000260 57 d4 48 3d 80 7c d0 3c 58 4d 83 3c dc ad 55 bd
       0.049030628 0.025449991 0.016028091 -0.05216776
000270 c2 a3 c4 bc bd 17 01 bd bd 28 0d bb 68 58 4f bc
       -0.024003867 -0.03151678 -0.0021539174 -0.012655355
000280 97 a1 24 3d e0 7c 01 3b 83 bd 91 bc 37 3c 63 3d
       0.040193167 0.001975827 -0.017790562 0.055477347
000290 c4 79 9d 3c 9c 70 3e bc 14 b8 15 bb f4 f7 e4 3c
       0.019223101 -0.011623528 -0.0022845315 0.027950265
0002a0 5b 24 05 3d 26 9e 0f 3d 76 dc 0c bc 06 96 a3 bb
       0.032505374 0.03506293 -0.008597484 -0.0049922494
0002b0 d5 c6 6f 3d 8c 3a 00 bd 5e 3b 79 3a 45 88 35 3d
       0.05853923 -0.031305835 0.00095074426 0.04431941
0002c0 3c 37 60 bc 69 ee 48 3d 52 26 7d bd 6d 7f a5 bb
       -0.013685044 0.04905549 -0.061804123 -0.0050505907
0002d0 e1 42 20 3d f8 81 de bc c1 51 b6 bc 22 3e cb 3c
       0.03912628 -0.027161583 -0.02225578 0.0248099
0002e0 ea 3d 0a 3c 76 9b e9 3c b1 12 1c bd 4e 68 f2 3c
       0.008437613 0.028516512 -0.038103763 0.029590752
0002f0 18 bb 1b bd 83 e0 4c bd 8c 57 91 3c cc aa a8 bd
       -0.038020223 -0.0500188 0.01774194 -0.08235702
000300 c1 79 0f 3d 92 9f 4e 3c f2 b8 d8 bc 24 66 83 3c
       0.035028223 0.012611287 -0.026455376 0.016039915
000310 7a fe 87 3c 03 6c 51 3b 08 9b 72 3d 4a da b1 bd
       0.016600836 0.003195525 0.05922988 -0.086842135
000320 7f dc 0d bd fc 45 de bc 22 61 5e 3d db dd 64 3b
       -0.03463411 -0.02713298 0.05429185 0.0034922275
000330 b0 aa 96 3c c7 5d 1e bd e2 5c 64 3c ae 5d 86 3d
       0.018391937 -0.03866365 0.013938161 0.06560837
000340 8e 20 76 3c 7e e4 2f bd 66 af a4 3c 25 cb 2c bd
       0.01502241 -0.042942517 0.020103168 -0.04218592
000350 a7 55 8e 3b 64 5e 79 3d 4e 56 49 bd 3f f3 46 bd
       0.0043437066 0.060881034 -0.049154572 -0.04857182
000360 09 f6 41 bd 3c 96 33 bd 2f 1b 29 bc 45 e0 1a 3d
       -0.047353778 -0.043844447 -0.0103214225 0.037811536
000370 36 d1 ad bd 05 c5 c4 bc 00 c5 15 bd 1b c3 9b 3c
       -0.084871694 -0.024019727 -0.036564827 0.019013932
000380 73 d7 3e bc f0 bb 6d bd db 3d 10 3d 4c 87 d9 bc
       -0.011648047 -0.05804056 0.03521524 -0.026553772
000390 14 0d d4 3c d2 4b 63 3c 4c e3 8b bc fa 44 72 3b
       0.025885142 0.013873057 -0.017076157 0.0036967383
0003a0 95 24 b0 3c af 25 52 3d 60 0d 5d 3d d6 a4 24 bc
       0.021501819 0.05130547 0.053967834 -0.010049066
0003b0 dd 00 62 bd f2 d6 70 3d 95 8e 37 3d e6 2a 84 3c
       -0.055176605 0.058798738 0.04481371 0.016133737
0003c0 e3 f7 08 3d bd 4d 22 3d 8b 8c 2c bd 40 b2 79 3b
       0.03343953 0.03962492 -0.04212622 0.003810063
0003d0 3b 49 e5 bb bf 29 4d 3d a1 51 6d 3d 28 99 19 3d
       -0.006997255 0.05008864 0.057939176 0.037499577
0003e0 90 6d fd 3c c5 61 14 bd 90 08 f1 3b 59 ae 1c 3d
       0.030936033 -0.036226053 0.007355757 0.03825221
0003f0 63 fb 2a 3d 8d 9c 1f 3d 1c a3 d2 3c 6f 74 24 3a
       0.041743647 0.038967658 0.025712542 0.00062734535

decoder.0.bias f4 [64]
000000 08 bd 35 ba a1 ea 91 3b 49 b9 a6 bc 2f 22 a3 3b
       -0.000693277 0.004453019 -0.020352023 0.0049784402
000010 dc 3a 72 bd 5d 1f ec bb 6b a0 0a 3b be b5 b2 bc
       -0.059138164 -0.007205887 0.0021152745 -0.021815177
000020 21 27 65 bd 33 62 b0 3c 22 45 85 3d 49 16 d2 3b
       -0.05594552 0.0215312 0.06507327 0.006411348
000030 30 d4 3e 3d 54 9c 3d 3d 4f dc a7 bc 16 71 0d bc
       0.046589077 0.046291664 -0.020490794 -0.008632919
000040 4d 0b 81 3d b2 e8 88 ba fd bf 55 3d 39 1d 14 3c
       0.063009836 -0.0010445325 0.052185047 0.00904017
000050 1a e5 4d bd 80 35 1a bd 44 6d 0b bd b3 17 8e bc
       -0.050267316 -0.037648678 -0.03403975 -0.017345285
000060 ac d1 3a 3d 52 cf 5f bd 11 fa 71 bb 4a 67 04 3c
       0.045610115 -0.054641075 -0.0036922733 0.008081267
000070 8b 28 1a bd 1d 16 2a 3d 0e d0 e8 3b 79 7c 66 3d
       -0.03763632 0.041524995 0.00710488 0.05627105
000080 6b cf 0e 3d c9 96 1f bc 18 27 c4 39 51 52 52 bb
       0.034865778 -0.00974054 0.0003741316 -0.0032092521
000090 92 65 e1 bc 15 61 ef 3c 2e 0c 7e 3d f6 e7 1f bc
       -0.027514253 0.029221097 0.062023334 -0.009759894
0000a0 ef 10 60 3d e1 20 bb bc d4 39 78 3c aa f8 79 3c
       0.05470365 -0.022842826 0.015150506 0.01525704
0000b0 b9 00 68 3a 68 14 4a 3c c6 d3 cb 3b 3b e2 90 ba
       0.00088502053 0.012333967 0.0062203137 -0.001105375
0000c0 52 9f 04 3d 59 a2 0b bb 11 56 59 bd 4c 72 6f 3d
       0.032378502 -0.0021306484 -0.053060595 0.05845861
0000d0 cb d1 4c bd 9a 03 a1 bb 2a c5 91 3c 13 da 46 bc
       -0.05000476 -0.0049137594 0.01779421 -0.012136954
0000e0 28 31 d4 3a e6 b9 ab 3c fa 2c b7 bb 31 dc 6b bd
       0.0016188966 0.020962667 -0.0055900784 -0.057583038
0000f0 06 a2 8c 3d ad 25 3d bd d6 f5 53 bd f5 c9 b4 3c
       0.06866841 -0.04617851 -0.05174812 0.022068957

decoder.2.weight f4 [64, 128, 4]
000000 25 b7 a3 bc ed d7 9a 3c b3 2b c5 3c 34 76 71 3c
       -0.019984791 0.01890179 0.024068689 0.0147376545
000010 55 c0 2b bd 3b 38 39 3d 31 60 a1 3a 4a 9b 1c 3d
       -0.04193147 0.04521964 0.0012311992 0.038234033
000020 e9 0f 48 3c b4 0d 10 3d fe 45 39 3d 10 b6 28 bc
       0.0122108245 0.03516932 0.045232765 -0.010297313
000030 b5 76 2d 3d 63 61 2f bd 19 d9 f0 bc a4 c4 04 3d
       0.042349536 -0.042817485 -0.029400395 0.032414094
000040 ba 32 5a bd d5 47 b1 3c 9e ac da bc 91 14 a3 bc
       -0.053271033 0.021640697 -0.026693638 -0.019907268
000050 85 ec 5a ba 1b 32 98 3a 46 31 33 3d a2 f0 33 3d
       -0.0008351284 0.0011611612 0.043748163 0.043930657
000060 67 15 1c bc 65 19 9b 3c bf b2 7e bc 77 e1 1d bc
       -0.009526587 0.018933007 -0.015545546 -0.009636275
000070 8e 10 de bc e9 32 ad bd 36 ad a1 3c 86 43 bd bc
       -0.027107503 -0.08456976 0.019735914 -0.023103487
000080 cd 5f e1 bc a9 d7 e4 bc a1 ca 9e 3c 97 3b 35 3c
       -0.027511502 -0.027934866 0.01938373 0.011061571
000090 be 33 e7 3c dd 40 13 3d bd dd bb bc 3a b1 9f bc
       0.028222915 0.03595053 -0.022932881 -0.019493688
0000a0 ce 68 2f bb 1f 5f a2 bc c1 ff 07 bd f1 6f 04 3c
       -0.002676535 -0.019820748 -0.03320289 0.00808333
0000b0 ab 7c cb bc fa 8d d4 3b 32 bb dc bc 0c 8f 08 3d
       -0.02483972 0.0064866515 -0.02694473 0.033339545
0000c0 e7 bb ca bc d0 14 8b bc ac d4 05 bd 75 b2 92 3c
       -0.024747802 -0.016977698 -0.032673523 0.01790736
0000d0 ea eb 31 bd 8d 87 fa bc 82 f9 ba 3c c9 10 26 3d
       -0.043437876 -0.030582214 0.022824053 0.04054335
0000e0 3a 4d c1 bc b5 cd 0c 3d 28 f3 63 bc 5e 6a 0d bd
       -0.023596395 0.034375865 -0.013912953 -0.034525268
0000f0 0b f8 7b 3a 0d 57 0a bd 11 5f d1 3c a6 26 38 3c
       0.00096118514 -0.033774424 0.025558027 0.011239683
000100 7e 75 0e 3d 9f 3d 81 bc 10 3b 1b 3d 4d f8 b0 3a
       0.034780018 -0.015776454 0.037898123 0.0013501734
000110 ed a1 18 bd e5 8c 04 3d 7f 82 01 bd 78 8d 54 bc
       -0.0372638 0.03236093 -0.03161859 -0.012973182
000120 dd f4 2b 3d 64 e7 a3 bc 20 07 1a 3d 5a d2 be 3b
       0.041981567 -0.020007797 0.03760445 0.0058234157
000130 72 96 3a 3d e8 ee cf bc b9 f7 a8 3c 12 8b 41 3c
       0.045553632 -0.025382474 0.020625936 0.011812942
000140 e7 f1 a7 bc 5f 08 c0 bc 37 6e 89 3a c1 31 c8 3c
       -0.02050109 -0.023441492 0.0010485117 0.024437787
000150 7d 2d db 3c 9a 35 34 3c af 8b 0f bc 66 92 03 ba
       0.026755089 0.010999108 -0.0087613305 -0.00050190685
000160 44 b8 8e bc fb 2c ac 3c 75 63 98 bc 4f 0f c4 3c
       -0.01742185 0.021017542 -0.018602112 0.023933081
000170 62 af 2e 3a 7a f3 b8 bc ab 0e 1f bd fa eb 27 bb
       0.00066637073 -0.022577036 -0.038832348 -0.002562283
000180 1e 23 25 bd 86 38 cd 3c 2e 6b ab 3c cd f2 d0 3c
       -0.040316693 0.025051367 0.02092513 0.025506401
000190 67 fb 2f 3d 04 35 09 3d 93 dd ac 3b 37 c9 e7 3c
       0.042964365 0.033497825 0.005275437 0.028294189
0001a0 1d 5a e7 3c 98 dd 22 3c 9b f2 0b bb 60 6d 24 3d
       0.028241212 0.009940527 -0.002135432 0.04014337
0001b0 95 88 05 3d e2 bb 15 bd 40 85 81 bc ac ef 0f 3c
       0.032600958 -0.036556132 -0.015810609 0.00878517
0001c0 a6 ec 06 3d 70 55 08 bd 40 4e e1 bc 4a 60 22 3d
       0.03294053 -0.033284605 -0.027503133 0.03964261
0001d0 15 0d 81 3c c0 06 01 3d 44 e1 26 bc 3e 6f 44 3d
       0.015753308 0.031500578 -0.010185543 0.04795765
0001e0 0f 89 2b 3d ae 10 07 bd 6c f2 20 bd d6 56 f7 bc
       0.041878756 -0.03297489 -0.03929369 -0.030192774
0001f0 ce 37 19 3d 50 7e 16 bd 1c 54 ac 3c f5 70 8d 3c
       0.037406735 -0.036741555 0.0210362 0.017265776
000200 a2 97 25 3c ac a2 ad 3c ca fe 23 3c f1 1a 50 3c
       0.010106953 0.021195732 0.010009477 0.012701736
000210 f6 63 14 bd a4 5c a4 3c fc ee 8f 3a ca c9 ef 3c
       -0.036228143 0.020063706 0.0010981257 0.029271025
000220 3d b2 01 3b d2 bc b3 bc d2 ed 23 3d fe 46 df ba
       0.0019790076 -0.021940622 0.040021725 -0.0017034707
000230 7b 78 1d 3d 5c 3e 0f bd 27 de ed 3c 9c a0 29 bd
       0.038444977 -0.03497158 0.029036595 -0.041412935
000240 6b b9 da 3c 3f b8 9e 3c 8d ab 3a bc 3c c1 17 3d
       0.026699742 0.019374965 -0.01139344 0.037049517
000250 1d aa 28 3d fe 1b 69 bc aa cb 68 3c 25 af ae 3c
       0.041177858 -0.014227865 0.014208714 0.02132375
000260 87 10 0c bd 4c 82 90 bc c3 9c 41 3c f7 12 f7 3c
       -0.03419545 -0.017640255 0.01181716 0.03016041
000270 da 56 bb 3c 85 bd 14 bd 51 8a b8 bc af a7 8c 3b
       0.022868562 -0.036313552 -0.022526892 0.0042924504
000280 20 a0 97 bc 39 c5 aa bc 7f 6f 30 3d 43 60 d1 3c
       -0.01850897 -0.020845996 0.04307508 0.025558596
000290 1c ca 5d bb d6 83 08 3d b3 6e cb 3c b3 6b 22 bd
       -0.003384239 0.033328854 0.024833059 -0.03965349
0002a0 ae b1 7f 3b f3 a2 86 bd bf 38 08 3d 1b 5a 9a bc
       0.0039015817 -0.06574049 0.033257242 -0.018841794
0002b0 d8 2c cc 3a 69 98 8c 3c 45 b0 8e bc 4d 3a 80 3b
       0.0015577329 0.017162519 -0.017418036 0.0039132
0002c0 89 4e 13 3d ca 97 14 bc ff c2 13 3d 58 9d c8 bc
       0.03596357 -0.009069392 0.036074635 -0.02448909
0002d0 5f 76 46 3c a6 a0 1f bd 35 9f 9f bb b7 80 b2 bc
       0.012113183 -0.038971566 -0.004871274 -0.021789892
0002e0 fb 6a ca bc 98 a6 7b bb 74 50 2d 3c 3f 4b 22 3d
       -0.024709215 -0.0038398858 0.010578264 0.03962254
0002f0 3b 8b f5 3c 44 59 05 3d b3 61 d3 bc b4 7e 75 bc
       0.029973617 0.032555833 -0.025803423 -0.014983822
000300 b2 d8 36 bc c8 77 93 bb 95 af 8c 3c 05 93 21 3d
       -0.011160063 -0.004500363 0.017173568 0.03944685
000310 01 f7 84 3c 6b 2f ea 3b b6 e6 45 bd ea b8 81 bc
       0.016231062 0.007146766 -0.048315726 -0.015835244
000320 ce d8 d3 3c 89 bc 43 3d dc ab 81 ba 42 ad 3b bb
       0.025860216 0.047787223 -0.0009893137 -0.0028637205
000330 6d c1 1f bd d1 3a c2 bc 78 62 7b 3c 56 51 ea 3b
       -0.039002825 -0.023709686 0.015343301 0.0071508093
000340 06 14 03 3d 10 a3 f1 3c 75 33 19 bd 7b 22 8c bb
       0.032001518 0.0294967 -0.03740259 -0.0042765713
000350 f8 a2 47 3c ec af fd bc 9d c0 2a bd 95 1f ee bc
       0.012184851 -0.030967675 -0.041687597 -0.029067794
000360 0f 10 37 3c 57 c2 31 bd ee cb 5d 3c 39 cf d2 bc
       0.011173262 -0.043398228 0.01353739 -0.025733577
000370 39 98 01 bd 33 62 56 3b c3 dc b8 bc 4f 7c 23 3d
       -0.03163931 0.003271234 -0.022566205 0.03991347
000380 f9 61 2f 3d a8 0a b4 bc ea fb ca bc a0 f7 07 3d
       0.042818043 -0.021977738 -0.024778325 0.033195138
000390 8a 05 ba 3c ce af 05 bc 0d 00 c8 3c 0f 43 f2 3b
       0.02270772 -0.008159591 0.024414087 0.007393248
0003a0 b5 ab 63 bc b7 e0 c6 3c 98 a0 0e 3d 31 30 0d bc
       -0.013895919 0.024277074 0.034821123 -0.008617447
0003b0 e3 bd 86 3b 96 82 1f 3d 75 7e 31 3d 37 25 aa 3c
       0.0041119917 0.038942896 0.04333349 0.020769699
0003c0 2b cf 14 bd d5 fb 7f bc 9c ef 91 3b dd 82 ca 3c
       -0.036330383 -0.015624006 0.0044536125 0.024720604
0003d0 ac 66 ac 3c 03 d1 7c 3c bc d6 ba bc 3a 9f eb bc
       0.021045052 0.015430692 -0.022807471 -0.028762449
0003e0 5c 65 fd 3c ed 7f 0a bd a5 a8 08 bd 94 51 d8 3b
       0.030932121 -0.033813406 -0.033363957 0.0066015217
0003f0 56 d3 45 3b 84 7f 2c 3d ea 9d a1 3c f3 50 11 3d
       0.003018578 0.042113796 0.01972862 0.03547759

decoder.2.bias f4 [128]
000000 1a 9d ba 3a 33 fc b1 bb c3 c0 1d 3c 5c 56 e6 3c
       0.0014237494 -0.005431676 0.0096284775 0.028117351
000010 68 b2 0a 3d 18 35 e3 3c 75 0e 15 bd 27 6f 75 3b
       0.033861548 0.027735278 -0.03639074 0.0037450285
000020 54 44 3e 3a 65 2c 01 3d 8f bd 33 bd 09 34 48 bc
       0.00072581065 0.03153648 -0.04388195 -0.012219437
000030 6e 06 fb ba fc 31 d2 3c 1f d4 af bb c5 28 31 3d
       -0.0019151696 0.0256586 -0.005365863 0.04325177
000040 f7 f5 e8 bc ba ea 05 bc f4 f1 0d bd 7d 66 42 3d
       -0.028437598 -0.008173639 -0.034654573 0.04746102
000050 86 b9 15 bd ed 55 2a 3d b5 17 bc bb 4a fb a9 3c
       -0.036553882 0.04158585 -0.005740131 0.020749707
000060 a8 41 b1 bb 03 30 05 bd 4e a6 cb 3c 6e a6 b1 bb
       -0.005409438 -0.03251649 0.024859574 -0.0054214513
000070 7b dc 06 bb 47 46 06 bd 6b 1a 06 3d fb b6 d7 3c
       -0.0020578194 -0.032781865 0.032740038 0.02633237
000080 2c 5c 2c 3d 73 1c c4 3c 23 30 b1 3c 8b 42 ab 3c
       0.04208009 0.023939347 0.021629399 0.020905754
000090 d9 07 84 3c c2 95 0e 3c c4 72 23 3d cb ae 31 bc
       0.016117023 0.008702697 0.03990437 -0.010844897
0000a0 65 34 22 bb 30 23 42 3d c9 10 29 3c b6 83 c9 3c
       -0.0024750468 0.04739684 0.010318943 0.024598937
0000b0 5d 07 e2 bc 1b f6 2d bd 70 76 30 bd c5 8e 2a bd
       -0.027591402 -0.042471033 -0.0430817 -0.041640062
0000c0 99 c4 17 bd a6 d8 2c 3c 8d 7f cd bb cc 7e 05 bd
       -0.037052725 0.0105497 -0.0062713088 -0.032591626
0000d0 b1 99 0c bc 58 31 6b bb 46 f3 cc 3b 39 b3 91 3b
       -0.008581565 -0.0035887565 0.0062545864 0.004446414
0000e0 85 ae 6c bc 2e a9 1c 3d 6b 0b 0f 3d de 98 f8 bc
       -0.014445906 0.03824728 0.034923 -0.03034633
0000f0 f7 c5 1f 3b 76 91 f4 ba 7e 12 b2 3c 60 a5 f8 bc
       0.002437947 -0.0018659073 0.021737333 -0.030352294
000100 cd 55 08 bb 52 51 69 bc d4 3a 1b bb 3e 00 7c bc
       -0.0020803094 -0.01424058 -0.0023686187 -0.015380917
000110 16 a9 d5 ba 63 26 0e 3c 6f 2b 89 bc c0 61 2e bd
       -0.0016301002 0.008676144 -0.016744344 -0.04257369
000120 4f 88 4f 3c f3 59 61 3b 44 07 49 3c d3 fb 49 3c
       0.012666776 0.003438589 0.012269799 0.012328106
000130 8d ae 6d 3c 7a 59 43 bc da 1d 0f bd 48 cc a3 ba
       0.014506948 -0.011923188 -0.034940578 -0.0012496794
000140 9f 43 38 bc f2 fe ea 3b 41 d3 6b bc de 76 85 3b
       -0.011246591 0.007171505 -0.014393629 0.004073008
000150 e8 76 d0 bc 39 72 78 bd 81 db a8 3b 25 33 78 bc
       -0.025447324 -0.060655806 0.00515312 -0.015148913
000160 a8 0e e7 3b 8f ba 00 3d 49 e6 6f bc c4 4b 18 3d
       0.0070513077 0.031427916 -0.014642307 0.03718163
000170 80 59 3f bd cb a4 83 3c 9b 4c 19 3d 90 15 1b 3c
       -0.046716213 0.01606979 0.037426572 0.00946559
000180 40 99 06 bd c8 7e f6 3c d2 d5 23 3d 46 6f 66 3c
       -0.032860994 0.03008975 0.039998837 0.014064616
000190 46 d8 61 bd 22 c8 49 3c 68 9f 9a 3c c4 d6 f8 3b
       -0.055137895 0.012315782 0.018874839 0.0075939614
0001a0 ea 2a 42 3d eb 0c bc bc 8f 04 11 3d cc 77 8f bc
       0.047404207 -0.022955379 0.035404738 -0.017513178
0001b0 3b c1 cd 3c 18 b8 98 3c 34 65 13 bd f5 d7 81 bc
       0.025116554 0.01864247 -0.035985187 -0.015850047
0001c0 33 67 21 bd 5b 91 e7 3c 41 f1 0b bd 6e 23 10 bd
       -0.03940506 0.028267553 -0.034165625 -0.03519004
0001d0 b6 6b 70 3c a1 f2 84 3c e6 cc 0a 3d f7 5e 8d bb
       0.014674118 0.016228976 0.033886813 -0.004314299
0001e0 4e 87 f6 3c d5 5b 94 39 c5 b3 cd 3c 12 ba 60 bc
       0.030093815 0.0002829718 0.025110135 -0.013716238
0001f0 cf e5 ae bc f3 0f eb bc c1 7b 43 3b 8a 78 7d 3c
       -0.021349816 -0.028694129 0.0029828402 0.015470633
