notebooks/epoch=7-step=8046.ckpt (torch, 892416 bytes, 33 tensors)

encoder.0.weight f4 [128, 1, 3]
-0.49080202 0.11643145 -0.56725204 0.26851222 0.19937848 0.095386535 0.5766337 -0.5208645
-0.38488492 0.27630928 0.032147706 -0.1012591 0.5220525 0.5595025 0.29307103 0.37246886
0.035531316 0.37783524 0.11680513 0.08173075 0.25322086 -0.25286254 0.34533915 -0.49575827
0.47197154 0.21757548 -0.2615947 -0.11438945 -0.3268648 0.20935321 -0.32944733 0.1776107
-0.041185357 -0.040402565 -0.4318861 -0.52625996 0.14669096 0.5074338 -0.5498611 0.10132577
0.06553145 0.18422902 0.19352159 0.45377502 0.16092142 0.2908526 0.51591057 -0.09277265
0.20799908 0.038719565 -0.49437502 -0.571373 0.56914914 0.5984224 0.33467883 0.41857705
-0.119255945 0.11521769 0.16713859 -0.16379894 0.027670499 0.3885152 0.5451507 0.10318924
-0.05712475 0.34675524 0.39684302 0.08055974 0.3854422 -0.08434067 -0.28454646 -0.176167
-0.1352753 -0.49451986 -0.10777691 -0.56324166 -0.38584083 0.53824455 -0.27389508 0.43433172
-0.42878446 -0.077287056 -0.48312548 -0.15106273 0.51002115 0.2576561 -0.5530435 -0.35283932
0.17680328 0.57426554 -0.50883085 0.39748505 0.3031323 -0.35268208 -0.17904145 -0.12582754
-0.55222267 0.52603954 -0.06783897 0.16621216 -0.06058854 0.15863259 0.5553365 -0.40490678
0.1221788 0.41539663 -0.35370985 0.082831204 -0.51065993 0.36501595 -0.46130207 -0.5241154
0.41648474 0.4898555 -0.18518756 -0.15226543 0.38188416 0.49650624 0.044754367 -0.17663673
0.20488235 0.053702753 0.21205747 0.049349364 -0.3843313 0.09445133 -0.15379149 0.48094308
0.21848145 0.43519002 -0.31854734 0.35773635 -0.031116314 0.23312123 0.5221569 0.17315714
0.22668284 -0.17926762 -0.34416243 0.53776807 0.5727609 0.43964487 0.36622167 -0.5499924
-0.5039947 0.41829094 -0.21858612 0.0060537774 0.36840996 0.23054586 0.539759 -0.40911117
-0.03809878 -0.5318542 0.20119224 -0.34431046 -0.1006263 -0.34326118 0.5986247 -0.4856361
0.19232413 0.06885215 0.05738465 0.21989274 -0.022307046 -0.20801313 -0.14399777 -0.14613806
-0.33456838 -0.3755196 -0.27792 0.39189377 -0.47966486 0.5808453 -0.15585992 0.34862962
-0.4058445 -0.42041534 0.57316196 -0.15859537 0.14185235 -0.56570977 0.2977665 -0.3686747
0.10126778 0.39575016 0.016847195 0.016579889 0.45212826 -0.5720036 -0.41520843 -0.057904996
-0.23459019 0.5090098 -0.41566572 -0.4006163 0.15106335 0.54623836 -0.043502808 -0.3328266
-0.34210873 0.01772083 0.3940787 0.392143 0.13311881 0.6186939 0.14569089 -0.13038705
0.29390925 -0.018312022 -0.52268386 -0.10078623 0.4601222 -0.19070043 -0.02652517 -0.38828892
-0.23282406 -0.45251054 0.013458795 0.4410911 -0.01529821 -0.116187066 -0.4270296 -0.53024787
-0.38557264 -0.046694398 -0.3301039 -0.32973683 -0.30522624 -0.06652945 -0.12732376 -0.06678627
-0.561179 0.110901184 0.2502547 -0.3740019 -0.37173098 0.53658676 -0.08887782 0.2531184
-0.5055793 0.2342917 -0.24494152 0.4948975 0.18685903 -0.40460867 -0.51665497 0.19885491
-0.4698369 0.5305573 0.45796332 0.35385835 -0.21250564 -0.21132569 -0.16711745 -0.5108372
00000000: 674a fbbe 9d73 ee3d 6e37 11bf 6f7a 893e
00000010: df29 4c3e 045a c33d 449e 133f 6057 05bf
00000020: a30f c5be 6978 8d3e 50ad 033d ee60 cfbd
00000030: 3ca5 053f 8e3b 0f3f 680d 963e 3db4 be3e
00000040: 4989 113d 9f73 c13e 8737 ef3d 7462 a73d
00000050: 2aa6 813e 3377 81be 4bd0 b03e 07d4 fdbe
00000060: 41a6 f13e 1bcc 5e3e beef 85be 0445 eabd
00000070: d35a a7be b060 563e 52ad a8be 94df 353e
00000080: fab1 28bd 297d 25bd 2d20 ddbe f9b8 06bf
00000090: 2836 163e 2ee7 013f b2c3 0cbf e383 cf3d
000000a0: 5a35 863d 88a6 3c3e 862a 463e 3355 e83e
000000b0: 96c8 243e a2ea 943e b712 043f 96ff bdbd
000000c0: b6fd 543e 6898 1e3d b91e fdbe 8045 12bf
000000d0: c2b3 113f 3632 193f 065b ab3e bb4f d63e
000000e0: 763c f4bd 41f7 eb3d 6126 2b3e e9ba 27be
000000f0: 3ead e23c 77eb c63e ff8e 0b3f e154 d33d
00000100: a4fb 69bd e789 b13e 022f cb3e 81fc a43d
00000110: ae58 c53e cdba acbd 13b0 91be 1f65 34be
00000120: 9c85 0abe b531 fdbe 24ba dcbd 9b30 10bf
00000130: ee8c c5be 65ca 093f fa3b 8cbe ba60 de3e
00000140: a389 dbbe ad48 9ebd 395c f7be 30b0 1abe
00000150: bf90 023f 80eb 833e 4294 0dbf 5ba7 b4be
00000160: eb0b 353e 1103 133f bd42 02bf 2983 cb3e
00000170: 2834 9b3e bf92 b4be a456 37be efd8 00be
00000180: 775e 0dbf 87aa 063f 28ef 8abd 8533 2a3e
00000190: b02b 78bd 9570 223e 882a 0e3f f14f cfbe
000001a0: e138 fa3d deae d43e 7519 b5be 68a3 a93d
000001b0: 9cba 02bf 5fe3 ba3e c92f ecbe 6d2c 06bf
000001c0: 7d3d d53e 57ce fa3e cfa1 3dbe 78eb 1bbe
000001d0: 5286 c33e 1136 fe3e 5b50 373d 42e0 34be
000001e0: aecc 513e 6bf7 5b3d 9825 593e 8f22 4a3d
000001f0: 12c7 c4be b36f c13d 847b 1dbe 2c3e f63e
00000200: 9ab9 5f3e 3ad1 de3e a318 a3be 3829 b73e
00000210: a4e7 febc 55b7 6e3e 13ac 053f 1b50 313e
00000220: 8c1f 683e ee91 37be 0f36 b0be 2bab 093f
00000230: 75a0 123f 2219 e13e 6881 bb3e 4dcc 0cbf
00000240: cc05 01bf 3b2a d63e 0ad5 5fbe c45e c63b
00000250: 3ba0 bc3e 3714 6c3e a52d 0a3f 0577 d1be
00000260: 770d 1cbd 9927 08bf 5705 4e3e 7649 b0be
00000270: 2915 cebd eebf afbe 783f 193f 4ba5 f8be
00000280: 9ef0 443e 5b02 8d3d 2b0c 6b3d 902b 613e
00000290: 44bd b6bc 6501 55be 2774 13be 37a5 15be
000002a0: 8c4c abbe 1b44 c0be 884b 8ebe 4da6 c83e
000002b0: a296 f5be 47b2 143f be99 1fbe 957f b23e
000002c0: daca cfbe ae40 d7be beba 123f d366 22be
000002d0: be41 113e 5bd2 10bf da74 983e eec2 bcbe
000002e0: 7b65 cf3d c49f ca3e 2103 8a3c 8cd2 873c
000002f0: 5b7d e73e d46e 12bf 3396 d4be ca2d 6dbd
00000300: 6938 70be 774e 023f 23d2 d4be 941d cdbe
00000310: 5ab0 1a3e 47d6 0b3f 0030 32bd 4068 aabe
00000320: e028 afbe 462b 913c afc4 c93e f8c6 c83e
00000330: 4c50 083e b962 1e3f fe2f 153e 2f84 05be
00000340: 467b 963e 1803 96bc 9cce 05bf 0369 cebd
00000350: 2395 eb3e f946 43be 504b d9bc cecd c6be
00000360: 6e69 6ebe 76af e7be 4782 5c3c b1d6 e13e
00000370: 58a5 7abc 7cf3 edbd a0a3 dabe 53be 07bf
00000380: c769 c5be a042 3fbd 6103 a9be 44d3 a8be
00000390: 9d46 9cbe 9840 88bd 2961 02be 3dc7 88bd
000003a0: 6da9 0fbf 2920 e33d 6221 803e 2d7d bfbe
000003b0: 8653 bebe c05d 093f 9305 b6bd bc98 813e
000003c0: a56d 01bf 2aea 6f3e f3d1 7abe 3563 fd3e
000003d0: f957 3f3e de28 cfbe 8043 04bf 9fa0 4b3e
000003e0: 768e f0be 9ad2 073f 2b7a ea3e ec2c b53e
000003f0: 149b 59be c365 58be d620 2bbe 3ac6 02bf

encoder.0.bias f4 [128]
-0.3313155 -0.029921254 0.42317975 0.017939618 -0.3862417 0.35878894 -0.1139227 0.39400533
0.2881701 -0.20878774 0.57553494 0.2763112 -0.15547603 0.24629417 0.07578743 -0.36854896
-0.089391544 -0.05478826 -0.367454 0.12656973 0.5507885 0.22880687 -0.08946866 -0.6215258
-0.4944443 -0.06679381 -0.12357049 -0.4733034 0.498213 0.04205337 0.29698068 -0.4112372
0.016604405 -0.39450532 0.2914904 -0.30285165 0.47185284 -0.13087888 -0.4531446 0.031141182
0.5382916 0.08016002 -0.18841527 0.06763129 -0.049730215 0.18489045 -0.47555563 -0.019879347
0.028912207 -0.37112808 -0.6163287 -0.05747603 -0.52668995 0.32948598 -0.07062525 0.021154635
-0.27594826 -0.16364492 0.39298725 0.34880182 0.0013914756 -0.16268471 0.4253334 0.26944607
0.44636342 -0.10527068 0.19098097 0.35019255 0.12040384 -0.47696888 0.4829619 -0.5014226
0.19055407 0.44076517 0.21599606 -0.17647979 0.27773654 -0.11828514 -0.471273 0.31927633
0.09014881 -0.19372654 -0.56492066 -0.24148199 0.53925544 -0.5037202 0.28423384 -0.3244981
-0.34669316 -0.31923488 -0.34048384 -0.3908457 -0.29817018 -0.52002096 -0.5607988 -0.19699378
-0.51741534 0.32427812 -0.22251132 0.49816522 0.23009838 -0.38122937 0.23756488 -0.46383572
-0.041348018 -0.42096174 -0.38571095 0.02254295 -0.27401382 0.2842204 0.3209386 -0.4866211
0.4658051 0.21033765 -0.47860894 -0.35401794 -0.11952519 0.22761601 -0.14999655 0.0549283
-0.44472772 -0.038556978 0.022417009 -0.00087574095 0.2452059 -0.5101026 -0.32338974 -0.24461465
00000000: 2fa2 a9be 6b1d f5bc 04ab d83e 1bf6 923c
00000010: 79c1 c5be 2fb3 b73e 4e50 e9bd 11bb c93e
00000020: 088b 933e 74cc 55be 4256 133f a978 8d3e
00000030: 1c35 1fbe 8a34 7c3e 7136 9b3d 73b2 bcbe
00000040: ea12 b7bd a869 60bd ee22 bcbe 7f9b 013e
00000050: 7a00 0d3f 594c 6a3e 583b b7bd 511c 1fbf
00000060: ce27 fdbe 31cb 88bd 8612 fdbd d354 f2be
00000070: c615 ff3e 2840 2c3d da0d 983e af8d d2be
00000080: f605 883c 9afc c9be 3b3e 953e 5f0f 9bbe
00000090: b296 f13e 1d05 06be 9202 e8be cb1b ff3c
000000a0: 7acd 093f f02a a43d efef 40be 4682 8a3d
000000b0: e9b1 4bbd ec53 3d3e 077c f3be 03da a2bc
000000c0: 4bd9 ec3c 8004 bebe b8c7 1dbf fc6b 6bbd
000000d0: 27d5 06bf 63b2 a83e f9a3 90bd 7c4c ad3c
000000e0: 1749 8dbe 8992 27be a035 c93e 2796 b23e
000000f0: 2c62 b63a d296 26be 4dc5 d93e d6f4 893e
00000100: bf89 e43e 2798 d7bd 8490 433e 704c b33e
00000110: 4a96 f63d 4435 f4be c846 f73e 3b5d 00bf
00000120: 9b20 433e f9ab e13e 122e 5d3e 1eb7 34be
00000130: 7c33 8e3e 7b3f f2bd b24a f1be 3078 a33e
00000140: f09f b83d 4060 46be a49e 10bf 0e47 77be
00000150: a50c 0a3f cff3 00bf 1987 913e 9d24 a6be
00000160: c481 b1be c172 a3be e653 aebe ed1c c8be
00000170: c3a9 98be 1820 05bf 8390 0fbf bdb8 49be
00000180: 5575 04bf c807 a63e 02da 63be 830f ff3e
00000190: e99e 6b3e 7f30 c3be 3544 733e e07b edbe
000001a0: 8a5c 29bd 4c88 d7be e87b c5be feab b83c
000001b0: 8a4b 8cbe 5685 913e 1052 a43e 6726 f9be
000001c0: 027e ee3e c162 573e 3b0c f5be d741 b5be
000001d0: 9fc9 f4bd 2c14 693e b298 19be 7ffc 603d
000001e0: 5ab3 e3be eced 1dbd e0a3 b73c fb91 65ba
000001f0: 4117 7b3e 1696 02bf 5793 a5be 437c 7abe

encoder.3.weight f4 [64, 128, 3]
-0.011703629 -0.009659345 0.046092805 -0.058980316 -0.12352305 -0.0003308567 -0.019234715 -0.055970322
0.049908172 -0.03903756 -0.01853053 0.0449113 0.023668345 0.039947618 -0.058551043 0.05416303
-0.03681822 -0.03614714 0.023070434 -0.032104947 -0.02806062 -0.032665152 0.014293072 0.040048983
-0.0019486662 0.0015045587 0.023718715 0.037393633 0.0055636824 0.053028114 -0.013423101 -0.052315183
-0.030962061 0.020068863 -0.0032693278 -0.0016238877 -0.009160196 0.038214732 0.011514047 -0.0128348945
-0.023285089 -0.0039353217 -0.07350833 -0.069507495 0.026250152 -0.024693703 -0.046410233 -0.06287105
-0.016610164 -0.017995456 -0.00030428992 -0.09202962 -0.022724079 -0.028094037 0.031006683 -0.039988033
-0.032128457 0.040796544 0.04399336 0.011047076 -0.028717527 -0.014907476 5.2945685e-05 -0.027315903
0.051952 0.0053193425 -0.050391223 -0.06887699 -0.038000766 -0.0059658694 -0.028336307 -0.02956227
-0.01375254 -0.013109081 0.009646821 -0.053146876 0.031791277 0.027541364 0.0038191734 -0.0041443547
0.02182441 0.03429529 -0.034372382 -0.007511877 0.016117206 -0.026125388 0.015814265 -0.0122627
-0.006500514 -0.029062003 -0.05190476 -0.01251206 -0.025790656 -0.030957228 0.021340873 -0.021304466
-0.105806924 -0.007960133 0.014945375 0.05791562 -0.060828388 -0.033554643 0.040877245 0.029239131
0.06282705 -0.03520911 0.06917647 -0.029184116 0.0031009594 0.011093159 0.049059264 -0.005555699
-0.07991311 0.028041793 0.00020430495 0.0155563895 0.038929116 -0.011988495 0.0059760255 0.016747463
-0.00922173 0.0019985307 0.016331302 -0.0005641603 -0.022438044 -0.022433683 -0.048834004 0.011546015
0.0039509893 0.036224753 0.01876258 0.009889179 -0.05892989 -0.015172263 -0.045810614 -0.03378244
0.043219108 0.02868712 -0.027429104 0.026235377 0.017904997 -0.027701028 0.005468139 0.04301685
-0.03804792 -0.002470591 0.06777922 -0.007327982 0.010300307 -0.029505214 0.04849061 -0.026873743
-0.0490105 -0.036251195 -0.047445025 -0.0059958035 0.030023199 -2.1439393e-05 0.0013306588 -0.05617608
-0.04635881 0.026438875 0.010366358 -0.023679482 0.012067646 -0.01695183 -0.018264744 -0.0038382306
0.0009324284 -0.04207759 -0.027456697 0.0046221255 0.023866802 -0.008067769 -0.047456842 -0.023491403
0.041214157 0.012018326 0.013139229 0.014403475 -0.0103631485 -0.00074802845 0.047323857 0.013032999
-0.0039655925 0.030298304 0.03514626 0.0043811006 -0.045445476 0.00161763 0.026878083 -0.012224935
0.019590521 0.001839034 0.04569378 -0.03331412 0.006118864 -0.012414831 -0.036296412 -0.061865993
-0.040963348 0.049884923 -0.015287511 -0.012014965 -0.003955528 0.026355676 0.0162565 0.0025745241
-0.05736049 -0.03880974 -0.021845661 0.0063939556 -0.017992616 -0.02124113 0.008003854 0.0051455745
-0.017510887 -0.00093167165 0.030324962 -0.005692624 0.04991229 0.020598475 -0.047281083 -0.0299981
0.019375816 -0.00625828 -0.066559926 0.010860731 -0.050930027 -0.057029527 0.01075141 0.0071479157
0.0024367624 -0.022976201 -0.05093601 -0.014981285 0.026059324 -0.018498776 0.046278123 -0.043662135
-0.034810107 -0.040774044 0.01443814 -0.0066941893 0.032966297 0.07724386 0.00550983 -0.009075498
-0.00094632455 -0.0035829942 0.029134473 0.021460796 0.02805501 0.009012808 0.026777675 -0.049436435
00000000: 94c0 3fbc 3b42 1ebc cfcb 3c3d 5895 71bd
00000010: a7f9 fcbd d676 adb9 1f92 9dbc 2341 65bd
00000020: 836c 4c3d d9e5 1fbd 57cd 97bc e9f4 373d
00000030: 1ee4 c13c 1da0 233d 38d3 6fbd 0eda 5d3d
00000040: b4ce 16bd 060f 14bd 35fe bc3c 7a80 03bd
00000050: 63df e5bc e5cb 05bd 7d2d 6a3c 670a 243d
00000060: 636a ffba 9d34 c53a c04d c23c 112a 193d
00000070: 8d4f b63b 0234 593d 91ec 5bbc 7248 56bd
00000080: 26a4 fdbc 7567 a43c 3842 56bb a1d8 d4ba
00000090: a614 16bc 0d87 1c3d 6aa5 3c3c 7349 52bc
000000a0: 5fc0 bebc dff3 80bb 898b 96bd f259 8ebd
000000b0: 8f0a d73c 734a cabc a818 3ebd 89c2 80bd
000000c0: 0a12 88bc 356b 93bc 1a89 9fb9 077a bcbd
000000d0: d927 babc 7725 e6bc ba01 fe3c 7eca 23bd
000000e0: 2199 03bd 471a 273d 6232 343d ccfe 343c
000000f0: 0541 ebbc 7c3e 74bc ff11 5e38 9ac5 dfbc
00000100: 9fcb 543d e14d ae3b 0767 4ebd 610f 8dbd
00000110: b1a6 1bbd 577d c3bb 8b21 e8bc 932c f2bc
00000120: 5552 61bc 79c7 56bc b30d 1e3c 8ab0 59bd
00000130: 9237 023d 6d9e e13c 194b 7a3b 5ecd 87bb
00000140: 1bc9 b23c 3879 0c3d 0eca 0cbd 3126 f6bb
00000150: 3b08 843c e904 d6bc eb8c 813c 7ee9 48bc
00000160: 4402 d5bb 7013 eebc 169a 54bd 62ff 4cbc
00000170: ed46 d3bc 039a fdbc 0ed3 ae3c b486 aebc
00000180: 4db1 d8bd 386b 02bc 72dd 743c ee38 6d3d
00000190: 3027 79bd 9870 09bd e66e 273d e786 ef3c
000001a0: 78ab 803d 6d37 10bd 65ac 8d3d 8713 efbc
000001b0: 7739 4b3b 15c0 353c 5ef2 483d 950c b6bb
000001c0: 7ca9 a3bd e7b7 e53c b13a 5639 3ae0 7e3c
000001d0: 2374 1f3d 646b 44bc 89d2 c33b fa31 893c
000001e0: bd16 17bc c8f9 023b 39c9 853c 28e4 13ba
000001f0: fdcf b7bc d8c6 b7bc 2a06 48bd 7f2b 3d3c
00000200: 4d77 813b 6860 143d fbb3 993c 3906 223c
00000210: 7860 71bd 1595 78bc e9a3 3bbd 755f 0abd
00000220: 8506 313d 4001 eb3c 00b3 e0bc 93eb d63c
00000230: 80ad 923c 44ed e2bc 132e b33b 7032 303d
00000240: 23d8 1bbd a4e9 21bb d5cf 8a3d 921f f0bb
00000250: 9ec2 283c ebb4 f1bc 179e 463d 5326 dcbc
00000260: 3cbf 48bd 227c 14bd b755 42bd 7278 c4bb
00000270: 36f3 f53c bfd8 b3b7 8069 ae3a e418 66bd
00000280: bce2 3dbd 5796 d83c a8d7 293c 79fb c1bc
00000290: 60b7 453c 90de 8abc f29f 95bc d38a 7bbb
000002a0: 366e 743a 8d59 2cbd deec e0bc 3375 973b
000002b0: 5084 c33c ad2e 04bc 1b62 42bd 0b71 c0bc
000002c0: 2dd0 283d 83e8 443c ec45 573c 8efc 6b3c
000002d0: 32ca 29bc 5717 44ba a9d6 413d 5c88 553c
000002e0: cdf1 81bb 2634 f83c 86f5 0f3d 568f 8f3b
000002f0: 0925 3abd a806 d43a 6d2f dc3c 184b 48bc
00000300: 4d7c a03c be0b f13a 6729 3b3d 6374 08bd
00000310: c080 c83b 9367 4bbc 8cab 14bd 3267 7dbd
00000320: 2fc9 27bd 2254 4c3d 7878 7abc 6ada 44bc
00000330: 609d 81bb dce7 d73c 5a2c 853c 59b9 283b
00000340: d5f2 6abd f6f6 1ebd acf5 b2bc 6384 d13b
00000350: 4065 93bc e101 aebc 9922 033c 359c a83b
00000360: fe72 8fbc 6d3b 74ba 0e6c f83c 3189 babb
00000370: d470 4c3d 22be a83c cfa9 41bd 93be f5bc
00000380: 08ba 9e3c 4212 cdbb 9250 88bd 35f1 313c
00000390: 019c 50bd cb97 69bd af26 303c 1039 ea3b
000003a0: 17b2 1f3b 9638 bcbc 47a2 50bd 1074 75bc
000003b0: 5d7a d53c bf8a 97bc 218e 3d3d 11d7 32bd
000003c0: 0b95 0ebd af02 27bd f38d 6c3c ee5a dbbb
000003d0: ab07 073d 0732 9e3d ce8b b43b 66b1 14bc
000003e0: c412 78ba abd0 6abb 6bab ee3c 8dce af3c
000003f0: 9fd3 e53c 75aa 133c db5c db3c dc7d 4abd

encoder.3.bias f4 [64]
-0.021647384 0.004103273 -0.04113436 -0.033941817 0.037190236 0.032633863 -0.0006162302 0.013877443
0.03562008 0.015572648 0.009904737 0.021911908 -0.007399999 -0.0031947442 0.03578694 0.025374478
0.033363026 0.017585887 -0.01655774 0.043534387 0.004432239 -0.006998355 0.013739863 0.010354127
0.015015984 -0.041810244 0.034139916 -0.021877326 0.037859093 -0.0025577676 0.0016186457 0.051465698
-0.048192587 0.014549474 0.034406077 -0.04668805 -0.043088414 -0.042117808 -0.023286488 0.0063735107
-0.02837384 -0.018779267 0.02924248 -0.017996784 -0.010774956 0.002627346 0.0073436075 -0.020619985
0.020163152 -0.011454189 -0.022250487 -0.024398914 -0.03465445 0.06527896 -0.0029893606 0.052107792
0.049742933 -0.029763801 -0.04043522 0.043550745 0.020066462 0.047831308 0.030154925 -0.019827813
00000000: db55 b1bc c074 863b 817c 28bd 9306 0bbd
00000010: ca54 183d 16ab 053d 828a 21ba 375e 633c
00000020: 5ce6 113d 6b24 7f3c 7a47 223c 9a80 b33c
00000030: b17b f2bb ea5e 51bb 5495 123d 23de cf3c
00000040: aba7 083d 4710 903c 19a4 87bc 1d51 323d
00000050: 513c 913b 7552 e5bb 2a1d 613c 5ba4 293c
00000060: 9a05 763c 3841 2bbd 4cd6 0b3d 1438 b3bc
00000070: 2312 1b3d 38a0 27bb bd28 d43a b2cd 523d
00000080: 9765 45bd eb60 6e3c 63ed 0c3d f83b 3fbd
00000090: 7a7d 30bd b983 2cbd 4ec3 bebc e2d8 d03b
000000a0: 4170 e8bc fad6 99bc ed8d ef3c fe6d 93bc
000000b0: 7189 30bc 8d2f 2c3b a5a2 f03b 3eeb a8bc
000000c0: 322d a53c 5aaa 3bbc a746 b6bc 3be0 c7bc
000000d0: d3f1 0dbd fab0 853d 26e9 43bb fb6e 553d
000000e0: 3fbf 4b3d 37d3 f3bc 679f 25bd 4462 323d
000000f0: 6c62 a43c c3ea 433d 7607 f73c f06d a2bc

encoder.6.weight f4 [32, 64, 3]
-0.06172793 0.020570012 -0.09455957 0.013089544 0.033863157 0.042467203 0.01936954 -0.0011523062
-0.046835314 0.058829416 0.08083871 0.0441826 0.0032582504 0.053372983 0.0029809817 -4.6336434e-05
-0.0019831029 -0.07061854 -0.0029829692 -0.016485767 -0.009331416 -0.025370484 -0.054815993 0.041433122
-0.056636125 -0.0024724118 0.055901147 0.044664823 -0.07370283 0.014359844 -0.03388924 -0.05168668
-0.026885115 -0.12892233 0.07503951 -0.062017895 -0.009850789 0.013182655 -0.07339966 0.015307263
-0.06462723 0.030921552 -0.008111328 -0.039205775 -0.00025368866 -0.097577415 0.023130387 0.016474802
-0.07034886 -0.01672618 0.053635243 -0.08402515 0.05638228 0.026884012 -0.08278214 0.07268501
-0.048975635 -0.10249263 0.024655702 0.08675248 -0.021917526 0.039281733 -0.07106973 -0.06960529
0.045041118 0.009202255 -0.04297432 -0.054917935 0.024785453 0.065969445 0.029537529 -0.019391315
-0.000738985 -0.009269459 0.043734506 0.04731962 -0.01094372 0.03390542 -0.08404581 0.008487071
0.007096365 0.02240459 0.004059983 0.06532326 -0.028154695 -0.035662998 -0.015513527 -0.0405998
-0.006464919 0.028544128 -0.03384031 0.03908468 -0.017819531 -0.06365181 0.016963976 0.0027854906
-0.046027564 0.0130502 -0.054906 -0.1568182 -0.03187171 -0.0473181 -0.082246065 0.021565815
0.005844738 0.051242873 0.010451797 0.068769395 -0.056646142 0.05138202 0.030390155 0.024003752
0.056703188 -0.051034924 -0.031872574 0.019192372 0.0045932056 0.0005287673 -0.084539115 -0.020412412
-0.054432668 0.013865215 -0.011758086 0.057485316 0.06493134 -0.00078385224 0.038759895 -0.037410047
-0.030464835 -0.04273571 0.07434707 0.04560929 -0.032014098 0.014967284 0.05280411 -0.017054172
-0.024974816 0.025760138 -0.0054259053 -0.04331335 -0.0069443025 -0.10694476 0.082260676 -0.039627712
-0.0320283 0.03479908 -0.017666485 -0.13482727 -0.07730301 0.015619166 0.09944872 0.0017049828
0.029544765 -0.11345748 0.010183937 0.0073559475 -0.026135035 0.018942542 -0.022369 -0.004646843
-0.03351087 -0.039026096 -0.08817796 0.03820458 -0.053630494 -0.052996513 0.011074971 0.0727429
0.030036991 0.08174795 0.055682205 -0.051559333 0.06465128 -0.0414161 -0.02303861 0.036986023
0.031277105 -0.029821353 0.04224608 0.017974436 -0.058755077 0.042666823 0.032375924 0.046187945
-0.0067307465 0.010310339 0.016685538 -0.035630673 0.066091046 -0.020783056 -0.026750065 -0.054577053
-0.011487339 -0.032771498 -0.2069959 -0.07456373 0.052876573 0.022302348 0.05758162 0.012419877
-0.013491732 0.1482434 0.03299492 -0.02363165 0.13015012 0.057558596 -0.015543961 0.0055122552
0.06576781 0.074888654 -0.025085062 -0.025102602 0.026480028 0.07252006 0.050887473 0.18302551
-0.013375181 -0.0039632 0.048353203 -0.036010433 -0.008455715 0.07881553 0.05258252 0.0045479015
0.023971893 -0.04822063 -0.00407124 0.05060363 -0.027083198 -0.06256073 -0.00317705 0.02664281
-0.021819578 0.10206139 0.026640322 0.040528663 -0.022973675 -0.006760198 0.072452344 -0.04988096
-0.024638655 0.0438199 -0.003626975 -0.0034077158 -0.050205667 0.032830484 0.02299792 0.07480372
-0.085187085 -0.090477556 -0.097150646 0.055877462 -0.06412265 0.05046619 -0.04804731 0.023766488
00000000: 6dd6 7cbd 7182 a83c 73a8 c1bd 8775 563c
00000010: 18b4 0a3d 17f2 2d3d dfac 9e3c fb08 97ba
00000020: 63d6 3fbd 1df7 703d c48e a53d d0f8 343d
00000030: 5f88 553b a19d 5a3d 935c 433b 5e59 42b8
00000040: f2f6 01bb 74a0 90bd eb7d 43bb 290d 87bc
00000050: cce2 18bc c3d5 cfbc bc86 60bd c7b5 293d
00000060: 48fb 67bd 3008 22bb 9af8 643d 76f2 363d
00000070: 82f1 96bd 8d45 6b3c 72cf 0abd 6ab5 53bd
00000080: 2c3e dcbc 3704 04be 51ae 993d 7a06 7ebd
00000090: 3465 21bc 10fc 573c 9052 96bd 50cb 7a3c
000000a0: 485b 84bd 324f fd3c 60e5 04bc 3c96 20bd
000000b0: 8401 85b9 abd6 c7bd f07b bd3c 2af6 863c
000000c0: 1013 90bd 5805 89bc a1b0 5b3d 6115 acbd
000000d0: 1bf1 663d dc3b dc3c af89 a9bd e1db 943d
000000e0: ad9a 48bd a8e7 d1bd c1fa c93c 49ab b13d
000000f0: 628c b3bc e2e5 203d 028d 91bd 388d 8ebd
00000100: 097d 383d 0ec5 163c d705 30bd a1f1 60bd
00000110: dd0a cb3c fd1a 873d b0f8 f13c 89da 9ebc
00000120: 72b8 41ba eede 17bc f422 333d 38d2 413d
00000130: 4a4d 33bc 69e0 0a3d 3620 acbd 5b0d 0b3c
00000140: a088 e83b d589 b73c 9b09 853b 34c8 853d
00000150: ada4 e6bc 5d13 12bd 732c 7ebc fa4b 26bd
00000160: acd7 d3bb 60d5 e93c 239c 0abd 4217 203d
00000170: 44fa 91bc e15b 82bd 09f8 8a3c c78c 363b
00000180: 6687 3cbd 82d0 553c 1de5 60bd f394 20be
00000190: e98b 02bd a0d0 41bd a070 a8bd cbaa b03c
000001a0: 3785 bf3b 0ce4 513d 043e 2b3c f8d6 8c3d
000001b0: c905 68bd f475 523d c6f4 f83c 84a3 c43c
000001c0: 9a41 683d ff09 51bd d18c 02bd 5239 9d3c
000001d0: 9a82 963b f99c 0a3a d822 adbd ee37 a7bc
000001e0: caf4 5ebd ed2a 633c fda4 40bc b975 6b3d
000001f0: b9fa 843d 6f7b 4dba b2c2 1e3d 473b 19bd
00000200: 6491 f9bc a40b 2fbd 4743 983d cfd0 3a3d
00000210: 3721 03bd 5739 753c 1f49 583d 31b5 8bbc
00000220: fc97 ccbc ed06 d33c cbcb b1bb 5769 31bd
00000230: 088d e3bb db05 dbbd 4978 a83d ab50 22bd
00000240: 1b30 03bd 7b89 0e3d 4eb9 90bc 2910 0abe
00000250: 0a51 9ebd 88e7 7f3c c5ab cb3d bb79 df3a
00000260: dd07 f23c 655c e8bd 87da 263c 290a f13b
00000270: 2419 d6bc 642d 9b3c 313f b7bc 8b44 98bb
00000280: b242 09bd d4d9 1fbd a596 b4bd 687c 1c3d
00000290: a6ab 5bbd df12 59bd cc73 353c 3bfa 943d
000002a0: 2310 f63c 786b a73d 0613 643d e12f 53bd
000002b0: e467 843d eea3 29bd 78bb bcbc a87e 173d
000002c0: 6c1c 003d e94b f4bc 3a0a 2d3d 203f 933c
000002d0: 2aa9 70bd 68c3 2e3d 9e9c 043d 922f 3d3d
000002e0: 988d dcbb b2ec 283c 1cb0 883c 78f1 11bd
000002f0: be5a 873d 3a41 aabc f422 dbbc 308c 5fbd
00000300: 6435 3cbc 683b 06bd bcf6 53be deb4 98bd
00000310: 1b95 583d 6ab3 b63c b4da 6b3d bd7c 4b3c
00000320: 6d0c 5dbc 1ecd 173e ae25 073d 2997 c1bc
00000330: 1346 053e 90c2 6b3d 19ac 7ebc 26a0 b43b
00000340: 46b1 863d 395f 993d 307f cdbc f9a3 cdbc
00000350: a5ec d83c 6685 943d 626f 503d 0a6b 3b3e
00000360: 9323 5bbc bbdd 81bb 020e 463d ad7f 13bd
00000370: d789 0abc 096a a13d c560 573d 9006 953b
00000380: b460 c43c ff82 45bd 0968 85bb c045 4f3d
00000390: 95dd ddbc d71f 80bd 0e36 50bb 0642 da3c
000003a0: f9be b2bc 9005 d13d ce3c da3c 6201 263d
000003b0: 4a33 bcbc a784 ddbb e561 943d fa4f 4cbd
000003c0: 01d7 c9bc 7f7c 333d 8bb2 6dbb fc53 5fbb
000003d0: 75a4 4dbd 4279 063d 2266 bc3c b132 993d
000003e0: 9176 aebd 4c4c b9bd ebf6 c6bd c4df 643d
000003f0: bc52 83bd a3b5 4e3d 42cd 44bd f0b1 c23c

encoder.6.bias f4 [32]
-0.0117656 -0.01601609 -0.041231073 -0.041522603 0.04040592 0.048021004 0.04617607 0.07689828
-0.013722182 0.02146047 0.025865117 0.074071854 0.021145504 0.03633767 -0.010276993 0.016765514
0.02770103 -0.04146511 0.036987964 0.024353074 0.039854262 0.049451496 0.079154745 -0.019056631
-0.009308148 -0.0724085 0.000702212 -0.011306929 0.031500664 -0.03566677 -0.070915885 0.06557824
00000000: 81c4 40bc 2d34 83bc eae1 28bd 9b13 2abd
00000010: ae80 253d acb1 443d 1e23 3d3d d87c 9d3d
00000020: 01d3 60bc decd af3c 15e3 d33c fcb2 973d
00000030: 5639 ad3c cfd6 143d d560 28bc d557 893c
00000040: 45ed e23c 52d7 29bd b180 173d 1980 c73c
00000050: 393e 233d a78d 4a3d e21b a23d a71c 9cbc
00000060: 3481 18bc e84a 94bd a614 383a b340 39bc
00000070: d706 013d 5217 12bd 593c 91bd e24d 863d

decoder.0.weight f4 [32, 64, 4]
-0.023828253 0.025972908 0.06455862 -0.0018956743 0.07870093 0.029281447 -0.011206477 -0.030659616
-0.036231477 0.0818506 0.0064244964 0.064090714 -0.110856734 -0.0076029035 0.02385753 -0.06881787
0.038270187 0.05447955 0.060860626 0.057613086 -0.04668672 0.03562188 -0.020050544 -0.05868069
-0.02876704 -0.015062154 -0.059080955 0.036504112 -0.011700252 0.001307359 0.0175682 -0.042982098
0.009492142 -0.055993777 9.847865e-05 -0.053506732 -0.058738414 0.066959344 0.051140457 -0.012677459
-0.037612762 0.01889939 -0.010065239 0.046645913 0.059539434 0.017068706 0.07235071 -0.012512426
0.006935473 -0.06165171 -0.05013106 0.013253856 -0.03304726 0.0786615 0.065705694 -0.04218122
-0.02443676 0.010961136 -0.04551531 0.043393973 0.005606346 -0.0033245764 0.04727522 -0.010055939
0.0159436 0.02208221 -0.038517993 0.010958133 -0.084498554 -0.05009421 0.031393148 0.062952824
0.05680797 0.041036975 0.03319244 0.03516389 0.032508332 -0.022220852 -0.016857147 0.03804835
-0.035258997 0.009773237 0.027313001 0.011343711 -0.02514123 -0.00035666648 -0.014350477 -0.024919003
0.0634004 0.026778825 0.050059605 -0.015183401 -0.07516416 -0.04033456 0.006063768 -0.034424994
-0.08935943 0.04929837 -0.0040406487 0.026553603 0.039127354 0.1003324 0.012142855 0.029283015
-0.005891312 0.042650424 -0.060519475 0.020955835 0.0121179335 0.009035298 0.01798345 -0.022159643
-0.03822879 -0.0148907965 -0.0011314208 0.032391466 -0.010894736 -0.03399337 -0.012890274 -0.015800668
0.030313415 -0.05000018 -0.0064184074 0.015226527 0.025992444 0.046084672 -0.03414505 0.01049037
-0.103514716 0.053289734 -0.00959832 -0.027743451 -0.060797784 0.06402581 -0.03267652 -0.01443889
-0.048568446 -0.030185329 0.0409793 -0.066564 0.1026868 0.04220678 0.025744423 0.054883096
0.031014046 -0.051220607 0.052488737 0.0008329069 -0.06578422 0.065671965 -0.054748062 -0.040612623
-0.0324139 -0.0006402844 -0.0063998066 -0.03400387 -0.0007429004 0.06377914 -0.011526124 0.02855671
-0.043548495 0.08696964 0.011164686 0.018914502 -0.13239199 -0.081370294 0.01856595 -0.034463443
-0.0137756625 0.05975433 0.00029124584 0.008826277 0.021569164 0.008368973 -0.004788657 0.045958303
0.069289126 0.0069821505 0.051183496 -0.012841445 0.010290101 0.008083652 -0.030342517 -0.0707523
-0.03408528 -0.009890013 -0.016239857 -0.001963216 -0.09395678 -0.007111954 0.050175298 0.018689463
-0.02401984 0.039824974 0.0047720717 -0.03603833 0.024379393 0.03520936 -0.01494725 -0.071183875
-0.022420956 -0.04964507 -0.07529216 -0.017008776 -0.033202045 0.07530295 -0.01859509 0.02703026
-0.04776095 -0.022024376 -0.07126273 -0.06667396 0.042066652 -0.05067087 -0.029419258 0.020143446
-0.120044015 -0.015487608 0.0057835365 0.03325954 0.0070106103 -0.0003938575 0.012109589 -0.0400327
0.03955679 0.06280279 0.008094291 -0.03947105 0.055861864 -0.025122356 0.005654098 0.006586787
0.09174528 0.015813261 -0.028207358 0.032549437 0.039464694 0.051739413 0.038385343 0.032697663
-0.010677026 0.08933384 -0.019554948 -0.066149294 0.0234741 0.03951507 0.026306704 0.018288076
0.04831243 0.05357221 -0.0025443407 -0.047691483 0.017617712 -0.0066010403 0.033413526 0.052464463
00000000: 7833 c3bc 23c5 d43c 4f37 843d 4678 f8ba
00000010: f42d a13d a5df ef3c 5f9b 37bc e029 fbbc
00000020: 7567 14bd 4aa1 a73d 9584 d23b fe41 833d
00000030: db08 e3bd c721 f9bb de70 c33c 62f0 8cbd
00000040: 33c1 1c3d f325 5f3d fe48 793d b3fb 6b3d
00000050: 933a 3fbd 40e8 113d 0a41 a4bc 2a5b 70bd
00000060: dba8 ebbc 41c7 76bc dffe 71bd 5685 153d
00000070: 6ab2 3fbc b05b ab3a 30eb 8f3c ff0d 30bd
00000080: ee84 1b3c bb59 65bd 5386 ce38 e029 5bbd
00000090: b197 70bd fb21 893d a878 513d 1eb5 4fbc
000000a0: d70f 1abd e5d2 9a3c ace8 24bc c90f 3f3d
000000b0: 9fdf 733d acd3 8b3c 9c2c 943d eb00 4dbc
000000c0: f742 e33b 8186 7cbd 3a56 4dbd b426 593c
000000d0: 905c 07bd 4819 a13d b590 863d 37c6 2cbd
000000e0: 9a2f c8bc 5696 333c 436e 3abd e1bd 313d
000000f0: 70b5 b73b 23e1 59bb a9a3 413d aac1 24bc
00000100: 279c 823c c0e5 b43c 0bc5 1dbd be89 333c
00000110: 940d adbd 962f 4dbd 1a96 003d 69ed 803d
00000120: 79af 683d 6316 283d ccf4 073d 0308 103d
00000130: 7527 053d 8108 b6bc 0018 8abc 96d8 1b3d
00000140: bd6b 10bd ed1f 203c 84bf df3c f9da 393c
00000150: fbf4 cdbc f7fe bab9 431e 6bbc f022 ccbc
00000160: 12d8 813d 445f db3c 4d0b 4d3d cdc3 78bc
00000170: abef 99bd da35 25bd 93b2 c63b 3901 0dbd
00000180: 1402 b7bd 16ed 493d 6b67 84bb f186 d93c
00000190: 0144 203d 137b cd3d d3f2 463c efe2 ef3c
000001a0: e80b c1bb 36b2 2e3d 45e3 77bd 92ab ab3c
000001b0: 4c8a 463c c908 143c 0752 933c 2488 b5bc
000001c0: cb95 1cbd 87f8 73bc 2f4c 94ba eaac 043d
000001d0: d67f 32bc a23c 0bbd ba31 53bc 6770 81bc
000001e0: d753 f83c fdcc 4cbd 8151 d2bb af78 793c
000001f0: 1bee d43c 48c3 3c3d aedb 0bbd cddf 2b3c
00000200: 86ff d3bd 5646 5a3d 4642 1dbc 3c46 e3bc
00000210: 1907 79bd f71f 833d d1d7 05bd 1891 6cbc
00000220: b5ef 46bd 3947 f7bc e9d9 273d b552 88bd
00000230: 754d d23d 04e1 2c3d f8e5 d23c 19cd 603d
00000240: 2b11 fe3c b3cc 51bd 6efe 563d 7057 5a3a
00000250: e1b9 86bd 067f 863d 813f 60bd 6c59 26bd
00000260: 70c4 04bd c2d8 27ba 78b5 d1bb a447 0bbd
00000270: 34bf 42ba a39e 823d 11d8 3cbc c3ef e93c
00000280: e85f 32bd 231d b23d 16ec 363c 96f2 9a3c
00000290: c491 07be 78a5 a6bd 9f17 983c 8a29 0dbd
000002a0: 51b3 61bc f5c0 743d 5bb2 9839 179c 103c
000002b0: d1b1 b03c 041e 093c 2bea 9cbb c63e 3c3d
000002c0: 75e7 8d3d 86ca e43b c9a5 513d ed64 52bc
000002d0: d097 283c 4b71 043c df90 f8bc 95e6 90bd
000002e0: 029d 0bbd b909 22bc 7309 85bc 4da9 00bb
000002f0: 6a6c c0bd 650b e9bb 9d84 4d3d a51a 993c
00000300: 41c5 c4bc 831f 233d 0a5f 9c3b ee9c 13bd
00000310: 4bb7 c73c b137 103d 4fe5 74bc dac8 91bd
00000320: 27ac b7bc a158 4bbd c732 9abd fd55 8bbc
00000330: defe 07bd 6f38 9a3d bb54 98bc 906e dd3c
00000340: fca0 43bd 776c b4bc 32f2 91bd 5b8c 88bd
00000350: 154e 2c3d 428c 4fbd a800 f1bc de03 a53c
00000360: a3d9 f5bd bcbf 7dbc d283 bd3b 283b 083d
00000370: 43b9 e53b a97e ceb9 4c67 463c 54f9 23bd
00000380: 4d06 223d c09e 803d eb9d 043c 65ac 21bd
00000390: 69cf 643d 66cd cdbc 0346 b93b f9d5 d73b
000003a0: f3e4 bb3d d08a 813c 1e13 e7bc 8f52 053d
000003b0: bba5 213d b5ec 533d f339 1d3d fced 053d
000003c0: b1ee 2ebc a9f4 b63d b331 a0bc 4879 87bd
000003d0: c14c c03c 8eda 213d 2881 d73c e0d0 953c
000003e0: 41e3 453d 896e 5b3d f4be 26bb 2558 43bd
000003f0: 0553 903c 8a4d d8bb 9fdc 083d fae4 563d

decoder.0.bias f4 [64]
-0.02692519 -0.020107826 0.02519529 -0.008581789 0.024659397 0.039354473 -0.04606458 0.01731064
0.049611647 0.032999907 -0.0008486412 -0.035656966 -0.03292499 0.0026027032 0.04299523 -0.004653621
-0.046409 -0.006028063 0.0031307302 -0.036613375 -0.056186136 -0.032875642 0.013485399 0.022602024
0.018065196 -0.03425258 -0.04263324 0.0068683946 0.03939199 0.023858408 -0.023158146 0.008205673
-0.012096779 -0.028819624 -0.0011052932 -0.0015026799 -0.044953033 0.0045267693 0.043438945 -0.04254331
0.0050990526 0.039750997 0.060682345 -0.0209723 -0.003720602 0.019391323 -0.042950284 0.027523346
0.04439258 0.008194105 0.007728056 -0.0075390358 0.049470056 -0.053177398 0.038672473 -0.045610394
0.020801391 -0.053447083 0.020936524 -0.05001476 0.03500967 -0.05448658 -0.034662206 0.0047165547
00000000: 3792 dcbc 2bb9 a4bc 5a66 ce3c a29a 0cbc
00000010: 8102 ca3c 2832 213d 37ae 3cbd 0bcf 8d3c
00000020: 9535 4b3d e92a 073d 5977 5eba 0a0d 12bd
00000030: 5bdc 06bd 1d92 2a3b c41b 303d 677d 98bb
00000040: 5d17 3ebd 0f87 c5bb f02c 4d3b e8f7 15bd
00000050: 6f23 66bd 9ca8 06bd ddf1 5c3c e127 b93c
00000060: 76fd 933c 6f4c 0cbd 31a0 2ebd 4510 e13b
00000070: 7f59 213d b572 c33c 27b6 bdbc 1671 063c
00000080: 9231 46bc 2217 ecbc 7cdf 90ba 92f5 c4ba
00000090: ac20 38bd 4b55 943b 09ed 313d e541 2ebd
000000a0: f415 a73b f1d1 223d 0d8e 783d 1ace abbc
000000b0: 58d5 73bb 8dda 9e3c a3ec 2fbd a478 e13c
000000c0: fed4 353d 9140 063c a23b fd3b 040a f7bb
000000d0: 1da1 4a3d 8bd0 59bd 0767 1e3d f7d1 3abd
000000e0: ae67 aa3c 54eb 5abd 1383 ab3c 47dc 4cbd
000000f0: 4d66 0f3d 522d 5fbd f5f9 0dbd 548d 9a3b

decoder.2.weight f4 [64, 128, 4]
-0.011096332 0.017693346 0.03643387 -0.018582238 -0.0015321729 -0.032405976 0.042277407 0.03225107
0.02155996 -0.01813753 -0.04859733 0.00197312 -0.027435841 -0.03551354 -0.041986078 0.03931176
-0.012626228 -0.031754993 0.011906956 0.002892352 -0.014070079 -0.033300474 0.010502915 0.026563602
0.012515371 -0.017192988 -0.028544247 -0.03601745 -0.003148158 -0.009238142 0.034684695 -0.0052241324
0.035227817 0.008658512 0.0070638647 -0.030381579 0.043362975 -0.03140485 0.00225578 -0.014067965
0.009983105 -0.013020205 -0.0059879813 0.028835978 0.0057950686 0.03961694 0.037873443 -0.026710408
-0.022103662 -0.03642681 -0.031928252 -0.02171915 0.0037004454 -0.0096980855 0.016373565 0.011308311
0.00018173023 0.015179546 -0.009108554 0.035000946 -0.036726553 0.049826846 0.025137002 -0.038665965
0.005271682 0.03629313 0.034475055 0.014130209 0.016612224 0.036444593 -0.03874036 0.018358368
-0.021144377 -0.013794177 0.03697176 -0.040379312 -0.03891056 0.02475416 0.012740394 0.02430798
0.033506352 0.03846646 0.026563708 -0.032987952 0.012272159 0.006727964 0.009037293 -0.03623008
0.0099403085 -0.0038902967 -0.0028297452 0.04047709 -0.03807472 -0.035155132 0.01680969 -0.026826972
-0.020016085 -0.007030633 -0.0030918529 -0.0064704227 0.004087391 0.008416265 -0.0446886 0.043139044
0.037819263 0.037136324 0.01055595 0.04041412 0.04093969 0.008082829 0.0035653682 -0.0027579868
0.036806393 0.016887246 -0.030270742 0.030085366 -0.025153903 -0.035929438 0.007953344 -0.018231437
-0.017407287 0.016451929 0.015336509 -0.00097596337 -0.005847324 0.022965947 0.0384406 -0.03498494
0.028025186 -0.043730434 -0.029047921 0.009522002 0.029917456 -0.00015371837 0.045801554 -0.00802466
-0.040380005 0.00014109776 0.026897041 0.031256597 0.04258314 0.014839875 -0.012962372 -0.039719902
-0.03614225 0.011386826 0.004948539 0.01669077 -0.04299965 0.009893202 -0.022955716 0.0052474644
0.015022178 -0.03957028 -0.023564998 0.009009758 -0.007886447 -0.047119156 0.0068834857 -0.008112758
-0.007752272 0.039314434 -0.0068456675 0.03559188 0.031576276 -0.016819064 0.04148559 -0.0047305743
0.035457302 -0.02089597 -0.011551156 -0.0048716343 0.017254487 0.002265621 0.033899207 -0.044586245
-0.050222863 0.010516713 -0.053825676 0.0071911747 -0.01589035 -0.012438911 -0.017648356 0.033936627
-0.009347251 0.016149009 -0.036578976 0.019030787 -0.013942401 0.0007820518 0.006990526 0.02558305
-0.05994121 0.0015964761 -0.006185564 0.026627878 -0.02930023 0.032986734 -0.005996435 0.032287497
-0.011358358 -0.01937145 0.0022582714 -0.035689015 -0.03014549 -0.052366342 0.034852475 -0.01726639
-0.010549362 -0.0066789305 -0.03953318 -0.0051496318 0.011645129 -0.021346323 -0.008908368 0.04270068
0.015263443 0.039995626 -0.054462917 -0.021173455 -0.034701623 -0.02049757 0.023558987 -0.03400489
-0.041480176 0.03767871 0.007954654 -0.020489177 0.019928023 -0.04814219 -0.03650659 0.02199772
-0.021473346 -0.026235778 0.009419245 0.01517893 0.03737286 0.032403447 0.037501298 -0.013492374
-0.027938189 0.005720197 0.010537055 -0.03290071 -0.014732746 0.038886905 0.017054483 0.025556693
0.018663255 0.029568393 -0.027568145 -0.016307458 0.023624437 0.034065418 0.007347649 -0.00047794974
00000000: 64cd 35bc a3f1 903c af3b 153d c739 98bc
00000010: 31d3 c8ba 21bc 04bd 132b 2d3d b319 043d
00000020: 839e b03c 2895 94bc fe0d 47bd 764f 013b
00000030: 21c1 e0bc a576 11bd 98f9 2bbd 5e05 213d
00000040: 3dde 4ebc 8611 02bd 6515 433c 9d8d 3d3b
00000050: 3086 66bc 1466 08bd 6b14 2c3c e99b d93c
00000060: 450d 4d3c 4fd8 8cbc a0d5 e9bc 0987 13bd
00000070: 5451 4ebb 935b 17bc 8a11 0e3d 332f abbb
00000080: 0b4b 103d 6edc 0d3c fe77 e73b cae2 f8bc
00000090: 609d 313d 5fa2 00bd b5d5 133b 527d 66bc
000000a0: 2d90 233c b352 55bc d436 c4bb 6e39 ec3c
000000b0: 8fe4 bd3b 5f45 223d 2f21 1b3d c9cf dabc
000000c0: bd12 b5bc 4734 15bd 33c7 02bd 5cec b1bc
000000d0: 2c83 723b b8e4 1ebc db21 863c 7e46 393c
000000e0: d68e 3e39 a1b3 783c 0b3c 15bc 275d 0f3d
000000f0: 956e 16bd 3c17 4c3d 1dec cd3c 3460 1ebd
00000100: 13be ac3b 1ba8 143d b735 0d3d 6482 673c
00000110: 5c16 883c ed46 153d 36ae 1ebd 4a64 963c
00000120: f936 adbc f900 62bc b36f 173d c764 25bd
00000130: ae60 1fbd 3cc9 ca3c 16bd 503c 8721 c73c
00000140: f53d 093d 028f 1d3d 229c d93c 601e 07bd
00000150: 2a11 493c 4176 dc3b 2711 143c fe65 14bd
00000160: addc 223c 59f4 7ebb 3f73 39bb 4ecb 253d
00000170: 3df4 1bbd d4fe 0fbd 7ab4 893c 3dc4 dbbc
00000180: c6f8 a3bc 3961 e6bb afa0 4abb d705 d4bb
00000190: 85ef 853b 60e4 093c 650b 37bd 91b2 303d
000001a0: 5fe8 1a3d 421c 183d ddf2 2c3c 4789 253d
000001b0: 60b0 273d d86d 043c f4a8 693b 57bf 34bb
000001c0: 4dc2 163d 1f57 8a3c 59fa f7bc 9675 f63c
000001d0: 8f0f cebc bf2a 13bd be4e 023c 185a 95bc
000001e0: ba99 8ebc 32c6 863c fb45 7b3c cbd7 7fba
000001f0: e99a bfbb 1523 bc3c e473 1d3d 5e4c 0fbd
00000200: 1395 e53c af1e 33bd e8f5 edbc 2c02 1c3c
00000210: 7415 f53c 762f 21b9 699a 3b3d dd79 03bc
00000220: 8165 25bd a4f3 1339 2f57 dc3c eb06 003d
00000230: a96b 2e3d f222 733c 2160 54bc 56b1 22bd
00000240: e509 14bd cf8f 3a3c 5b27 a23b 15bb 883c
00000250: 6720 30bd 1917 223c a00d bcbc ecf2 ab3b
00000260: 951f 763c 7214 22bd 620b c1bc aa9d 133c
00000270: 2836 01bc 0400 41bd dd8e e13b 60eb 04bc
00000280: c506 febb 2c08 213d 9f51 e0bb cbc8 113d
00000290: 2056 013d 22c8 89bc cbec 293d ef02 9bbb
000002a0: ad3b 113d 062e abbc 0f41 3dbc 3ba2 9fbb
000002b0: 4859 8d3c d07a 143b e5d9 0a3d 11a0 36bd
000002c0: 7db6 4dbd 4b4e 2c3c 5078 5cbd f2a3 eb3b
000002d0: 7b2c 82bc 93cc 4bbc 4993 90bc 2201 0b3d
000002e0: 3625 19bc ed4a 843c d6d3 15bd 74e6 9b3c
000002f0: ab6e 64bc 9c02 4d3a c810 e53b 8b93 d13c
00000300: ea84 75bd d940 d13a 46b0 cabb b522 da3c
00000310: 0907 f0bc 191d 073d be7d c4bb e53f 043d
00000320: 6818 3abc e0b0 9ebc 82ff 133b a52e 12bd
00000330: adf3 f6bc 177e 56bd 78c1 0e3d 3f72 8dbc
00000340: 3bd7 2cbc eeda dabb 8bed 21bd 3ebe a8bb
00000350: 36cb 3e3c 7cde aebc 67f4 11bc e9e6 2e3d
00000360: 8513 7a3c 74d2 233d 8214 5fbd f473 adbc
00000370: 4a23 0ebd 85ea a7bc c7fe c03c b648 0bbd
00000380: 1ee7 29bd fe54 1a3d 3d54 023c ebd8 a7bc
00000390: 1840 a33c bf30 45bd ef87 15bd 9034 b43c
000003a0: dfe8 afbc 6aec d6bc 2d53 1a3c 0cb1 783c
000003b0: 4914 193d 7ab9 043d f69a 193d 1e0f 5dbc
000003c0: a1de e4bc 7e70 bb3b 9da3 2c3c e5c2 06bd
000003d0: 9e61 71bc e047 1f3d d8b5 8b3c 455c d13c
000003e0: afe3 983c 6a39 f23c 97d6 e1bc 3897 85bc
000003f0: 0988 c13c 2e88 0b3d 8cc4 f03b 5495 fab9

decoder.2.bias f4 [128]
0.048303135 -0.00890476 -0.042738486 -0.030182425 0.016219622 0.01635239 0.040853385 -0.03420884
0.019676408 0.030522909 -0.023810644 -0.028360894 0.0259166 -0.030437993 0.01725826 0.03332847
-0.010368255 -0.03987857 -0.010459423 0.019257639 -0.02937056 0.027611682 -0.0093815215 0.035315674
-0.03445613 0.014999493 -0.031544834 0.036167864 0.021433739 0.0011729107 -0.027138203 -0.02658967
0.018087903 -1.5215901e-05 0.038899556 -0.018937776 -0.018584054 -0.008216715 -0.037052147 -0.0054090144
-0.034846812 0.02426365 0.01785338 -0.0044633225 -0.0037932564 0.014298275 0.029317575 -0.044760827
-7.415576e-05 -0.005333471 -0.037790563 0.006756383 0.0027607135 -0.02760751 0.0010180887 -0.04502486
0.028115934 0.03638377 0.035681 0.00092093047 0.012820463 -0.04980899 -0.050046243 -0.013570028
-0.019046089 0.009358073 0.005677225 0.0001657937 0.013628467 -0.021305587 0.0057011894 0.025780642
-0.030282196 0.026548015 0.013491653 -0.0135173155 -0.034465205 0.0387734 0.0232513 0.0069497554
-0.013642964 0.011547495 0.013512031 -0.005137424 0.018620705 -0.04099437 -0.03935273 0.032691218
0.039292175 -0.037811175 -0.013527743 0.010547207 -0.032791846 0.041869465 0.022044277 -0.020947086
0.007353386 0.037848834 -0.02301665 -0.029336229 -0.04136729 -0.01675891 -0.014331557 -0.0071588466
-0.002200991 0.025135987 0.04297409 -0.022400033 0.011555544 -0.015964989 0.014073028 0.022300579
-0.012641488 0.024981024 -0.055460803 0.04110054 -0.00078859425 0.025765136 -0.0023493932 -0.033202317
0.009285151 -0.03150988 0.03479797 0.009415743 0.0072588613 -0.013017606 0.036375467 -0.043972585
00000000: 82d9 453d 45e5 11bc 8d0e 2fbd 2241 f7bc
00000010: 03df 843c 73f5 853c e155 273d 921e 0cbd
00000020: 6b30 a13c 2e0b fa3c 8a0e c3bc 1b55 e8bc
00000030: 0d4f d43c 1959 f9bc 3261 8d3c 6f83 083d
00000040: 9ddf 29bc b657 23bd 005e 2bbc 32c2 9d3c
00000050: 879a f0bc e531 e23c f4b4 19bc 2ba7 103d
00000060: df21 0dbd 6fc0 753c 2835 01bd c124 143d
00000070: cf95 af3c 5abc 993a f050 debc 94d2 d9bc
00000080: 152d 943c cc47 7fb7 2455 1f3d 6523 9bbc
00000090: 963d 98bc 679f 06bc fec3 17bd 1a3e b1bb
000000a0: 88bb 0ebd 90c4 c63c 4041 923c 1041 92bb
000000b0: 4898 78bb 5043 6a3c 692b f03c 2157 37bd
000000c0: 1284 9bb8 66c4 aebb 47ca 1abd a664 dd3b
000000d0: 16ed 343b 2529 e2bc 6371 853a fd6b 38bd
000000e0: 6353 e63c 2607 153d 3e26 123d 996a 713a
000000f0: eb0c 523c 8304 4cbd 4afd 4cbd d354 5ebc
00000100: 8b06 9cbc 9a52 193c 0408 ba3b e8d8 2d39
00000110: ef49 5f3c 0e89 aebc 0bd1 ba3b ed31 d33c
00000120: 5e12 f8bc 397b d93c 180c 5d3c bb77 5dbc
00000130: 632b 0dbd dbd0 1e3d 8379 be3c c6ba e33b
00000140: bd86 5fbc b431 3d3c 9161 5d3c d657 a8bb
00000150: 738a 983c b6e9 27bd 5430 21bd 3ae7 053d
00000160: d5f0 203d e4df 1abd 77a3 5dbc 31ce 2c3c
00000170: be50 06bd 517f 2b3d 3396 b43c 3999 abbc
00000180: acf4 f03b 6107 1b3d 6a8d bcbc 8852 f0bc
00000190: bf70 29bd fb49 89bc e8ce 6abc c294 eabb
000001a0: 803e 10bb fce9 cd3c 9905 303d 4680 b7bc
000001b0: 7753 3d3c 02c9 82bc 8f92 663c b4af b63c
000001c0: 3e1e 4fbc 01a5 cc3c de2a 63bd 0a59 283d
000001d0: aab9 4eba 6811 d33c 47f8 19bb 27ff 07bd
000001e0: bf20 183c 8110 01bd 5188 0e3d 7d44 1a3c
000001f0: bedb ed3b cc47 55bc 71fe 143d 991c 34bd

decoder.4.weight f4 [128, 1, 4]
-0.43544987 0.3537463 0.49829438 0.124167465 0.26391327 -0.32414666 -0.14634997 0.006650055
0.371258 0.32435706 0.18573311 0.17383225 -0.28087103 -0.12297219 -0.37687743 0.15982471
0.38175184 0.065788925 -0.021892551 -0.4509881 -0.16793647 -0.34511515 -0.15338197 0.4153755
-0.17946754 -0.4235296 -0.019125 -0.2587513 0.29434398 0.40258765 0.10447166 -0.4330194
-0.20974563 0.09091158 0.2225305 0.058852594 0.3097411 -0.19154915 0.027417162 -0.28829768
-0.019215412 -0.46846986 -0.42257693 -0.28723693 -0.093766145 -0.46407312 -0.19029954 0.32442635
-0.0411499 -0.19984199 -0.1520576 0.4530806 0.110891216 0.2014786 -0.27489248 0.04691265
-0.11874383 0.04042505 -0.35368153 -0.24988437 0.44586512 0.045867518 0.010618977 -0.44041377
0.14237331 -0.20861484 -0.390518 -0.18048434 0.16255926 0.334754 0.061955128 -0.33457035
-0.016923133 -0.4289327 -0.30957738 -0.052244004 0.22518146 0.49449253 -0.44378123 0.21140309
-0.3969759 0.114144914 0.12715074 -0.28926674 -0.33042425 0.49570006 0.30316934 -0.049440578
-0.48528662 0.012263259 -0.0337357 -0.034057494 0.20171496 0.2557161 0.004388584 0.41561776
-0.032257464 -0.40676364 0.41050074 0.31538045 0.19555451 0.4967917 0.1157407 0.4626751
-0.037414297 -0.08437945 -0.12545797 -0.025770891 -0.07653469 0.4870204 0.007329328 0.41859794
0.25027928 -0.23929165 0.09938597 0.09795913 0.04877401 0.4883396 0.4142385 0.46810582
0.34072173 0.49456143 0.45427972 0.37083325 -0.46604764 -0.38524717 -0.27059364 0.110234216
-0.39066228 -0.29517287 0.07621242 -0.3935372 0.25605172 -0.3332004 -0.42656872 -0.48964468
0.48760498 0.14139156 -0.1690908 0.43065685 0.35734525 -0.13714066 -0.22448534 0.07254328
0.105170466 -0.42591968 -0.47488445 -0.13606122 0.17912325 0.048184082 -0.06620248 0.14982514
0.10764375 -0.316224 -0.08728178 -0.28132045 -0.3429469 0.38428977 -0.4176858 0.44741324
0.16440849 -0.08238608 0.15729575 -0.18998814 -0.18121047 0.2830397 0.397351 -0.055804346
0.41903895 0.27613828 0.39862737 -0.44459355 0.07321585 -0.44552752 0.37973133 0.014918152
0.49512932 0.27995348 0.5208491 0.3626023 -0.012367497 -0.09621939 0.23341674 -0.28209552
0.1703616 -0.41819575 -0.3421211 0.20854439 0.008285206 0.4413213 -0.24976248 -0.19434981
0.24874276 -0.43870264 -0.33802256 -0.28269795 -0.48518604 -0.29302543 0.038014423 0.09042916
0.37030604 0.18556653 0.06019863 -0.28371367 0.49399522 -0.14536461 -0.07077606 0.41338465
-0.027899714 0.20949271 -0.34625483 -0.121664576 0.09427816 0.022288134 0.38519794 -0.21695171
-0.18378888 -0.10390557 0.06697337 -0.38482454 0.24904731 0.37946838 0.26991075 -0.21690771
-0.21844041 0.07878688 0.3627818 0.42701063 0.0892592 -0.06292161 -0.2240236 0.3961187
-0.100208275 -0.2655217 -0.20875892 -0.16672036 0.32080418 0.19955842 0.089405596 0.059886888
0.033427898 0.110939294 -0.45647636 0.3141584 0.010789661 -0.14835045 0.28504872 -0.25909227
0.44958627 0.35417008 -0.14194587 -0.17197967 -0.4756463 0.2887755 0.21114603 0.0920277
00000000: 49f3 debe 3c1e b53e 7120 ff3e 834b fe3d
00000010: a41f 873e 8df6 a5be c4dc 15be b4e8 d93b
00000020: 8715 be3e 2112 a63e d230 3e3e 1501 323e
00000030: 54ce 8fbe d8d8 fbbd 14f6 c0be 17a9 233e
00000040: fa74 c33e 58bc 863d 0258 b3bc eae7 e6be
00000050: 8af7 2bbe efb2 b0be 2a10 1dbe 19ac d43e
00000060: 57c6 37be dfd8 d8be 08ac 9cbc 0d7b 84be
00000070: 41b4 963e f81f ce3e 3df5 d53d b8b4 ddbe
00000080: 8fc7 56be da2f ba3d 09df 633e 6b0f 713d
00000090: 6396 9e3e 7625 44be f599 e03c c19b 93be
000000a0: a469 9dbc 48db efbe 015c d8be b810 93be
000000b0: 7708 c0bd fe9a edbe e2dd 42be 361b a63e
000000c0: cc8c 28bd 61a3 4cbe fdb4 1bbe 2efa e73e
000000d0: ef1a e33d 6850 4e3e b5be 8cbe 7b27 403d
000000e0: f72f f3bd bd94 253d bf15 b5be b0e1 7fbe
000000f0: 6f48 e43e 94df 3b3d 38fb 2d3c ea7d e1be
00000100: 4fca 113e 219f 55be faf1 c7be e3d0 38be
00000110: ef75 263e e064 ab3e a9c4 7d3d ce4c abbe
00000120: 62a2 8abc 119d dbbe ed80 9ebe cffd 55bd
00000130: f895 663e 202e fd3e 4b37 e3be 0d7a 583e
00000140: 6d40 cbbe cfc4 e93d ce33 023e c51a 94be
00000150: 5e2d a9be 66cc fd3e 0339 9b3e 3482 4abd
00000160: 7d77 f8be d6eb 483c 722e 0abd df7f 0bbd
00000170: 5e8e 4e3e 38ed 823e 1cce 8f3b dacb d43e
00000180: 6720 04bd 5343 d0be 272d d23e 8c79 a13e
00000190: 713f 483e 7b5b fe3e 7609 ed3d c0e3 ec3e
000001a0: bc3f 19bd 22cf acbd 0e78 00be 7a1d d3bc
000001b0: 38be 9cbd bd5a f93e dc2a f03b 7852 d63e
000001c0: 9b24 803e df08 75be df8a cb3d cc9e c83d
000001d0: 42c7 473d a607 fa3e 1217 d43e 91ab ef3e
000001e0: 1473 ae3e 2837 fd3e 5a97 e83e dbdd bd3e
000001f0: cc9d eebe 1e3f c5be 408b 8abe 7ac2 e13d
00000200: e304 c8be e620 97be 4215 9c3d b57d c9be
00000210: 3619 833e 3e99 aabe 3767 dabe b5b2 fabe
00000220: 5ca7 f93e f3c8 103e 2426 2dbe 0e7f dc3e
00000230: f5f5 b63e 9a6e 0cbe 7cdf 65be 9291 943d
00000240: 9d63 d73d 2512 dabe 0e24 f3be a253 0bbe
00000250: 166c 373e ac5c 453d 2a95 87bd c36b 193e
00000260: 5474 dc3d 1de8 a1be cac0 b2bd 3c09 90be
00000270: bc96 afbe a1c1 c43e eada d5be 5913 e53e
00000280: b35a 283e 08ba a8bd 2312 213e 408c 42be
00000290: 3d8f 39be 94ea 903e 9771 cb3e 1993 64bd
000002a0: 468c d63e ff61 8d3e e318 cc3e c4a1 e3be
000002b0: 31f2 953d 2f1c e4be 256c c23e 446b 743c
000002c0: 9781 fd3e 1056 8f3e 5e56 053f 02a7 b93e
000002d0: 0ba1 4abc ac0e c5bd cc04 6f3e d36e 90be
000002e0: 4573 2e3e c11d d6be 7f2a afbe a98c 553e
000002f0: acbe 073c def4 e13e bcc1 7fbe a303 47be
00000300: 6cb6 7e3e a29d e0be 4b11 adbe c9bd 90be
00000310: 4e6a f8be 6e07 96be 03b5 1b3d ec32 b93d
00000320: c198 bd3e 2705 3e3e d792 763d eb42 91be
00000330: f1ec fc3e 76da 14be 0af3 90bd 27a7 d33e
00000340: f18d e4bc 4285 563e 5048 b1be 472b f9bd
00000350: e814 c13d 9b95 b63c aa38 c53e 9728 5ebe
00000360: 2733 3cbe 72cc d4bd 5629 893d b907 c5be
00000370: 4206 7f3e ae49 c23e be31 8a3e 0e1d 5ebe
00000380: d8ae 5fbe 045b a13d 89be b93e 23a1 da3e
00000390: 87cd b63d 0cdd 80bd 7166 65be 12d0 ca3e
000003a0: ff39 cdbd 76f2 87be e6c4 55be beb8 2abe
000003b0: 7240 a43e 0b59 4c3e 481a b73d f44b 753d
000003c0: b1eb 083d 2434 e33d 45b7 e9be 5fd9 a03e
000003d0: 1ec7 303c 2ee9 17be e8f1 913e bea7 84be
000003e0: 2c30 e63e c855 b53e 425a 11be 701b 30be
000003f0: e987 f3be 62da 933e aa36 583e 0579 bc3d
