notebooks/lightning_logs/version_0/checkpoints/epoch=0-step=1351.ckpt (torch, 27867 bytes, 30 tensors)

encoder.0.weight f4 [16, 1, 1]
000000 1e dc 68 3e c7 d2 42 bd d0 0c 0a 3e aa 2e e0 bd
       0.22740218 -0.047564294 0.1348145 -0.109464005
000010 e8 c8 e4 3e 8c a3 de 3e 9e c3 52 bf 7b 45 c7 be
       0.4468453 0.4348415 -0.8232974 -0.38920197
000020 40 8e 49 3f 8e fd 1b bf 87 19 66 bf ce de e7 bd
       0.7873268 -0.6093377 -0.898827 -0.113217935
000030 b6 44 15 3f 48 a3 8b 3f 50 30 fd 3e 80 2f 38 3d
       0.5830797 1.0909204 0.49450922 0.044967175

encoder.0.bias f4 [16]
000000 52 ab 21 3e 0d e9 64 3e d0 84 ea be 75 52 39 3f
       0.1578801 0.22354527 -0.45804453 0.72391444
000010 f0 c5 f5 be 33 5c 47 3e 84 63 e6 be ef 9a 8c 3e
       -0.48002577 0.19468765 -0.449978 0.27461955
000020 01 2b 8f 3e 58 d3 a6 be d5 77 23 3f a2 38 d4 3e
       0.27962497 -0.32583117 0.63854724 0.41449457
000030 92 26 5c bf a7 03 d7 bd 4f 6b 4f bd a8 72 fc be
       -0.85996354 -0.104987435 -0.050639447 -0.49306226

encoder.3.weight f4 [8, 16, 3]
000000 0c e6 e2 bd 9a ae 40 bd 82 d5 9f 3d 26 11 06 be
       -0.11079034 -0.047041513 0.07804395 -0.13092479
000010 e0 9f a5 3c 40 ab 0a be e6 ab ab 3d 90 46 bb 3c
       0.020217836 -0.13541889 0.083823964 0.022860795
000020 52 5f 83 3d 4d 18 a2 bd 9c fa fa 3d 9c 72 08 be
       0.06414665 -0.07914791 0.12254831 -0.1332497
000030 aa a8 d2 3d 72 b3 ca bd f0 99 b7 3c 60 dc bc bd
       0.10286076 -0.09897508 0.02241227 -0.09221721
000040 3c 0e 0d 3e 9a 25 8e bd 74 f0 1d bd 48 c8 6c 3d
       0.13774961 -0.06940766 -0.038559392 0.05780819
000050 74 f7 1b bd 16 df 3d bd e7 d8 ef bd 66 29 95 3d
       -0.038077787 -0.04635533 -0.11711293 0.07283287
000060 72 7d c9 bd e0 e7 53 3c 00 10 fe 39 50 ba 4e 3d
       -0.0983838 0.012933701 0.00048458576 0.05047065
000070 30 e9 04 3c 16 28 0a 3e d0 f4 2e 3d b4 78 b3 bd
       0.008112237 0.13491854 0.04271394 -0.08763257
000080 90 9e 06 3d 82 e6 d4 3d e8 a4 d6 bd 2b fc da bd
       0.03286606 0.103955284 -0.10480672 -0.106926285
000090 d8 c8 ff 3d c0 40 3b 3b 9c 0f 53 bd 52 85 06 bd
       0.1248948 0.002857253 -0.051528558 -0.032841988
0000a0 9a e0 3e bd 18 c7 e5 3d e4 0c 6c bd 0c b3 db 3d
       -0.046600915 0.11219615 -0.05762948 0.1072751
0000b0 52 95 ea bd f8 2e 8e 3c 00 30 96 3d b8 ae 45 bd
       -0.11454262 0.01735638 0.07333374 -0.048262328
0000c0 aa 54 0b be 03 ac 2d 3d af 9a 87 3c af 79 9c bd
       -0.13606516 0.04240037 0.016553251 -0.07640397
0000d0 a6 91 db 3d af c5 19 be b3 fe 07 be 75 c0 d8 bd
       0.107211396 -0.15016817 -0.13280754 -0.10583583
0000e0 c0 15 9a 3c 19 9a fc bc 34 e1 c3 3d 91 06 07 be
       0.0188092 -0.030835198 0.095644385 -0.13186099
0000f0 fe 6d c6 bd 7c 3e 0b 3d 60 0f f7 bb 90 93 11 be
       -0.09688948 0.033995137 -0.0075396746 -0.14216447
000100 d0 ca 60 3d 8e 6f b3 3c bc e7 bd 3d 7e ab ab 3d
       0.054880917 0.02190378 0.092727154 0.08382319
000110 b2 c1 c6 3d 39 1c 37 3c e3 0b 7f 3d 72 07 d6 bc
       0.09704913 0.011176162 0.062267195 -0.026126597
000120 83 19 05 bd 5b fc 9f 3d a6 a9 b9 3d 7c 57 5d bd
       -0.032495033 0.07811805 0.09065561 -0.05403851
000130 76 bb 9a 3d c4 39 5d 3d 05 36 44 be f7 cf c7 3a
       0.075552866 0.054010168 -0.19161232 0.0015244473
000140 38 c9 6b be f3 6d 8c bd d9 15 b0 3d 24 b9 03 bd
       -0.23025978 -0.06856909 0.08597917 -0.032158986
000150 4f 33 d1 bd 70 0b 8f 3c dc 47 32 bd 22 f4 ef 3d
       -0.102148645 0.017461509 -0.04352556 0.117164865
000160 8d 79 6d 3e eb d2 a8 3c 44 dd 17 bd 30 bc fb 3d
       0.23190899 0.020608386 -0.03707625 0.12291753
000170 1a 3c eb 3d c2 48 2b bd 94 cc c9 3d 49 4f a3 bd
       0.11486073 -0.041817434 0.09853473 -0.07974107
000180 40 11 e9 bd 16 c1 7a bd 69 ef ca bd 44 31 11 3e
       -0.11380243 -0.061219297 -0.09908945 0.1417895
000190 6a 14 00 be 50 8f 33 3d 5e f1 a5 bd 80 b4 b7 bd
       -0.12507787 0.043837845 -0.08102678 -0.089699745
0001a0 d8 58 4d bd 08 bc 83 bd 68 82 ed 3c 50 93 bd 3c
       -0.050133556 -0.064323485 0.028992847 0.023141533
0001b0 62 31 e5 bd 58 24 e0 3c 3f ac ad bd 08 8f 43 bd
       -0.1119106 0.02736108 -0.08480119 -0.047743827
0001c0 12 73 dd bd 8c e4 64 3d b4 22 51 bd 9a 4f 01 be
       -0.108129635 0.05588202 -0.051058486 -0.12628022
0001d0 f8 13 dc 3d 3c d1 31 bd 00 e1 c9 ba bc e6 41 bd
       0.10745996 -0.043412432 -0.0015402138 -0.047339186
0001e0 80 4a cf bc 51 2c ea bd 11 96 00 be e8 be 0b 3d
       -0.025304079 -0.11434234 -0.12557246 0.03411761
0001f0 2a 94 51 bd c6 40 aa bd 5a b4 b4 bd 8c 30 f4 bd
       -0.05116669 -0.08313136 -0.08823462 -0.11923322
000200 50 0b bc bc 2e 0a 1d bd 54 7f e2 3d 44 30 90 3d
       -0.022954613 -0.038339786 0.11059442 0.07040456
000210 ac f4 bb 3d c0 fe 27 bc 1c 29 2f 3d 82 34 87 3d
       0.09177527 -0.010253608 0.042763814 0.06601812
000220 1c 72 a9 bd ac 87 8d 3d 6a 4b c9 bd f6 51 b3 bd
       -0.08273718 0.06910643 -0.09828837 -0.08755867
000230 a3 5a b4 bd 00 5d 1f 3c 28 9b 79 bd a2 24 bf 3d
       -0.0880635 0.009726763 -0.060938984 0.09333159
000240 86 f9 06 3d e0 6c 99 3d 93 7c 09 bd 22 f4 f3 3d
       0.032952808 0.074914694 -0.03356607 0.11911799
000250 59 81 9b bd 06 14 f1 bd 91 3e d2 bd 30 38 e0 3d
       -0.075930305 -0.11771397 -0.1026584 0.10948217
000260 bc b6 be 3d f1 6a d1 bc 60 c3 12 bd 83 d7 30 3d
       0.093121976 -0.025563689 -0.035830855 0.043174278
000270 e8 19 3f 3d 96 1a 0a 3e 78 37 eb 3c 4b 06 2a 3e
       0.046655566 0.13486704 0.028712973 0.16603963
000280 ca c2 ef 3c ff 09 ee bc 9e ec cd 3d 90 d2 04 3c
       0.029267687 -0.0290575 0.10054897 0.008106843
000290 ae e7 0b 3e a1 23 73 be 97 59 7b be 6f 09 5b be
       0.13662598 -0.2374406 -0.24545895 -0.21390317
0002a0 65 f0 a5 3d a4 d7 20 3e a0 44 ad 3d 28 60 73 bd
       0.08102492 0.1570726 0.08460355 -0.059417874
0002b0 50 e7 da 3d 80 94 33 3c a0 d6 e9 bd fb 0e 21 be
       0.106886506 0.010960698 -0.114178896 -0.15728371
0002c0 f2 27 e9 3c 3b fa 1a 3d 51 d3 28 3d a2 a1 12 bb
       0.02846143 0.037836295 0.041217152 -0.0022374173
0002d0 62 01 ce 3d e2 f0 03 bd ac d0 ab 3d f5 de 4b 3e
       0.100588575 -0.032212146 0.083894104 0.1990927
0002e0 2a ce 4b 3d 31 dd 44 3e 9c 84 9c 3e 5e 60 68 3e
       0.04975716 0.19225003 0.30569923 0.22693011
0002f0 86 89 5a 3e 94 f4 39 3d b0 d0 86 3d da 55 70 bd
       0.21341524 0.045399264 0.06582773 -0.058675624
000300 c6 e1 a1 bd 80 1b 22 bd f7 3e ba 3c 70 b4 0d be
       -0.07904391 -0.039577007 0.022735102 -0.13838363
000310 86 7a 62 bd 1f c3 aa bc 9c 26 25 3d 96 62 53 bd
       -0.05529263 -0.020844994 0.040320024 -0.05160769
000320 aa 94 b5 3d a3 a4 9d bd 49 45 bd 3c f9 35 91 3d
       0.08866246 -0.076974176 0.023104327 0.070903726
000330 ac 57 59 3d 22 f8 b1 3d 20 46 7c bc 5c d0 c6 3d
       0.053062126 0.08689906 -0.0153975785 0.0970771
000340 b7 ba 8a bc fd 3c 13 3d 0c 39 0b 3d 00 92 64 3c
       -0.016934736 0.035946835 0.03398995 0.013950825
000350 00 55 09 3c 76 6a cb 3c 09 2c 7b be 77 ee 6b bd
       0.008382082 0.024831038 -0.24528517 -0.057600465
000360 bb 19 31 3e 06 9e fd 3d af 67 a3 bd d8 44 c8 3d
       0.17294972 0.12383656 -0.079787605 0.09778756
000370 28 f2 a6 bd 38 2a 93 bc 36 c4 8b bd 6b 6c 01 bd
       -0.081516564 -0.017964467 -0.06824534 -0.031597536
000380 98 14 4b bd f7 bb ff bd 08 36 b9 bc bb a0 da 3d
       -0.049580187 -0.12487023 -0.022608772 0.10675188
000390 4f bc d9 bd 50 03 11 bc 00 da 0c 3a eb 17 69 3e
       -0.1063162 -0.008850887 0.00053730607 0.2276303
0003a0 53 b6 9f 3e 11 ea c6 3d 5f da f3 3d a4 0e 70 3e
       0.3119379 0.097126134 0.11906885 0.23443085
0003b0 f8 a2 81 ba dc 5b f2 3d a6 90 cd 3d 46 06 74 bd
       -0.0009890487 0.11833927 0.10037355 -0.059576295
0003c0 6e 50 42 bd 5c 51 d0 3d 00 58 37 b9 06 e2 40 bd
       -0.047439985 0.10171768 -0.00017485023 -0.047090553
0003d0 1c 01 c8 bd cc e9 b3 bc c8 c5 e3 bc 20 f1 95 3c
       -0.097658366 -0.021962069 -0.02780427 0.018303454
0003e0 f8 82 2d bd 58 ea e6 3d 2f 45 0b be 74 e2 f5 bd
       -0.04236123 0.11275166 -0.1360061 -0.12006083
0003f0 54 5d d4 bc 9c c4 01 bd 28 e5 b3 bd 90 72 bc 3c
       -0.025923409 -0.031681642 -0.087839425 0.023003846

encoder.3.bias f4 [8]
000000 2e ad b3 bd 9a 79 cf bc 20 cf c3 3c 3e 29 ef 3d
       -0.08773266 -0.025326539 0.023902476 0.11677788
000010 42 e4 00 3e 80 6a eb 3c 89 b7 ab 3d 3a 60 27 bd
       0.12587073 0.028737307 0.08384616 -0.040863253

decoder.0.weight f4 [8, 8, 3]
000000 88 5f 83 bc 49 af b4 bd d0 c1 73 3d 51 b2 c8 3d
       -0.016036764 -0.088224955 0.059511006 0.09799636
000010 16 26 87 3e c5 05 9a 3c 2d ad ba bd 97 45 16 be
       0.26396245 0.01880158 -0.09115062 -0.14674984
000020 a4 f9 2e be f1 a2 35 be 8f ea d9 3d 72 35 35 3e
       -0.17087418 -0.17737938 0.106404416 0.17696169
000030 e5 f8 17 be bc 61 aa 3e 8e 93 52 3c 50 46 d5 bd
       -0.1484104 0.3327769 0.012852563 -0.10413802
000040 20 2d d9 3d c0 c4 44 bc 57 b9 12 3e f9 69 98 3e
       0.1060431 -0.0120097995 0.14328514 0.2976835
000050 89 79 f1 3d a9 78 47 be 10 87 eb 3c 78 d3 17 3e
       0.11790759 -0.19479622 0.028750926 0.14826763
000060 62 83 11 be 01 b2 bd bd f7 55 de bd d3 ad 84 3e
       -0.14210275 -0.09262467 -0.1085624 0.25913867
000070 c2 0b 0a be 9c 2f 49 3e 36 36 11 be 92 b3 12 3e
       -0.13481048 0.19647068 -0.14180836 0.14326313
000080 d0 1b 97 bc 77 5c 07 be de 48 b7 bd 6e 66 e6 bc
       -0.01844588 -0.13218866 -0.08949445 -0.028125014
000090 63 77 ad 3b 5d 25 4d be 46 a1 14 3e e6 20 27 be
       0.005293773 -0.20033784 0.14514646 -0.16321144
0000a0 4a 5b 4a 3e f4 dd 41 3e 2e c6 ed bd 4e 65 31 3d
       0.19761387 0.18932325 -0.116100654 0.043309502
0000b0 c0 b0 7e 3e ec 34 e5 3d 92 59 3f 3e e2 40 08 be
       0.24872112 0.11191735 0.18686512 -0.13306001
0000c0 22 26 14 be 18 2d ce 3c e0 27 c0 3c dd aa 04 bc
       -0.14467672 0.025167987 0.023456514 -0.008097378
0000d0 a9 1c be bb 85 13 9b bd 40 63 3c bb 80 93 04 3e
       -0.0058017564 -0.075720824 -0.002874568 0.12946892
0000e0 e0 b5 a2 3c 7c 45 a0 bd 29 1f f3 bd fd 0b c8 bc
       0.019862115 -0.07825753 -0.11871178 -0.024419779
0000f0 d6 81 1d 3c a0 a9 8a 3c cd 05 4d bd 82 2a 03 be
       0.009613475 0.016926587 -0.05005436 -0.12809184
000100 28 74 13 be 40 92 94 3d 24 e5 76 3e 68 d2 25 be
       -0.14399779 0.072544575 0.24110848 -0.16193545
000110 2b 68 a3 bd 67 21 cd bd 4c d2 97 bd 5e d8 4e 3e
       -0.07978853 -0.100161366 -0.07413158 0.20199725
000120 da 4d 1b 3e f0 18 4c be b9 dd 0e be 77 5d 2e 3e
       0.15166417 -0.19931388 -0.13951768 0.17027842
000130 53 0f 9d 3e c6 80 f5 3c 2f 0a 45 be be 73 50 be
       0.30675754 0.02996863 -0.19242166 -0.20356652
000140 50 09 04 3e bb 22 03 3d 82 a8 a3 3e 6f 02 f3 3d
       0.12894177 0.032015543 0.319645 0.118656985
000150 df d4 12 3d 91 7b d0 3d a3 ac 39 3b a2 d4 38 3e
       0.03584754 0.101798184 0.002833166 0.18049863
000160 1e 0d 13 3e 60 62 a5 3d d1 06 e3 3d 2d a9 a4 3d
       0.14360473 0.08075404 0.110852845 0.0804008
000170 e3 d0 de bd bc 67 16 be 0c a4 3c 3e 28 99 3b bd
       -0.10879686 -0.14688009 0.18421954 -0.045800358
000180 e0 b6 21 3e 0e a1 0a be 6a a5 05 be 4d 2c 21 3e
       0.15792418 -0.13538 -0.13051382 0.15739556
000190 e0 73 1f 3e 47 64 64 bd 38 ac 81 3d 84 9a ef bd
       0.15571547 -0.055759694 0.06331676 -0.116993934
0001a0 16 ca 28 3e 36 ed 40 3e 12 85 00 3e 68 96 4c be
       0.1648334 0.18840489 0.12550762 -0.1997925
0001b0 d3 15 3c 3d f9 b3 86 3e 58 40 8f 3c 10 5f b1 3d
       0.04591925 0.26309183 0.017486736 0.0866071
0001c0 e0 6f 88 bb 18 c7 26 bd d7 f6 f7 3d b9 66 17 3e
       -0.004163727 -0.040717214 0.12107628 0.1478528
0001d0 72 48 97 bd 20 01 2c 3c c0 f7 9e bd bc 51 cd 3d
       -0.07386865 0.010498315 -0.07762098 0.10025355
0001e0 d0 d4 09 3c 34 cd 05 3e b8 0a 13 3d 63 e3 1c be
       0.008412555 0.1306656 0.035898894 -0.15321116
0001f0 88 9e 34 3d 90 ed 0f 3c e4 cd b0 bd 98 f5 b9 3d
       0.0440965 0.008784667 -0.086330205 0.090800464
000200 58 c1 a7 3d 08 43 15 be c8 54 1e bd 70 36 01 be
       0.08191174 -0.14576352 -0.038655072 -0.12618423
000210 7c 4c 2d be bc 32 e2 3d 20 08 23 3d 7c 13 d7 3d
       -0.16923708 0.11044833 0.03980267 0.10501763
000220 ea a9 26 3e c8 f7 2a 3e 80 1d 1b bd e0 56 30 3c
       0.16275755 0.16696084 -0.03786993 0.0107629
000230 68 16 00 be c1 1b 1e be b0 91 3f be 7f 0d c0 bd
       -0.12508547 -0.15440275 -0.18707919 -0.09377574
000240 00 77 a0 3d c4 62 cb 3d 1c b1 00 3e 53 16 13 bd
       0.078351974 0.099309474 0.12567562 -0.035909962
000250 df 97 cf 3d fc b2 08 bd 00 57 2f 3e 10 82 ee 3d
       0.10136389 -0.033373818 0.17123032 0.11645901
000260 0a ea 4a 3e ba 3e cc 3d 5a 5b 08 3e f6 36 3e 3e
       0.19815841 0.09972902 0.13316098 0.18575653
000270 d9 28 5e bd db 8a 4a 3e b4 52 ec 3d 56 e4 0e 3e
       -0.054238174 0.19779532 0.11539212 0.13954291
000280 70 15 cb bc 58 08 82 3d d4 64 22 3e 99 dc 1d be
       -0.024790496 0.06349248 0.15858775 -0.15416183
000290 ae bb 3b 3e 40 88 0d be 4c 37 22 be a4 6b c5 3d
       0.18333313 -0.13821507 -0.15841407 0.096396714
0002a0 70 78 40 3c 93 41 c9 bd e1 b0 b5 bd c8 ea 26 bd
       0.011747465 -0.098269604 -0.088716276 -0.04075125
0002b0 65 74 c7 bd 00 a7 11 be 02 81 13 be 80 1d 28 be
       -0.09738997 -0.14223862 -0.14404681 -0.16417503
0002c0 42 29 30 3e 12 fb 2a be 25 dd 04 be 9a 1b 4c 3e
       0.17203239 -0.16697338 -0.12974985 0.19932404
0002d0 e8 50 3f 3d d0 71 77 3d bc 11 34 bd ab 98 16 be
       0.046708018 0.060411274 -0.043962225 -0.14706676
0002e0 ec f4 67 bd 0f fd dd bd 58 e7 a1 3d d0 5a 13 3d
       -0.05663006 -0.10839283 0.079054534 0.035975277
0002f0 f8 bc 21 be 68 8e c7 3c e0 24 24 3e 64 74 9e 3d
       -0.15794742 0.024359897 0.16029692 0.077370435

decoder.0.bias f4 [8]
000000 0d 55 b6 bd 12 f9 d2 3d 75 4c 03 3e 9a a6 1e 3e
       -0.08902941 0.10301413 0.12822135 0.15493241
000010 ac 9e e0 3d 84 63 39 be 49 69 3d 3c 4e 0a 48 be
       0.10967764 -0.18104368 0.0115607465 -0.19535181

decoder.3.weight f4 [16, 8, 3]
000000 b0 6b e4 3d 1d 1e be bd 6a 09 db bd ac 54 dc 3d
       0.11153352 -0.092830874 -0.10695155 0.107583374
000010 bf 10 9d bd 36 f5 aa bd d0 4e f7 3d bf 7f a0 bc
       -0.0766921 -0.083475515 0.12075579 -0.019592164
000020 b3 e3 64 bd bf bb 21 3e c1 02 93 3c ce 0d de 3d
       -0.055881213 0.15794276 0.01794565 0.10842477
000030 95 bb 36 be f1 dc d1 3d f7 db f2 3d 84 f7 3a bd
       -0.17844994 0.10247219 0.11858361 -0.045646206
000040 04 9a fb 3d d8 d8 7b bd c9 34 dc bd 5b 5a 0a bc
       0.122852355 -0.061486095 -0.107522555 -0.008444394
000050 f6 41 9e bd 1c ac 0e 3e 90 b5 34 3c 0c 73 4d 3e
       -0.07727425 0.13932842 0.011029616 0.20063418
000060 bf 68 d5 bc 7f 31 6d 3e 8d 95 86 bd 34 56 48 be
       -0.026050923 0.23163413 -0.06571493 -0.19564134
000070 97 60 94 be cd e2 71 bd 72 d4 9a bd 5c 5c 8d be
       -0.28979942 -0.059054185 -0.07560052 -0.27609527
000080 e4 a6 90 be fe b5 03 be c7 64 7d bd 67 86 21 bd
       -0.28252327 -0.12862393 -0.061863687 -0.039434817
000090 73 1a c4 3d ef 80 e0 3b 70 2f 22 3e a0 39 23 3d
       0.09575357 0.0068513076 0.15838408 0.039849877
0000a0 f8 45 60 bd 14 eb 07 3e 8e ff fb bc 08 ee 66 3e
       -0.054754227 0.13273269 -0.030761506 0.22551739
0000b0 0a 5b 80 3d 6b c9 e9 bd 60 f0 b8 bb 0c 15 46 be
       0.06267364 -0.114153706 -0.0056438893 -0.19343966
0000c0 3e 77 29 be d3 dc 44 be 00 10 53 bb f7 ca e1 3b
       -0.16549394 -0.19224863 -0.0032205582 0.0068906504
0000d0 c1 5d fd 3c 1a a8 8c bd bb 83 80 3d 39 ac 4c 3e
       0.030928494 -0.06868 0.062751256 0.19987573
0000e0 75 cd b6 3d e9 8d 2c be 7e 45 f5 bd fb b2 33 bd
       0.089259066 -0.1685101 -0.11976145 -0.04387186
0000f0 6b 8f e8 3d f7 ec 00 be d9 e6 d5 bd 4c c9 1a be
       0.1135548 -0.12590395 -0.10444421 -0.15115851
000100 44 11 5c bd e0 e2 23 3c 52 0e 6e be 16 16 3d 3c
       -0.053727403 0.010002822 -0.2324765 0.01154091
000110 f0 41 d4 3c 98 74 4d 3d ea 28 03 3e 3c 13 a0 3d
       0.025910348 0.05016002 0.12808576 0.07816169
000120 08 87 bf 3d 58 b2 c8 bc d8 e3 c0 3d a8 4f 95 3d
       0.09351927 -0.024499103 0.09418458 0.07290584
000130 68 f8 32 bd 54 55 05 bd cf 2a be bd 71 b6 40 be
       -0.04369393 -0.03255208 -0.09285509 -0.18819596
000140 67 40 b1 bd 14 09 dd 3d c4 86 5c bd ff 6b 34 be
       -0.08654862 0.10792747 -0.05383946 -0.17619322
000150 4e 6d 1b be 9c b2 ff bd 44 2a ae 3d 64 31 d2 3d
       -0.15178415 -0.12485239 0.08504155 0.10263327
000160 80 42 86 bd c9 7d 1d be 4a 67 96 bd 18 2e 3d 3d
       -0.065556526 -0.15380014 -0.073439196 0.046186537
000170 e6 2c 21 be d0 b9 d6 bc a8 cf e8 3c f0 36 29 3e
       -0.15739784 -0.02621165 0.02841933 0.16524863
000180 0c 84 31 3e 00 44 84 3d 5c 14 bc 3d 2c 4a 55 bd
       0.17335528 0.064582825 0.09183571 -0.05207269
000190 e1 2d 48 be 23 ca 9a be 21 94 1b bd 90 65 24 be
       -0.19548751 -0.30232343 -0.037983064 -0.16054368
0001a0 fa f3 5a bd 37 e4 db bd 59 cf 2f 3e cc 14 95 3d
       -0.05345533 -0.10736888 0.1716894 0.07279357
0001b0 9b 17 13 3e d4 fc 49 bd a1 54 27 3e 7f 81 00 be
       0.14364474 -0.04931338 0.16340877 -0.12549399
0001c0 70 99 e0 bc ec aa 2b 3e 45 f8 1c 3e e4 13 29 be
       -0.027416915 0.1676442 0.15329082 -0.16511494
0001d0 97 f8 e1 3d 0c 97 4e 3e 38 06 12 3e 38 81 aa bd
       0.11033743 0.20174807 0.14260185 -0.08325428
0001e0 80 bd cf 3d 8f 5e 45 3e 33 02 04 3e 60 86 b4 bd
       0.10143566 0.19274352 0.12891464 -0.088146925
0001f0 83 4f e5 be a4 92 c6 be b8 8d 63 be ed 57 cb be
       -0.44787225 -0.38783753 -0.2222203 -0.3971552
000200 8f 09 8b bd cb 85 23 3e ea e8 6d 3e 88 d8 02 3e
       -0.067889325 0.15969007 0.23233381 0.12777913
000210 cf d0 a5 3d 2a 35 3b 3e 93 b0 00 be 18 f3 c2 bc
       0.08096468 0.18281999 -0.12567358 -0.023797557
000220 4e e2 05 3e d8 bf cb bc 88 04 8c 3d 88 05 de bc
       0.1307461 -0.024871752 0.06836802 -0.027102247
000230 b2 83 9e 3d 28 e9 b4 bc 00 9d ca 3a 28 1f cd bc
       0.07739963 -0.022083834 0.0015458167 -0.02503927
000240 73 c8 08 be fb 55 99 3e fa df 1a be 41 5d 49 3e
       -0.13357715 0.2994841 -0.15124503 0.1966448
000250 ce 53 af bd e5 91 5f be 8b 9d 81 3d 85 70 80 3d
       -0.08560906 -0.21832998 0.06328877 0.062714614
000260 4e b3 26 be 81 8a 3b be fa e0 55 3e 03 39 56 3e
       -0.16279337 -0.18314554 0.20886603 0.20920186
000270 d9 e0 36 be ad a8 40 bd 96 4f 99 3e 24 09 e9 3d
       -0.1785921 -0.04703586 0.29943532 0.113786966
000280 a6 0a 0b be 1a 2a 1f 3e 21 cb ff 3a 3f 96 20 be
       -0.13578281 0.15543404 0.0019515493 -0.15682314
000290 2e 64 53 3e 56 1d 45 3e a5 88 21 be b0 09 b6 bc
       0.20643684 0.19249472 -0.15774782 -0.022221416
0002a0 d8 23 31 3e 20 e6 d6 3b 1c 58 19 3d 3a 84 0c 3e
       0.1729883 0.0065581948 0.037437543 0.13722315
0002b0 f9 ac 2a be f3 6e f3 bd 18 eb 4d be 4e 02 17 3e
       -0.16667546 -0.11886396 -0.20109212 0.14746973
0002c0 40 d3 c8 3d 78 5e c0 bd 30 b4 5a bd 80 0d 47 3b
       0.09805918 -0.093930185 -0.053394496 0.0030373037
0002d0 74 c5 3b be 75 c6 23 be fa 6a 89 bd 00 18 a4 3d
       -0.18337041 -0.15993674 -0.06709857 0.0801239
0002e0 14 8d 40 bd 30 0b b9 bc 8e 44 39 be 7a 51 fd bd
       -0.047009543 -0.022588342 -0.18092558 -0.12369056
0002f0 f2 38 38 3e fb da b0 bd 06 16 09 3e 0c bf cb 3d
       0.17990473 -0.08635517 0.13387308 0.09948549
000300 9e 74 98 3e 91 23 13 3e fc f3 64 be b1 bf 05 bf
       0.29776472 0.14369036 -0.22358698 -0.5224562
000310 92 32 b7 bd 0d 2b 6f 3e 2f de d6 be a6 37 aa 3d
       -0.089451924 0.23356266 -0.41966388 0.08311395
000320 f7 e0 73 bd 6f 0c 62 3e 11 29 ae bc 3e 18 d8 3d
       -0.059540715 0.22075056 -0.021259816 0.10551499
000330 0d 3f e4 3d b2 75 23 3e df 91 33 be b4 8b b5 3d
       0.111448385 0.15962866 -0.17536114 0.08864537
000340 fc e5 db bd 99 5d 42 be 8e 38 16 be dd bd c7 bc
       -0.107372254 -0.18981017 -0.14670011 -0.024382526
000350 ef 93 ca bd 44 e7 3d be 88 5c 97 bc 7b 62 2e be
       -0.09891497 -0.18545252 -0.01847674 -0.17029755
000360 bd b1 31 3e a8 ed 45 be be a6 f5 bd 0e c4 2b be
       0.17352958 -0.1932894 -0.11994694 -0.16774008
000370 ea 0b 0d be 00 b8 15 bc d8 3c 42 bd 0a b8 3d 3e
       -0.13774076 -0.009138107 -0.047421306 0.18527237
000380 12 c2 8e bd b6 50 47 3d a0 d8 d4 bd b2 b5 1c be
       -0.0697061 0.048660956 -0.103928804 -0.15303686
000390 c0 86 0c be 9e 8a 37 3e aa db 16 3e ff 1c b3 bd
       -0.13723278 0.17923972 0.14732233 -0.08745765
0003a0 ec ac 06 3e 78 f1 9e bd 26 2f 12 3e 22 c9 23 be
       0.13151902 -0.077609 0.14275798 -0.15994695
0003b0 54 9b 07 be cf 7b 34 be 34 4c 14 be 90 56 52 3d
       -0.13242847 -0.17625354 -0.14482194 0.051352084
0003c0 30 2e a4 bc c0 dd 6e 3d 50 20 9a 3d dc 5e 03 3e
       -0.020041555 0.058316946 0.07525694 0.12829155
0003d0 98 8d bf 3d a0 17 45 3c 28 a5 b1 3d 80 ee 6a bc
       0.09353179 0.012029558 0.08674079 -0.014339089
0003e0 d0 5c 98 bc c8 d8 e3 3d e0 ca 56 3c 7f 2c 45 be
       -0.018598944 0.11125332 0.013109893 -0.19255255
0003f0 e9 1a a7 bd 40 b2 42 be 20 75 6b 3c c0 cb 7e bd
       -0.081594296 -0.1901331 0.0143711865 -0.06220603

decoder.3.bias f4 [16]
000000 16 f5 22 3e 42 31 39 3e 0c f7 ce 3d 00 49 21 ba
       0.15913805 0.18085197 0.10105714 -0.00061525404
000010 2c 96 64 3e 57 3e 2e 3e bf e3 e2 bc 5f c9 c8 bd
       0.22322911 0.17015968 -0.027696488 -0.098040335
000020 cf a6 c0 3d 61 d1 2a be f6 1d 3c be 5a 55 a4 bd
       0.09406816 -0.16681434 -0.18370804 -0.08024092
000030 84 24 9b bd bb ed 3e bd fa 0d d0 3d 14 f1 9c bb
       -0.07575324 -0.046613436 0.10158916 -0.004789481

decoder.6.weight f4 [3, 16, 3]
000000 0b 88 19 3d 0a 18 66 bd ac 20 e8 bc 22 21 f7 3c
       0.037483256 -0.05617527 -0.028335892 0.030167166
000010 f3 8a b2 3d e8 7f bd 3d e3 a0 6a bd d5 0f a2 bd
       0.08717909 0.09252912 -0.05728234 -0.07913176
000020 07 23 14 be 40 96 87 3d 28 46 5f 3d 48 f5 c8 bd
       -0.14466487 0.06620455 0.054510266 -0.09812409
000030 e4 84 10 3e 99 3d ed 3d b6 dd 38 3e ee bb a5 3d
       0.14113194 0.115840144 0.18053326 0.08092485
000040 dd f0 8a bc 0a 2a b6 bd 9b d2 3c 3e e6 11 65 3e
       -0.016960556 -0.08894737 0.18439715 0.22370109
000050 1d 9c 94 3d 70 8c 1a bc 46 21 33 bd 10 27 96 3c
       0.07256339 -0.009432897 -0.043732904 0.018329173
000060 bb 72 29 be 7b e9 c3 3d ca 69 6d 3d b1 5a c5 bd
       -0.16547672 0.09566017 0.057962216 -0.09636439
000070 6c 8a 02 bd 51 ad 98 bc 5a 5e 3b bd e0 97 4a bc
       -0.03187029 -0.018637331 -0.045744278 -0.012365311
000080 c3 54 8d bd f4 2b 00 3d 37 aa de bd 4c 6f 57 bd
       -0.06900933 0.031291917 -0.1087231 -0.052596375
000090 88 9a f0 3d f2 7a 22 bd 0e d8 d5 bd e7 4c 7b bb
       0.117482245 -0.03966803 -0.104416 -0.0038345398
0000a0 24 db f2 bd c6 55 03 be 0c 6e a6 3d 45 9b 9f 3d
       -0.11858204 -0.12825689 0.081264585 0.07793287
0000b0 6e ee 5e 3d f5 58 5a 3e 7c 74 ca 3e 9e 80 b9 3e
       0.054426603 0.21322997 0.39541996 0.3623094
0000c0 b6 d2 04 3c c2 ce bb bd 73 f2 28 3c 75 a4 0c 3e
       0.008106878 -0.09170295 0.010311711 0.1373461
0000d0 fe 00 db 3b 4e 51 46 3d 6c f7 d5 bd 68 aa cb bd
       0.006683468 0.048417382 -0.104475826 -0.09944612
0000e0 c3 08 7d bd b4 39 21 bd 4f 64 12 be e2 43 56 bd
       -0.061775934 -0.03936167 -0.14296077 -0.05231083
0000f0 c4 74 02 3e ce 6f 3c bd 0d fc ef 3d 56 23 8f 3d
       0.12739855 -0.046005063 0.11717997 0.06989162
000100 eb 21 11 3e a8 dc c4 bd bc 1b 4f 3e 60 fc 4a 3e
       0.14173095 -0.09612399 0.20225424 0.19822836
000110 bd 78 7c 3d 30 6e 59 3d b2 e2 11 be 78 e8 74 3d
       0.061638582 0.0530836 -0.14246634 0.059792012
000120 f1 7a 9c bd 4a c9 55 bd 20 7b 78 3d a6 e0 9a 3d
       -0.07640637 -0.052193917 0.060664296 0.075623795
000130 b7 c3 a3 bc d6 d9 27 bd 00 56 00 ba 80 79 de 3c
       -0.019990785 -0.04097923 -0.00048956275 0.027157545
000140 b0 27 f6 bc 2c 0e e2 3d a0 cf c4 3c db 56 04 be
       -0.030048221 0.11037859 0.024024785 -0.12923758
000150 84 56 f4 3d e9 9f c1 bd ad 34 e6 bd d2 e3 58 3d
       0.11930564 -0.094543286 -0.11240516 0.05295164
000160 79 49 0b be 56 58 52 3d 7d 3b 60 3d c2 d4 34 3e
       -0.13602246 0.051353775 0.054744232 0.17659286
000170 5e 9e 8c 3d 22 85 57 3d b4 31 be 3e ab 71 cb 3e
       0.06866144 0.0526172 0.37147295 0.3973516
000180 cb 45 04 bd a0 08 f8 3d e5 53 8f 3c 83 08 4a 3d
       -0.032293122 0.1211102 0.017496059 0.049324524
000190 b4 77 e5 3d 60 a3 9f bd 90 e0 cb 3c 0c c2 fb bd
       0.11204472 -0.07794833 0.024887353 -0.12292871
0001a0 a2 36 02 be 84 04 d5 bd ec 37 c1 bd c4 68 54 3d
       -0.12716153 -0.10401252 -0.094344944 0.051857725
0001b0 c2 46 a9 bc ea 80 c9 3b 7f e2 f2 3d 13 76 29 3e
       -0.020663623 0.006149401 0.11859607 0.16548948
0001c0 e1 8b c2 3c ca ca fd 3d 64 cb 45 3e 65 66 81 3e
       0.02374834 0.123921946 0.19315869 0.25273433
0001d0 ab c6 8f 3b 78 26 e0 3d d4 4d 60 bd fe fb 2b bd
       0.0043876967 0.10944837 -0.054761723 -0.041988365
0001e0 cf a1 06 be 04 c7 24 bd 6d 04 1f 3e 70 1a c1 bd
       -0.13147663 -0.04022886 0.15529032 -0.09428871
0001f0 67 41 ab 3d e3 10 de bb 90 47 e4 3d 68 50 99 3d
       0.08362084 -0.0067769154 0.11146462 0.074860394
000200 f6 df c3 bd 70 86 f0 3d 00 c6 88 3a 50 03 0f 3e
       -0.095642015 0.11744392 0.0010434985 0.13966107
000210 d3 ae 85 bd 03 f6 08 be 20 8e 19 3c d3 94 59 3b
       -0.06527486 -0.13375096 0.009372264 0.0033200278
000220 04 99 ce bd 7a e4 9d 3d 9e 01 ae 3c 9f f9 08 3d
       -0.10087779 0.07709594 0.021241006 0.033441182
000230 a2 d7 8f bb f7 05 40 3e d4 e4 d3 3e 69 96 54 3e
       -0.004389719 0.18752275 0.4138552 0.20760502

decoder.6.bias f4 [3]
000000 4e d1 ad 3c 1c ec 59 3d 10 3e 25 3d
       0.021217968 0.053203687 0.04034239

exp_avg f4 [16, 1, 1]
000000 9e af 44 38 b3 21 88 b8 00 00 00 00 bb 52 0c 38
       4.6893598e-05 -6.491262e-05 0.0 3.345565e-05
000010 00 00 00 00 ba d7 26 39 00 00 00 00 17 9b 44 ba
       0.0 0.00015911358 0.0 -0.0007499917
000020 7c 42 a8 39 00 00 00 00 b6 90 f3 b9 bc 4d 23 38
       0.00032092992 0.0 -0.0004645639 3.8934624e-05
000030 00 00 00 00 ff e0 df 39 88 bd 16 3a 00 00 00 00
       0.0 0.0004270151 0.0005750288 0.0

exp_avg_sq f4 [16, 1, 1]
000000 85 5e 2b 33 f8 aa 91 35 00 00 00 00 bb 9a 7b 33
       3.9900005e-08 1.08531e-06 0.0 5.8581218e-08
000010 00 00 00 00 e4 7d 0c 36 00 00 00 00 1a 1e e5 37
       0.0 2.0934904e-06 0.0 2.7312944e-05
000020 10 a5 4e 37 00 00 00 00 f5 f6 14 37 c1 6d 46 33
       1.2316988e-05 0.0 8.878987e-06 4.6200288e-08
000030 00 00 00 00 74 40 d5 37 fe e0 1d 38 00 00 00 00
       0.0 2.5421592e-05 3.7641257e-05 0.0

exp_avg f4 [16]
000000 08 a4 4a 38 c8 2d ba b8 00 00 00 00 ed 09 08 38
       4.831332e-05 -8.8776986e-05 0.0 3.243417e-05
000010 00 00 00 00 6e 64 8f 39 00 00 00 00 8a a8 b3 ba
       0.0 0.0002734991 0.0 -0.0013706845
000020 dc d8 32 3a 00 00 00 00 1a 9c 66 ba e8 29 b1 b7
       0.00068224757 0.0 -0.00087970647 -2.1119558e-05
000030 00 00 00 00 78 63 44 3a 8e e8 83 3a 00 00 00 00
       0.0 0.00074916286 0.0010063814 0.0

exp_avg_sq f4 [16]
000000 17 dd c6 34 24 c3 74 37 00 00 00 00 16 3a be 34
       3.7041238e-07 1.4588968e-05 0.0 3.543252e-07
000010 00 00 00 00 c7 89 dd 37 00 00 00 00 0a 8e cd 39
       0.0 2.640941e-05 0.0 0.00039206474
000020 22 ef 0e 39 00 00 00 00 63 c4 d0 38 7b e3 34 35
       0.00013631259 0.0 9.954793e-05 6.7386253e-07
000030 00 00 00 00 95 a4 a1 39 08 b9 f4 39 00 00 00 00
       0.0 0.00030830936 0.00046677166 0.0

exp_avg f4 [8, 16, 3]
000000 00 00 00 00 00 00 00 00 00 00 00 00 00 00 00 00
       0.0 0.0 0.0 0.0
000010 00 00 00 00 00 00 00 00 00 00 00 00 00 00 00 00
       0.0 0.0 0.0 0.0
000020 00 00 00 00 00 00 00 00 00 00 00 00 00 00 00 00
       0.0 0.0 0.0 0.0
000030 00 00 00 00 00 00 00 00 00 00 00 00 00 00 00 00
       0.0 0.0 0.0 0.0
000040 00 00 00 00 00 00 00 00 00 00 00 00 00 00 00 00
       0.0 0.0 0.0 0.0
000050 00 00 00 00 00 00 00 00 00 00 00 00 00 00 00 00
       0.0 0.0 0.0 0.0
000060 00 00 00 00 00 00 00 00 00 00 00 00 00 00 00 00
       0.0 0.0 0.0 0.0
000070 00 00 00 00 00 00 00 00 00 00 00 00 00 00 00 00
       0.0 0.0 0.0 0.0
000080 00 00 00 00 00 00 00 00 00 00 00 00 00 00 00 00
       0.0 0.0 0.0 0.0
000090 00 00 00 00 00 00 00 00 00 00 00 00 00 00 00 00
       0.0 0.0 0.0 0.0
0000a0 00 00 00 00 00 00 00 00 00 00 00 00 00 00 00 00
       0.0 0.0 0.0 0.0
0000b0 00 00 00 00 00 00 00 00 00 00 00 00 00 00 00 00
       0.0 0.0 0.0 0.0
0000c0 2c b1 e9 37 a8 fc c2 37 b2 a5 a2 38 b1 4d 16 38
       2.7858267e-05 2.3244254e-05 7.755625e-05 3.5835143e-05
0000d0 eb 3c e6 37 98 40 52 38 00 00 00 00 00 00 00 00
       2.7446504e-05 5.012806e-05 0.0 0.0
0000e0 00 00 00 00 f2 9a f2 38 91 33 c4 38 65 87 31 39
       0.0 0.0001156832 9.355613e-05 0.00016930474
0000f0 00 00 00 00 00 00 00 00 00 00 00 00 3c 07 1b 38
       0.0 0.0 0.0 3.6961617e-05
000100 be 53 f6 37 8b 46 fc 38 00 00 00 00 00 00 00 00
       2.936448e-05 0.00012029436 0.0 0.0
000110 00 00 00 00 34 da 16 38 61 e8 18 b7 a7 d9 15 37
       0.0 3.5966004e-05 -9.114011e-06 8.931768e-06
000120 24 0c 68 38 0e a5 32 38 cb b6 50 39 00 00 00 00
       5.5324417e-05 4.2592226e-05 0.00019904521 0.0
000130 00 00 00 00 00 00 00 00 86 51 b1 38 29 6c a1 b7
       0.0 0.0 8.4552026e-05 -1.9243062e-05
000140 d3 8b bb 37 42 ee 8a 38 a7 1e 4d 38 bb 1e be 38
       2.2357248e-05 6.624732e-05 4.8904356e-05 9.06563e-05
000150 00 00 00 00 00 00 00 00 00 00 00 00 00 3d 3a b5
       0.0 0.0 0.0 -6.9379166e-07
000160 f8 40 41 b7 7a 0c 1e 39 c0 7e 39 b5 68 6e b9 b6
       -1.1518823e-05 0.00015072702 -6.9102316e-07 -5.5262826e-06
000170 6b f6 8d 38 00 00 00 00 00 00 00 00 00 00 00 00
       6.769303e-05 0.0 0.0 0.0
000180 00 00 00 00 00 00 00 00 00 00 00 00 00 00 00 00
       0.0 0.0 0.0 0.0
000190 00 00 00 00 00 00 00 00 00 00 00 00 00 00 00 00
       0.0 0.0 0.0 0.0
0001a0 00 00 00 00 00 00 00 00 00 00 00 00 00 00 00 00
       0.0 0.0 0.0 0.0
0001b0 00 00 00 00 00 00 00 00 00 00 00 00 00 00 00 00
       0.0 0.0 0.0 0.0
0001c0 00 00 00 00 00 00 00 00 00 00 00 00 00 00 00 00
       0.0 0.0 0.0 0.0
0001d0 00 00 00 00 00 00 00 00 00 00 00 00 00 00 00 00
       0.0 0.0 0.0 0.0
0001e0 00 00 00 00 00 00 00 00 00 00 00 00 00 00 00 00
       0.0 0.0 0.0 0.0
0001f0 00 00 00 00 00 00 00 00 00 00 00 00 00 00 00 00
       0.0 0.0 0.0 0.0
000200 00 00 00 00 00 00 00 00 00 00 00 00 00 00 00 00
       0.0 0.0 0.0 0.0
000210 00 00 00 00 00 00 00 00 00 00 00 00 00 00 00 00
       0.0 0.0 0.0 0.0
000220 00 00 00 00 00 00 00 00 00 00 00 00 00 00 00 00
       0.0 0.0 0.0 0.0
000230 00 00 00 00 00 00 00 00 00 00 00 00 00 00 00 00
       0.0 0.0 0.0 0.0
000240 90 5f 6e 39 30 5b 6d 39 e8 08 7a 39 b0 7d e8 38
       0.00022733049 0.00022636051 0.00023845176 0.00011086033
000250 10 23 f4 38 d8 23 f4 38 00 00 00 00 00 00 00 00
       0.000116413576 0.00011641503 0.0 0.0
000260 00 00 00 00 90 db cc 39 f8 61 d6 39 80 67 d6 39
       0.0 0.000390735 0.00040890253 0.00040894374
000270 00 00 00 00 00 00 00 00 00 00 00 00 e2 7e be 39
       0.0 0.0 0.0 0.0003633416
000280 5a 24 bc 39 4e 31 c8 39 00 00 00 00 00 00 00 00
       0.00035885238 0.00038183708 0.0 0.0
000290 00 00 00 00 20 7b bc b7 80 37 84 b7 40 bd 5b b7
       0.0 -2.2468681e-05 -1.576147e-05 -1.309748e-05
0002a0 76 b5 1f 3a b8 1a 1d 3a d6 02 28 3a 00 00 00 00
       0.00060924084 0.0005993056 0.0006409114 0.0
0002b0 00 00 00 00 00 00 00 00 60 f5 28 b8 c0 42 cd b7
       0.0 0.0 -4.0282845e-05 -2.4468987e-05
0002c0 00 4f 9f b7 48 c7 5a 39 48 ed 65 39 e8 fc 65 39
       -1.8991064e-05 0.00020864338 0.00021927536 0.00021933357
0002d0 00 00 00 00 00 00 00 00 00 00 00 00 bc 8a 0f 3a
       0.0 0.0 0.0 0.000547569
0002e0 7e 5c 08 3a e9 7b 17 3a 8e a1 82 39 d5 20 78 39
       0.00052017707 0.0005778657 0.000249159 0.00023663354
0002f0 bf c6 89 39 00 00 00 00 00 00 00 00 00 00 00 00
       0.00026278754 0.0 0.0 0.0
000300 54 a5 ea 38 46 ae 0d 39 10 4b 49 39 20 40 a7 38
       0.00011188784 0.0001351173 0.00019196817 7.975125e-05
000310 28 d6 ff 38 f0 72 d4 38 00 00 00 00 00 00 00 00
       0.00012199237 0.000101303565 0.0 0.0
000320 00 00 00 00 7c 34 8e 39 1c ee d3 39 88 b0 bb 39
       0.0 0.00027123454 0.00040422461 0.00035798945
000330 00 00 00 00 00 00 00 00 00 00 00 00 a0 d0 30 39
       0.0 0.0 0.0 0.00016862387
000340 ea f7 4b 39 42 74 9e 39 00 00 00 00 00 00 00 00
       0.00019451944 0.00030222727 0.0 0.0
000350 00 00 00 00 c8 d4 0b 38 9c 8b f1 38 d8 c7 5f b8
       0.0 3.333835e-05 0.0001151778 -5.3353462e-05
000360 86 ad 8f 39 46 bc a1 39 1b ea 03 3a 00 00 00 00
       0.0002740437 0.00030848588 0.0005032138 0.0
000370 00 00 00 00 00 00 00 00 90 39 af 38 f2 74 8f 39
       0.0 0.0 8.355372e-05 0.00027362216
000380 e0 a6 f4 b8 e8 6d 1d 39 6c 6d 72 39 84 6c 3f 39
       -0.000116659096 0.0001501363 0.00023119681 0.00018255605
000390 00 00 00 00 00 00 00 00 00 00 00 00 02 1f 41 39
       0.0 0.0 0.0 0.00018417466
0003a0 2c 8b 1b 39 18 66 da 39 85 73 af 38 9a 64 8c 38
       0.00014833797 0.00041656266 8.3661675e-05 6.694459e-05
0003b0 9e ad 45 39 00 00 00 00 00 00 00 00 00 00 00 00
       0.00018852061 0.0 0.0 0.0
0003c0 00 00 00 00 00 00 00 00 00 00 00 00 00 00 00 00
       0.0 0.0 0.0 0.0
0003d0 00 00 00 00 00 00 00 00 00 00 00 00 00 00 00 00
       0.0 0.0 0.0 0.0
0003e0 00 00 00 00 00 00 00 00 00 00 00 00 00 00 00 00
       0.0 0.0 0.0 0.0
0003f0 00 00 00 00 00 00 00 00 00 00 00 00 00 00 00 00
       0.0 0.0 0.0 0.0

exp_avg_sq f4 [8, 16, 3]
000000 00 00 00 00 00 00 00 00 00 00 00 00 00 00 00 00
       0.0 0.0 0.0 0.0
000010 00 00 00 00 00 00 00 00 00 00 00 00 00 00 00 00
       0.0 0.0 0.0 0.0
000020 00 00 00 00 00 00 00 00 00 00 00 00 00 00 00 00
       0.0 0.0 0.0 0.0
000030 00 00 00 00 00 00 00 00 00 00 00 00 00 00 00 00
       0.0 0.0 0.0 0.0
000040 00 00 00 00 00 00 00 00 00 00 00 00 00 00 00 00
       0.0 0.0 0.0 0.0
000050 00 00 00 00 00 00 00 00 00 00 00 00 00 00 00 00
       0.0 0.0 0.0 0.0
000060 00 00 00 00 00 00 00 00 00 00 00 00 00 00 00 00
       0.0 0.0 0.0 0.0
000070 00 00 00 00 00 00 00 00 00 00 00 00 00 00 00 00
       0.0 0.0 0.0 0.0
000080 00 00 00 00 00 00 00 00 00 00 00 00 00 00 00 00
       0.0 0.0 0.0 0.0
000090 00 00 00 00 00 00 00 00 00 00 00 00 00 00 00 00
       0.0 0.0 0.0 0.0
0000a0 00 00 00 00 00 00 00 00 00 00 00 00 00 00 00 00
       0.0 0.0 0.0 0.0
0000b0 00 00 00 00 00 00 00 00 00 00 00 00 00 00 00 00
       0.0 0.0 0.0 0.0
0000c0 aa c3 c4 35 cd 5f e0 35 37 32 c8 35 fe c5 6c 35
       1.4660084e-06 1.6717182e-06 1.4915776e-06 8.820497e-07
0000d0 c9 31 8b 35 fc 30 6c 35 00 00 00 00 00 00 00 00
       1.0370796e-06 8.798813e-07 0.0 0.0
0000e0 00 00 00 00 9e 85 23 37 5d df 3e 37 5d 9d 23 37
       0.0 9.746667e-06 1.1376888e-05 9.752196e-06
0000f0 00 00 00 00 00 00 00 00 00 00 00 00 92 87 25 36
       0.0 0.0 0.0 2.4665828e-06
000100 1b 11 3d 36 df c2 28 36 00 00 00 00 00 00 00 00
       2.8173151e-06 2.514738e-06 0.0 0.0
000110 00 00 00 00 45 11 8b 34 ee 31 ec 34 44 98 85 34
       0.0 2.5903333e-07 4.3994754e-07 2.4883968e-07
000120 81 f1 e0 36 a8 30 00 37 5a 13 e6 36 00 00 00 00
       6.703835e-06 7.640723e-06 6.856787e-06 0.0
000130 00 00 00 00 00 00 00 00 b0 aa d1 35 06 e4 2b 36
       0.0 0.0 1.562139e-06 2.5613713e-06
000140 9d a1 ca 35 43 2b 5e 36 1e d2 81 36 db 0c 5e 36
       1.5097208e-06 3.310576e-06 3.8689604e-06 3.308806e-06
000150 00 00 00 00 00 00 00 00 00 00 00 00 b8 1a 0f 36
       0.0 0.0 0.0 2.1324213e-06
000160 cb f5 20 36 a0 85 17 36 cc a9 c5 34 33 3a de 34
       2.3984928e-06 2.2578533e-06 3.6817653e-07 4.1393068e-07
000170 c1 61 d1 34 00 00 00 00 00 00 00 00 00 00 00 00
       3.900041e-07 0.0 0.0 0.0
000180 00 00 00 00 00 00 00 00 00 00 00 00 00 00 00 00
       0.0 0.0 0.0 0.0
000190 00 00 00 00 00 00 00 00 00 00 00 00 00 00 00 00
       0.0 0.0 0.0 0.0
0001a0 00 00 00 00 00 00 00 00 00 00 00 00 00 00 00 00
       0.0 0.0 0.0 0.0
0001b0 00 00 00 00 00 00 00 00 00 00 00 00 00 00 00 00
       0.0 0.0 0.0 0.0
0001c0 00 00 00 00 00 00 00 00 00 00 00 00 00 00 00 00
       0.0 0.0 0.0 0.0
0001d0 00 00 00 00 00 00 00 00 00 00 00 00 00 00 00 00
       0.0 0.0 0.0 0.0
0001e0 00 00 00 00 00 00 00 00 00 00 00 00 00 00 00 00
       0.0 0.0 0.0 0.0
0001f0 00 00 00 00 00 00 00 00 00 00 00 00 00 00 00 00
       0.0 0.0 0.0 0.0
000200 00 00 00 00 00 00 00 00 00 00 00 00 00 00 00 00
       0.0 0.0 0.0 0.0
000210 00 00 00 00 00 00 00 00 00 00 00 00 00 00 00 00
       0.0 0.0 0.0 0.0
000220 00 00 00 00 00 00 00 00 00 00 00 00 00 00 00 00
       0.0 0.0 0.0 0.0
000230 00 00 00 00 00 00 00 00 00 00 00 00 00 00 00 00
       0.0 0.0 0.0 0.0
000240 8a 05 b9 37 ff e6 b8 37 06 b0 b8 37 f4 b7 a7 37
       2.2056298e-05 2.2042075e-05 2.2016477e-05 1.9993611e-05
000250 8c 28 a7 37 d4 fe a7 37 00 00 00 00 00 00 00 00
       1.9926832e-05 2.0026615e-05 0.0 0.0
000260 00 00 00 00 70 0b 62 39 26 99 61 39 19 58 62 39
       0.0 0.000215573 0.00021514724 0.00021585858
000270 00 00 00 00 00 00 00 00 00 00 00 00 00 a2 27 38
       0.0 0.0 0.0 3.9966777e-05
000280 7d 7a 27 38 c9 3c 27 38 00 00 00 00 00 00 00 00
       3.992998e-05 3.9872513e-05 0.0 0.0
000290 00 00 00 00 41 92 65 37 08 05 5c 37 c0 64 68 37
       0.0 1.3683516e-05 1.3114193e-05 1.3851735e-05
0002a0 ae d7 d2 38 c2 97 d2 38 20 3f d2 38 00 00 00 00
       0.00010053754 0.000100418474 0.00010025338 0.0
0002b0 00 00 00 00 00 00 00 00 f1 92 9d 38 e5 1d 97 38
       0.0 0.0 7.513713e-05 7.2058094e-05
0002c0 70 7c 9f 38 df ae 94 38 5f 38 94 38 05 e9 94 38
       7.604889e-05 7.089762e-05 7.06769e-05 7.100593e-05
0002d0 00 00 00 00 00 00 00 00 00 00 00 00 6b 71 7e 37
       0.0 0.0 0.0 1.5165987e-05
0002e0 98 dd 7c 37 6d 71 7b 37 0a 26 39 36 88 f6 37 36
       1.5071964e-05 1.4987175e-05 2.758929e-06 2.7412625e-06
0002f0 a2 e2 36 36 00 00 00 00 00 00 00 00 00 00 00 00
       2.725203e-06 0.0 0.0 0.0
000300 41 81 e8 36 ef b2 f0 36 21 82 ef 36 cd 63 c4 36
       6.929186e-06 7.173388e-06 7.137904e-06 5.8528735e-06
000310 1a fe cb 36 f8 c7 cc 36 00 00 00 00 00 00 00 00
       6.0794528e-06 6.102953e-06 0.0 0.0
000320 00 00 00 00 07 f3 84 38 b5 26 8a 38 06 7d 8a 38
       0.0 6.339518e-05 6.5875625e-05 6.60364e-05
000330 00 00 00 00 00 00 00 00 00 00 00 00 81 b0 50 37
       0.0 0.0 0.0 1.2438862e-05
000340 64 aa 57 37 3a 71 56 37 00 00 00 00 00 00 00 00
       1.2854671e-05 1.2781757e-05 0.0 0.0
000350 00 00 00 00 5f 27 72 36 aa e1 7b 36 f5 78 83 36
       0.0 3.6083727e-06 3.7533268e-06 3.9181855e-06
000360 d8 21 05 38 84 79 09 38 7c 8f 08 38 00 00 00 00
       3.174119e-05 3.2776516e-05 3.2558557e-05 0.0
000370 00 00 00 00 00 00 00 00 f4 64 a8 37 60 64 af 37
       0.0 0.0 2.007417e-05 2.0908366e-05
000380 d3 d4 b6 37 e6 4d af 37 70 29 b6 37 c8 ca b6 37
       2.1795195e-05 2.08979e-05 2.1715387e-05 2.1790518e-05
000390 00 00 00 00 00 00 00 00 00 00 00 00 20 f4 c7 36
       0.0 0.0 0.0 5.959082e-06
0003a0 ea e8 cb 36 23 1b c7 36 fb ab 8d 35 89 65 90 35
       6.076986e-06 5.9338213e-06 1.0555372e-06 1.0758387e-06
0003b0 a7 e8 8c 35 00 00 00 00 00 00 00 00 00 00 00 00
       1.0498524e-06 0.0 0.0 0.0
0003c0 00 00 00 00 00 00 00 00 00 00 00 00 00 00 00 00
       0.0 0.0 0.0 0.0
0003d0 00 00 00 00 00 00 00 00 00 00 00 00 00 00 00 00
       0.0 0.0 0.0 0.0
0003e0 00 00 00 00 00 00 00 00 00 00 00 00 00 00 00 00
       0.0 0.0 0.0 0.0
0003f0 00 00 00 00 00 00 00 00 00 00 00 00 00 00 00 00
       0.0 0.0 0.0 0.0

exp_avg f4 [8]
000000 00 00 00 00 03 ee 15 39 00 00 00 00 78 57 24 3a
       0.0 0.00014298414 0.0 0.00062691374
000010 d0 b1 14 3a 00 00 00 00 61 e5 55 3a 00 00 00 00
       0.0005672248 0.0 0.00081594853 0.0

exp_avg_sq f4 [8]
000000 00 00 00 00 ad 7e bf 37 00 00 00 00 50 e9 e2 39
       0.0 2.2827962e-05 0.0 0.0004327991
000010 c2 f0 0a 39 00 00 00 00 62 1d 30 38 00 00 00 00
       0.00013250395 0.0 4.1989035e-05 0.0

exp_avg f4 [8, 8, 3]
000000 00 00 00 00 00 00 00 00 00 00 00 00 fa 98 31 b8
       0.0 0.0 0.0 -4.234256e-05
000010 c7 d5 82 b8 57 97 16 38 00 00 00 00 00 00 00 00
       -6.238702e-05 3.5903733e-05 0.0 0.0
000020 00 00 00 00 92 db 17 3a e0 0f fa 39 0c 53 47 3a
       0.0 0.00057929114 0.00047695544 0.00076036225
000030 51 99 06 3a 92 44 d0 39 bc a4 2b 3a 00 00 00 00
       0.000513454 0.0003972394 0.00065476797 0.0
000040 00 00 00 00 00 00 00 00 af d7 dd 39 1a 60 81 39
       0.0 0.0 0.00042313102 0.000246764
000050 bf bb 01 3a 00 00 00 00 00 00 00 00 00 00 00 00
       0.0004948936 0.0 0.0 0.0
000060 00 00 00 00 00 00 00 00 00 00 00 00 ab f8 cb 38
       0.0 0.0 0.0 9.726112e-05
000070 0e 9c 51 38 ba cf 5c b7 00 00 00 00 00 00 00 00
       4.997482e-05 -1.3161387e-05 0.0 0.0
000080 00 00 00 00 32 32 93 ba 05 16 79 ba 7f 44 aa ba
       0.0 -0.0011230169 -0.00095018774 -0.0012990384
000090 c5 62 72 ba 27 5a 47 ba 64 98 93 ba 00 00 00 00
       -0.0009246285 -0.00076046813 -0.0011260626 0.0
0000a0 00 00 00 00 00 00 00 00 c6 3f 39 ba 04 1e 3e ba
       0.0 0.0 -0.0007066693 -0.00072523975
0000b0 be 29 54 ba 00 00 00 00 00 00 00 00 00 00 00 00
       -0.0008093378 0.0 0.0 0.0
0000c0 00 00 00 00 00 00 00 00 00 00 00 00 bd bf 21 b8
       0.0 0.0 0.0 -3.856396e-05
0000d0 fe 7f 9a 37 89 15 aa b7 00 00 00 00 00 00 00 00
       1.8417832e-05 -2.0275607e-05 0.0 0.0
0000e0 00 00 00 00 fe ed 1b ba a6 cc a8 b9 b0 53 d9 b9
       0.0 -0.00059482444 -0.00032195932 -0.00041451817
0000f0 fc 3b f0 b9 ee ba 96 b9 1e 5c af b9 00 00 00 00
       -0.0004582106 -0.00028749503 -0.00033447234 0.0
000100 00 00 00 00 00 00 00 00 ba 86 cf b9 b9 bb 6e b9
       0.0 0.0 -0.00039582496 -0.00022767381
000110 7c 59 98 b9 00 00 00 00 00 00 00 00 00 00 00 00
       -0.0002905837 0.0 0.0 0.0
000120 00 00 00 00 00 00 00 00 00 00 00 00 a8 7f 49 b7
       0.0 0.0 0.0 -1.2010256e-05
000130 19 cd 71 b8 1c 06 12 b8 00 00 00 00 00 00 00 00
       -5.764989e-05 -3.4814802e-05 0.0 0.0
000140 00 00 00 00 7a 9c 28 3a 2e 25 ce 39 bc 67 06 3a
       0.0 0.0006432008 0.00039319083 0.0005127152
000150 c4 7c 0c 3a ba 3b a6 39 f8 e9 eb 39 00 00 00 00
       0.00053591677 0.00031706487 0.00044997013 0.0
000160 00 00 00 00 00 00 00 00 ff b0 cf 39 01 ad 9b 39
       0.0 0.0 0.0003961399 0.00029692802
000170 51 71 a5 39 00 00 00 00 00 00 00 00 00 00 00 00
       0.0003155568 0.0 0.0 0.0
000180 00 00 00 00 00 00 00 00 00 00 00 00 5a 26 9a 37
       0.0 0.0 0.0 1.837609e-05
000190 9e 21 77 b8 c3 7b 96 b8 00 00 00 00 00 00 00 00
       -5.8920697e-05 -7.17561e-05 0.0 0.0
0001a0 00 00 00 00 7e 45 fc 39 4f a2 93 39 fe 6d aa 39
       0.0 0.0004811696 0.00028158954 0.00032506877
0001b0 b0 0a e8 39 f0 12 63 39 05 e8 9f 39 00 00 00 00
       0.0004425845 0.00021655462 0.0003049971 0.0
0001c0 00 00 00 00 00 00 00 00 e0 8e 8d 39 e4 bd 7e 39
       0.0 0.0 0.00027000066 0.00024294067
0001d0 ec d3 2c 39 00 00 00 00 00 00 00 00 00 00 00 00
       0.00016482145 0.0 0.0 0.0
0001e0 00 00 00 00 00 00 00 00 00 00 00 00 00 00 00 00
       0.0 0.0 0.0 0.0
0001f0 00 00 00 00 00 00 00 00 00 00 00 00 00 00 00 00
       0.0 0.0 0.0 0.0
000200 00 00 00 00 00 00 00 00 00 00 00 00 00 00 00 00
       0.0 0.0 0.0 0.0
000210 00 00 00 00 00 00 00 00 00 00 00 00 00 00 00 00
       0.0 0.0 0.0 0.0
000220 00 00 00 00 00 00 00 00 00 00 00 00 00 00 00 00
       0.0 0.0 0.0 0.0
000230 00 00 00 00 00 00 00 00 00 00 00 00 00 00 00 00
       0.0 0.0 0.0 0.0
000240 00 00 00 00 00 00 00 00 00 00 00 00 44 2a 64 36
       0.0 0.0 0.0 3.399925e-06
000250 5e 92 c0 b7 9e 76 73 b8 00 00 00 00 00 00 00 00
       -2.2956341e-05 -5.8046186e-05 0.0 0.0
000260 00 00 00 00 64 b1 96 39 55 04 99 39 d2 f3 6b 39
       0.0 0.00028742396 0.00029185662 0.00022502177
000270 8c 40 76 39 66 26 71 39 e4 07 43 39 00 00 00 00
       0.00023484434 0.00022997856 0.00018599589 0.0
000280 00 00 00 00 00 00 00 00 65 09 2f 39 bc 84 71 39
       0.0 0.0 0.000166928 0.00023032998
000290 87 dd 0e 39 00 00 00 00 00 00 00 00 00 00 00 00
       0.000136247 0.0 0.0 0.0
0002a0 00 00 00 00 00 00 00 00 00 00 00 00 00 00 00 00
       0.0 0.0 0.0 0.0
0002b0 00 00 00 00 00 00 00 00 00 00 00 00 00 00 00 00
       0.0 0.0 0.0 0.0
0002c0 00 00 00 00 00 00 00 00 00 00 00 00 00 00 00 00
       0.0 0.0 0.0 0.0
0002d0 00 00 00 00 00 00 00 00 00 00 00 00 00 00 00 00
       0.0 0.0 0.0 0.0
0002e0 00 00 00 00 00 00 00 00 00 00 00 00 00 00 00 00
       0.0 0.0 0.0 0.0
0002f0 00 00 00 00 00 00 00 00 00 00 00 00 00 00 00 00
       0.0 0.0 0.0 0.0

exp_avg_sq f4 [8, 8, 3]
000000 00 00 00 00 00 00 00 00 00 00 00 00 0a 9a 13 35
       0.0 0.0 0.0 5.4985924e-07
000010 46 e6 2a 35 6a d9 0a 35 00 00 00 00 00 00 00 00
       6.3665027e-07 5.1725385e-07 0.0 0.0
000020 00 00 00 00 72 2e 33 37 8f ec 4e 37 ea 5c 4f 37
       0.0 1.0680045e-05 1.2333635e-05 1.2359795e-05
000030 cc 4a dc 36 8a be ff 36 a3 4f fa 36 00 00 00 00
       6.5652184e-06 7.621774e-06 7.4598515e-06 0.0
000040 00 00 00 00 00 00 00 00 57 46 92 36 ac ff a6 36
       0.0 0.0 4.3593277e-06 4.9769496e-06
000050 b8 10 a0 36 00 00 00 00 00 00 00 00 00 00 00 00
       4.770318e-06 0.0 0.0 0.0
000060 00 00 00 00 00 00 00 00 00 00 00 00 97 bb 6f 34
       0.0 0.0 0.0 2.2326854e-07
000070 6f 83 56 34 59 99 55 34 00 00 00 00 00 00 00 00
       1.9978118e-07 1.9892958e-07 0.0 0.0
000080 00 00 00 00 83 29 0a 38 83 b3 1b 38 51 d1 1c 38
       0.0 3.2940425e-05 3.7122063e-05 3.738824e-05
000090 69 89 c2 37 b6 00 d5 37 fd 43 d3 37 00 00 00 00
       2.3190589e-05 2.539191e-05 2.518482e-05 0.0
0000a0 00 00 00 00 00 00 00 00 84 ef 1d 37 8d 42 31 37
       0.0 0.0 9.413696e-06 1.0565517e-05
0000b0 cd cf 31 37 00 00 00 00 00 00 00 00 00 00 00 00
       1.05984045e-05 0.0 0.0 0.0
0000c0 00 00 00 00 00 00 00 00 00 00 00 00 b7 77 6b 32
       0.0 0.0 0.0 1.370602e-08
0000d0 65 59 2e 33 74 c7 66 32 00 00 00 00 00 00 00 00
       4.0593836e-08 1.3433112e-08 0.0 0.0
0000e0 00 00 00 00 9e 0a c4 36 88 bb d0 36 96 37 a9 36
       0.0 5.842491e-06 6.2207146e-06 5.0430635e-06
0000f0 0a d3 96 36 51 1c 9c 36 76 82 79 36 00 00 00 00
       4.4949165e-06 4.6524588e-06 3.717983e-06 0.0
000100 00 00 00 00 00 00 00 00 eb 96 d2 35 ac 3a d4 35
       0.0 0.0 1.5690142e-06 1.5812307e-06
000110 88 a5 a8 35 00 00 00 00 00 00 00 00 00 00 00 00
       1.2565151e-06 0.0 0.0 0.0
000120 00 00 00 00 00 00 00 00 00 00 00 00 03 15 cc 34
       0.0 0.0 0.0 3.801325e-07
000130 a1 c7 e4 34 ed d2 bc 34 00 00 00 00 00 00 00 00
       4.2613559e-07 3.5171198e-07 0.0 0.0
000140 00 00 00 00 9d c6 51 37 04 98 61 37 b3 4d 4b 37
       0.0 1.2503614e-05 1.3446439e-05 1.2117834e-05
000150 55 7b 09 37 1c 58 0f 37 84 43 ff 36 00 00 00 00
       8.194552e-06 8.543979e-06 7.607452e-06 0.0
000160 00 00 00 00 00 00 00 00 1e ed 8a 36 82 8d 91 36
       0.0 0.0 4.1403246e-06 4.3378104e-06
000170 60 65 83 36 00 00 00 00 00 00 00 00 00 00 00 00
       3.915906e-06 0.0 0.0 0.0
000180 00 00 00 00 00 00 00 00 00 00 00 00 df 87 da 34
       0.0 0.0 0.0 4.0704523e-07
000190 99 e7 fc 34 74 2b c5 34 00 00 00 00 00 00 00 00
       4.7107167e-07 3.6725726e-07 0.0 0.0
0001a0 00 00 00 00 33 2c 30 37 c2 4e 34 37 98 87 0d 37
       0.0 1.0500708e-05 1.0747173e-05 8.435825e-06
0001b0 b2 7e df 36 6f d6 db 36 a5 49 ac 36 00 00 00 00
       6.660667e-06 6.551672e-06 5.134573e-06 0.0
0001c0 00 00 00 00 00 00 00 00 cd 23 8f 36 cf a1 8e 36
       0.0 0.0 4.2659e-06 4.250767e-06
0001d0 f8 6c 72 36 00 00 00 00 00 00 00 00 00 00 00 00
       3.6124238e-06 0.0 0.0 0.0
0001e0 00 00 00 00 00 00 00 00 00 00 00 00 00 00 00 00
       0.0 0.0 0.0 0.0
0001f0 00 00 00 00 00 00 00 00 00 00 00 00 00 00 00 00
       0.0 0.0 0.0 0.0
000200 00 00 00 00 00 00 00 00 00 00 00 00 00 00 00 00
       0.0 0.0 0.0 0.0
000210 00 00 00 00 00 00 00 00 00 00 00 00 00 00 00 00
       0.0 0.0 0.0 0.0
000220 00 00 00 00 00 00 00 00 00 00 00 00 00 00 00 00
       0.0 0.0 0.0 0.0
000230 00 00 00 00 00 00 00 00 00 00 00 00 00 00 00 00
       0.0 0.0 0.0 0.0
000240 00 00 00 00 00 00 00 00 00 00 00 00 d1 5a e6 34
       0.0 0.0 0.0 4.2906916e-07
000250 cb dc f5 34 85 87 dc 34 00 00 00 00 00 00 00 00
       4.5795454e-07 4.1076797e-07 0.0 0.0
000260 00 00 00 00 74 d7 e5 36 8f ae f5 36 87 db e8 36
       0.0 6.849814e-06 7.3218903e-06 6.939695e-06
000270 0b 3b 8c 36 a0 e0 91 36 0f d5 87 36 00 00 00 00
       4.1791986e-06 4.3474865e-06 4.048117e-06 0.0
000280 00 00 00 00 00 00 00 00 d4 9a 54 36 14 ef 60 36
       0.0 0.0 3.1680584e-06 3.3517763e-06
000290 d3 57 51 36 00 00 00 00 00 00 00 00 00 00 00 00
       3.1194547e-06 0.0 0.0 0.0
0002a0 00 00 00 00 00 00 00 00 00 00 00 00 00 00 00 00
       0.0 0.0 0.0 0.0
0002b0 00 00 00 00 00 00 00 00 00 00 00 00 00 00 00 00
       0.0 0.0 0.0 0.0
0002c0 00 00 00 00 00 00 00 00 00 00 00 00 00 00 00 00
       0.0 0.0 0.0 0.0
0002d0 00 00 00 00 00 00 00 00 00 00 00 00 00 00 00 00
       0.0 0.0 0.0 0.0
0002e0 00 00 00 00 00 00 00 00 00 00 00 00 00 00 00 00
       0.0 0.0 0.0 0.0
0002f0 00 00 00 00 00 00 00 00 00 00 00 00 00 00 00 00
       0.0 0.0 0.0 0.0

exp_avg f4 [8]
000000 d2 5a af 3a 34 d2 92 ba 50 58 32 39 a0 f8 f5 39
       0.0013378507 -0.0011201561 0.00017008302 0.00046915282
000010 b8 5e f4 39 00 00 00 00 00 a8 ab 38 00 00 00 00
       0.00046609878 0.0 8.185208e-05 0.0

exp_avg_sq f4 [8]
000000 a1 91 8b 38 ae 67 07 3a 04 77 34 39 88 d2 33 39
       6.655162e-05 0.0005165291 0.00017210474 0.00017149199
000010 98 31 f3 38 00 00 00 00 05 17 b7 38 00 00 00 00
       0.000115963805 0.0 8.730408e-05 0.0
