backend/resources/models/apdex_model.pth (torch, 296898 bytes, 11 tensors)

encoder.0.weight f4 [128, 1, 3]
-0.16113853 0.1308783 0.2140546 0.07573783 0.21583089 0.22337468 0.24353634 0.020316428
-0.15886937 0.42590317 -0.6129067 0.4810562 0.547862 -0.605755 0.49787349 -0.16560273
0.33622202 0.19651663 0.08854364 0.35870916 -0.08546364 0.5662909 0.024129227 -0.34406054
0.49245617 -0.5613325 0.18275192 -0.45677045 0.23754895 -0.35158306 0.55762714 0.4157195
0.12677597 0.0975752 -0.28208637 -0.48764884 -0.013428303 -0.28068933 -0.256047 0.5976967
0.43137908 -0.48467082 -0.28646654 -0.40774894 -0.4774342 0.1178974 -0.29431462 -0.47690204
0.24647221 -0.008587067 -0.30944562 -0.4631033 -0.35244992 -0.4185055 0.3523352 -0.27442345
0.2774067 0.10814044 0.39782205 0.25815713 0.437017 0.020601295 0.42967954 0.14263253
-0.2941309 0.097834535 -0.22340684 0.22501203 0.27742597 0.4735199 -0.47905764 -0.43344724
-0.14519323 -0.27124056 0.5798961 0.14928183 -0.17337485 0.36887157 -0.3175708 0.015299246
-0.3203822 0.043777473 -0.030633545 -0.4933406 0.46132952 0.070697844 0.014568599 0.057130605
-0.50592035 -0.44848442 0.37559846 -0.20953426 0.47163346 -0.2365305 -0.28891852 0.4242739
-0.49854076 0.22399086 -0.51623017 0.579574 -0.2737905 -0.27624077 0.5316104 0.4663044
0.30765805 -0.2796287 -0.3564693 0.116011396 -0.47635257 0.15889667 0.5228733 -0.45929
0.31601554 0.24098179 -0.43356973 0.4036849 0.43485573 0.51893306 -0.19898853 0.32198563
0.5995854 0.42338437 -0.060861573 -0.060695592 -0.23802927 -0.34997278 -0.29030487 -0.5182152
0.26734543 -0.34344387 -0.5199822 -0.16069338 -0.45349643 -0.3326583 0.114848875 -0.22281928
-0.40278044 -0.002748879 0.4223638 -0.56516194 -0.588432 0.31404498 -0.2640358 0.029391445
-0.2523645 0.176759 0.27274346 0.022872265 0.31949824 -0.1550323 0.46263048 0.3106235
0.2845667 0.12576897 0.40542093 -0.2713716 0.51226467 0.15276588 0.22616518 -0.07192888
-0.022788022 -0.53037226 -0.06360821 -0.41719353 0.08244113 -0.124593765 0.37059236 -0.4341375
-0.35159874 0.44653046 -0.0963678 0.35276416 -0.41294068 -0.4353502 -0.5440229 -0.21334365
0.5498272 0.14356172 -0.18261401 -0.5891494 0.08881308 0.06617478 -0.5997824 0.3484596
-0.23123625 -0.58692884 0.4189861 0.04441375 0.27635512 0.5744943 -0.2898245 0.18083635
-0.34781057 -0.46139035 0.012109995 0.10486696 -0.3972866 0.0091721965 0.5323511 0.33584875
0.38682264 -0.07012461 0.2783141 -0.24050464 0.52889585 -0.49703708 -0.26584092 0.5311532
0.48870483 0.5598746 -0.04346953 -0.179047 0.17574571 0.13971405 -0.28448358 -0.46863857
-0.4029976 -0.21619709 0.42735577 0.5029647 -0.22641091 -0.50146073 0.454768 -0.5373546
0.38495782 0.2038426 -0.47693145 -0.31535473 -0.24226788 0.47048393 -0.4814344 0.0734104
0.30289215 0.65478534 -0.005997117 -0.48084575 -0.14423713 -0.3492752 0.015855351 -0.088547036
-0.1891846 0.22802469 -0.5918613 -0.4630822 -0.4950722 -0.018374642 -0.16205612 -0.55559987
-0.265898 0.32018623 -0.15194936 -0.11637155 -0.29720303 -0.10936015 -0.049791712 -0.3853349
00000000: 8001 25be f604 063e 2131 5b3e 6f1c 9b3d
00000010: c602 5d3e 55bc 643e 9761 793e a36e a63c
00000020: a7ae 22be fb0f da3e 74e7 1cbf 004d f63e
00000030: af40 0c3f c212 1bbf 46e9 fe3e c393 29be
00000040: 4b25 ac3e a83b 493e 5e56 b53d baa8 b73e
00000050: 9007 afbd 71f8 103f a8aa c53c b428 b0be
00000060: 3723 fc3e 7db3 0fbf 5223 3b3e d1dd e9be
00000070: 0840 733e b202 b4be a7c0 0e3f 30d9 d43e
00000080: 8fd1 013e 82d5 c73d a06d 90be 1cad f9be
00000090: 6302 5cbc 83b6 8fbe 9818 83be a702 193f
000000a0: b8dd dc3e c626 f8be beab 92be 78c4 d0be
000000b0: 4172 f4be 3174 f13d 68b0 96be 812c f4be
000000c0: 3663 7c3e c5b0 0cbc a86f 9ebe e01b edbe
000000d0: 5174 b4be 5a46 d6be 4865 b43e 3b81 8cbe
000000e0: 4008 8e3e bc78 dd3d 55af cb3e 2c2d 843e
000000f0: b1c0 df3e 0cc4 a83c f5fe db3e 430e 123e
00000100: 5398 96be 795d c83d c3c4 64be 8e69 663e
00000110: c70a 8e3e 3371 f23e 0b47 f5be ccec ddbe
00000120: 89ad 14be 0be0 8abe 1274 143f 56dd 183e
00000130: 2d89 31be bcdc bc3e a498 a2be b0a9 7a3c
00000140: 2309 a4be 0250 333d 33f3 fabc 2497 fcbe
00000150: 6233 ec3e 08ca 903d 22b1 6e3c c801 6a3d
00000160: ff83 01bf c09f e5be 714e c03e 2690 56be
00000170: f179 f13e 0d35 72be 21ed 93be 6e3a d93e
00000180: bc40 ffbe dc5d 653e a927 04bf f65e 143f
00000190: 452e 8cbe 6e6f 8dbe 9f17 083f 73bf ee3e
000001a0: 5b85 9d3e 7e2b 8fbe 2583 b6be 6297 ed3d
000001b0: 7ce4 f3be cfb5 223e 06db 053f 0f28 ebbe
000001c0: cacc a13e eec3 763e dafc ddbe caaf ce3e
000001d0: 69a5 de3e ccd8 043f a6c3 4bbe 4ddb a43e
000001e0: 6e7e 193f d6c5 d83e fc49 79bd f19b 78bd
000001f0: f2bd 73be a22f b3be d7a2 94be c0a9 04bf
00000200: 80e1 883e e0d7 afbe 8e1d 05bf ce8c 24be
00000210: af30 e8be 3052 aabe e335 eb3d bd2a 64be
00000220: 3d39 cebe 8926 34bb 1140 d83e 74ae 10bf
00000230: 7ba3 16bf 81ca a03e b32f 87be 54c6 f03c
00000240: eb35 81be 5000 353e 08a5 8b3e 9e5e bb3c
00000250: 4695 a33e cac0 1ebe e7dd ec3e 0b0a 9f3e
00000260: bab2 913e 95c9 003e 5593 cf3e 38f1 8abe
00000270: c723 033f a96e 1c3e d897 673e 734f 93bd
00000280: f2ad babc 7ac6 07bf 0545 82bd 649a d5be
00000290: e5d6 a83d 042b ffbd 48be bd3e 4547 debe
000002a0: c004 b4be a49f e43e 7b5c c5bd 819d b43e
000002b0: f66c d3be 39e6 debe 1645 0bbf c276 5abe
000002c0: 7ac1 0c3f d801 133e 2bff 3abe 7fd2 16bf
000002d0: a2e3 b53d a586 873d 578b 19bf 4c69 b23e
000002e0: 32c9 6cbe f840 16bf 5985 d63e 31eb 353d
000002f0: 6b7e 8d3e 0f12 133f e063 94be 2a2d 393e
00000300: 3a14 b2be 5b3b ecbe 0069 463c 7dc4 d63d
00000310: 2669 cbbe fb46 163c 2948 083f 5ef4 ab3e
00000320: 9e0d c63e 7e9d 8fbd 307f 8e3e d946 76be
00000330: b865 073f a57b febe 4d1c 88be a8f9 073f
00000340: 8537 fa3e f153 0f3f 1b0d 32bd 1958 37be
00000350: aff6 333e 3311 0f3e d5a7 91be 65f1 efbe
00000360: b455 cebe c562 5dbe 60ce da3e 4bc2 003f
00000370: 43d8 67be bb5f 00bf 5ad7 e83e 1290 09bf
00000380: 3119 c53e 1dbc 503e 5c30 f4be 2d76 a1be
00000390: 1215 78be 45e3 f03e 927e f6be 3158 963d
000003a0: ae14 9b3e 03a0 273f 7783 c4bb 6a31 f6be
000003b0: e6b2 13be 33d4 b2be 15e3 813c 2658 b5bd
000003c0: 9cb9 41be 4e7f 693e 3984 17bf 1c19 edbe
000003d0: 1a7a fdbe 6b86 96bc 0af2 25be cb3b 0ebf
000003e0: c823 88be 73ef a33e 9d98 1bbe 3554 eebd
000003f0: ff2a 98be 37f8 dfbd 65f2 4bbd 9e4a c5be

encoder.0.bias f4 [128]
-0.17657657 0.51091456 -0.17953677 0.04016971 -0.13160935 0.16707781 0.2674648 0.35460111
0.3608136 0.35250875 0.17247033 -0.5033761 0.52991015 -0.32542253 0.33088747 -0.5072366
-0.45871004 -0.47452918 -0.40388325 -0.22246096 -0.23023558 -0.29094902 0.0015441062 -0.52769357
0.0077032032 0.13425727 -0.538972 0.48810232 -0.33919376 0.19077568 -0.044196848 0.0871072
0.25061494 0.31931028 0.21471006 -0.49736983 -0.52014303 -0.52648956 -0.53250456 -0.51321524
-0.5106056 -0.45712072 -0.2741533 -0.029977733 -0.1745438 -0.20597105 -0.47900403 0.5252212
-0.47541758 0.31845054 0.282672 0.04074695 0.054041214 -0.51073843 -0.18827681 -0.35913813
0.40460557 0.029280178 -0.33625206 -0.15584266 0.17931308 -0.4589151 0.32674015 -0.14102583
-0.08341004 0.29497063 0.5334673 0.56825536 -0.05882428 0.35244122 0.008136721 0.29404685
0.032369405 0.43351668 0.25266683 -0.49445447 -0.12843697 -0.05374778 0.13354035 0.00924119
-0.34013826 0.5740295 0.5285364 0.31406713 0.41813695 -0.35221806 -0.44468033 -0.14344525
-0.43797514 0.40773103 0.37254608 0.43868694 0.22123007 -0.34224775 0.060987357 -0.17880385
0.29688147 0.47693786 0.18518855 -0.23830265 0.08128001 0.2280017 -0.48468626 -0.5641705
0.11394013 0.057519604 -0.24383357 -0.14900267 0.5679889 -0.02682275 -0.16251728 0.017757032
0.014326076 0.24705602 0.015419857 0.4623917 -0.011780175 0.2188003 0.15168355 0.3914226
-0.066217646 0.16109858 -0.5589164 -0.27693823 -0.5694257 0.009460686 0.42388725 0.21186286
00000000: 7dd0 34be 4ccb 023f 7dd8 37be fe88 243d
00000010: 9ac4 06be 7216 2b3e 25f1 883e 478e b53e
00000020: 8fbc b83e 077c b43e 109c 303e 42dd 00bf
00000030: 31a8 073f c89d a6be 156a a93e 42da 01bf
00000040: 0bdc eabe 7df5 f2be c9c9 cebe cecc 63be
00000050: e0c2 6bbe 45f7 94be 9b63 ca3a ed16 07bf
00000060: 276b fc3b bd7a 093e 12fa 09bf 8ce8 f93e
00000070: ceaa adbe b35a 433e c107 35bd 4265 b23d
00000080: 9a50 803e a37c a33e f4dc 5b3e 42a7 febe
00000090: 1828 05bf 05c8 06bf 3852 08bf 1362 03bf
000000a0: 0cb7 02bf ba0b eabe d25d 8cbe dd93 f5bc
000000b0: 9cbb 32be 13ea 52be 0440 f5be e674 063f
000000c0: ef69 f3be f30b a33e 62ba 903e 46e6 263d
000000d0: 525a 5d3d c1bf 02bf a3cb 40be f4e0 b7be
000000e0: 7628 cf3e fcdc ef3c 3b29 acbe 3895 1fbe
000000f0: d99d 373e ecf6 eabe 7c4a a73e 1369 10be
00000100: e2d2 aabd 6406 973e 5091 083f 2f79 113f
00000110: baf1 70bd 2d73 b43e e24f 053c 4f8d 963e
00000120: c895 043d e6f5 dd3e 8c5d 813e 2329 fdbe
00000130: fb84 03be a226 5cbd cdbe 083e 5c68 173c
00000140: 9a26 aebe 99f3 123f 294e 073f 68cd a03e
00000150: 0c16 d63e ed55 b4be 24ad e3be 50e3 12be
00000160: 473e e0be 1fc2 d03e 5cbe be3e 939b e03e
00000170: 238a 623e 193b afbe e1cd 793d 5b18 37be
00000180: d900 983e 3331 f43e 11a2 3d3e 9c05 74be
00000190: 2276 a63d 4779 693e cc28 f8be 7a6d 10bf
000001a0: 7159 e93d ad99 6b3d 82af 79be 2894 18be
000001b0: b867 113f 62bb dbbc ee6a 26be 3277 913c
000001c0: ebb7 6a3c 41fc 7c3e 91a3 7c3c 9bbe ec3e
000001d0: a301 41bc 300d 603e ef52 1b3e 8b68 c83e
000001e0: 1e9d 87bd 07f7 243e 2515 0fbf d9ca 8dbe
000001f0: e2c5 11bf fe00 1b3c c007 d93e 94f2 583e

encoder.3.weight f4 [64, 128, 3]
-0.03940919 0.026812341 -0.04281989 0.008512297 -0.025153082 0.05337075 0.025391338 0.012738322
-0.0040291334 -0.062378913 0.0023370525 0.035384167 -0.067222826 0.00012234341 -0.016758295 0.034289207
-0.0007079101 0.029671045 0.032928247 0.05078418 -0.009077513 -0.029420907 0.020807628 -0.041984025
-0.01305736 0.016448792 -0.020348428 0.0104578165 0.045865234 -0.046920374 -0.034133293 -0.0129249105
0.04496516 -0.02219706 -0.03112317 -0.0031389038 -0.023377711 0.049853213 0.043656543 -0.026938733
0.026503384 0.054405864 -0.026679829 0.053599544 -0.0052830637 -0.032291524 -0.026877033 -0.001060022
-0.056469023 -0.037508506 0.032478176 -0.031878743 0.022446185 -0.0072923726 0.009692151 -0.06162926
-0.014120253 0.018867351 -0.056036472 -0.08131627 0.00417025 0.06410562 -0.085952066 -0.037678715
-0.03813127 0.0016747924 -0.0632161 0.009863969 0.014759854 0.04230915 0.009464069 0.016492547
-0.03783728 -0.009115623 0.0041548545 -0.058812216 -0.013722864 0.03138904 -0.0066142417 0.0034962092
-0.03361179 -0.043824937 -0.025790446 0.033191096 -0.044952095 -0.0027872513 0.055997726 0.04914966
0.020961223 -0.044726476 -0.066058055 -0.035738997 -0.045515053 -0.0009467063 -0.008736786 0.030062996
0.0003712615 0.03466564 0.01500237 -0.056166977 -0.055873007 -0.002827983 0.026600229 0.004374365
0.045435566 -0.011076503 -0.035057336 0.023823155 0.011610623 -0.04454526 0.016715202 0.026664758
0.018763011 -0.066979595 -0.034511995 -0.020478632 -0.0024702668 -0.04488529 -0.05706022 -0.036676355
-0.025471004 0.0028205982 -0.01555087 -0.02493993 -0.006031073 -0.013022259 -0.08182919 -0.017621284
0.035660032 -0.0056493436 -0.03349589 -0.026624115 -0.01587546 -0.008100956 0.03952091 -0.027714383
0.010247021 -0.023855314 -0.032058243 0.010057028 0.036079668 -0.026115868 -0.008654274 0.058007516
0.03941109 -0.01707158 -0.05035702 0.0065504536 0.029609712 -0.04393295 -0.021881627 -0.033681776
0.026724106 -0.08567716 -0.04809766 -0.06556258 -0.019447396 -0.044025052 0.008924945 0.008656627
-0.015216222 -0.048962016 -0.023989687 -0.02567608 -0.016601834 0.0161901 0.030078636 -0.039372433
0.01839628 0.049200926 0.05098525 0.027641999 -0.024162116 -0.06122297 -0.09170594 -0.055599943
-0.018257696 -0.06312812 0.031073853 -0.052166417 0.0422215 0.015396446 -0.06688045 -0.005373851
0.016660757 0.037910946 0.028000059 -0.040526718 0.050074834 -0.018865062 0.0012415865 -0.040717907
0.04759738 0.0061282157 0.04037661 -0.0107706785 0.0374755 -0.00848662 -0.011214486 -0.012237691
0.0046059727 0.04037795 0.044787157 -0.011436869 -0.03676243 0.0082413545 0.010093212 -0.045780554
-0.026981713 -0.0045132665 -0.02512727 -0.047813658 0.03615131 -0.018360054 0.041843835 -0.0038381936
0.009232461 -0.043479137 0.0072302725 0.033768054 0.03515807 -0.050539117 0.016433422 -0.034601536
0.06182921 0.028556854 0.002956997 -0.02356305 -0.036036834 0.0029170376 -0.06603713 -0.11604939
0.0031185816 -0.039782472 0.0516432 -0.017979806 -0.04621258 0.07207234 0.030383704 -0.03932587
-0.02936648 -0.025908168 -0.017753216 -0.023981512 0.027948579 0.023326743 0.02750535 0.01571037
0.04236586 -0.023104822 -0.003322594 -0.042741504 0.022792798 0.05526009 0.023558699 0.062325004
00000000: 886b 21bd 8ea5 db3c e963 2fbd 2977 0b3c
00000010: d60d cebc 4a9b 5a3d 7f01 d03c 65b4 503c
00000020: d206 84bb 0881 7fbd 3c29 193b fdee 103d
00000030: 1fac 89bd 4f49 0039 b148 89bc d772 0c3d
00000040: 0b93 39ba b110 f33c c5df 063d 1303 503d
00000050: d9b9 14bc 1d04 f1bc c274 aa3c 71f7 2bbd
00000060: 8aee 55bc 9ebf 863c bfb1 a6bc 4357 2b3c
00000070: 2fdd 3b3d 942f 40bd 5acf 0bbd 01c3 53bc
00000080: 632d 383d 9cd6 b5bc 05f6 febc 11b6 4dbb
00000090: 9d82 bfbc e232 4c3d 34d1 323d 9eae dcbc
000000a0: a01d d93c afd8 5e3d a88f dabc 328b 5b3d
000000b0: 8d1d adbb 1e44 04bd 392d dcbc 70f0 8aba
000000c0: 104c 67bd 85a2 19bd d607 053d 4993 02bd
000000d0: 10e1 b73c dbf4 eebb d4cb 1e3c f76e 7cbd
000000e0: a258 67bc b48f 9a3c 8086 65bd 2589 a6bd
000000f0: 98a6 883b cf49 833d a307 b0bd ff54 1abd
00000100: 892f 1cbd b584 db3a 7177 81bd 7c9c 213c
00000110: 51d3 713c 5c4c 2d3d 2f0f 1b3c 611b 873c
00000120: 44fb 1abd b259 15bc 7225 883b 14e5 70bd
00000130: ddd5 60bc cb91 003d 48bc d8bb a820 653b
00000140: 84ac 09bd c781 33bd 7c46 d3bc 63f3 073d
00000150: b01f 38bd 51aa 36bb df5d 653d 2751 493d
00000160: dfb6 ab3c 1c33 37bd 7249 87bd 0e63 12bd
00000170: fe6d 3abd 622c 78ba bd24 0fbc ac46 f63c
00000180: e0a5 c239 8ffd 0d3d 80cc 753c 580f 66bd
00000190: 18db 64bd ae55 39bb b9e8 d93c d556 8f3b
000001a0: a51a 3a3d 397a 35bc 4898 0fbd c728 c33c
000001b0: 7c3a 3e3c 1775 36bd 52ee 883c 0d70 da3c
000001c0: e3b4 993c 992c 89bd 735c 0dbd cec2 a7bc
000001d0: 33e4 21bb a3d9 37bd fab7 69bd f239 16bd
000001e0: 91a8 d0bc c9d9 383b 14c9 7ebc d34e ccbc
000001f0: 4fa0 c5bb 505b 55bc 1096 a7bd 835a 90bc
00000200: 4110 123d 211e b9bb fd32 09bd d11a dabc
00000210: 410d 82bc dfb9 04bc ade0 213d 4609 e3bc
00000220: 1fe3 273c 386c c3bc 814f 03bd 3cc6 243c
00000230: 46c8 133d f2f0 d5bc a8ca 0dbc 4a99 6d3d
00000240: 866d 213d b3d9 8bbc 2a43 4ebd 30a5 d63b
00000250: 1190 f23c 09f3 33bd 1941 b3bc e7f5 09bd
00000260: 83ec da3c 8277 afbd 0d02 45bd ad45 86bd
00000270: 2550 9fbc 9d53 34bd ef39 123c 86d4 0d3c
00000280: 764d 79bc 658c 48bd 0586 c4bc a456 d2bc
00000290: 9200 88bc 1aa1 843c 7967 f63c fd44 21bd
000002a0: ccb3 963c e986 493d e9d5 503d 7971 e23c
000002b0: a1ef c5bc f0c4 7abd 53d0 bbbd c4bc 63bd
000002c0: 2a91 95bc 5149 81bd 988e fe3c 74ac 55bd
000002d0: 74f0 2c3d 6041 7c3c 9ef8 88bd 2117 b0bb
000002e0: 247c 883c 8248 1b3d 6160 e53c 58ff 25bd
000002f0: 451b 4d3d e78a 9abc bbbc a23a d2c7 26bd
00000300: 78f5 423d 33cf c83b f261 253d 8077 30bc
00000310: e97f 193d 770b 0bbc f7bc 37bc 9980 48bc
00000320: b3ed 963b 5963 253d bd72 373d b561 3bbc
00000330: 3494 16bd bf06 073c 005e 253c 6484 3bbd
00000340: c108 ddbc 06e4 93bb b4d7 cdbc 41d8 43bd
00000350: 6513 143d d367 96bc 7164 2b3d 348a 7bbb
00000360: c043 173c 2e17 32bd eceb ec3b 5f50 0a3d
00000370: e901 103d 1b02 4fbd 629f 863c 57ba 0dbd
00000380: a040 7d3d 10f0 e93c 2dca 413b 4c07 c1bc
00000390: 5c9b 13bd c52b 3f3b 7a3e 87bd 4dab edbd
000003a0: 1e61 4c3b f2f2 22bd d287 533d 634a 93bc
000003b0: 6749 3dbd aa9a 933d 3fe7 f83c 2a14 21bd
000003c0: f991 f0bc 5e3d d4bc 316f 91bc e074 c4bc
000003d0: 6bf4 e43c ba17 bf3c e652 e13c 09b3 803c
000003e0: d387 2d3d 5346 bdbc e1bf 59bb b711 2fbd
000003f0: f6b7 ba3c 6758 623d 2cfe c03c 8148 7f3d

encoder.3.bias f4 [64]
0.030809777 -0.034904 0.011632633 -0.03634322 0.011490394 -0.022411428 0.018996356 -0.009848153
-0.045829263 0.018892305 -0.013355984 0.017258158 0.01587916 0.04276401 0.0048926407 -0.013470872
-0.03545301 0.020310149 -0.03637107 -0.01543346 0.03636161 0.0068429527 0.03136222 -0.016666869
0.05566486 -0.027947446 0.055967536 0.03790645 -0.024096556 0.0054945126 -0.02207699 -0.0014633483
0.04386343 -0.011999063 0.039610595 0.041991446 0.0022127023 -0.027979799 -0.022103665 0.006631608
0.01740532 0.0009634574 0.04179605 -0.05556431 0.034043867 0.061575223 0.017045228 0.014205573
0.0086909495 -0.02896278 -0.027867462 0.020740736 -0.051889226 0.028851751 0.012504436 -0.052420866
0.022565011 0.010717745 0.050154794 0.03134969 0.013209608 -0.0010966548 -0.033031184 0.0040808814
00000000: c964 fc3c 7ff7 0ebd cd96 3e3c a1dc 14bd
00000010: 3542 3c3c 2c98 b7bc 3f9e 9b3c 265a 21bc
00000020: 77b7 3bbd 09c4 9a3c 0fd3 5abc fb60 8d3c
00000030: 0315 823c 5129 2f3d 7252 a03b efb4 5cbc
00000040: 2d37 11bd 7861 a63c d5f9 14bd 9fdc 7cbc
00000050: e9ef 143d d93a e03b ac75 003d f588 88bc
00000060: d600 643d 0bf2 e4bc 373e 653d cb43 1b3d
00000070: 2466 c5bc 500b b43b ceda b4bc d2cd bfba
00000080: 24aa 333d b897 44bc b83e 223d 39ff 2b3d
00000090: fc02 113b e435 e5bc bf12 b5bc f64d d93b
000000a0: 9a95 8e3c 8890 7c3a 5632 2b3d 6797 63bd
000000b0: 9571 0b3d 4d36 7c3d 6fa2 8b3c 7ebe 683c
000000c0: 7c64 0e3c 5a43 edbc 4e4a e4bc 7ae8 a93c
000000d0: cc89 54bd 825a ec3c 68df 4c3c 43b7 56bd
000000e0: 42da b83c 7b99 2f3c 1d6f 4d3d 8868 003d
000000f0: 1d6d 583c a1bd 8fba b54b 07bd eab8 853b

encoder.6.weight f4 [32, 64, 3]
0.0159568 0.018596893 0.027002614 -0.010637653 0.06285995 -0.06463913 -0.027075872 -0.047770057
0.04421912 0.0034418227 0.08523194 0.0701973 -0.023507334 0.051548813 -0.0012862441 0.0014745815
0.03311302 0.05445125 0.047695473 0.0015131008 0.053689566 -0.03447453 0.023116313 -0.069722556
-0.0027850778 -0.07826365 0.023318144 0.045495752 0.070184916 -0.028822875 0.046128433 0.027365534
0.06253666 0.004394103 -0.031876136 0.017025432 -0.04189763 -0.011853196 0.045096114 0.0044623925
0.0034157627 -0.038309198 -0.014578442 0.067013994 -0.0005223701 -0.041759018 -0.05474342 0.057580948
-0.008601271 0.04145963 0.072351664 0.06647314 0.034527473 0.0077705965 -0.010541466 -0.049878463
-0.037867256 0.0339209 0.07197218 0.035433963 0.055788536 0.05606946 0.06518395 0.0010835316
-0.06594543 -0.041234996 0.0025937154 -0.06060155 0.053878985 -0.07034158 -0.07235552 0.07045034
0.018063132 0.00806108 0.031707663 0.052656174 0.040286336 0.03471516 -0.029756198 -0.038440287
-0.012497059 0.041289542 0.03317415 -0.015511815 0.06851675 -0.06676558 -0.046704803 -0.023834385
0.031739116 0.08265347 0.0020066174 -0.045687858 -0.030793965 0.054066096 0.016229197 0.03254135
0.013564173 0.033598755 0.043250553 0.0059387353 -0.0053917766 -0.026570925 -0.03840093 -0.02988521
-0.018511735 0.021598427 0.019705063 -0.01445347 0.023430338 0.011565004 -0.0058541624 -0.04912184
0.03489476 0.0066141374 -0.04616375 0.042002182 0.06599655 0.047384776 0.019968307 -0.02233053
0.02462742 0.005449834 -0.024560371 -0.017879294 0.061392393 0.038588446 -0.05131528 0.0198735
-0.036446415 -0.051494844 0.014317447 -0.018900122 0.004455806 0.002497774 0.014696296 0.013662917
-0.039376814 -0.08910435 -0.06043395 0.021792123 0.047225922 -0.053693745 0.06472701 -0.011591558
0.0075408584 -0.006551062 -0.021162704 0.0053765182 -0.050015617 -0.023605097 0.026296716 0.024058292
-0.048638523 -0.056248195 0.0017588155 0.01575901 0.063781954 0.04370167 0.04010029 0.053109724
-0.0069547184 -0.046547305 0.0023566552 0.06089675 -0.062571645 -0.04094807 0.004532519 0.04201431
0.058123466 -0.05506963 -0.045042597 0.058248248 0.0021353 -0.061380263 0.0019118901 -0.03245174
0.03701606 0.045527034 -0.06593074 0.013331466 -0.06879399 -0.03112694 -0.056011517 0.06724266
-0.063358955 0.06322916 0.028430825 -0.057342343 0.012810916 0.061538644 -0.07382101 0.039623704
-0.053939942 -0.018704925 0.018308625 0.056125756 -0.059533775 0.050292645 -0.068786405 -0.035109594
-0.05356254 0.0029582018 -0.013220415 -0.06284468 -0.06907295 0.050092906 -0.018957974 0.02297482
-0.064412944 0.051259004 0.0035743453 0.045682754 -0.019502563 0.03751533 0.016597385 0.018067826
-0.07495395 0.014297815 -0.035544366 0.042781536 0.04191531 0.020123074 -0.010264599 -0.07921952
0.0010888965 -0.018996462 -0.05658194 -0.04823343 -0.045928586 0.004087501 -0.012525473 -0.046930138
0.0073296907 0.056764908 -0.0727363 0.012988746 0.023659097 -0.04903245 0.043343972 0.06005807
-0.040489282 0.0147970775 0.041498575 0.025747206 0.048116997 -0.06311357 -0.040656146 0.033023104
-0.019613048 -0.07038508 0.019762382 -0.032517426 -0.0413007 0.024208749 -0.028818332 -0.04932136
00000000: d6b7 823c 8358 983c 9634 dd3c 8d49 2ebc
00000010: b8bc 803d 8561 84bd 38ce ddbc 89aa 43bd
00000020: 1c1f 353d 3490 613b 158e ae3d 9ac3 8f3d
00000030: 7492 c0bc d924 533d 3197 a8ba bf46 c13a
00000040: 85a1 073d 4608 5f3d 545c 433d 3d53 c63a
00000050: 97e9 5b3d 2a35 0dbd 6c5e bd3c b3ca 8ebd
00000060: da85 36bb b148 a0bd b105 bf3c c159 3a3d
00000070: 1cbd 8f3d f31d ecbc 2bf1 3c3d af2d e03c
00000080: 3813 803d 68fc 8f3b 8d90 02bd eb78 8b3c
00000090: d99c 2bbd e833 42bc b4b6 383d 4339 923b
000000a0: fdda 5f3b 1bea 1cbd 6bda 6ebc a23e 893d
000000b0: aaef 08ba 810b 2bbd a33a 60bd 00da 6b3d
000000c0: 58ec 0cbc 93d1 293d 1c2d 943d 1223 883d
000000d0: ae6c 0d3d 7da0 fe3b 1db6 2cbc 5c4d 4cbd
000000e0: b21a 1bbd a4f0 0a3d 2666 933d 3423 113d
000000f0: 8582 643d 17a9 653d 2a7f 853d 4a05 8e3a
00000100: 660e 87bd 07e6 28bd 53fb 293b 5539 78bd
00000110: 36b0 5c3d 3f0f 90bd 222f 94bd 4548 903d
00000120: 22f9 933c 9f12 043c e5df 013d 00ae 573d
00000130: 4903 253d 7c31 0e3d 45c3 f3bc 9073 1dbd
00000140: 77c0 4cbc 391f 293d 9ee1 073d 4525 7ebc
00000150: 8352 8c3d 64bc 88bd 894d 3fbd 5440 c3bc
00000160: e000 023d 3946 a93d 7481 033b 3123 3bbd
00000170: a043 fcbc 6974 5d3d 18f3 843c 144a 053d
00000180: 443c 5e3c d99e 093d 7e27 313d b999 c23b
00000190: 80ad b0bb 45ab d9bc 4b4a 1dbd d4d1 f4bc
000001a0: eca5 97bc 2fef b03c 836c a13c 3fce 6cbc
000001b0: fbf0 bf3c 247b 3d3c 46d4 bfbb fc33 49bd
000001c0: cfed 0e3d 68bb d83b 3316 3dbd 7b0a 2c3d
000001d0: 3329 873d 8a16 423d 9394 a33c 84ee b6bc
000001e0: 71bf c93c 8594 b23b d532 c9bc 9977 92bc
000001f0: 9776 7b3d eb0e 1e3d f92f 52bd c0cd a23c
00000200: d648 15bd 42ec 52bd ba93 6a3c 6ed4 9abc
00000210: 0302 923b b2b1 233b bcc8 703c 6dda 5f3c
00000220: 9549 21bd 577c b6bd 9789 77bd 6585 b23c
00000230: f86f 413d f9ed 5bbd 988f 843d 85ea 3dbc
00000240: 4e19 f73b 4baa d6bb 685d adbc 812d b03b
00000250: 2ddd 4cbd 7a5f c1bc 366c d73c e515 c53c
00000260: 3039 47bd 8264 66bd 0e88 e63a 0a19 813c
00000270: 1da0 823d 8600 333d 3440 243d 9589 593d
00000280: 68e4 e3bb 63a8 3ebd 1d72 1a3b df6e 793d
00000290: 9025 80bd 2ab9 27bd 8685 943b 3217 2c3d
000002a0: df12 6e3d b190 61bd 967e 38bd b795 6e3d
000002b0: 64f0 0b3b df69 7bbd 6398 fa3a 1eec 04bd
000002c0: 279e 173d 8e7a 3a3d b206 87bd 396c 5a3c
000002d0: dde3 8cbd edfd febc 556c 65bd 85b6 893d
000002e0: 57c2 81bd 4a7e 813d c3e7 e83c cedf 6abd
000002f0: e0e4 513c f20f 7c3d 782f 97bd 774c 223d
00000300: 21f0 5cbd 123b 99bc f8fb 953c 1fe4 653d
00000310: b0d9 73bd a9ff 4d3d e3df 8cbd 14cf 0fbd
00000320: 6564 5bbd 64de 413b 719a 58bc b6b4 80bd
00000330: 1e76 8dbd 382e 4d3d c14d 9bbc b135 bc3c
00000340: efea 83bd f6f4 513d 903f 6a3b d71d 3b3d
00000350: d7c3 9fbc ada9 193d 3df7 873c fa02 943c
00000360: 7581 99bd 6241 6a3c f896 11bd b13b 2f3d
00000370: 63af 2b3d 25d9 a43c d92c 28bc d83d a2bd
00000380: 4eb9 8e3a 789e 9bbc 77c2 67bd 6b90 45bd
00000390: 9d1f 3cbd 72f0 853b a437 4dbc d139 40bd
000003a0: e72d f03b 5282 683d c5f6 94bd c0ce 543c
000003b0: b9d0 c13c 40d6 48bd 7389 313d 73ff 753d
000003c0: 17d8 25bd 716f 723c 69fa 293d ceeb d23c
000003d0: 5416 453d b041 81bd 0f87 26bd 3c43 073d
000003e0: 8bab a0bc 0e26 90bd b8e4 a13c fe30 05bd
000003f0: ec2a 29bd 6d51 c63c 6c14 ecbc 3205 4abd

encoder.6.bias f4 [32]
-0.022985315 -0.045059793 0.0101748165 0.057976376 0.024722023 -0.04742244 -0.017455554 0.07112203
0.008856615 0.06114618 0.035198886 0.029829172 0.015134273 0.068512164 0.008816326 -0.033360608
-0.04154658 0.04667675 0.04436528 -0.036974613 0.03023662 0.0010338215 0.05743861 -0.005256676
-0.02598045 0.05038152 -0.003309348 -0.07005115 0.010048547 -0.06324644 0.0074083568 0.048440572
00000000: b34b bcbc 9e90 38bd 46b4 263c a378 6d3d
00000010: d785 ca3c 083e 42bd f3fe 8ebc 6da8 913d
00000020: 561b 113c 6b74 7a3d b52c 103d 4f5c f43c
00000030: bef5 773c 1b50 8c3d 5a72 103c 22a5 08bd
00000040: bf2c 2abd 1f30 3f3d 5eb8 353d b172 17bd
00000050: cab2 f73c 4b81 873a bf44 6b3d 3240 acbb
00000060: f4d4 d4bc da5c 4e3d a5e1 58bb fa76 8fbd
00000070: a9a2 243c 5987 81bd cdc1 f23b 9f69 463d

decoder.0.weight f4 [32, 64, 4]
0.05913584 -0.031135386 -0.037452266 -0.0017360558 0.015173765 0.025453756 -0.018046705 0.0058960197
-0.016060898 0.058360815 0.005852509 0.029495876 0.02767225 0.020619461 -0.053744655 -0.0634841
-0.05757457 -0.011073371 0.025679406 0.0011166302 0.02653941 0.0329867 -0.0071557807 0.016714336
-0.022323856 0.028303675 0.013216957 -0.0029199685 0.059228405 -0.019958867 -0.03007924 0.021870013
-0.05669324 0.027620101 -0.0519911 -0.007014078 -0.05821592 0.014460387 0.04304912 0.046621226
0.0063690073 -0.003136886 0.012602184 -0.0460035 0.0043593454 -0.022658179 -0.0016921234 -0.030306535
0.036568552 0.057603147 0.055329554 -0.053885147 0.050352078 0.016501866 -0.000985025 -0.025452202
-0.05528526 -0.048924007 -0.018863935 -0.018806387 0.0009906841 0.020645536 0.0059858286 0.03380955
0.003496148 -0.015696695 -0.023181623 -0.04727285 0.022725746 0.063666865 -0.049314536 -0.06514071
-0.051082354 0.056382556 0.057083093 -0.019200848 0.033849522 0.039488293 -0.06006173 -0.058321875
0.025471509 0.025283745 0.0302194 0.03632325 0.036249734 -0.045623105 -0.057198185 0.022006238
0.008623325 0.0023733557 0.00042607042 0.031831045 -0.0086842645 -0.0054065664 -0.036767017 -0.010921556
-0.027365748 -0.061214317 0.0047398848 -0.02566884 0.019092673 -0.0343071 -0.055331543 0.066114254
0.04074608 -0.04274029 -0.046980806 -0.050962586 -0.035090044 0.023818465 -0.05165801 0.022270884
-0.009192028 -0.048290975 -0.06766572 -0.036254972 0.024039663 0.05943307 -0.020273212 -0.027094098
-0.05559887 0.023536045 -0.010898517 0.046686646 0.05439796 -0.04663083 0.0046632513 -0.04447003
-0.009608107 -0.033012062 -0.053896036 0.013673775 0.0418958 0.0506148 0.031027125 0.016603103
-0.023014924 -0.03277707 0.045615416 -0.029878005 -0.0014546539 0.03266596 0.043464553 -0.054208253
0.013150272 0.032598373 0.035802435 0.03370238 0.03936157 0.010901485 -0.022856664 -0.022152418
-0.0127119385 0.037915476 -0.015288043 0.03893252 -0.028478144 -0.05273261 0.01268918 -0.05500007
0.048755374 -0.04289503 0.031818137 -0.031221839 0.06411831 -0.03670929 0.036332395 0.044710405
0.04583399 -0.028112877 0.029326655 -0.04218628 0.011643942 0.034293517 -0.0015637612 0.023994148
-0.038597576 -0.014745023 0.049973473 -0.028987203 0.009401729 -0.01573807 0.02542592 -0.03028369
-0.008639883 -0.0127196815 0.04073197 0.015652662 0.017142182 -0.0071532517 0.030744975 0.016408714
0.012914538 0.05004426 0.030352592 0.044323634 0.018082377 0.04078242 0.02007874 0.0011021715
0.011339817 0.058019612 0.006937965 -0.035880595 -0.061408777 0.08126826 -0.010701272 -0.08634764
-0.024791613 -0.010182907 0.021853298 -0.0636395 0.01540438 0.07552452 0.058964927 0.016344314
0.048895847 0.0059626945 0.056753162 0.032683548 -0.026967015 0.013644469 0.028952124 -0.049310546
-0.029044347 0.05890667 -0.009828143 0.00653722 -0.034489047 -0.040189102 -0.06394077 -0.037763875
0.029650364 -0.032530144 0.04702124 -0.04264175 0.005908037 0.025858378 0.015373917 0.012008554
0.00015475386 0.05549362 -0.02301667 -0.011427156 -0.06251361 0.051989257 0.05523488 0.046487022
-0.041705817 0.006765391 0.013279863 0.059157394 -0.021641443 0.027411386 -0.021294462 0.05837177
00000000: 6c38 723d a30f ffbc 8c67 19bd 5e8c e3ba
00000010: 629b 783c 6584 d03c afd6 93bc 6633 c13b
00000020: 2592 83bc c00b 6f3d 67c6 bf3b 56a1 f13c
00000030: eab0 e23c 25ea a83c 5b23 5cbd f403 82bd
00000040: 50d3 6bbd 166d 35bc 9e5d d23c e45b 923a
00000050: 2d69 d93c 101d 073d 0a7b eabb 81ec 883c
00000060: 85e0 b6bc 1cdd e73c f08b 583c f15c 3fbb
00000070: 7c99 723d c780 a3bc bd68 f6bc be28 b33c
00000080: 2c37 68bd 8d43 e23c 9ff4 54bd 5ad6 e5bb
00000090: d173 6ebd 42eb 6c3c 4654 303d e6f5 3e3d
000000a0: 1bb3 d03b 3794 4dbb 6479 4e3c 2b6e 3cbd
000000b0: d7d8 8e3b a59d b9bc 3dca ddba 6945 f8bc
000000c0: e8c8 153d 47f1 6b3d 3ea1 623d acb6 5cbd
000000d0: fb3d 4e3d ec2e 873c f41b 81ba 2381 d0bc
000000e0: cc72 62bd 8a64 48bd 8a88 9abc da0f 9abc
000000f0: d8d9 813a d420 a93c c524 c43b e27b 0a3d
00000100: a11f 653b 5b96 80bc 63e7 bdbc 2da1 41bd
00000110: 582b ba3c c663 823d 0afe 49bd 7e68 85bd
00000120: bb3b 51bd 65f1 663d f6cf 693d 194b 9dbc
00000130: cca5 0a3d 7abe 213d 4a03 76bd ebe2 6ebd
00000140: a0a9 d03c db1f cf3c ad8e f73c b0c7 143d
00000150: 9a7a 143d 4bdf 3abd a548 6abd 6d46 b43c
00000160: d948 0d3c 4d8a 1b3b 3462 df39 4561 023d
00000170: 7248 0ebc 9129 b1bb 0399 16bd 53f0 32bc
00000180: 222e e0bc ddbb 7abd 0951 9b3b 7647 d2bc
00000190: 3d68 9c3c 9a85 0cbd 54a3 62bd e966 873d
000001a0: 5de5 263d 7110 2fbd f26e 40bd 25be 50bd
000001b0: 94ba 0fbd f11e c33c 5997 53bd 6e71 b63c
000001c0: 299a 16bc c2cc 45bd 5394 8abd 1880 14bd
000001d0: d4ee c43c 1770 733d 0214 a6bc 71f4 ddbc
000001e0: a4bb 63bd aace c03c b28f 32bc 7f3a 3f3d
000001f0: 65d0 5e3d f8ff 3ebd 30ce 983b 3526 36bd
00000200: 526b 1dbc a837 07bd 17c2 5cbd f807 603c
00000210: ee9a 2b3d 7751 4f3d 992c fe3c 3b03 883c
00000220: cb89 bcbc 4041 06bd 3bd7 3a3d b8c2 f4bc
00000230: 16aa beba becc 053d e307 323d 7909 5ebd
00000240: 3d74 573c df85 053d 93a5 123d 820b 0a3d
00000250: 9939 213d 249c 323c e63d bbbc fd78 b5bc
00000260: bc45 50bc 424d 1b3d b37a 7abc b577 1f3d
00000270: ff4a e9bc 26fe 57bd 47e6 4f3c c147 61bd
00000280: b7b3 473d b3b2 2fbd bc53 023d f1c4 ffbc
00000290: 7650 833d 7b5c 16bd 47d1 143d 4222 373d
000002a0: 6cbc 3b3d fa4c e6bc 743e f03c 85cb 2cbd
000002b0: 3cc6 3e3c 5c77 0c3d 1ef7 ccba 608f c43c
000002c0: 7e18 1ebd 1c95 71bc fcb0 4c3d 9276 edbc
000002d0: b609 1a3c 20ed 80bc 054a d03c 8015 f8bc
000002e0: 4c8e 0dbc 3666 50bc 91d6 263d 033a 803c
000002f0: c36d 8c3c d365 eabb e3dc fb3c 916b 863c
00000300: 8097 533c 36fb 4c3d 00a6 f83c b38c 353d
00000310: 7e21 943c 780b 273d 2b7c a43c bd76 903a
00000320: a4ca 393c f9a5 6d3d de57 e33b 88f7 12bd
00000330: c587 7bbd f96f a63d 6354 2fbc 08d7 b0bd
00000340: c817 cbbc 35d6 26bc b005 b33c 6d55 82bd
00000350: a762 7c3c 99ac 9a3d 3585 713d 83e4 853c
00000360: 0347 483d b562 c33b 0176 683d 2fdf 053d
00000370: eee9 dcbc 0d8d 5f3c 012d ed3c dbf9 49bd
00000380: 69ee edbc 1f48 713d 3806 21bc 2d36 d63b
00000390: 6344 0dbd 549d 24bd 61f3 82bd 4bae 1abd
000003a0: 52e5 f23c 543e 05bd 5899 403d 1ea9 2ebd
000003b0: 3598 c13b f3d4 d33c e2e2 7b3c 87bf 443c
000003c0: 6c45 2239 474d 633d 758d bcbc f738 3bbc
000003d0: 2307 80bd b0f2 543d f83d 623d 2d69 3e3d
000003e0: b8d3 2abd 37b0 dd3b c893 593c 064f 723d
000003f0: 6549 b1bc d88d e03c b971 aebc 3d17 6f3d

decoder.0.bias f4 [64]
-0.0103348885 -0.04427445 0.0010524557 0.038749747 -0.050116807 -0.052381147 -0.041534714 0.036209583
-0.004936305 0.019965833 -0.012127256 0.02271924 0.05442598 -0.05614384 0.005066593 -0.025091488
-0.010785381 0.025175428 0.03381824 -0.009337457 0.000345813 0.029976934 0.027768241 0.010632794
-0.03361356 -0.040538136 0.044816032 -0.022629842 -0.016557015 0.01623732 0.010967086 -0.041935142
-0.060593225 0.05448521 -0.06030829 0.00945785 -0.06295069 0.018383207 0.047858056 0.051666755
-0.010353215 0.055513915 0.02866593 -0.051059715 -0.012393344 -0.028983861 0.058581866 0.04156492
0.035047498 0.01796242 -0.044731766 0.031654775 -0.02699131 -0.024640113 0.046328843 -0.061780557
0.059531245 -0.04191033 0.005598276 -0.059060458 -0.018462682 -0.056456957 0.03202733 -0.039100107
00000000: aa53 29bc 2059 35bd 8ef2 893a 0eb8 1e3d
00000010: 4847 4dbd 9d8d 56bd 4e20 2abd 8050 143d
00000020: bac0 a1bb 638f a33c 66b1 46bc b31d ba3c
00000030: c7ed 5e3d 15f7 65bd aa05 a63b aa8c cdbc
00000040: 2bb5 30bc b33c ce3c ff84 0a3d 22fc 18bc
00000050: 3c4e b539 3092 f53c 397a e33c 2c35 2e3c
00000060: 5fae 09bd 510b 26bd 0491 373d 3862 b9bc
00000070: 94a2 87bc 2104 853c 4baf 333c 2fc4 2bbd
00000080: 9a30 78bd e22b 5f3d d305 77bd 19f5 1a3c
00000090: 4bec 80bd 6198 963c cf06 443d 85a0 533d
000000a0: 88a0 29bc 8f62 633d d0d4 ea3c fe23 51bd
000000b0: 740d 4bbc 906f edbc 8af3 6f3d fa3f 2a3d
000000c0: f78d 0f3d ed25 933c a838 37bd 70a8 013d
000000d0: e11c ddbc 10da c9bc 50c3 3d3d 9c0d 7dbd
000000e0: 09d7 733d 2baa 2bbd be71 b73b 61e9 71bd
000000f0: 0d3f 97bc 693f 67bd 172f 033d 6f27 20bd

decoder.2.weight f4 [64, 128, 4]
-0.01560371 -0.01756785 0.016624374 0.010323474 -0.038749613 -0.0024064959 -0.0008856002 -0.0032642782
-0.0077816606 -0.036873464 -0.030490482 -0.012638287 0.027454492 -0.008621269 -0.010391911 -0.023863483
-0.022711542 -0.004478313 -0.07146916 -0.013442358 0.02796917 0.04352069 -0.044331945 -0.033163216
-0.041686762 -0.057339706 -0.028027913 0.018396074 -0.039953373 -0.0029281129 0.040564682 0.006231287
0.024410952 0.03251509 -0.017632026 -0.02066349 0.017646939 0.023208626 0.020922078 -0.044414863
-0.009975756 0.014947564 -0.04039466 -0.03267177 -0.043488137 -0.022575315 -0.025515506 -0.020090766
0.029964902 -0.02966294 -0.015825666 0.0072807027 -0.008771055 0.03767293 0.024311138 -0.017595887
-0.01731677 0.0063755736 -0.024284389 -0.016343815 0.011580448 0.018676864 0.040199004 0.031054057
0.026327051 0.028757965 0.036444016 0.03418239 -0.015905492 -0.0076513896 0.035539877 0.022075642
0.014325635 -0.014126074 0.0030302287 0.0043261377 -0.022097774 0.0020238368 0.0033378142 -0.03820718
0.029097077 -0.032865454 0.018198984 -0.020850776 0.016052885 0.023207678 0.016328087 0.036882743
-0.013284052 0.027603216 -0.030793568 0.01936195 0.014419102 -0.02076993 -0.0010664505 0.02371535
0.029879455 0.034032613 0.02191362 0.011748579 -0.014660736 -0.012376868 0.033847444 0.0049929055
0.009740337 0.030969346 -0.01100951 -0.03550821 0.025712496 -0.0021354628 -0.041209906 0.022340007
0.037637055 0.029111687 -0.024652554 -0.018414155 0.022084542 -0.00068072235 -0.023247465 -0.002281584
-0.03266414 -0.024634039 0.022765461 -0.041799646 -0.0018838256 -0.00011764743 0.041587256 0.0026167932
0.00517589 -0.039650735 0.027488861 -0.0017324844 0.024272759 0.06732097 -0.038804557 -0.053707108
0.01475442 -0.029824506 -0.0030134693 -0.034709617 0.0029091248 0.025460359 0.0016710794 0.021836773
0.022775581 0.0008993075 0.0073867664 -0.010976621 -0.02232193 -0.060817674 0.021440452 0.03081633
-0.012249916 -0.009797516 -0.031254448 0.025336763 0.020583864 -0.029733753 -0.0050772964 -0.041625395
0.03899307 0.023850346 0.03298672 -0.00082380645 -0.012255683 -0.012086437 -0.014539578 0.03167357
0.03934574 -0.010832454 0.013946698 0.042117476 0.030259356 0.010103143 -0.0359754 -0.018312003
0.018176774 0.023915466 -0.04329276 -0.033807892 -0.036718164 0.00752989 -0.009634089 -0.0027214955
-0.026643507 0.017567983 0.022060381 0.028717026 -0.020593764 0.013792721 0.049872324 0.03345628
0.022952095 -0.03793542 -0.0046907794 -0.03794725 -0.02615903 0.028166357 -0.001226298 -0.01744068
0.036263812 -0.043988064 0.038570162 0.018464372 0.01676224 -0.021991761 0.05316834 0.0051291585
0.016848147 -0.022868738 0.0022276316 0.04090945 0.02636424 -0.010816975 0.0058808955 -0.008259172
0.026941601 -0.030013781 0.03995571 0.020994164 -0.028138854 0.010640963 -0.019958287 0.03164979
0.008488893 6.4769585e-05 -0.03378197 -0.018731697 -0.047217086 0.0150107 -0.05580397 -0.0742441
0.0012040362 0.01661241 0.039069127 -0.041746117 0.037221212 -0.025577389 -0.04745189 -0.03476615
-0.029391976 0.03888089 0.03824262 0.004939732 0.03322856 -0.013392632 -0.012816939 0.026008928
-0.02740733 0.022351863 -0.0066259922 0.028427115 -0.10050393 -0.028448027 0.032416143 0.009140244
00000000: b4a6 7fbc 74ea 8fbc d72f 883c ca23 293c
00000010: eab7 1ebd 4db6 1dbb a027 68ba 80ed 55bb
00000020: 4dfd febb a108 17bd 2dc7 f9bc d110 4fbc
00000030: 3ee8 e03c 3940 0dbc d542 2abc 5a7d c3bc
00000040: 8e0d babc d0be 92bb 6c5e 92bd 563d 5cbc
00000050: 9a1f e53c c042 323d 6a95 35bd 27d6 07bd
00000060: bdbf 2abd 0add 6abd cb9a e5bc 5db3 963c
00000070: 26a6 23bd 95e5 3fbb 2727 263d d32f cc3b
00000080: 7af9 c73c 8b2e 053d 0a71 90bc 7b46 a9bc
00000090: 5090 903c 0420 be3c c764 ab3c 5cec 35bd
000000a0: 5a71 23bc a1e6 743c df74 25bd d5d2 05bd
000000b0: 9e20 32bd deef b8bc e505 d1bc 6495 a4bc
000000c0: f478 f53c b2ff f2bc d4a4 81bc f692 ee3b
000000d0: 79b4 0fbc ee4e 1a3d 2728 c73c 4025 90bc
000000e0: e6db 8dbc 30ea d03b 0ef0 c6bc 77e3 85bc
000000f0: ebbb 3d3c 3900 993c b6a7 243d 1465 fe3c
00000100: d4ab d73c d395 eb3c 5246 153d d502 0c3d
00000110: 3c4c 82bc 82b8 fabb 4392 113d fad7 b43c
00000120: 11b6 6a3c 0c71 67bc cd96 463b 46c2 8d3b
00000130: 6406 b5bc 59a2 043b 3bbf 5a3b 227f 1cbd
00000140: fe5c ee3c ed9d 06bd 0916 953c 3fcf aabc
00000150: 5781 833c 071e be3c 7bc2 853c 5c12 173d
00000160: 5aa5 59bc 2420 e23c cb42 fcbc f49c 9e3c
00000170: 193e 6c3c b325 aabc 24c8 8bba b246 c23c
00000180: c2c5 f43c c865 0b3d 3184 b33c 1d7d 403c
00000190: 9533 70bc 59c8 4abc 9ea3 0a3d 879b a33b
000001a0: ef95 1f3c 6db3 fd3c 3b61 34bc 0f71 11bd
000001b0: 03a3 d23c 1ff3 0bbb b8cb 28bd 6402 b73c
000001c0: 5029 1a3d a27b ee3c 27f4 c9bc 48d9 96bc
000001d0: a4ea b43c 8172 32ba 7871 bebc a186 15bb
000001e0: d5ca 05bd 53cd c9bc a27e ba3c 1b36 2bbd
000001f0: b3ea f6ba 7cb9 f6b8 6657 2a3d 817e 2b3b
00000200: 839a a93b cf68 22bd 5230 e13c 8814 e3ba
00000210: aad7 c63c 94df 893d 87f1 1ebd fcfb 5bbd
00000220: 86bc 713c 8652 f4bc a07d 45bb ac2b 0ebd
00000230: 04a7 3e3b 3e92 d03c 1f08 db3a 08e3 b23c
00000240: db93 ba3c 81bf 6b3a b00c f23b 49d7 33bc
00000250: 7bdc b6bc f41b 79bd e3a3 af3c 8772 fc3c
00000260: dfb3 48bc c385 20bc aa04 00bd 0b8f cf3c
00000270: 7e9f a83c 3394 f3bc 735f a6bb 647f 2abd
00000280: 33b7 1f3d cd61 c33c 151d 073d b7f4 57ba
00000290: 0fcc 48bc 3106 46bc 6937 6ebc 25bc 013d
000002a0: 0029 213d 9b7a 31bc b180 643c 6083 2c3d
000002b0: 78e2 f73c a787 253c f15a 13bd 0e03 96bc
000002c0: 75e7 943c 5eea c33c c053 31bd 257a 0abd
000002d0: c965 16bd 4cbd f63b 4cd8 1dbc 1e5b 32bb
000002e0: 7c43 dabc bbea 8f3c f9b7 b43c f83f eb3c
000002f0: 41b4 a8bc ddfa 613c ec46 4c3d 7409 093d
00000300: 0806 bc3c 2c62 1bbd 1cb5 99bb 936e 1bbd
00000310: 764b d6bc 22bd e63c bcbb a0ba c2df 8ebc
00000320: 5d89 143d d42c 34bd bffb 1d3d 9842 973c
00000330: f750 893c 1128 b4bc 0cc7 593d 8012 a83b
00000340: 2005 8a3c 3857 bbbc 75fd 113b ab90 273d
00000350: d2f9 d73c ae39 31bc 87b4 c03b 7a51 07bc
00000360: a2b4 dc3c 76df f5bc 99a8 233d f4fb ab3c
00000370: 7483 e6bc 6f57 2e3c 907f a3bc 36a3 013d
00000380: ff14 0b3c e8d4 8738 f75e 0abd 3773 99bc
00000390: b466 41bd 70ef 753c b492 64bd 4a0d 98bd
000003a0: c0d0 9d3a c016 883c f306 203d fafd 2abd
000003b0: 4575 183d ac87 d1bc ea5c 42bd f366 0ebd
000003c0: 71c7 f0bc 9141 1f3d 4ba4 1c3d 7add a13b
000003d0: ac1a 083d c56c 5bbc 23fe 51bc ad10 d53c
000003e0: 5685 e0bc 411b b73c da1e d9bb fbdf e83c
000003f0: 01d5 cdbd d60b e9bc cac6 043d f6c0 153c

decoder.2.bias f4 [128]
0.0049670655 0.015238198 0.016423324 -0.025584886 0.03444129 -0.03377107 -0.03444833 0.04404822
0.05065167 -0.030924633 -0.00488159 0.035193883 -0.0055832295 -0.05118267 0.016683994 0.032218155
0.029861381 -0.04780467 0.033423785 -0.011580476 -0.05186317 -0.013694022 0.03713321 -0.022823373
-0.017679583 -0.041388106 -0.024420464 -0.015137396 0.022576967 0.041575793 0.04373268 0.02240446
0.0026391658 0.03066936 -0.027661238 0.046826497 -0.035388783 -0.034268096 0.025520302 0.032935776
0.011378321 -0.0404356 0.02604047 -0.03254554 0.014401155 0.0064710756 0.008102036 0.042636503
0.02793359 0.023687694 -0.03884961 0.0014097644 0.024104116 0.024435712 -0.018060315 -0.019039996
0.0284933 -0.006701084 0.029983295 -0.018103661 -0.015222713 -0.006490757 0.045591425 0.022480447
0.03428656 -0.0110671595 0.02854538 0.04432476 0.034895733 -0.023217432 -0.0138034625 0.03346854
0.009113666 0.018508617 0.055191852 -0.013103679 0.021269191 -0.021685561 -0.011994346 0.0025905669
-0.020114249 -0.0006242974 0.016700575 0.0005785086 0.029400798 0.0028220376 -0.019803295 -0.026278434
0.023677194 -0.010750378 -0.021405442 0.022368133 0.008643031 0.023595937 0.009967115 -0.0377853
-0.03325635 0.04394868 0.01347755 0.019990617 0.0008821797 0.05005355 0.01886547 0.029166069
0.020646475 -0.014799799 0.031680636 -0.035503093 0.04693898 -0.019947764 -0.0038786174 0.009727741
0.027410807 -0.034184963 -0.026001122 -0.028492078 -0.0031972108 0.014718167 -0.036162365 0.031138897
-0.017025432 0.022923637 -0.009687873 -0.008045117 -0.015243534 0.004005429 -0.03488896 0.0337655
00000000: c4c2 a23b a3a9 793c 358a 863c 6597 d1bc
00000010: 4f12 0d3d 8953 0abd b119 0dbd e86b 343d
00000020: 2078 4f3d a855 fdbc bff5 9fbb 7627 103d
00000030: 86f3 b6bb eba4 51bd dfac 883c 2ff7 033d
00000040: db9f f43c d4ce 43bd 61e7 083d 09bc 3dbc
00000050: 7a6e 54bd e45c 60bc fe18 183d 15f8 babc
00000060: c6d4 90bc 9386 29bd 6d0d c8bc d702 78bc
00000070: 55f3 b83c 614b 2a3d 0a21 333d 8f89 b73c
00000080: dbf5 2c3b 4f3e fb3c d299 e2bc 24cd 3f3d
00000090: d4f3 10bd b45c 0cbd f40f d13c aae7 063d
000000a0: 236c 3a3c cd9f 25bd d352 d53c 794e 05bd
000000b0: d2f2 6b3c 510b d43b 67be 043c 9da3 2e3d
000000c0: fcd4 e43c b20c c23c c520 1fbd d8c7 b83a
000000d0: ff75 c53c 672d c83c 3af3 93bc c4f9 9bbc
000000e0: c86a e93c c494 dbbb 879f f53c 214e 94bc
000000f0: b068 79bc 6bb0 d4bb 13be 3a3d ea28 b83c
00000100: 1070 0c3d 0853 35bc 00d8 e93c e18d 353d
00000110: d4ee 0e3d 7c32 bebc eb27 62bc 4f16 093d
00000120: 7c51 153c 629f 973c da10 623d d0b0 56bc
00000130: ba3c ae3c eba5 b1bc ef83 44bc 80c6 293b
00000140: a3c6 a4bc e4a7 23ba a5cf 883c 0ea7 173a
00000150: f1d9 f03c eff1 383b 853a a2bc df45 d7bc
00000160: adf6 c13c 5a22 30bc 775a afbc 603d b73c
00000170: 809b 0d3c 444c c13c 1c4d 233c c2c4 1abd
00000180: cf37 08bd 8803 343d f1d0 5c3c 5dc3 a33c
00000190: 1442 673a f404 4d3d c28b 9a3c aeed ee3c
000001a0: cc22 a93c db7a 72bc 8ec3 013d b16b 11bd
000001b0: 1743 403d 7e69 a3bc 6730 7ebb 1a61 1f3c
000001c0: a18c e03c 8805 0cbd 4e00 d5bc 3868 e9bc
000001d0: 4c88 51bb 7724 713c fd1e 14bd 0017 ff3c
000001e0: eb78 8bbc 5aca bb3c e2b9 1ebc abcf 03bc
000001f0: 04c0 79bc f93f 833b bae7 0ebd b14d 0a3d

decoder.4.weight f4 [128, 1, 4]
-0.3910188 -0.22900045 0.4133544 -0.3905409 -0.32657766 0.25182247 -0.15533163 -0.17671968
-0.40443176 0.4313886 -0.0006581449 -0.45190927 0.26529744 -0.40914717 -0.024045914 -0.12778464
0.39388528 -0.11222265 0.36697996 -0.10484706 -0.32823056 0.16278978 -0.24802807 -0.119582586
-0.4933463 0.019362126 0.0631086 -0.3251127 -0.30090657 0.24027112 -0.2881859 -0.29508808
0.10731552 -0.11763268 -0.21336888 -0.30606115 -0.118861824 -0.2837434 0.4690006 -0.4075332
-0.21739802 -0.21167405 0.31959736 -0.0005105966 0.2725247 0.37692866 -0.42525917 0.3016339
-0.30981597 0.27080083 -0.49061367 -0.2861194 0.49104595 -0.10215258 0.2026408 -0.4056399
0.4481489 -0.18731013 -0.13410354 0.14997214 -0.11193926 -0.12990706 0.19074947 -0.4244115
-0.3695077 0.45284083 -0.4773809 -0.20004407 0.15313777 0.41869378 -0.04118703 -0.33092618
-0.20873483 -0.33134606 -0.29513797 -0.43059647 0.33847708 0.030553779 -0.30252412 -0.35110912
0.3669265 0.43714434 0.35044807 0.41714752 0.1324909 -0.16676055 0.48404843 -0.3808737
-0.23865052 0.3163093 0.012212845 -0.40359002 0.2575877 0.098715626 0.43958145 0.25074238
0.24842024 0.052595172 -0.07896452 -0.03741805 0.34878576 0.35889664 0.09352864 0.068109624
-0.17576404 0.464091 -0.3746794 -0.25343692 -0.46793664 -0.26684207 0.35142568 -0.44762415
-0.3261261 0.36104465 0.22676656 0.13417843 -0.17366186 -0.21373348 -0.23470335 0.37295267
-0.45542684 -0.15524675 -0.37402573 -0.33874592 0.12256781 -0.23891708 -0.20695846 -0.26573175
-0.48496407 0.43171835 -0.100604944 0.0015702153 -0.50247496 0.40562922 0.1704227 -0.11291629
0.18668579 -0.47808647 0.0008947109 0.33215603 -0.47843024 0.12790339 -0.16698313 -0.20297785
-0.041475512 0.13185412 0.34370446 0.42026174 0.330346 0.09488171 0.2589646 0.1790631
-0.1769764 0.1566275 0.13648765 -0.22759342 0.2694686 -0.37045145 0.2951791 0.44389293
-0.37847957 -0.3283967 0.32893133 -0.30119863 -0.04446596 -0.1045272 -0.24538068 -0.0076364926
-0.086495616 -0.12324589 0.4799652 0.27761084 -0.034247354 0.118787155 -0.3137057 -0.04305915
0.32838216 0.22915995 -0.22938956 0.036436263 -0.292369 0.48894867 -0.46109316 -0.29556993
-0.5000237 0.40919828 -0.19654176 -0.33940428 -0.33780658 -0.26754218 -0.08686698 0.4848235
0.15918584 0.096111424 -0.08051936 0.12555347 0.17149806 0.07378623 -0.50099134 -0.13686036
-0.12055317 0.0077585625 -0.4753753 0.4663089 0.39981836 -0.43962505 -0.5018054 -0.30171788
-0.20130241 -0.2623536 -0.28035215 -0.19683112 0.043113943 -0.16687995 0.18282303 -0.013847615
-0.39856347 0.24523172 -0.1910801 -0.11446845 0.3992127 0.25703633 0.1178733 0.1376713
-0.49153027 0.21780029 0.0764767 0.093298644 0.1683146 0.3328936 0.19921227 -0.041824296
0.17154029 0.37887958 -0.30903956 -0.3652781 0.19856788 -0.16493423 -0.25346074 0.09216988
-0.087324366 0.12999412 0.23040701 0.47999236 -0.48038465 0.3049615 -0.25052205 0.079460524
-0.38503894 -0.14726266 0.13630314 -0.44245446 0.41709405 0.26006886 -0.06563761 0.48871562
00000000: 9e33 c8be 187f 6abe 30a3 d33e faf4 c7be
00000010: 3035 a7be e0ee 803e 410f 1fbe 01f6 34be
00000020: ae11 cfbe f7de dc3e 5b87 2cba a760 e7be
00000030: 11d5 873e bd7b d1be f0fb c4bc fad9 02be
00000040: 55ab c93e fdd4 e5bd cce4 bb3e 0eba d6bd
00000050: d60d a8be 5db2 263e 12fb 7dbe b7e7 f4bd
00000060: e397 fcbe 529d 9e3c 153f 813d 2c75 a6be
00000070: 6d10 9abe a209 763e 1a8d 93be c915 97be
00000080: 3dc8 db3d 67e9 f0bd 5f7d 5abe 0cb4 9cbe
00000090: d46d f3bd d146 91be d920 f03e 31a8 d0be
000000a0: 969d 5ebe 15c1 58be 44a2 a33e 8fd9 05ba
000000b0: 5c88 8b3e cbfc c03e 92bb d9be c26f 9a3e
000000c0: 33a0 9ebe 68a6 8a3e b731 fbbe 3e7e 92be
000000d0: 606a fb3e 5f35 d1bd 1281 4f3e 08b0 cfbe
000000e0: c673 e53e 3ace 3fbe 7052 09be 4c92 193e
000000f0: 6940 e5bd 5b06 05be d453 433e 774c d9be
00000100: 1d30 bdbe c1da e73e 456b f4be 5ad8 4cbe
00000110: 26d0 1c3e 085f d63e bbb3 28bd 286f a9be
00000120: 95be 55be 31a6 a9be 531c 97be 2477 dcbe
00000130: de4c ad3e eb4b fa3c 71e4 9abe 93c4 b3be
00000140: cadd bb3e 62d1 df3e ee6d b33e 5c94 d53e
00000150: b2ab 073e 47c3 2abe 32d5 f73e e101 c3be
00000160: cd60 74be 4bf3 a13e 6218 483c 5aa3 cebe
00000170: 89e2 833e 6b2b ca3d d210 e13e 4e61 803e
00000180: e061 7e3e 096e 573d 26b8 a1bd ab43 19bd
00000190: 0c94 b23e 4dc1 b73e f28b bf3d 0f7d 8b3d
000001a0: 7dfb 33be 569d ed3e fad5 bfbe 7cc2 81be
000001b0: 6495 efbe 869f 88be 11ee b33e fe2e e5be
000001c0: 00fa a6be d8da b83e 7e35 683e 1266 093e
000001d0: 6ad4 31be f3dc 5abe 1356 70be a7f3 be3e
000001e0: b52d e9be 01f9 1ebe 4d80 bfbe 1b70 adbe
000001f0: d504 fb3d aea6 74be ebec 53be fe0d 88be
00000200: 364d f8be 300a dd3e f709 cebd afcf cd3a
00000210: 33a2 00bf a2ae cf3e 4a83 2e3e a840 e7bd
00000220: 8f2a 3f3e c0c7 f4be 088b 6a3a 5b10 aa3e
00000230: cff4 f4be 1bf9 023e a0fd 2abe 6dd9 4fbe
00000240: 3ae2 29bd c404 073e 08fa af3e 8c2c d73e
00000250: 1c23 a93e 5851 c23d 0297 843e 515c 373e
00000260: 4d39 35be f662 203e 6bc3 0b3e 400e 69be
00000270: caf7 893e d0ab bdbe b721 973e ef45 e33e
00000280: 13c8 c1be 9d23 a8be b069 a83e b536 9abe
00000290: f021 36bd 5b12 d6bd 1345 7bbe 8b3b fabb
000002a0: 9d24 b1bd 5768 fcbd 00be f53e 0223 8e3e
000002b0: f446 0cbd ae46 f33d 099e a0be cb5e 30bd
000002c0: b521 a83e e8a8 6a3e 19e5 6abe 313e 153d
000002d0: 64b1 95be 7b57 fa3e 6714 ecbe f154 97be
000002e0: 8e01 00bf 7082 d13e 3e42 49be 66c6 adbe
000002f0: fcf4 acbe 4afb 88be 51e7 b1bd c93a f83e
00000300: 9d01 233e 11d6 c43d 56e7 a4bd 1791 003e
00000310: 309d 2f3e 3c1d 973d f840 00bf 1f25 0cbe
00000320: 95e4 f6bd 8a3b fe3b 6464 f3be 0ac0 ee3e
00000330: feb4 cc3e 8916 e1be 5276 00bf c47a 9abe
00000340: 3822 4ebe 3653 86be 518a 8fbe 198e 49be
00000350: 3f98 303d 94e2 2abe f635 3b3e 1be1 62bc
00000360: 8310 ccbe 061e 7b3e 80aa 43be 6f6e eabd
00000370: 9b65 cc3e 449a 833e 8f67 f13d b5f9 0c3e
00000380: dba9 fbbe 0a07 5f3e d19f 9c3d 5c13 bf3d
00000390: aa5a 2c3e 0871 aa3e 4dfe 4b3e f44f 2bbd
000003a0: 42a8 2f3e 81fc c13e 6f3a 9ebe bb05 bbbe
000003b0: 6155 4b3e 85e4 28be 9bc5 81be 90c3 bc3d
000003c0: 1ed7 b2bd 2e1d 053e d1ef 6b3e 8fc1 f53e
000003d0: faf4 f5be ea23 9c3e 6d44 80be 33bc a23d
000003e0: d323 c5be 06cc 16be 0d93 0b3e 6489 e2be
000003f0: 5a8d d53e bf27 853e 036d 86bd ef38 fa3e
