backend/resources/models/apdex_model.pth (torch, 297330 bytes, 11 tensors)

encoder.0.weight f4 [128, 1, 3]
00000000: fed2 b3be 9c75 983d 6498 96be 4e6c 7abd
00000010: 96bb 03bf e9de 36be b914 63bc f446 fe3e
00000020: 573c c93e 38af d53e 4e93 803e 9073 983e
00000030: 9a0f 16bf 671a f0be 5103 b4bd 5b0d 95be
00000040: e7bf 893d 9bdb 91bd 0ae6 fc3d d8b1 533e
00000050: 4087 0fbf ff62 5ebe 49a7 c13e 2d48 953e
00000060: be59 42be 24a1 bfbe d0c0 91be c91c 063e
00000070: bf03 90be fe72 8f3d 2b93 2d3e ed20 b23e
00000080: 6b6a 43be 29f9 933e 084f 82be 0ca9 05bf
00000090: 6aca d9bb b5f6 0c3e d91d a13e 864d 0b3f
000000a0: f2bf 4cbd 21ef 903e 7716 91bd 488e fe3e
000000b0: 6190 f9be a7a6 d33e 52bb df3e 61f7 ef3d
000000c0: a107 cdbe c513 b4bd 4c9f c5be 2568 283d
000000d0: 3cd8 adbe e6dc 53be 2641 cc3e cc70 b7be
000000e0: 8dc3 91be a60f de3e ba16 e53e 548e a83d
000000f0: 5a93 90bd 1a64 01bf 9f90 253e b350 b93e
00000100: 1939 71be 84e9 df3e c76c 20bc 8628 903e
00000110: 1ace f2be b8c3 763c 5582 a0be 8626 123e
00000120: dc22 1abf 7da0 e83e bdba d43e 25a0 ee3c
00000130: 36e4 c6be ddd3 0bbf 489c 893e 60d7 a53e
00000140: 65d9 103f 4133 dcbd 175f c0be 068e ecbe
00000150: 5961 f9be 3d22 863e 642e 15bd 1303 0d3e
00000160: a5f2 e9be 399d bebe 452d abbe a7a9 1bbd
00000170: 74cc c3bd f534 48bd bf7b 81be 1eeb 36bd
00000180: 5cf4 b5bd 20e0 833e 668f b33e a96a bcbe
00000190: bbed 15bf 253b 993d 0714 a4be 13a8 17bf
000001a0: 3155 9c3e 2463 38bc d0b4 a23e ebce 913d
000001b0: 262a 8a3e d9e3 dabe 366c f53e dae5 95be
000001c0: caec 043e 55bc 07bf 8fbf 073f c3a7 74be
000001d0: a329 fcbe 25b1 663d cd5b 06bf 8922 003f
000001e0: 6456 883e 7480 8abe 8ef3 d7bd 0510 94be
000001f0: c6e4 a5be 18f8 b13e a9f7 dbbe 9f6f e83e
00000200: 47ba 2bbe fbff ec3e fbd7 983b 17f4 b33d
00000210: c56d 8abd 8ff9 e33e b2bf 4dbe 390d 3fbe
00000220: 3d03 623e 5ab0 09be ec74 193f 1671 dbbc
00000230: dbf0 a43e b8eb 53be dec5 133f adce b63a
00000240: 3d90 af3e 0aa8 e83e 1c47 18bf 2e71 943e
00000250: a8ca de3e 55de c0be 72c5 02bf 6398 1dbe
00000260: b3d3 8bbe 3ec3 ca3e 8072 da3e 9590 4ebd
00000270: c060 383d bd79 50bd afef e2bd 7441 b93d
00000280: 07ba 48bd a922 963e 81f9 63be 98c0 dc3d
00000290: 75d6 d8be 6bcb afbe 1862 e4be 86d5 c53e
000002a0: 3428 013e 18c9 c6be 6222 0b3e 3064 cebe
000002b0: 249d 03bf 34fb 233f 263d df3d 1f92 8cbd
000002c0: 3ca4 b4bd cc6a 8cbe 0c98 11bf dc5e 803e
000002d0: 225e 08bf 8833 d53e 65f0 be3e 34c7 29be
000002e0: 3cfd 8c3e c6b5 113f 37ca 4fbd 838f 49be
000002f0: 38ee 613e 08a9 0b3e 88e6 013f df90 0fbf
00000300: b8e9 d03e 06f1 083f 5619 8cbd 3dce 853e
00000310: 65c5 88be 8828 57be 480d 4e3e d3e6 2b3d
00000320: 8351 cfbe e6e5 233e 3597 2cbe d268 02bf
00000330: 2262 d83e b68e f1be 2fdf 95be a0a8 fdbe
00000340: 8068 f2be 667d a13e 312b 023f 17c6 17bf
00000350: ed25 933e 5fcb b33e 150c 003f 726d 8f3e
00000360: 7d61 9f3e 43fd 08bf ca9c 4fbe d0f5 f2be
00000370: 53ca 4cbc acb8 ac3d f92f 1bbf 5d80 77bc
00000380: f3e5 66bd 0d4a b8be 3ccd aebe b6c0 5cbe
00000390: df07 acbe 7b07 edbe 9e7a dabe 63b5 18bc
000003a0: 1b86 b0be 8714 0bbf 4fcf 063e d3fe 0a3f
000003b0: 811d a1be 5d6a 9fbe a602 cbbe b126 0abf
000003c0: 21cb b7bd 4d74 a8be 4fab bfbe cba5 05bf
000003d0: af80 133f 9f79 22be 7e3e c7be 5e7d 04bf
000003e0: 8a28 a6be 0c58 c5be ccdf df3e abda c93e
000003f0: 0306 a43e fcf5 fbbe 4011 86be f810 57be
-0.35121912 0.07444307 -0.2941314 -0.061138444 -0.5145811 -0.17858471 -0.013859921 0.49663508
0.39303848 0.41735244 0.25112385 0.29775667 -0.58617556 -0.46895143 -0.08789695 -0.29111752
0.067260556 -0.071219645 0.12348564 0.20673311 -0.5606575 -0.21717452 0.3782294 0.29156628
-0.18979546 -0.37427628 -0.28467417 0.13096918 -0.28127858 0.07004355 0.16950671 0.34790745
-0.19083564 0.28901032 -0.2545092 -0.5221107 -0.006646444 0.13765986 0.31468084 0.54415166
-0.04998774 0.2830744 -0.07084363 0.49717927 -0.48742965 0.41338083 0.43697602 0.11717106
-0.40044883 -0.08792833 -0.38598096 0.041114945 -0.33954036 -0.20689735 0.39893454 -0.35828245
-0.28469506 0.43371314 0.44743901 0.08230272 -0.07059355 -0.5054337 0.1616845 0.3619438
-0.23556937 0.43732846 -0.00979156 0.28155917 -0.47422868 0.015061311 -0.31349435 0.14272508
-0.6020944 0.45434943 0.4154872 0.029129097 -0.38845986 -0.5462015 0.26877046 0.3239088
0.5658172 -0.107519634 -0.37572548 -0.46202105 -0.48707083 0.26197997 -0.036421195 0.13770704
-0.45692936 -0.37229326 -0.33432975 -0.03800359 -0.09560481 -0.04887863 -0.25289723 -0.04465782
-0.088844985 0.2575693 0.35070342 -0.36800125 -0.5856587 0.07481984 -0.3204653 -0.59240836
0.30533746 -0.011254106 0.31778574 0.071195446 0.26985282 -0.4275196 0.4793412 -0.29276925
0.12980953 -0.53021747 0.5302667 -0.23892121 -0.49250516 0.056321282 -0.52483827 0.50052696
0.2662841 -0.27051127 -0.10544501 -0.28918472 -0.32401103 0.34759593 -0.42962387 0.4539766
-0.16770278 0.46289048 0.0046644188 0.08786791 -0.06759218 0.44526336 -0.20092657 -0.18657388
0.22071548 -0.13446179 0.59944034 -0.026787322 0.32215008 -0.20695388 0.57723796 0.0013947092
0.34289733 0.45440704 -0.59483504 0.289926 0.4351399 -0.37669626 -0.5108253 -0.15390162
-0.2730995 0.39602083 0.42665482 -0.050430853 0.045014143 -0.05089735 -0.11080872 0.09045687
-0.049005534 0.2932332 -0.22263147 0.10778922 -0.42351118 -0.34334883 -0.4460609 0.38639468
0.12612993 -0.38825297 0.13587335 -0.40310812 -0.5141165 0.6405518 0.10900335 -0.06863808
-0.08820388 -0.2742523 -0.5687263 0.25072372 -0.53268635 0.41640878 0.3729278 -0.16579896
0.27536952 0.5691799 -0.050729956 -0.19683652 0.2206353 0.13638699 0.5074239 -0.5608043
0.40803313 0.5349277 -0.0684077 0.2613391 -0.267131 -0.21011555 0.20122254 0.041968178
-0.40491876 0.16005668 -0.16854556 -0.50941193 0.4226237 -0.47179192 -0.29271838 -0.49542713
-0.47345352 0.31540984 0.50847155 -0.59286636 0.28739873 0.35116097 0.50018436 0.28013188
0.31129065 -0.53511447 -0.20274654 -0.47453165 -0.01249941 0.08433661 -0.60620075 -0.015106288
-0.05637164 -0.35993996 -0.34140956 -0.21557888 -0.33599755 -0.4629477 -0.42671674 -0.00932059
-0.34477314 -0.543282 0.1316502 0.5429508 -0.31467822 -0.31135836 -0.39650458 -0.5396529
-0.08974291 -0.3290123 -0.37435386 -0.52206105 0.5761823 -0.15866707 -0.38914865 -0.51753795
-0.32452804 -0.38543737 0.4372543 0.39424643 0.32035837 -0.4921111 -0.26185036 -0.21002567

encoder.0.bias f4 [128]
00000000: 87c2 603d 43fb fb3d 91c4 8cbc 4731 72bd
00000010: 6491 a4be 7279 ccbe 6d23 1abf 835b 26be
00000020: eeca f5be d094 58be e153 0e3f 80d0 22be
00000030: ded1 9b3d 8662 133f 50f1 0ebe f9a1 113e
00000040: 5fab 083f e822 b6be c8ef eabe 0f03 8dbe
00000050: 36b9 603e 7aff 2ebe 5bbf 04bf 12b5 a1be
00000060: 88b9 9dbe 76a0 ae3e 6168 d33e 8ebf d9be
00000070: 01bb 113f fd7c 5a3e 6b21 dd3e 44c9 10be
00000080: 6c52 2cbe 1bbb dfbe d1e0 b83e 8401 913e
00000090: b918 c1bd 351c ed3e d643 9cbe 0c4c d8be
000000a0: 6a30 a8bd 1157 09be d7af 713d b8c8 25be
000000b0: 5b51 a3be a181 e03e 28a7 87be de35 0abe
000000c0: f5de 083e 7ebf ff3e 7b70 763e 45f1 6cbe
000000d0: e60c e8be 86c1 f83e bfaf ee3e 50fc c3be
000000e0: b8bc 04be 4082 9b3c 6125 4f3e 064a f23e
000000f0: 6f1f 8a3e 463f e43e 2f80 94be 8a10 01bf
00000100: b8b8 08bf a196 e7be a940 f03e 6c6f 293d
00000110: 905d 68be 6b7e b2be be1c b7be 83f2 d33e
00000120: a7bd 83be 05d4 99be cfe8 dbbe c97b 433e
00000130: 7f14 013c 99a7 c4bb f03b 06bb 177f f1bd
00000140: a8fd 993d 79f6 30be c613 0cbf d2ea 00bf
00000150: 1570 ed3d ffc3 87be da41 b8be fe7d 7d3e
00000160: 1927 22be 9dec 5a3e 323b ae3d 2b98 ecbe
00000170: 9292 473e 1910 ac3c 033d a83e 28fc 0abe
00000180: 3a3c d83e bb87 a5be cc35 ea3c c7d8 f63e
00000190: 6bd9 f3be af66 023e 964b a83d 6336 ec3e
000001a0: 3ea8 a43e 4d38 183e 93b9 aabd 8b93 9cbe
000001b0: 48e9 693e 7e7a 123f d03b c9bd fc23 8abe
000001c0: bda2 073f 71a9 a6be a2b0 2d3e 3735 c63c
000001d0: 9d0d 03bf c5d9 41bd 3fa6 07bf 42a6 fa3e
000001e0: b14b 2cbe a0ec d03d 6352 8f3e dac4 7d3e
000001f0: 6424 b13e 4678 3bbe 86fa a93e 8031 013f
0.054873016 0.12303784 -0.017183574 -0.059129026 -0.32142174 -0.39936405 -0.60210305 -0.16245846
-0.48006386 -0.21150517 0.5559674 -0.15899849 0.07608388 0.5757221 -0.13959241 0.14221944
0.5338649 -0.35573506 -0.45886064 -0.27541396 0.21945652 -0.17089644 -0.51854485 -0.31583458
-0.30805612 0.34106797 0.41290572 -0.42528957 0.5692597 0.21336742 0.43189558 -0.14139277
-0.16828316 -0.43697438 0.3610902 0.2832147 -0.094285436 0.46310583 -0.30520505 -0.4224552
-0.08212359 -0.1341212 0.059005585 -0.1618985 -0.31898007 0.438489 -0.26494718 -0.13497111
0.13366301 0.49950784 0.24066345 -0.23138912 -0.4532234 0.48585147 0.4661846 -0.38278437
-0.12962615 0.018983006 0.20229103 0.473221 0.26977107 0.44579524 -0.29004046 -0.5041586
-0.5340686 -0.45232108 0.46924332 0.041366026 -0.22691941 -0.34862074 -0.35764116 0.4139596
-0.2573063 -0.3004457 -0.42951056 0.19090189 0.007878422 -0.0060014245 -0.0020482503 -0.117918186
0.07519084 -0.17281522 -0.5471767 -0.5035831 0.115936436 -0.2651672 -0.3598774 0.24755093
-0.15835227 0.21379323 0.08507384 -0.46209845 0.19489506 0.02100377 0.32859048 -0.13572752
0.4223345 -0.32330117 0.028590105 0.48212263 -0.47626814 0.12734483 0.08217542 0.46135244
0.3215961 0.14865227 -0.08336177 -0.30581316 0.22842896 0.5721816 -0.098258615 -0.2698058
0.52982694 -0.3255115 0.16961911 0.024195297 -0.5119265 -0.04732682 -0.52988046 0.4895497
-0.16825749 0.10201383 0.27992544 0.24782124 0.34598076 -0.183076 0.33198947 0.50466156

encoder.3.weight f4 [64, 128, 3]
00000000: 8aea 683d b952 533c 61e4 6bbc 499b 5d3d
00000010: a479 d6bc 7ebb 623c 3d6b 7ebe 1f47 ccbd
00000020: bf78 83bd bc81 6cbe 8cf4 b4bd d905 a33c
00000030: 02e3 8c3d 9ac0 0ebd d1ba 463d 5c25 bebb
00000040: c67d 163d 3787 ee3c 0946 c1ba 4d9d 35bd
00000050: 0eed eb3a bc77 9ebd 2113 023c f15b 253c
00000060: e05c d3bd 8118 8bbc 887a 5f3c d0ac 463d
00000070: 33a9 88bc 38df ccbc b576 60bd d26b e5bc
00000080: 8c31 d6bc 6600 63bd 24d9 663d 97f0 2e3d
00000090: 6520 6cbd ec0d 923d eeda 863d f722 a0bd
000000a0: de41 253d a9b3 30bd a62a c3bd a439 353c
000000b0: b5dc 893c 1fbd 08be 34af 7bbd 4d7e 47bd
000000c0: 5621 edbb f28a 13bb 9132 0fbd a666 9fbd
000000d0: 07f8 84bc 0fe8 c53c 6845 193c 7859 303d
000000e0: f434 0bbc 6d40 eebc 3eef d3bc 72f7 aabc
000000f0: 5c98 5c3d 2c0c 63bd 7fcd 49bc c483 1abc
00000100: 6bb5 083d 0bfe f7bc 5e97 bfbb 830d 013d
00000110: 8137 813c 437c 0a3c 2c33 573c 6a74 183d
00000120: 065c 0ebd 5c62 c43c 3d3b a93b a5e9 f93b
00000130: bbda dc3c 0807 fabc c405 0dbd 0ba9 8e3c
00000140: 0fe2 17bd d815 91bd c2f8 533c 4b18 d9bc
00000150: e983 03bd d6ea 0ebd 86e6 2a3d 93f6 f93c
00000160: 56a3 2ebd 7990 3c3c f4bc 5a3d f530 fa3c
00000170: 049a a4bc 8bfd 4bbd ee34 683b e5f6 05bd
00000180: fe69 6cbd 67cc 6b3c 9403 fb3c d67f 25bd
00000190: 45a3 62bc ba83 223d 188c 2f3d d7ad 373a
000001a0: f527 fe3c 6ca1 61bd 2bce 85bc 3ed2 86bc
000001b0: 0b4e 953c 2142 f5bb 90fd 623c dfce fabc
000001c0: 556c 21bd 35e4 26bc d57f 1c3d 2f45 8cbc
000001d0: 3f6e 26bd c9fe dabb 2f16 0ebd 09ab 093c
000001e0: 9aa6 6a3d 19a9 c4bc cadd 03bd 6c75 e33d
000001f0: 1570 653c 18fa 8cbc 779c b63c 835e 143d
00000200: e6b1 4a3c 79a0 273c 7b4b 1ebd e7ca 8ebc
00000210: 46b2 2bbd c767 c53c d94b 133d b351 8bbc
00000220: 8970 053d 914d 623b c135 983c c09c e33c
00000230: 572a 51bc 1059 aebd 9405 8d3d a66e 9a3d
00000240: 45fb 34bd 1a34 0c3c a020 833d 35ae 2c3c
00000250: da93 a83c 665a 0ebd f5c9 103d be64 2e3d
00000260: 07e1 033c 9c47 6dbd 317f 98bd d6a7 233d
00000270: 092d db3c e2cd 14bd c013 66bc 4947 74bc
00000280: 13bc 07bd d2ad 8d3c ba1f d6bb bc3f 3cbd
00000290: a60e 4c3d 6f35 aebd 5eb0 7fbd cb6e dcbc
000002a0: e600 76bd 38a6 153d a32d 8dbc 61b4 903b
000002b0: 6c9b 43bd cce8 2aba 6a97 fd39 3bb0 32bd
000002c0: 2c40 e03c edab 693d 557d dfbc 3b0b 8f3c
000002d0: 180b 9abc da81 debc 2af7 12bd 86a5 03bd
000002e0: 7f49 5fbd c9db 90bd 9120 b83d 849c e83c
000002f0: 8269 383b 5aca 01bd 78e5 663c 1225 66bd
00000300: ac46 09bd 7b26 eabc a905 003d b588 853d
00000310: f3f3 343d dd99 f8bc de3a 0ebd 0bcf 133d
00000320: 8dfe 2d3d bdb7 4ebb afea c33c ca2f 1d3d
00000330: 7ccc f2bb 392a 413d 2b99 553d 16f5 ae3d
00000340: 6898 55bc 595b f9bb 0797 423d 59d2 e43c
00000350: 3972 65bd 45e1 c7bd 83bc e93c f3b8 10bc
00000360: 2f13 5bbd 8f30 a237 4542 2b3d 9c66 43bd
00000370: 6e09 babc 2cce 6ebd 7bff 17be 8773 fdbd
00000380: 261f 4ebd 30ac 06bd a0af 01bd 05c5 233d
00000390: baa0 143d d11e 9f3b 7708 ac3b 87af 37bd
000003a0: 5a22 14bd 179f 543d b9d8 d1bd 012b 5e3c
000003b0: 173b 553d 8ec3 00bd 0a10 14bd 266d 123d
000003c0: 50d5 d9bc 0371 8dbc 327a 1bbb ae00 4bbe
000003d0: 1b96 c93c 9794 14bd b5ef 5bbd 5ca1 ee3c
000003e0: 282d 7c3c 6f7a e6bc 7f2b bf3c 2553 563c
000003f0: 2b2d 1dbd baf2 a5b9 1d76 10bd 11f8 053d
0.0568643 0.012898141 -0.0143977115 0.05410317 -0.02618105 0.013838647 -0.24845596 -0.09974503
-0.06419515 -0.23096365 -0.08835706 0.01990025 0.06879236 -0.034851648 0.048518006 -0.0058027934
0.03674104 0.02911721 -0.0014745604 -0.044339467 0.0017999725 -0.07737681 0.007939131 0.010092721
-0.10320449 -0.016979458 0.013640054 0.04850465 -0.016682243 -0.025008783 -0.054800708 -0.028005514
-0.026146673 -0.0554203 0.056359425 0.042709913 -0.05764808 0.07131562 0.06584726 -0.07819169
0.04034602 -0.043140087 -0.09529619 0.011061106 0.016828874 -0.13353394 -0.061446384 -0.048704434
-0.00723664 -0.0022513238 -0.034960333 -0.077832505 -0.01623155 0.024158506 0.009354927 0.043054074
-0.008496512 -0.029083455 -0.025870916 -0.020869944 0.05385624 -0.05543153 -0.0123170605 -0.009430829
0.03337614 -0.030272504 -0.005846902 0.031507026 0.015773537 0.008452478 0.013134759 0.037220396
-0.03475573 0.023972683 0.0051645325 0.0076267296 0.026959768 -0.03052093 -0.034429327 0.01741459
-0.03708082 -0.070842445 0.012937726 -0.026500842 -0.03210822 -0.034891926 0.04172375 0.030513084
-0.042636238 0.011509054 0.053402856 0.030540923 -0.020092972 -0.049802344 0.003543194 -0.03270616
-0.05771827 0.014391995 0.030641355 -0.040405117 -0.013832872 0.039676405 0.042858213 0.00070068
0.031024912 -0.055085585 -0.01633366 -0.016457673 0.01822569 -0.00748469 0.013854399 -0.030616222
-0.039409954 -0.010186245 0.038207848 -0.017122833 -0.040632483 -0.006683205 -0.034689125 0.008402594
0.05728779 -0.024006413 -0.032193936 0.11106381 0.014003773 -0.017209098 0.022291405 0.036222946
0.012371516 0.010231131 -0.038646203 -0.017430736 -0.04191806 0.024097336 0.035961006 -0.01700673
0.032578025 0.0034531096 0.01858032 0.027784705 -0.012766442 -0.08513081 0.068858296 0.07540636
-0.04418494 0.008557344 0.06402707 0.010539581 0.020578314 -0.03475418 0.03534885 0.042576544
0.008049256 -0.05792962 -0.07446135 0.039954983 0.026754873 -0.036329158 -0.014042795 -0.014909574
-0.033138346 0.017294798 -0.006534544 -0.04595922 0.049818657 -0.085062854 -0.062424056 -0.026908299
-0.06005945 0.03653547 -0.017233675 0.004416034 -0.047755644 -0.0006519675 0.00048368733 -0.043625098
0.02737435 0.057048727 -0.027281443 0.01746141 -0.018804118 -0.027161527 -0.035880245 -0.032140277
-0.05451345 -0.07073171 0.089905865 0.028394945 0.002813906 -0.031687118 0.014092796 -0.056187697
-0.033514664 -0.028582802 0.031255398 0.065202154 0.04417796 -0.030346805 -0.03472411 0.036086123
0.042479087 -0.0031542622 0.023915617 0.038375653 -0.0074096303 0.047159407 0.052148025 0.0854284
-0.013036825 -0.0076097664 0.047507312 0.027932333 -0.056017134 -0.09759764 0.028532272 -0.008833158
-0.05348509 1.9334517e-05 0.041811246 -0.047705278 -0.022709575 -0.05830209 -0.14843552 -0.12375551
-0.050322674 -0.032879055 -0.03166163 0.039982814 0.036286093 0.0048559685 0.0052500325 -0.04484513
-0.036165573 0.051909532 -0.10246415 0.013560058 0.052058306 -0.031436495 -0.03614811 0.035748623
-0.026590973 -0.017265802 -0.0023723957 -0.19824478 0.024607709 -0.03627452 -0.0536954 0.029129677
0.015391625 -0.028134553 0.02333617 0.013081347 -0.038373154 -0.00031652098 -0.03526889 0.032707278

encoder.3.bias f4 [64]
00000000: de9f 17bd da9c 83bc 7e8e 2e3c 67d3 c03c
00000010: 138e 34bd 4b9c 04bd 0ffc 0fbd ba72 7d3c
00000020: 0948 01bc 77f6 b33c 62b0 14bd ec84 f53a
00000030: ea20 debc 81c2 bb3c 1df3 86bc efa8 1ebb
00000040: f119 463d 4058 30bd a8a2 f8bb 10ab 333d
00000050: ca0e 113d c99a 073d 0f2b 353d fced 87bd
00000060: d3fe bf3b 063d d0bc d3f7 113d a6b8 aabc
00000070: 2bb4 943c bed6 1c3d e8a5 00bb b155 383d
00000080: 0705 473d 070c bdbc 5ca3 a5bc d430 4bbd
00000090: c1ba eabc cab4 19bc dfad 89b8 f0f0 533c
000000a0: 5d6b aa3c d0ab 283d 306b 39bd 9604 833c
000000b0: 94bd 6a3a f7fd 21bc dbd3 94bd f4ee d93c
000000c0: c0df b0bb ee76 30bd 5cdf 613b 8626 08bd
000000d0: 06ee b93b 6700 b2bc 7521 303d 9dee 1e3d
000000e0: 5ebe 5a3c a892 11bd 28ec e7bb b1f5 20bd
000000f0: a348 23bc 9338 6e3d 4595 2bbd bd4e 2d3b
-0.037017696 -0.016066004 0.01065409 0.023538304 -0.044080805 -0.032375615 -0.03515249 0.0154692475
-0.00789071 0.02196811 -0.036301024 0.001873163 -0.027115304 0.022919895 -0.016473347 -0.002420958
0.048364583 -0.04305291 -0.0075877495 0.04386431 0.035414495 0.0331066 0.044230517 -0.06637189
0.005859235 -0.025419723 0.035636734 -0.02084 0.018152317 0.03829073 -0.0019630138 0.045003597
0.04858878 -0.023077024 -0.020219497 -0.049607113 -0.028653504 -0.009381482 -6.565055e-05 0.012935862
0.020803148 0.04117948 -0.045268238 0.015993398 0.0008954641 -0.00988721 -0.07266971 0.0266032
-0.005397767 -0.04308217 0.0034465408 -0.033239864 0.0056741266 -0.021728707 0.043000657 0.038801778
0.013351051 -0.035540253 -0.0070777126 -0.03929681 -0.009966048 0.058159422 -0.0418904 0.0026444637

encoder.6.weight f4 [32, 64, 3]
00000000: 5b8b b8bc 42f8 0f3d 1396 a1bb a9a7 6fbb
00000010: f721 36bd 815d 61bd a343 833b 5860 1dbc
00000020: 6104 c1bc 19fb 04bd 8358 103d 4f71 24bd
00000030: 878a 863b bee7 78bd aa33 313d 55ca 6ebd
00000040: 1b42 233b a16a 81bd b4a5 843d 5322 4b3d
00000050: b2dd b53c 8971 4c3d 9193 6e3d f416 5dbd
00000060: b2fa 4e3d 0dbf 013d d066 45bd 2fd6 44bd
00000070: d210 bf3c 90f6 27bd 65f3 2f3d ad94 8f3d
00000080: ea5c c23c 1090 f6bb 5a54 803c d1df b13c
00000090: 0d68 6fbd 21ae 50bd 73d6 503d 430c 333d
000000a0: e223 6c3c 3fca 18bd 50f8 70bd c70e 4ebd
000000b0: 8371 24bd 0901 093d 905a 723d 50e0 85bd
000000c0: 4bf9 6c3d 04bb 183d 7662 a6bc d1d4 a43d
000000d0: 81bf 653d 73fe f3bc 1399 08bd b343 7a3c
000000e0: e7c5 8f3d 7da7 acbc 58e2 09bc be4b 623d
000000f0: 0d61 4f3c 1647 463d 04ee ddbc 585b a9bc
00000100: de10 183b ee23 513d 0e4d ecbc 862b 98bc
00000110: ebd7 963c 8bcf 6cbd 9efe 9abb 56e4 c73b
00000120: 57e9 45bd b264 6fbd 4e34 6a3d faca 22bd
00000130: b125 92bc 0094 4339 2240 963d 4cdc a1bc
00000140: 2f52 4d3d ab01 b2bd ffc5 93bd 06f0 84bd
00000150: d79f 1fbd 32ad 413d 0ac9 8b3d d266 24bd
00000160: e0ec 13bd 850c 6bbd 65dd f5bb e6fa 373d
00000170: e46f 85bd fc1f 863d e9fe 503d 2330 08bd
00000180: d066 5f3c b3c4 073c 081e 933d e5a9 d9bc
00000190: b231 81bd 4545 9e3d 5ed5 9cbc 8355 7fbb
000001a0: d69c 51bc 816c ab3c e58b 57bc db18 4b3d
000001b0: 2530 8fbd 3c57 7abd 246e 573d bbbe 253d
000001c0: 3e67 273c 0428 4c3c 5f23 55bd a60d a2bc
000001d0: f236 673d 2b15 483d 23c1 87bd 1dcc 083d
000001e0: 8862 4f3d 2459 78bb 3099 47bd ddcc d63c
000001f0: 700a 56bd 6ef5 51bc 0a56 2f3d f58e bbbc
00000200: 0bb7 083d 081c bbbc eedc d8bb ea1f 863d
00000210: ce0f 603d a636 7d3c 6270 183d 5bde 4ebd
00000220: 8d7a 173c 3b45 103c a515 79bd 1fe0 64bd
00000230: 31d8 9e3c 8618 863c 86d5 53bd 0ffb 9bbd
00000240: 0477 f2bc 10e0 e2bb 3032 cabb 307f 69bd
00000250: 2dab 843d 4e98 01bd 8fa8 7e3d 5874 72bd
00000260: b9e5 a03d b80f 93bd 8d9e 663d 69a9 42bc
00000270: 0ba3 efbb 5ad3 853c 6ed5 fe3c 0baa 61bd
00000280: b3c4 87bd a9d9 293d 14a5 2fbb 1f9f 72bc
00000290: 8e9a 82bd 56b5 5f3d 8314 0a3d 98b0 b23c
000002a0: 097c 763d fa34 113d 44ac 82bd 7e95 fb3c
000002b0: da01 7ebc a071 0c3c 5e2b 59bd 809f db3a
000002c0: cc0d 60bd feed 8cbc ca74 5ebc 4bbe 9dbb
000002d0: a38c 49bc 84ec 62bb 367c 12bd 3f1c 6bbd
000002e0: 2823 07bd 1c28 83bd 779b 793d bf76 2abd
000002f0: 8741 283d c0dc 72bd 9b49 133c 818d d0bc
00000300: 6b95 db3d c8ff 763d e7e2 963d f6c0 8039
00000310: 8c5a 8f3d 78cb 983c 4fba 90bd a872 8fbc
00000320: 87a3 a83c 43fa ba3c 6baa 76bd 201c 123d
00000330: 0c8a b4bd a028 3bbd cf6f c2bc 0192 9dbc
00000340: c4c8 97bd 5e71 babc aa5f 8bbd c913 80bd
00000350: 71c3 b5bc 08f7 263d a16a 32bb a5f6 d43b
00000360: aff8 f1bc a3a8 13bd 8bce 4b3d e80e 6abc
00000370: d544 133d 563e 4fbd 12c0 28bd a442 a83c
00000380: 007d ef3c 443c 48bc db6c 893d d8f0 86bd
00000390: db4c 543d ca6a 603d 8e40 173d a8b6 87bd
000003a0: e8dd 443d 455d 9c3d c27b 853c 9e93 403d
000003b0: 141e e43b 48b7 82bd f76b 5ebd 9116 ec3c
000003c0: 308a 05bc 2336 1ebd 22ff 5f3b bea7 1c3c
000003d0: 7390 703d d8e1 643d 625a fb3c 2344 253c
000003e0: d283 7e3d f7be 4cbd 0358 95bd ad72 2a3d
000003f0: 4c78 5cbd 6c85 5cbd 697a 043d f965 15bd
-0.022527387 0.035148866 -0.0049312203 -0.003656844 -0.044465985 -0.055020813 0.0040058657 -0.00960549
-0.023561658 -0.032466028 0.03524066 -0.040147122 0.004105869 -0.06076788 0.04326216 -0.058298428
0.0024911228 -0.06319166 0.06476918 0.04959328 0.02220044 0.049912963 0.0582462 -0.053976968
0.05053205 0.03167634 -0.048193753 -0.048055824 0.02332345 -0.041006625 0.04295673 0.070107795
0.023725946 -0.007524498 0.015665222 0.02171317 -0.05844884 -0.050947312 0.050985765 0.043712866
0.014412852 -0.037302252 -0.05883056 -0.05030706 -0.040147316 0.033448253 0.0591684 -0.06536925
0.05785493 0.037287727 -0.020310622 0.08048404 0.056090835 -0.029784417 -0.033349108 0.01527493
0.07020169 -0.021075958 -0.008415781 0.055248015 0.012657416 0.048407637 -0.027091034 -0.020673439
0.0023203413 0.051059656 -0.028845336 -0.018575441 0.018413505 -0.057815116 -0.0047300598 0.006100218
-0.048318233 -0.05844564 0.057178788 -0.039744355 -0.017840238 0.00018651783 0.07336451 -0.019758366
0.050127205 -0.086917244 -0.07215499 -0.06491093 -0.038970795 0.047284313 0.068254545 -0.04013712
-0.036114573 -0.057384986 -0.007503199 0.04491701 -0.06515482 0.06549069 0.05102435 -0.03324903
0.013635352 0.008286643 0.071834624 -0.02657027 -0.06308307 0.07728056 -0.01914471 -0.003896088
-0.01279374 0.020925762 -0.013155912 0.04958425 -0.06991605 -0.06111835 0.052595273 0.040465098
0.010217486 0.012460712 -0.052035686 -0.019781899 0.056448884 0.048848312 -0.06628635 0.033397783
0.050631076 -0.0037894929 -0.048730075 0.026220733 -0.052256048 -0.012814863 0.042806663 -0.022895316
0.03337769 -0.022840515 -0.0066181337 0.06549056 0.054702573 0.015454924 0.03721655 -0.050505023
0.009245527 0.008805568 -0.060811657 -0.0558778 0.019390197 0.016369116 -0.051717304 -0.07616245
-0.029597767 -0.006923683 -0.0061705336 -0.05700606 0.06477962 -0.03163939 0.06217247 -0.059192985
0.07856316 -0.071807325 0.05630355 -0.011881211 -0.0073131374 0.016336132 0.03110763 -0.055093806
-0.06629314 0.041467343 -0.0026801275 -0.014808445 -0.06377135 0.054616295 0.033710968 0.021812722
0.060176883 0.035450913 -0.06380513 0.030710932 -0.015503371 0.008572012 -0.053019874 0.0016755909
-0.054700658 -0.017203327 -0.013577649 -0.0048139445 -0.012301597 -0.0034625838 -0.035762988 -0.057399984
-0.032992512 -0.06404135 0.06093928 -0.04161715 0.041078117 -0.059292555 0.008989717 -0.0254581
0.107218586 0.060302526 0.07367497 0.0002455783 0.06999692 0.018651709 -0.070667855 -0.017510727
0.020585788 0.022824412 -0.060221117 0.035671353 -0.08815393 -0.04569304 -0.023734955 -0.01923466
-0.0741134 -0.022759136 -0.06805356 -0.06253774 -0.02218792 0.04076293 -0.00272242 0.006499129
-0.029537527 -0.036049496 0.04975752 -0.0142857805 0.035954315 -0.050596558 -0.041198798 0.02053959
0.02923441 -0.0122214 0.06710216 -0.06588906 0.051831108 0.054789342 0.0369268 -0.06626636
0.04806319 0.07634977 0.016294364 0.04701578 0.0069615934 -0.063826144 -0.054302182 0.028819354
-0.008150622 -0.038625848 0.003417917 0.009561477 0.058731508 0.055879444 0.030682746 0.010087046
0.062137432 -0.049986806 -0.072921775 0.04161327 -0.05382566 -0.05383818 0.032343302 -0.0364742

encoder.6.bias f4 [32]
00000000: 15e4 703d 35f7 613d 6440 893d e59b 833d
00000010: 2ccd 90bc 4324 db3b 3a6d 933d 584f 2e3d
00000020: 4003 51bd 1e13 943d 9b34 593d ee20 30bd
00000030: f056 efba e629 c1ba f8be 03bd 70d8 74bd
00000040: 6122 29bd 0eab 5b3d 91af 803d 4cc9 2fbd
00000050: 8296 14bd d77d 2b3d 9dde 0abd 236f a9bc
00000060: 3bdc 3cbd e938 92bd 2014 77bd 2da2 473d
00000070: 9b35 843d 107a 003d 50bf 513c 1e51 ee3c
0.058811266 0.055167396 0.06701735 0.06426219 -0.017675959 0.0066876723 0.07198568 0.042556137
-0.05102849 0.07230209 0.053028684 -0.043000154 -0.0018260162 -0.0014737218 -0.032164544 -0.059776723
-0.041292552 0.053629927 0.06283487 -0.04291658 -0.036276348 0.041868057 -0.033903707 -0.020682877
-0.046108466 -0.07139761 -0.060321927 0.048738647 0.06455537 0.031366408 0.01280196 0.029091414

decoder.0.weight f4 [32, 64, 4]
00000000: 5ce4 8ebd 9047 2cbd 5fb9 6cbd 7894 89bd
00000010: 120b 203d 9ded 00bd 6f91 aa3c 6cc3 933c
00000020: f33e 39bd c8e0 0f3c 45d5 2b3d 62f6 ab3c
00000030: 58b7 2d3d e3ee 283d a142 bf3c a2c7 8a3c
00000040: 2522 6ebd 3a57 4f3d c01f 953c 020b 603d
00000050: 6996 973d 3261 823d a697 8abc fa33 343d
00000060: 4bc1 133d 140c a2bc 9d05 74bb 1594 303d
00000070: 6b2c 7ebd 701a 083d 0a3d d0bc 5b2a 3fbd
00000080: 0687 6ebc 1a47 7d3c bcaa 233d 99d8 31bd
00000090: cce9 d63c fea7 06bd e573 e0bc 3a0c 66bd
000000a0: 57f5 4a3d 5ae9 e8bc d3d6 863c 0647 103d
000000b0: a8ca 40bd 7827 453d 4a4c 04bd 50b2 923c
000000c0: ec54 043d 195e 71bd 4f27 a43d 03c4 ecbc
000000d0: ca6c 28bb 8685 f03c d24a 503d 3c49 f93c
000000e0: 9f25 963b 54a4 3fb9 f02a 183c bf9e 20bc
000000f0: d334 133d 7881 2f3d 0439 293d 17d4 d6bc
00000100: f056 28bb d255 bbbc bcde 043d 671d 9c3c
00000110: 62df 323c 2c4b 9d3c 746f df3c f696 ba3d
00000120: 9ca6 9a3c 5eb6 4a3d a4ba e33c f054 833d
00000130: 7df1 13bd bd55 31bd 90af c33a 2f03 49bd
00000140: 02e8 933d 37cf 923d ad6c 513c 0b8a ea3c
00000150: c73f c43c 0cd6 473c 115d b53b 5f8b 91bd
00000160: efaf 803d 5b83 133d 6044 443d 7ce1 92bc
00000170: 630e a63c 1c44 fabc aa38 20bd c511 3bbc
00000180: 3afb c8bb 32b3 c3bc 6003 1cbb cd68 5cbd
00000190: 8a8d fd3c 1a8d ff3a b2b1 273d 6fd4 8139
000001a0: e432 2d3c aa7e b63c 302f 26bb eae3 69bc
000001b0: 07b5 523d d3d8 0eb9 c4f3 cbbc 43f6 92bd
000001c0: 1ff3 543d 1962 aebb 2942 ab3b c167 563c
000001d0: cc10 d13c 0d0f 92bc af8a 27bc 8306 e13c
000001e0: 5305 2f3d 3c42 ca3c 2be9 1dbd bf43 363c
000001f0: 6041 a23c 5fd3 413d 3273 2fbc 488f 1a3d
00000200: 84f0 053d aa1b ddbb f11e 123d f02d 19bd
00000210: 615d 193d c333 01bd 7626 81bc 7561 fc3c
00000220: 7879 293c d513 22bd dff5 903b 964c ea3c
00000230: 2c93 3abc b9c5 473b 77e1 94bd 6125 50bc
00000240: 1c25 28bd e3fd 2f3d 52da 503d 7fb1 cabc
00000250: 50ed f7bc 8f02 3fbd adf2 4abd 0d6e a4bb
00000260: faf1 113d e1fc 683c c158 d73c 8202 1c3c
00000270: d5d0 0f3d 67ab 4a3d d115 0bbc 72ca 323c
00000280: 930a 2abd 17fe efbc 4143 41bd 0de5 3bbd
00000290: a519 97bc c085 47bd b56c 123d 044e a13c
000002a0: 325f 8cb9 08f5 81bb 5ae0 813d 9828 983d
000002b0: 4b4b f53b f11e 3e3d f437 f93b 118b 893d
000002c0: 87c4 5e3d 13fd 95bc 6305 e3bc e5ad 153d
000002d0: a265 30bd 460e 0e3d e85a 0fbd d062 f73a
000002e0: d07b e03c 5a8d 873d fdeb 913a 4876 233d
000002f0: fe88 343d af84 013d 6b31 ed3c ecaf 6a3d
00000300: 597b 82bc 460f 3b3b 170b 753d 02ea 7abd
00000310: 3f2f 69bc 6ef1 363c 0e7a 2abc 9acd 713d
00000320: 4680 143d 8fa4 c53c 6de7 0ebb 4199 89bd
00000330: 1633 16bd 2d7f 40bd dba1 9bbc 7b2c 53bd
00000340: 557b 63bd 9c8f 77bd e8f9 fe3c 593c 33bd
00000350: 6424 773d 36b3 073d 92f5 36bc 2771 14bb
00000360: c779 5d3d 6f8b 33bd 6faa d4bd b501 50bd
00000370: 3a6c e23c c272 1b3d 5f89 343c c3e8 803d
00000380: 87e5 723d 854b 763b 9a7d 21bd fcbe 1fbc
00000390: eb92 633c 579a 6d3b d36a 183d 472b a2bc
000003a0: 1014 15bd ee14 06bd 525c 773c add4 a7bc
000003b0: 17dc 603d c618 483d 97bf 413d 8b1e 2dbd
000003c0: 238b 783d 352f 453c e621 f83c a52a 50bc
000003d0: a251 93bc 7aa3 ab3c 797d 4e3d 34eb 803d
000003e0: e045 4a3d 3c9c 9c3d 6e57 7abc f039 983c
000003f0: bef1 5c3c 9a5c 393d 4489 323d bb70 cc3c
-0.0697715 -0.042060435 -0.05779397 -0.06717771 0.039073057 -0.031476606 0.020821301 0.01803752
-0.04522605 0.008781619 0.041951437 0.020991508 0.04241118 0.041243445 0.0233472 0.016940895
-0.05813803 0.050620295 0.018203616 0.054697998 0.07401735 0.06366195 -0.016918015 0.04399488
0.03607301 -0.01978115 -0.003723479 0.043109972 -0.06205408 0.033228338 -0.02541973 -0.046671253
-0.014558559 0.015458846 0.039957747 -0.043419454 0.02623453 -0.032875054 -0.027399013 -0.056164004
0.04955038 -0.028431583 0.016459858 0.035223983 -0.047068268 0.048133343 -0.032299317 0.017907292
0.03230755 -0.05892763 0.0801531 -0.02890206 -0.002569961 0.029360544 0.050852604 0.030430429
0.0045821215 -0.00018276396 0.009287581 -0.009803473 0.03593905 0.04284808 0.04131414 -0.02622418
-0.0025686584 -0.02286807 0.03243898 0.019056989 0.010917516 0.019200884 0.027274825 0.09110825
0.018878274 0.049490325 0.027798958 0.06412685 -0.036118973 -0.043294657 0.0014929641 -0.0490753
0.07221986 0.07168429 0.012782258 0.028630277 0.023956193 0.012197029 0.005534776 -0.07106661
0.06283557 0.036013942 0.04791677 -0.017929785 0.020270532 -0.030550055 -0.03911654 -0.011417811
-0.006133464 -0.023889158 -0.0023805723 -0.053810883 0.03095128 0.0019497008 0.040940948 0.00024763073
0.010571215 0.022277195 -0.0025357716 -0.01427553 0.051442172 -0.00013622949 -0.02489651 -0.07175877
0.05198967 -0.0053217527 0.0052263928 0.01308626 0.025520705 -0.017829442 -0.010225936 0.027468925
0.042729687 0.024689786 -0.038552444 0.01112455 0.019806564 0.04732072 -0.010708617 0.0377343
0.032700077 -0.0067476826 0.03567404 -0.037397325 0.03744257 -0.031543504 -0.01576541 0.03080819
0.010343902 -0.039569695 0.0044238414 0.028600972 -0.011387628 0.0030482842 -0.072695665 -0.012704224
-0.041051015 0.042966735 0.050989456 -0.02474284 -0.030264527 -0.0466333 -0.04954784 -0.005018002
0.035631157 0.014220447 0.026287438 0.009522082 0.035111267 0.04947987 -0.008489088 0.010912525
-0.04151399 -0.029295964 -0.04718328 -0.045872737 -0.018444845 -0.04871154 0.035748202 0.019690521
-0.00026773807 -0.0039659776 0.0634162 0.07429618 0.0074857823 0.046416227 0.007605547 0.06715978
0.05438664 -0.018309152 -0.02771253 0.036542792 -0.043065675 0.03468158 -0.034998804 0.0018874053
0.027402788 0.066187575 0.0011132952 0.039907724 0.04407596 0.031620678 0.028954228 0.05729668
-0.015927957 0.002854304 0.05982503 -0.061258323 -0.014232456 0.01116596 -0.010405077 0.059033968
0.036255144 0.02412632 -0.002180542 -0.06718684 -0.036669813 -0.046996284 -0.018998077 -0.05155609
-0.05553754 -0.06043969 0.031125024 -0.043758724 0.06033744 0.033129893 -0.011166947 -0.0022650452
0.054071214 -0.043834146 -0.1038407 -0.050782878 0.027639497 0.03795124 0.01101908 0.06294396
0.059300926 0.0037581634 -0.039426424 -0.009750124 0.013890008 0.0036255324 0.03721125 -0.019796027
-0.036396086 -0.032734804 0.0150976945 -0.020487154 0.054897394 0.04885175 0.047301855 -0.042265456
0.060679566 0.012035181 0.030289602 -0.01270548 -0.017983261 0.020951975 0.05041263 0.062948614
0.049383044 0.07646987 -0.015279634 0.018582314 0.01348537 0.045254327 0.043587938 0.024956098

decoder.0.bias f4 [64]
00000000: 3bbf 90bc bf9f 823c b0d4 0dbd 7b0a 293d
00000010: f655 1d3c d6c2 b83c 0261 9ebb d689 0e3d
00000020: 02e3 5a3d 129f 0c3d 39c0 e53c 99c0 73bc
00000030: 2b94 32bd fc18 8c3c 2a41 383d eed3 3c3c
00000040: 5fd1 713d f7f7 603d e02b 06bc 3d51 d23c
00000050: 5ce5 1b3c 40d9 babc 2e10 2a3d 1aa4 e5bb
00000060: 70a4 ea3c b4e2 0dbd 9be0 733c aa99 8b3c
00000070: 93f7 5a3d 5c92 11bc 80e1 0ebd 1236 21bd
00000080: 7248 37bd 2bae 853d c424 283d cb0d 93bc
00000090: 6bf9 69bd 6829 5ebd eb88 813d 8e56 9ebc
000000a0: ed0d 27bb 3184 28bc 4acc 0c3d 86e1 b73c
000000b0: 9872 123a d100 2bbc ef42 2e3d eb24 1bbc
000000c0: 0e2d edbb 5bc5 e03c 84d3 303c 93b8 493d
000000d0: 039a 02bd 1f3f 313d 8a9c 8dbb 1c1c 803d
000000e0: d7a5 e53c 12e7 47bc ecd8 60bd f934 4abd
000000f0: c394 513d eb01 893d eb77 c63c eb3f b3bb
-0.01766931 0.015945313 -0.034626663 0.04126976 0.009603014 0.022553843 -0.0048333416 0.03479942
0.053439148 0.03433139 0.02804576 -0.014877462 -0.043598335 0.017101757 0.04498402 0.011525137
0.059037562 0.054923978 -0.008189172 0.025673503 0.009515133 -0.022808671 0.041519336 -0.007008088
0.028642863 -0.03464003 0.014885093 0.017041046 0.05345876 -0.008884992 -0.034883022 -0.039358206
-0.044746824 0.065273605 0.041050687 -0.017950913 -0.05712263 -0.054238707 0.06324943 -0.019328382
-0.0025490478 -0.010285423 0.034374513 0.022446405 0.0005586534 -0.010437206 0.0425443 -0.009469251
-0.007238037 0.027437856 0.010792617 0.04924829 -0.03188516 0.043273088 -0.0043216394 0.062553614
0.02803318 -0.012201088 -0.054894373 -0.049366925 0.05116726 0.06689819 0.024227103 -0.005470266

decoder.2.weight f4 [64, 128, 4]
00000000: 7b53 183d 311a 9c3c d4ce 513c d042 93bc
00000010: 958c 103d ce3a b6bb 6605 4bbc f7f6 e5bc
00000020: 871e 38bd 304c 1fbc af13 e3bc e63f babc
00000030: f168 f4bc 830c 0a3d 8550 1d3d e659 0cbd
00000040: 1811 babc fc94 01bd 6aeb 103d f827 343b
00000050: 734b 37bd c2e1 b1bc 60d0 f6bc a7a0 04bd
00000060: 38d2 e8bc 0e23 0ebd 10ee 963c 4022 ff3b
00000070: 1569 cdbb 3ab5 d6bc 5f13 c43c 4f53 18bd
00000080: 407a 85bc eaa0 5b3c 2312 003d 139c 8cbb
00000090: 12dc 26bd 205c c03c e87a e9bc 04ba cbbc
000000a0: ff82 733c ebe4 f2ba 8084 2b3d 789f 223c
000000b0: d554 123d 7563 083c 08ec c6bc c27b 063d
000000c0: b020 39bd 0894 30bd a4de 2cbd d890 803b
000000d0: c319 6d3c 9180 e3bc f052 cfbc 634e 41bc
000000e0: ea5a 33bd fa2c 153d 19d7 bbbc a022 2b3d
000000f0: 90d8 ecbb 2e47 043d 4f1d 843c 80b7 96bc
00000100: 93af fabc dc61 6abc 5e38 bdbc 741f 2a3d
00000110: 11d6 00bd 2253 1bbd eaee 3fbd 6431 4d3b
00000120: c55f 773a c659 98bb a50c dbbc eb35 36bd
00000130: f0db 533b 8401 40ba b7e6 34bc b8b8 a8bb
00000140: 31e9 0ebc b2bf d73c 5397 0abd fd46 ac3b
00000150: 9d29 063d 48cd 0ebc 0413 09bd 2144 873c
00000160: 1a67 e7bc 61eb bc3c 8c1c c9bc 7669 173d
00000170: d4af 0cbd 486d 8a3a 511f 48bd 7cf7 8a3c
00000180: 8b2e b73a 66c2 08bc c8ac b8bc 7440 093d
00000190: 8b2f fe3b 441c fabc 665c 12bc d32d bfbc
000001a0: 50ad bebc 8ff5 083c 7ec2 b93a 6dbf 873c
000001b0: d3b0 ad3c 1930 8b3c 9cf2 3b3d e2b4 433a
000001c0: 9894 e93c b822 21bd 5176 8b3b eced a9bd
000001d0: 27bf 02bd 8df9 2f3c a4f0 013c 2823 84bc
000001e0: 617d 1dbc e9ef 333d a49d fe3c cff1 cebc
000001f0: f739 263d 6b57 dc3c 26be 273d a675 fb3c
00000200: 1b45 d739 d26b 933c 6286 c73c 8177 893c
00000210: 8cac 86bb 78d1 fdbb 6384 30bd 4523 923c
00000220: e976 a1bb 12f6 d2bc 3e0a 9c3c 5a69 91bc
00000230: 4bc5 63bc cd85 95bc 2847 493c 4ffb 423c
00000240: 8408 9c3b b140 023d 65de 08bd 089f 8cbc
00000250: 7888 8a3c b036 c3bc 6e41 0d3c 8e5d d4bc
00000260: 0edf fd3c 9574 a9bb f8fc c03b c695 253b
00000270: fe6e fb3c da52 313c a911 20bd e561 dd3c
00000280: b2ce 3ebd 4523 82bc b119 16bd c20b 043d
00000290: b67e 07bd 8cf2 0cbd 5024 c73c 9f2d dd3b
000002a0: b456 1abd a235 063d 3fe9 7abc 43d4 32bd
000002b0: fe05 0ebb 61e4 e7ba d9a5 90bb f257 843c
000002c0: c221 ed3c b1c5 2f3c 72be dd3c 094f 483d
000002d0: 75aa adbb 1fac e1bc 258c cdbb 3704 b73b
000002e0: 57d7 273d 8b87 be3c 63d8 af3a d8d5 e6bc
000002f0: b588 473b fd7f 043d 799c 1c3d e9cf d43b
00000300: 237c 81bc f0ea eabc 96b0 b1bc 4b7e 7d3c
00000310: bb2d 01bd e888 01bd 3449 6d3d e888 a43c
00000320: f07d ef3c c147 1ebd dbef b43c 27ed a03c
00000330: 2397 45bd dfff a83c ab04 043d 1486 d03c
00000340: ffdb 083d 2410 1d3d b0d2 273d 4074 39bc
00000350: 339a de3c 66b9 12bd 1056 223b ac4d 33bd
00000360: c3a0 c3ba 3340 9a3c 55ea 9d3b 552c ed3c
00000370: 1eaf 3fbd 5d19 f3bc 9bf7 fd3c 14f4 cd3c
00000380: 545d 64bc 5d1f f93c 608e f83c a86d b83b
00000390: b847 e5bc 7afa d4bc ce6a 1cbd c232 0dbc
000003a0: 699a deb9 7b8e cd3c d1f3 863b 587b c53c
000003b0: 0846 6dba 3d49 6a3b df60 c1bc 01f6 f3bc
000003c0: d5ab 2ebd 1eb9 313c 4ee8 a4bb 62f3 36bb
000003d0: d120 b8bc ddd0 50bd 5d12 05bd e259 87ba
000003e0: eec3 4cbc 6f1a 8abb a338 913c 5956 4a3b
000003f0: ffd5 1e3d f2b1 a4bc 3497 29bd a019 6dbc
0.03718899 0.019055458 0.012805659 -0.017976195 0.03529032 -0.0055612093 -0.012391424 -0.028071864
-0.04495099 -0.009722754 -0.027719347 -0.022735547 -0.029835196 0.03370334 0.038406868 -0.03426542
-0.022713229 -0.031636223 0.03538076 0.0027489644 -0.04474969 -0.021714095 -0.030128658 -0.032379773
-0.028420553 -0.0347014 0.018424064 0.0077860653 -0.0062686303 -0.026209462 0.023935018 -0.037188824
-0.016293645 0.013405064 0.031267297 -0.0042910664 -0.04073722 0.023481429 -0.02850099 -0.024868973
0.014862775 -0.0018531358 0.04187441 0.009925716 0.035725433 0.008324494 -0.02428247 0.03283287
-0.04519719 -0.043109924 -0.042204514 0.0039235167 0.014471474 -0.027771266 -0.025308102 -0.011798474
-0.043787874 0.036419846 -0.022929715 0.041781068 -0.0072279647 0.032294445 0.016127257 -0.018398046
-0.030601298 -0.014305558 -0.023098167 0.041533902 -0.03145415 -0.03792108 -0.046858706 0.0031309957
0.0009436573 -0.0046493737 -0.026739428 -0.044485014 0.0032327138 -0.00073244446 -0.011041335 -0.0051489733
-0.008722589 0.026336525 -0.03383572 0.005257486 0.03275453 -0.008715935 -0.0334654 0.016511979
-0.028247405 0.023061456 -0.024549745 0.03696581 -0.03434737 0.0010561133 -0.04885799 0.016963713
0.0013975663 -0.008347129 -0.022543326 0.033508733 0.0077571324 -0.030531056 -0.008933162 -0.02333728
-0.023276001 0.008359327 0.0014172343 0.016570771 0.02120248 0.016990708 0.045885667 0.00074656133
0.028513238 -0.03933975 0.004256048 -0.08297333 -0.03192058 0.01074065 0.007930908 -0.016130045
-0.009612412 0.043929968 0.031081028 -0.025261788 0.040582623 0.026897153 0.040952824 0.030695748
0.00041059483 0.017995749 0.02435607 0.016780617 -0.0041099247 -0.007745918 -0.043095004 0.017839083
-0.0049275053 -0.025752101 0.019047853 -0.01775043 -0.013902019 -0.018252278 0.012285031 0.011900737
0.0047617573 0.031799976 -0.033415217 -0.017165676 0.016910776 -0.023829788 0.008621557 -0.025923517
0.03099015 -0.0051713684 0.005889531 0.0025266274 0.030692574 0.010822976 -0.039079342 0.027024219
-0.04658384 -0.015885958 -0.036645595 0.032237776 -0.033079825 -0.034411 0.024309307 0.006749823
-0.037680343 0.032765992 -0.015314399 -0.04365946 -0.0021671052 -0.0017691964 -0.004414302 0.016155217
0.028946761 0.010728286 0.02706835 0.0489035 -0.005299861 -0.027547894 -0.00627281 0.0055852192
0.04097685 0.023257991 0.0013415929 -0.02817814 0.0030446474 0.03234862 0.03823516 0.0064945114
-0.015806263 -0.02867648 -0.021690648 0.015472005 -0.031537753 -0.031624705 0.05793114 0.020084813
0.029234856 -0.03864265 0.022087028 0.019644333 -0.04823984 0.020629821 0.032231014 0.025454558
0.03341293 0.03834547 0.04097241 -0.01131922 0.027173137 -0.03582134 0.0024770536 -0.043775246
-0.001492523 0.01882944 0.0048191943 0.028951803 -0.046797864 -0.02967518 0.031001857 0.0251408
-0.013938267 0.030410463 0.030341327 0.0056283064 -0.0279883 -0.025998343 -0.038187794 -0.008618059
-0.00042458184 0.025092354 0.0041184206 0.024106666 -0.0009051268 0.003574922 -0.023605762 -0.02978039
-0.04264434 0.010847358 -0.0050325757 -0.0027916064 -0.022476586 -0.050980438 -0.032488216 -0.001032647
-0.012497885 -0.004214577 0.017727202 0.003087422 0.0387783 -0.020104382 -0.041403964 -0.0144714415

decoder.2.bias f4 [128]
00000000: 9958 25bd abf8 313c d1ec 823c 2541 e53c
00000010: 4b68 6f3c 1174 483b 28d3 ba3c 1061 c23b
00000020: e8c8 7a3c f958 b13c 2b9d e43c 1317 453d
00000030: 0390 b93c f73d 1bbc 46d7 2dbd 7f88 f4bc
00000040: 2dbb 093d a9f0 2fbc 62cb 3a3c 8480 083d
00000050: 32af 06bd adc1 e83c a255 79bb fb2e ce3c
00000060: 31fc 853c 89ab 9f3a 41cf 9abc 0f5f 8c39
00000070: 5b73 8c3c 6b3e 19bd 87b5 803c 8401 01bd
00000080: 8f5c 81bb 89c4 8a3b 9394 bb3c 10bf 3b3d
00000090: 5253 acbc ce3d 393c e63c afbc 4364 d43c
000000a0: 2a24 8bbc 384b edbc deca aab9 ae36 a23c
000000b0: 5f7f 7bbc 1998 a63b 1bfb 373a 4bdc d8bc
000000c0: 99b3 7fbc 2876 e23c 5399 babc 187b c7bb
000000d0: 35c0 f1bc 73d5 263c 5d09 933a 6081 663c
000000e0: f231 dd3c cb04 823c ca2b 08bd 8a57 45bc
000000f0: 5994 80bc 65b8 6c3c 0385 c5bc 0888 043d
00000100: e822 423d ce40 4d3b aa30 c73c e130 15ba
00000110: 8f46 2fbd a6ee b3bc bc55 3dbc 8fb4 1f3c
00000120: 3419 57bc f005 b93c 6fbf 8e3c 2270 953c
00000130: c81c 0e3b 1d51 89bc 82a6 3d3a 3859 1e3d
00000140: 4afa 0bbc b2af a7bc a04a 99bc 4ff3 c23c
00000150: fc54 f33c 2139 d3bc 263f 16bc de6f 043d
00000160: 5c17 373b d610 15bc dcba 3e3d b17b 01bd
00000170: 2862 28bc 0639 f33c 7c5c f9bc f4ec 0b3d
00000180: 9de5 e83c 0e77 c43b 2b1e 0c3d 0b36 6bbc
00000190: 8745 063d f3e4 b33c d24e 94bc 2b7e 083d
000001a0: 3b1d d03c 2e20 8839 7770 dabc 5ff1 04bd
000001b0: ea52 8b3c d3ad 403d 5f6c e4bc df37 a4bc
000001c0: 1e56 acbb d94d 0f3d 59cc c6bc 1511 013d
000001d0: 2c45 37bc fcdb 31bd 63bf ee3c 86a8 a1bc
000001e0: f80d 043c ac7e b93b e8f2 b83a 305c 1b3d
000001f0: c403 803c 8f3c 973c ce97 00bd aadb 123c
-0.040367696 0.01086251 0.015982063 0.027985165 0.014612268 0.003058676 0.022805765 0.005931981
0.015306689 0.02164887 0.027906975 0.04811771 0.022651678 -0.009475223 -0.04244163 -0.029850243
0.03362577 -0.01073853 0.011401029 0.033325687 -0.032881923 0.028412664 -0.0038045426 0.025168886
0.016355606 0.0012181859 -0.018897654 0.00026773705 0.01714485 -0.037413042 0.015711559 -0.031495586
-0.0039478014 0.0042348546 0.022897994 0.04583651 -0.021035824 0.011306239 -0.021391343 0.025926715
-0.016985018 -0.028966531 -0.00032576075 0.019801464 -0.015350192 0.0050840494 0.00070183136 -0.026472231
-0.015606784 0.027644232 -0.022778189 -0.006087672 -0.029510597 0.010182726 0.0011218 0.014068931
0.027001355 0.015871426 -0.033244886 -0.012044797 -0.015695738 0.01444826 -0.024111276 0.032356292
0.04739657 0.0031319144 0.024315197 -0.00056911825 -0.0427919 -0.021964382 -0.011556085 0.009747638
-0.0131285675 0.022585839 0.017425267 0.018241946 0.0021684635 -0.01676231 0.00072345894 0.038659304
-0.00854356 -0.02046952 -0.018712342 0.02379766 0.02970361 -0.025784077 -0.009170329 0.032333247
0.0027937507 -0.009098252 0.04656492 -0.031612102 -0.0102773085 0.029690277 -0.030439608 0.034161523
0.0284298 0.0059956377 0.034208458 -0.014356147 0.03278115 0.021959757 -0.01810399 0.03332345
0.025404563 0.00025963917 -0.026664956 -0.032456752 0.01700731 0.04704077 -0.027883707 -0.020046173
-0.0052592894 0.03498635 -0.024267362 0.03151043 -0.011185925 -0.043422684 0.029143995 -0.019733679
0.008059971 0.0056608524 0.0014110478 0.037929714 0.015626796 0.018461494 -0.031394772 0.008963505

decoder.4.weight f4 [128, 1, 4]
00000000: f299 dfbc 8f89 bebe 31ef cd3e 0b9b 69be
00000010: 9e34 8e3e d98e c33d ca76 42bd 3ec0 be3e
00000020: 4c39 e43e ac8c b23d c74a 913d 8aab 113e
00000030: 8672 103e ac42 ffbd f81d bcbe 02b9 b13d
00000040: c733 ce3e fb8c a93c e245 f3be 276a 7b3e
00000050: cea8 c53e f3ed 5f3e a02e 693e 4c06 f5bd
00000060: 37e9 e83c fc6c 133e 0187 0e3e 1852 08be
00000070: c00d 553e ea14 8abe c02b 973e 8942 d4be
00000080: e500 d13e ffbb fdbe 0516 f23e a7ca 473d
00000090: 116f 47be f313 7dbe fe4f 9fbe a9de 26be
000000a0: 20b2 f9bd 3165 933e 4631 a93b 56a9 e63e
000000b0: 0596 b6bd fee2 433e db64 04be 02e2 5dbe
000000c0: 3464 fa3e b744 143e 4ec6 f53d efc6 e8be
000000d0: 762a b33e ff11 f7be 9e02 ab3e d1ea 3a3e
000000e0: d341 a6be 279d f83e 2088 e1be b386 8ebe
000000f0: 9a5b 723d 4b6e 123e 81e2 dcbe f279 fc3c
00000100: 9ecd 393e 22c9 14bd fcff 833d 2226 47bd
00000110: 046b 4fbe b71c 113e cff2 f9bd 9f76 00bf
00000120: b86e a3be eb64 423e 06be 5f3d 9263 d03e
00000130: 50ed dbbe 39c1 24be ff5d 8a3e 750c 3f3e
00000140: d874 e13d 0976 59be 4ff2 d73e 148b 6dbe
00000150: 8b13 2dbd b9b8 c83e 0042 37bd 8129 d43e
00000160: 8692 693e 559f f0bd b05f b6be 66d1 413e
00000170: 914e 363d 5dff b53e 8907 a73e 1b36 2f3e
00000180: cf43 003e b900 973d e7d6 49be 1089 ddbe
00000190: 2469 c9be 9295 873d 8c82 cf3e 8648 fabd
000001a0: 67aa e2be edde f03e b128 8d3e 4c17 e6bc
000001b0: 1733 4bbd 9fc9 47be 07a0 133e 4cd5 843e
000001c0: a042 c73b 7272 333e b343 b6be a5a4 0ebd
000001d0: 6584 b93d 95e0 ff3e b496 ae3e 194a 58be
000001e0: ee2b 75be 5ab5 0dbe 5e33 0ebe c688 d33e
000001f0: c44f bf3e 0a95 21bd 6265 663e 0646 cb3e
00000200: bb94 e1bd 7b9e b5be 7877 073e bcc9 053e
00000210: 97be cf3e 5dcd 81be 2c27 733d f43f 193d
00000220: 67a6 a1be 3e47 153b f406 c6be e46c babe
00000230: be18 87be a3e5 c7be dd2b d8be e796 f2bc
00000240: 3be0 91bd 8b35 8d3d d520 a03e 8346 ebbd
00000250: 04af 3d3d 0534 c63e 16dc 93bc 29c5 88be
00000260: a4cb b03e 491c 483d 165e e3be 6844 fdbe
00000270: 6f57 913e 9762 663c aae4 6fbd b29c c5be
00000280: 32d3 b93e ca67 7abe c972 e4bd c61a 9c3e
00000290: 58a6 883e 4db9 e03e bab3 a5be e4bf dcbe
000002a0: 5297 c83e 45ef a9bb c641 8cbd 0687 88bd
000002b0: 3566 df3d a389 c0be 894d 8bbe 9441 aa3e
000002c0: bed4 f73d 22c0 d63c d9a9 3e3d 2dcb 8e3e
000002d0: 7c2d ab3d ee14 ea3e f5ce 90be 30e4 8ebe
000002e0: 0eb8 b1be a04f e3be f834 523d e320 b83e
000002f0: 2841 70be 8052 8a3e e5ca 7d3e b6c7 043e
00000300: b5e3 86bb 0230 41be a605 72be a520 2f3e
00000310: 0905 333e 49d1 993e 8ff0 edbe 0be7 ce3c
00000320: 4a04 903e cc3c cc3e 96d5 a1be 7049 88be
00000330: 6a9b 97be f93f c63c d2ca dd3e 0283 51be
00000340: 53b9 c2bd 2be9 f7be 3b82 36bc e81a c6bd
00000350: 83f0 91be 4444 c93e 4b18 51bd 7d33 9dbe
00000360: 79e3 d3be 0538 fcbe 7b93 5dbe 72ce 20be
00000370: ec40 b7bd 0e20 f73e 14fc 703d 6d7b 9cbe
00000380: 4beb 513e acdb e13e b785 f3bc 7bc8 b03e
00000390: 87c6 e1be 1283 423e e2d2 e93e ca84 7cbe
000003a0: 6973 c93e 0e89 43bd 75a6 9f3e 77a6 91be
000003b0: da20 dbbe c792 85be 097a bd3e e8d5 afbe
000003c0: c6a8 d0be 613e 32be 1e95 d23e 6e58 c73e
000003d0: fd93 ba3e 3043 f83d 0190 aa3d 9575 fbbe
000003e0: c059 2a3d 4478 b7be 70b0 db3e e7d5 a53e
000003f0: a1ec 983e eab2 fd3d 6b64 b73c 332f 253e
-0.027295087 -0.37214324 0.4022155 -0.2281305 0.2777452 0.095487304 -0.047476567 0.37256044
0.44574964 0.08718237 0.07094341 0.14225593 0.14106187 -0.124638885 -0.36741614 0.086778656
0.40273878 0.020697108 -0.47514254 0.24552213 0.3860535 0.21868114 0.22771692 -0.11964092
0.028431518 0.14397043 0.13918687 -0.13312566 0.20806026 -0.2696908 0.29525566 -0.41457012
0.40820995 -0.49557492 0.47282425 0.04877725 -0.19475962 -0.24714641 -0.31115717 -0.16295876
-0.12192178 0.2878814 0.0051633446 0.45051068 -0.08915333 0.1912956 -0.12929098 -0.21668246
0.48904574 0.14479338 0.12000714 -0.45464274 0.34993333 -0.48255917 0.33400434 0.18253638
-0.32472095 0.48557398 -0.44049168 -0.27837142 0.05916939 0.14299886 -0.4314156 0.030819867
0.18144843 -0.036324628 0.064453095 -0.04862035 -0.20255667 0.1417111 -0.12204515 -0.50181
-0.3192041 0.1898381 0.05462458 0.40700966 -0.42954493 -0.16089334 0.27024838 0.18657096
0.11008614 -0.21236433 0.42177054 -0.23197585 -0.042254966 0.39203432 -0.044740677 0.41437915
0.228098 -0.1174914 -0.3561988 0.18927535 0.04450852 0.3554639 0.32622936 0.17110483
0.12525867 0.07373185 -0.19710885 -0.43268633 -0.39338028 0.06620325 0.40529287 -0.12220864
-0.44270632 0.4704508 0.27570108 -0.02808728 -0.04960927 -0.19510506 0.14416514 0.25943983
0.0060809404 0.17524126 -0.35598525 -0.034824986 0.090584554 0.4997603 0.34099352 -0.21122016
-0.23942539 -0.13838711 -0.13886783 0.41315287 0.37365544 -0.039448775 0.22499612 0.3970186
-0.11014696 -0.35472474 0.13229167 0.13065237 0.40575096 -0.25351992 0.05936353 0.037414506
-0.31572267 0.002277806 -0.3867718 -0.36411202 -0.26386064 -0.39042386 -0.42220965 -0.029612971
-0.07122847 0.06894978 0.3127505 -0.114880584 0.046309486 0.38711563 -0.018049281 -0.2671292
0.34530365 0.0488551 -0.4440772 -0.49466252 0.2838702 0.014061592 -0.05856768 -0.38596112
0.36293942 -0.24453655 -0.11154706 0.30489177 0.2668941 0.43891373 -0.32363683 -0.4311515
0.39177948 -0.005185994 -0.06848483 -0.06666379 0.10908166 -0.37605008 -0.27207592 0.33253157
0.12101124 0.026214663 0.046548698 0.27889386 0.08358285 0.45719093 -0.28282896 -0.27908468
-0.34710735 -0.44396687 0.051320046 0.3596259 -0.23462355 0.27016068 0.2478443 0.12966809
-0.0041165003 -0.1886597 -0.23634967 0.17102297 0.1748239 0.30042484 -0.46472594 0.025256654
0.28128272 0.39890134 -0.31608266 -0.26618528 -0.2961076 0.024200426 0.43318802 -0.20460132
-0.09508004 -0.4842008 -0.011139448 -0.09673101 -0.28503808 0.39309895 -0.05104856 -0.30703345
-0.41384485 -0.4926149 -0.2163829 -0.15703753 -0.0894793 0.48266643 0.05883415 -0.30562916
0.20499913 0.4411291 -0.029726846 0.34527954 -0.44096777 0.18995312 0.45668703 -0.2466003
0.39345863 -0.047738127 0.31181684 -0.28447315 -0.427985 -0.26088545 0.37007168 -0.34342885
-0.40753764 -0.17406608 0.41129392 0.38934654 0.3644103 0.1212219 0.08328248 -0.49113145
0.0415895 -0.35833943 0.4290805 0.32389757 0.29868034 0.12387641 0.02238675 0.16131286
