backend/resources/models/error_model.pth (torch, 297330 bytes, 11 tensors)

encoder.0.weight f4 [128, 1, 3]
0	0x3ea4aa72	0.3216129
1	0x3ece235e	0.40261358
2	0x3e1a2586	0.15053377
3	0x3d9572da	0.07297297
4	0x3dd84c91	0.10561479
5	0xbe6af1a2	-0.22943738
6	0x3ee3d196	0.4449584
7	0xbf000e13	-0.50021476
8	0x3e4e6cbe	0.2015867
9	0xbe1ed0a7	-0.15509282
10	0xbec90a7f	-0.3926582
11	0x3e3308c4	0.17483813
12	0x3e20cf57	0.15704094
13	0xbc6e8f17	-0.014560482
14	0x3f08b3b1	0.5339919
15	0x3e209caa	0.15684763
16	0x3f08fd6c	0.5351169
17	0xbec5093b	-0.38483605
18	0xbea1a06f	-0.31567714
19	0xbef89cd0	-0.48557138
20	0x3eaddc15	0.33956972
21	0x3e7cb08f	0.24676727
22	0xbebee995	-0.37287584
23	0x3e922aad	0.28548184
24	0xbebcd44a	-0.36880714
25	0x3db260ff	0.08709907
26	0x3de8baea	0.11363776
27	0x3ed92346	0.42409724
28	0xbe8fbebe	-0.28075212
29	0x3eb8c0f6	0.36084718
30	0x3ea6c620	0.32573032
31	0x3e3012be	0.1719465
32	0xbe736315	-0.23768266
33	0xbf06d61d	-0.5267046
34	0x3e94426c	0.28956926
35	0xbe17b57b	-0.14815323
36	0xbde874bb	-0.113503896
37	0x3ee1b1c3	0.44080934
38	0xbea22bfc	-0.31674182
39	0x3d448364	0.047976866
40	0x3e010ef4	0.1260336
41	0x3f1686f4	0.5879967
42	0xbf00ef77	-0.50365394
43	0xbe8d8b2b	-0.2764524
44	0x3e77bc36	0.2419289
45	0x3de583fa	0.11206813
46	0x3d25a0cc	0.04043655
47	0xbeae2417	-0.3401191
48	0xbeefb26a	-0.46815807
49	0x3ee6d76b	0.45086226
50	0x3e9149d2	0.28376633
51	0xbf022925	-0.5084403
52	0xbebc0d36	-0.3672883
53	0x3e3a16fb	0.18172829
54	0xbf0a5b5c	-0.54045653
55	0xbd99f380	-0.07517147
56	0xbde3ac54	-0.11116853
57	0x3d3dfbae	0.0463826
58	0x3e300eac	0.17193097
59	0xbf0fa22a	-0.5610682
60	0xbf0d5d1e	-0.5522021
61	0xbef9c36a	-0.48781902
62	0xbc95745d	-0.018243963
63	0x3e8ca275	0.27467695
64	0xbe39296e	-0.1808221
65	0xbe821d0c	-0.25412786
66	0xbd728267	-0.059206393
67	0xbd82ccf3	-0.06386747
68	0x3ef3c97a	0.47614652
69	0xbe5f4c2c	-0.21806401
70	0xbe80339f	-0.25039384
71	0x3e3140f9	0.17309941
72	0x3d227498	0.039661974
73	0x3e8c972b	0.27459082
74	0xbcba93ce	-0.022775557
75	0x3e3ecc13	0.18632536
76	0x3ebcc3fd	0.36868277
77	0xbf066815	-0.52502567
78	0xbec3f5ae	-0.38273376
79	0x3ea3f7c4	0.32024968
80	0x3e15659e	0.14589545
81	0xbf1a5b2f	-0.60295385
82	0xbeba7fe7	-0.36425707
83	0x3ed07cf4	0.40720332
84	0xbe2e1da0	-0.17003489
85	0x3e550220	0.20801592
86	0x3e67a4bd	0.22621436
87	0xbe5fd86f	-0.21859907
88	0x3e1b9977	0.15195261
89	0x3eb3466e	0.3501467
90	0x3ee4be3e	0.44676393
91	0x3d9f60cf	0.07782137
92	0x3f08a13f	0.5337104
93	0x3e8b8340	0.27248573
94	0x3f0d25e2	0.5513593
95	0xbee366b0	-0.44414282
96	0xbf151439	-0.5823398
97	0xbe8e382f	-0.2777724
98	0xbed84c59	-0.4224575
99	0xbe810efd	-0.25206748
100	0xbe70f97e	-0.23532674
101	0xbed5f92c	-0.41791666
102	0xbe849c8f	-0.25900695
103	0x3e888d20	0.2667017
104	0x3ebe3b52	0.37154633
105	0xbcfa5c77	-0.030561669
106	0xbef38581	-0.47562793
107	0x3e0f003a	0.1396493
108	0xbd960cdc	-0.073266715
109	0x3e352dab	0.17693202
110	0x3ee50f5a	0.44738275
111	0x3e2af42a	0.16694704
112	0x3ed04ed7	0.4068515
113	0x3efe4392	0.49660927
114	0xbe30f4e3	-0.17280917
115	0xbed4bd03	-0.41550454
116	0x3da91269	0.082554646
117	0xbe6ebb1d	-0.23313566
118	0x3eba6c81	0.36410907
119	0x3dd82793	0.10554423
120	0xbe4b4ccf	-0.19853519
121	0x3e8cacfc	0.27475727
122	0x3e8ff892	0.28119332
123	0xbee9cfbc	-0.456663
124	0x3e888444	0.2666341
125	0x3ed45c8e	0.41476864
126	0x3f0a397c	0.53993964
127	0xbe015d29	-0.12633194
128	0xbe8b5f37	-0.2722108
129	0xbe84a57e	-0.2590751
130	0x3ebd7e65	0.37010494
131	0xbd21332c	-0.039355442
132	0xbf16e78e	-0.58947074
133	0x3db9ee3f	0.09078645
134	0xbf143f95	-0.5790952
135	0xbe885d38	-0.2663362
136	0xbe39878e	-0.18118116
137	0xbd44a694	-0.048010424
138	0x3de39fee	0.111144885
139	0x3ef13a14	0.47114623
140	0xbed6a558	-0.41923022
141	0xbebc913b	-0.36829552
142	0x3e7e52b3	0.24836235
143	0x3c433a7d	0.0119158
144	0x3e0116e3	0.12606387
145	0xbee537d9	-0.4476917
146	0x3c8f2815	0.017475167
147	0x3cc59722	0.024119917
148	0xbc873bb7	-0.016507966
149	0xbeeb54a8	-0.45963025
150	0xbecc660b	-0.39921603
151	0xbeaea843	-0.34112749
152	0xbe8d7415	-0.27627626
153	0x3f0b28e7	0.5435929
154	0xbea1c8f5	-0.3159863
155	0xbee33665	-0.44377437
156	0x3e1783ac	0.14796323
157	0xbd1aede8	-0.03782454
158	0x3f11012d	0.5664242
159	0xbdc9a9bb	-0.09846827
160	0xbec9c058	-0.3940456
161	0x3e8296b4	0.25505602
162	0x3ec22c4e	0.37924427
163	0xbc241fc9	-0.010017344
164	0xbe60b87f	-0.2194538
165	0x3eac24c9	0.33621815
166	0x3ec9ef79	0.39440516
167	0x3eec0b54	0.46102393
168	0xbebe4208	-0.37159753
169	0xbe59a9c5	-0.21256168
170	0xbe62bff9	-0.22143544
171	0xbf0d8287	-0.55277294
172	0x3d611589	0.05495218
173	0xbed3b64c	-0.4135002
174	0x3eb9b055	0.36267343
175	0xbe1cc04c	-0.1530773
176	0xbeaccd0f	-0.33750197
177	0xbe7069ad	-0.23477812
178	0xbf16cd6f	-0.58907217
179	0x3ea1f495	0.31631914
180	0x3f0a051d	0.5391405
181	0x3e83714f	0.25672385
182	0x3f00d0fe	0.50318897
183	0xbebeee79	-0.37291315
184	0xbf084bb2	-0.532405
185	0x3eb7b83f	0.35882756
186	0x3eb542cd	0.35402527
187	0xbe7bf897	-0.24606548
188	0xbdd3978a	-0.10331638
189	0x3ec8f23c	0.3924731
190	0xbe94fc59	-0.29098776
191	0xbeae4e63	-0.3404418
192	0x3ddf2672	0.10896005
193	0xbea164b5	-0.31522146
194	0xbf08ba12	-0.5340892
195	0xbedd2fe4	-0.432006
196	0xbf13acb7	-0.57685417
197	0x3eb7e453	0.35916385
198	0xbf16fc5d	-0.58978826
199	0xbe2c42a4	-0.16822296
200	0xbdf70072	-0.12060632
201	0x3edbe4ac	0.429479
202	0x3dde550a	0.10856064
203	0xbf147488	-0.5799031
204	0x3da25f39	0.079283185
205	0x3d76a573	0.06021638
206	0xbf03c485	-0.5147174
207	0x3a850ac2	0.0010150301
208	0xbcb1a829	-0.02168663
209	0xbe8aa9eb	-0.27082762
210	0x3db1f05f	0.08688425
211	0xbe6848be	-0.22683999
212	0xbe8aed3b	-0.27134117
213	0x3ea92e5d	0.33043185
214	0x3ece9c6b	0.40353712
215	0x3e2c8531	0.16847683
216	0xbf10bf85	-0.56542236
217	0xbdfa582a	-0.12223847
218	0xbed4cf46	-0.41564387
219	0xbe1b1541	-0.15144826
220	0xbe351dbc	-0.17687124
221	0xbed84bce	-0.42245334
222	0xbe67c8ba	-0.22635165
223	0x3e9b9e03	0.3039399
224	0xbeb7644c	-0.35818708
225	0xbeef7b73	-0.46773872
226	0x3e92b590	0.28654146
227	0x3e9be25b	0.30446133
228	0x3df4217b	0.119204484
229	0x3db388d2	0.08766331
230	0x3dff9201	0.1247902
231	0x3a9f2db9	0.0012144364
232	0xbe4cdaf5	-0.200054
233	0xbedf55a5	-0.4362003
234	0xbd087be3	-0.033321273
235	0xbeaf5698	-0.34245753
236	0x3ebebd3e	0.37253755
237	0x3ec54d16	0.38535374
238	0x3e23212a	0.1593062
239	0x3e0bac93	0.1364005
240	0xbe449101	-0.1919594
241	0xbd83c41d	-0.0643389
242	0xbf0147fb	-0.5050046
243	0xbec4c324	-0.3843013
244	0xbf17c54a	-0.59285414
245	0xbe9b3103	-0.3031083
246	0x3eaf1366	0.34194487
247	0xbd824a2a	-0.06361802
248	0xbf1195d6	-0.56869256
249	0xbeb91cec	-0.36154878
250	0xbe2a7229	-0.16645111
251	0xbee7573c	-0.45183742
252	0xbce3fed1	-0.027831467
253	0x3e27bc5e	0.1638045
254	0x3ed52ab3	0.4163414
255	0xbec3c241	-0.3823414

encoder.0.bias f4 [128]
0	0xbdf22214	-0.11822906
1	0x3e9c3a13	0.30513057
2	0xbe07cbc9	-0.13261332
3	0x3ebbeb0d	0.36702767
4	0x3eb26a0c	0.34846532
5	0x3e35dc56	0.17759833
6	0xbeb2cdeb	-0.34922728
7	0x3ebc4f58	0.36779284
8	0xbecdba90	-0.40181398
9	0xbc835115	-0.016029874
10	0xbda6573a	-0.08122106
11	0x3ee5f1bb	0.44910988
12	0xba0e637a	-0.0005431693
13	0x3d787e1a	0.060667135
14	0xbb338ebb	-0.0027398306
15	0xbef99f7f	-0.48754498
16	0x3ee86644	0.45390522
17	0xbd8b6cb8	-0.06807846
18	0xbe90e26c	-0.28297746
19	0x3edcae41	0.43101695
20	0x3e6413c4	0.22273165
21	0x3eaef0c5	0.34168068
22	0xbef2c493	-0.474156
23	0xbef5dd1c	-0.48020256
24	0x3f016df0	0.50558376
25	0x3dfc6462	0.12323834
26	0xbe379740	-0.17928791
27	0x3cc5a187	0.024124874
28	0x3f13f529	0.5779596
29	0x3e091d80	0.1339016
30	0x3f0daf7a	0.5534588
31	0xbf02176f	-0.50817007
32	0xbdc8e5bb	-0.098094426
33	0x3e27a375	0.16370948
34	0x3ade4dbd	0.0016960424
35	0x3f089920	0.5335865
36	0x3e18828f	0.14893554
37	0x3e9de15d	0.30836
38	0xbf015b97	-0.5053038
39	0xbea297f9	-0.3175657
40	0xbed6710d	-0.41883126
41	0x3ada406e	0.0016651282
42	0x3e039fca	0.12853923
43	0xbe01a58e	-0.1266081
44	0x3e66e1d2	0.22547081
45	0x3e91c2b4	0.2846886
46	0x3d9181ef	0.07104861
47	0x3ed43afe	0.41451257
48	0x3ecb46cc	0.3970245
49	0x3f0c5095	0.5481046
50	0x3d3ad3be	0.04561209
51	0xbd8404e8	-0.06446248
52	0x3ec3a7d6	0.38213986
53	0x3e84da64	0.2594787
54	0xbedb9a69	-0.42891243
55	0x3ee5b44b	0.44864115
56	0x3eb1e5e8	0.34745717
57	0xbe9f105c	-0.3106717
58	0x3eb9496c	0.3618883
59	0xbd7d4a59	-0.06183848
60	0xbd3ca801	-0.04605866
61	0x3ee4968a	0.44646102
62	0xbeb60809	-0.35553005
63	0x3e43eb24	0.19132668
64	0x3e881b06	0.26583117
65	0x3f0a6ded	0.54073983
66	0xbd904abd	-0.07045505
67	0x3dd7b79b	0.10533067
68	0xbeb0d585	-0.34537902
69	0x3ef47f66	0.47753447
70	0xbe70c2c2	-0.23511794
71	0xbe2dc33c	-0.16969007
72	0xbdb44ff2	-0.08804311
73	0x3f0653ad	0.5247143
74	0x3e81867f	0.25297925
75	0x3cd9a909	0.02656986
76	0x3e64040c	0.22267169
77	0x3ef344bb	0.47513375
78	0xbebd1d52	-0.36936432
79	0x3e24c687	0.16091357
80	0xbd7ec69a	-0.06220112
81	0x3e8cdf02	0.2751389
82	0x3c675485	0.014119272
83	0x3e60b53c	0.21944135
84	0xbe1c13f4	-0.15241987
85	0x3f03899f	0.5138187
86	0x3effa798	0.4993255
87	0xbdb57879	-0.08860869
88	0x3a22d5a9	0.00062116474
89	0x3f0eb8ed	0.55750924
90	0x3edb4692	0.42827278
91	0x3e5cb56f	0.21553586
92	0xbe588446	-0.21144208
93	0xbef96beb	-0.48715147
94	0x3ea722ce	0.3264374
95	0x3de9e9df	0.114215605
96	0xbf00324c	-0.50076747
97	0xbe315f62	-0.17321542
98	0x3ed9216d	0.42408314
99	0xbd669907	-0.056298282
100	0x3eaea4c8	0.34110093
101	0x3f11614f	0.56789106
102	0x3f020122	0.5078298
103	0x3e2b5d2f	0.16734765
104	0xbf0b279d	-0.5435732
105	0xbf051d06	-0.5199741
106	0x3e4c8946	0.1997424
107	0xbf08d202	-0.53445446
108	0x3e712b85	0.23551758
109	0xbeef28a3	-0.4671069
110	0x3e8247ac	0.25445306
111	0xbf1d45aa	-0.61434424
112	0xbea6c2ac	-0.32570398
113	0x3e7609c5	0.24027164
114	0xbe84a31b	-0.2590569
115	0x3ef48d7d	0.47764197
116	0xbf07bad5	-0.5301946
117	0x3d947d2f	0.072504394
118	0x3f136b47	0.5758557
119	0x3e226b9d	0.15861364
120	0xbd1397c9	-0.036033425
121	0x3ea23b2f	0.31685778
122	0xbedd2612	-0.43193108
123	0xbee50d8e	-0.44736904
124	0xbe2b0826	-0.16702327
125	0xbe9fcda7	-0.31211588
126	0x3e998c15	0.29989687
127	0xbeee5619	-0.46550062

encoder.3.weight f4 [64, 128, 3]
0	0x3b911d49	0.00442854
1	0x3c23395e	0.009962408
2	0x3bfc55a3	0.0077006384
3	0xbc2bf9e4	-0.01049659
4	0x3bd8afff	0.0066127772
5	0xbcf6a909	-0.0301099
6	0x3c9e77ea	0.019344289
7	0xbc9ce599	-0.01915245
8	0xbcd05b11	-0.025434049
9	0xbd11d7dc	-0.03560625
10	0x3d27e355	0.040988285
11	0xbc65f880	-0.014036298
12	0x3d0af8d8	0.033928722
13	0xbcb4dbc9	-0.022077458
14	0x3c0d90d2	0.008640485
15	0x3d05951c	0.032612905
16	0x3c21da12	0.009878652
17	0x3d12fd2d	0.03588598
18	0xbb8f330f	-0.0043701003
19	0xbcffdcf6	-0.031233292
20	0xbd0b5568	-0.034016997
21	0xbd0b94d4	-0.03407748
22	0xbd13386a	-0.035942473
23	0xbc9cd339	-0.019143688
24	0xbd38a608	-0.045080215
25	0xb9a0560b	-0.00030581685
26	0xbc819f78	-0.015823111
27	0x3cf22a91	0.029561313
28	0x3d2abc25	0.041683335
29	0x3d1211ed	0.035661627
30	0xbcd7603d	-0.026291007
31	0xbce591dc	-0.028023653
32	0xbc81b524	-0.015833445
33	0xbd408702	-0.047003753
34	0x3cf6e667	0.030139161
35	0x3cfcf9b6	0.03088079
36	0x3d20624f	0.039156254
37	0xbc2e10ca	-0.01062412
38	0x3c036d11	0.008021609
39	0xbcf44ed0	-0.029822737
40	0x3c3adf94	0.011405844
41	0x3c17375a	0.009229505
42	0x3d0adb03	0.033900272
43	0x3d0271b4	0.031846717
44	0x3bea0889	0.0071421308
45	0xbce654fe	-0.0281167
46	0xbd00b0b5	-0.03141852
47	0x3bbd355e	0.005774184
48	0xbd44fb23	-0.048091065
49	0xbd291386	-0.041278385
50	0xbca7f669	-0.02050324
51	0x3d3edb2f	0.04659575
52	0xbcaca5d7	-0.021075172
53	0xbc81f9c0	-0.01586616
54	0x3d4cc141	0.04998899
55	0xbd4562df	-0.048189994
56	0xbd6269ab	-0.055276554
57	0x3bd42be2	0.006474958
58	0x3d56b872	0.052421995
59	0x3d2baf47	0.041915204
60	0xbc29a884	-0.010355119
61	0xbc738054	-0.014862139
62	0x3ca69f93	0.020339763
63	0xbd0c620c	-0.034273192
64	0x3d3596c6	0.044333242
65	0xbd3719d9	-0.044702385
66	0x3d29b0fd	0.041428555
67	0x3cfeac82	0.031088118
68	0x3a60a592	0.0008569594
69	0x3d13fa44	0.036127344
70	0x3d32bae7	0.043635275
71	0xbc7f05a5	-0.015565311
72	0xbd2d524c	-0.042314813
73	0x3d18a180	0.037263393
74	0x3bc10d92	0.0058915103
75	0xbca2707d	-0.01982903
76	0x3c11fce8	0.008910395
77	0x3c9d2c01	0.019186022
78	0xbd188682	-0.03723765
79	0x3cc63f4b	0.024200102
80	0xbd2e1e1f	-0.042509194
81	0xbc0a149e	-0.008427767
82	0xbccd094d	-0.025028849
83	0xbbb8ff0f	-0.0056456397
84	0xbd09343a	-0.033497073
85	0x3d03539f	0.03206217
86	0xbcfd38a7	-0.030910803
87	0xbd2f1563	-0.042745005
88	0xbc15ada6	-0.009135639
89	0xbd1ff2b7	-0.03904983
90	0xbd436319	-0.04770193
91	0xbcf6e6ad	-0.030139292
92	0xbb1698d0	-0.0022979267
93	0x3d10b8c8	0.03533247
94	0x3cd0dc09	0.025495546
95	0xbc8e3ab5	-0.017361978
96	0xbce6e45e	-0.028185066
97	0xbd36d6da	-0.044638492
98	0xbd01cd9e	-0.031690232
99	0x3d23324e	0.039842896
100	0x3cee2a7c	0.029072993
101	0xbd176f35	-0.03697129
102	0x3c739211	0.014866368
103	0x3c569f83	0.013099554
104	0x3b047f1e	0.002021737
105	0x3be50601	0.006989241
106	0xbcd395f4	-0.02582834
107	0x3d3bb384	0.045825496
108	0xbd571a49	-0.0525153
109	0xbb87d05e	-0.0041447124
110	0xbce1bf3b	-0.027557006
111	0xbd551703	-0.0520239
112	0x3d0da252	0.03457863
113	0x3cc2c1ef	0.023774115
114	0xbd4a7189	-0.04942468
115	0xbd17f73a	-0.037101008
116	0x3cbec526	0.023287367
117	0xbd4057c9	-0.04695872
118	0x3d1af98b	0.03783564
119	0xbc60fb6a	-0.013731817
120	0x3c9151b4	0.017739154
121	0xbc2d0bcb	-0.010561894
122	0x3ca79272	0.020455573
123	0xbccacbc1	-0.02475536
124	0xbd4aeb1c	-0.049540624
125	0xbd59fdb3	-0.053220462
126	0xbcd7f4dc	-0.026361875
127	0xbd09fdf6	-0.03368946
128	0x3d180c54	0.037121132
129	0x3c867725	0.016414234
130	0xbc19f8d0	-0.0093977
131	0xbd37dbc7	-0.04488733
132	0xbcb01ac1	-0.021497132
133	0x3cbfdec3	0.02342165
134	0xbd3441f5	-0.044008214
135	0x3bef70b0	0.0073071346
136	0xbcda7d1e	-0.026670989
137	0x3c9ebdff	0.019377707
138	0xbd1ce09e	-0.03830015
139	0x3c1cb90f	0.009565606
140	0xbd4a668f	-0.049414214
141	0xbc84cb53	-0.016210234
142	0x3c56cec3	0.013110819
143	0xbc205512	-0.009785907
144	0xbd3d3365	-0.04619159
145	0x3d325b3f	0.04354405
146	0x3d4f5bfc	0.050624833
147	0xbce62953	-0.028095877
148	0x3b9adb55	0.0047258534
149	0xbcfeecf3	-0.031118846
150	0x3d0ec3d8	0.03485474
151	0xbd573c41	-0.052547697
152	0x3ca72cef	0.020407168
153	0xbb01a734	-0.0019783499
154	0x3d12ec52	0.035869904
155	0x3cd7fca8	0.026365593
156	0xbd1faf5b	-0.03898559
157	0x3d22a172	0.039704747
158	0xbd2db6b8	-0.042410582
159	0x3cdfe98a	0.02733304
160	0x3a40d7cb	0.00073563744
161	0x3c32bfd0	0.0109099895
162	0x3d020df0	0.031751573
163	0xbd4039eb	-0.046930235
164	0x3d1d16c1	0.038351778
165	0xbd2b75b7	-0.04186031
166	0x3bc3daa7	0.005976993
167	0xbd471cf4	-0.048611596
168	0xbb722472	-0.0036947993
169	0x3d10710f	0.03526407
170	0xbc1ccb16	-0.009569904
171	0xbce5f752	-0.028072033
172	0x3d3fbf08	0.04681304
173	0xbc625d39	-0.013816171
174	0x3d29319e	0.041307084
175	0xbb2732d2	-0.002551247
176	0xbc793a1d	-0.015211609
177	0x3d16322d	0.036668945
178	0x3d127d66	0.03576412
179	0x3c6287e5	0.013826345
180	0xbd48b81d	-0.04900371
181	0xbd6d4919	-0.05793104
182	0xbd415e05	-0.047208805
183	0xbc3ad694	-0.0114036985
184	0xbc798aab	-0.015230815
185	0x3d40463e	0.04694199
186	0xbd26df7d	-0.04074048
187	0x3d168c35	0.036754806
188	0x3d14f3ef	0.036365446
189	0x3be60a2d	0.007020256
190	0x3d698c9c	0.05701886
191	0xbd239c32	-0.03994388
192	0xbd1d00fc	-0.038331017
193	0xbcc14f8d	-0.023597503
194	0x3bf9b98c	0.007620996
195	0xbcafaacc	-0.021443747
196	0xbbac021a	-0.005249274
197	0xbd18130f	-0.03712755
198	0x3d05305e	0.03251683
199	0xbd321422	-0.04347623
200	0x3c1e330d	0.009655726
201	0xbc006540	-0.00783664
202	0xbc882a79	-0.016621815
203	0xbc924e23	-0.017859524
204	0x3d41cb68	0.047313124
205	0x3d3a8b88	0.045543224
206	0x3d13d9d5	0.036096413
207	0x3d0ff1ed	0.035142828
208	0x3d2a0026	0.041504048
209	0x3d0cb622	0.034353383
210	0xbd3128a1	-0.043251637
211	0xbd5906c9	-0.052984986
212	0xbbd41a39	-0.0064728525
213	0xb714a6f7	-8.860362e-06
214	0x3cfc62b5	0.030808786
215	0xbd184e89	-0.037184272
216	0xbd196136	-0.037446223
217	0xbd21b2c4	-0.039477125
218	0xbd6bb1a3	-0.057542454
219	0xbcce7f7b	-0.025207272
220	0xbbb3660e	-0.0054748124
221	0x3b289eca	0.0025729411
222	0x3d2e337f	0.04252958
223	0xbd0ce39c	-0.034396753
224	0x3d651489	0.055927787
225	0x3ac56e4d	0.001506278
226	0x3cc92303	0.024552828
227	0xbd2a4602	-0.04157067
228	0xbd29c949	-0.041451726
229	0x3ce3f192	0.02782515
230	0x3d2e243e	0.042515032
231	0x3ae3be70	0.001737548
232	0x3c9813b9	0.018564092
233	0x3cf476a4	0.029841729
234	0xbd09f12e	-0.033677272
235	0xbc5930e6	-0.013256287
236	0xbccee421	-0.025255265
237	0xbd3b74b2	-0.045765586
238	0xbd4997b7	-0.049216952
239	0xbca7a1ed	-0.020462954
240	0x3cd15f95	0.025558272
241	0x3d5aaa2e	0.053384952
242	0xbcafe52e	-0.021471586
243	0xbbbe3743	-0.0058049276
244	0x3d4dfe0c	0.050291106
245	0x3ccd3af9	0.025052534
246	0xbc8e10fb	-0.017342081
247	0xbd10c574	-0.035344556
248	0x3c64bace	0.013960553
249	0xbcd04d28	-0.025427416
250	0xbcf216e6	-0.029551934
251	0xbc957256	-0.018242996
252	0x3d33140c	0.04372029
253	0x3c83f948	0.016110078
254	0x3d3dab40	0.046305895
255	0x3c4fbfd3	0.012680012

encoder.3.bias f4 [64]
0	0x3b0747de	0.0020642201
1	0xbc8f11d8	-0.017464563
2	0xbd190ab5	-0.037363727
3	0x3d463950	0.0483945
4	0xbc95db97	-0.018293185
5	0x3d555500	0.052083015
6	0x3d30556c	0.043050215
7	0xbc71e4c1	-0.014764012
8	0x3d177a29	0.036981735
9	0xb8db9383	-0.0001047021
10	0xbcab9156	-0.020943325
11	0xbcd747ca	-0.026279349
12	0xbcc5a7d7	-0.024127884
13	0x3c69e34a	0.014275381
14	0xbd49e580	-0.049291134
15	0x3ca9a606	0.020709049
16	0xbd0edb3c	-0.034877047
17	0x3d2c62ba	0.04208634
18	0x3caa4fde	0.020790037
19	0xbc63edd0	-0.013911679
20	0xbc6155c4	-0.013753358
21	0xbd151a59	-0.03640208
22	0xbc219882	-0.009863021
23	0x3cd9fc6a	0.026609618
24	0xbd3174f3	-0.043324422
25	0x3d3b51b4	0.045732215
26	0x3c245450	0.010029867
27	0xbb800c38	-0.0039077066
28	0xbd006bcf	-0.031352814
29	0x3d1b88cd	0.03797226
30	0x3c44f4e4	0.012021277
31	0x3ba1dbf7	0.004939552
32	0x3c96179b	0.018321803
33	0xbc9566f0	-0.018237561
34	0x3cf5a51b	0.029985955
35	0x3d22bac8	0.03972891
36	0xbcd7628d	-0.02629211
37	0x3d1e0970	0.03858322
38	0x3d2e4fc4	0.04255654
39	0xbcea50f3	-0.028603053
40	0xbcf43908	-0.02981235
41	0x3c7cc71a	0.015428329
42	0x3d031424	0.03200163
43	0x3cbd6697	0.023120208
44	0x3d393ce5	0.04522409
45	0xbca64259	-0.020295309
46	0x3d3450c9	0.044022355
47	0xbd4d863f	-0.050176855
48	0xbcd10f1a	-0.025519896
49	0x3d015e14	0.03158386
50	0x3c679f06	0.014137035
51	0x3d4d02b8	0.05005142
52	0x3d81b07b	0.06332489
53	0xbd0d0deb	-0.0344371
54	0x3d75609a	0.05990658
55	0x3cfc5902	0.030804161
56	0xbd01e39d	-0.03171121
57	0xbd60a8fd	-0.05484866
58	0xbd4dcfa7	-0.05024686
59	0xbc20e162	-0.00981936
60	0xbb23d6c6	-0.002499984
61	0x3c8f5c46	0.017500054
62	0x3cd0a409	0.025468843
63	0xbc6c1156	-0.01440843

encoder.6.weight f4 [32, 64, 3]
0	0x3d69c7df	0.057075378
1	0x3c3a9a49	0.0113893235
2	0xbd13972b	-0.036032837
3	0xbd48f224	-0.04905905
4	0x3cbe8c75	0.023260335
5	0x3c694cb3	0.014239478
6	0x3cae8d92	0.02130774
7	0xbcf61c80	-0.030042887
8	0x3d15cc05	0.03657152
9	0xbd04689c	-0.032326326
10	0xbd121d65	-0.035672564
11	0xbc9c66f1	-0.019092055
12	0xbd682c5a	-0.056682922
13	0xbd1d1bf5	-0.03835674
14	0x3c766895	0.015039583
15	0x3d899ede	0.06719755
16	0x3d82f9d4	0.06395307
17	0xbcc05131	-0.023476215
18	0x3b9e5f01	0.0048331027
19	0xbd0b2ee3	-0.03398026
20	0x3d66e229	0.056368027
21	0x3cb721f6	0.022355061
22	0x3d4f6b8e	0.05063968
23	0xbd2fd5f2	-0.042928644
24	0x3c291750	0.0103205
25	0x3b5e6a16	0.0033937744
26	0x3d8f65f3	0.07001867
27	0x3d2f694e	0.042825036
28	0x3c24cfe9	0.010059335
29	0xbd218293	-0.039431166
30	0x3a847072	0.0010104312
31	0x3d83bb73	0.064322375
32	0x3cc81065	0.02442188
33	0xbc57e92d	-0.013178152
34	0xbd8b9e90	-0.06817353
35	0xbc4356f4	-0.011922587
36	0xbd291ca7	-0.04128709
37	0xbd4a0458	-0.04932055
38	0xbd8aa44b	-0.06769618
39	0x3d8a4df3	0.06753149
40	0x3c7cf11c	0.015438344
41	0xbd0c7b6e	-0.0342974
42	0xbd8cc10b	-0.068727575
43	0xbd209211	-0.0392018
44	0x3cc2a394	0.02375964
45	0xbc9e252c	-0.019304834
46	0xbd3c0547	-0.04590347
47	0x3d54e98f	0.05198055
48	0x3d7ffec9	0.06249884
49	0xbc9f6267	-0.019456102
50	0x3d4454e4	0.04793252
51	0xbbe26bbd	-0.006909816
52	0x3cf4661b	0.029833844
53	0xbd452b64	-0.048137084
54	0x3d90bc03	0.070671104
55	0xbd83e9b3	-0.06441059
56	0xbd6a795b	-0.05724464
57	0xbd019c0d	-0.031642962
58	0xbd90acc6	-0.07064204
59	0xbd266d75	-0.04063173
60	0x3d420fda	0.0473784
61	0x3d887a66	0.06663971
62	0x3d51c419	0.051212404
63	0x3ca047e2	0.019565526
64	0xbc99b006	-0.018760692
65	0xbc9458f7	-0.018108828
66	0xbce88b45	-0.028386721
67	0x3d7fe352	0.06247265
68	0xbbb30e9e	-0.005464389
69	0x3b21c304	0.0024682889
70	0x3c73482e	0.014848752
71	0xbb68a016	-0.003549581
72	0x3d8c7cf1	0.06859768
73	0x3d7ca44e	0.06168013
74	0x3d8901a8	0.06689769
75	0xbd4f56bb	-0.050619822
76	0xbd903810	-0.07041943
77	0x3cdf9909	0.027294653
78	0x3de58558	0.11207074
79	0x3bbbd524	0.0057321955
80	0x3d1101b7	0.035402026
81	0xbcfe391a	-0.031033088
82	0x3d574c4f	0.052563008
83	0x3af9218e	0.0019007192
84	0xbc995c15	-0.018720666
85	0x3d27efea	0.041000284
86	0xbc9ac677	-0.018893464
87	0x3cf6a126	0.030106138
88	0xbd594984	-0.053048626
89	0xbd3726be	-0.04471468
90	0x3cda8eb9	0.026679384
91	0x3d24976c	0.04018347
92	0xbce52763	-0.027972883
93	0xbd845e1e	-0.06463264
94	0xbd1f5794	-0.03890188
95	0xbd84ec8e	-0.06490432
96	0x3c24fbf7	0.010069839
97	0x3d8e2739	0.06941075
98	0xbd76d365	-0.060260195
99	0xbd79afe9	-0.060958777
100	0xbd7fc711	-0.062445704
101	0xbd4ecbef	-0.050487455
102	0xbd879af3	-0.06621351
103	0x3d11a3a5	0.035556454
104	0xbd8669a6	-0.065631196
105	0x3d6c757b	0.057729226
106	0x3d45d94f	0.048302945
107	0x3cf0b4a3	0.02938301
108	0xbd184dca	-0.03718356
109	0xbc98cf93	-0.018653667
110	0x3d5a8b74	0.05335565
111	0x3ca301be	0.019898292
112	0xbd0c40fe	-0.03424167
113	0xbd85baa8	-0.065297425
114	0x3dabb388	0.08383852
115	0xbc85e3bd	-0.016343946
116	0xbd87e85d	-0.06636117
117	0xbd10e207	-0.035371806
118	0x3d17d358	0.037066787
119	0x3cbe5529	0.023233967
120	0xbd1eb438	-0.03874609
121	0x3cfac6a4	0.030612297
122	0x3d20f94a	0.03930024
123	0x3d68a458	0.056797355
124	0x3d99f6e8	0.07517797
125	0xbd0c89fa	-0.034311272
126	0x3c5cec43	0.013484064
127	0x3d6c9f22	0.05776895
128	0xbd89217e	-0.06695841
129	0x3bcc4fd0	0.0062351003
130	0xbce818ca	-0.028332133
131	0x3d6a3ff1	0.057189886
132	0x3d42f6ce	0.047598653
133	0xbd3fc02c	-0.04681413
134	0xbc1ab201	-0.0094418535
135	0x3cb55456	0.022134941
136	0xbd218322	-0.0394317
137	0x3d269ae7	0.04067507
138	0x3bba7d1b	0.0056911833
139	0x3d41f0d9	0.04734883
140	0x3d1896bc	0.037253127
141	0xbcfc746a	-0.03081723
142	0xbd32237f	-0.043490883
143	0x3d4e9e0c	0.050443694
144	0x3a2e91a1	0.00066592736
145	0xbd337b83	-0.04381896
146	0x3d874ebc	0.06606814
147	0xbbbfbd8e	-0.005851454
148	0x3a7c7689	0.00096307
149	0x3d59b363	0.053149592
150	0xbd3df24b	-0.046373647
151	0x39993100	0.00029218942
152	0xbd43c66d	-0.047796655
153	0x3da2bbed	0.07946
154	0xbb0085e3	-0.0019611053
155	0x3dc40ad9	0.095723815
156	0xbd3059dd	-0.04305445
157	0x3d7f6173	0.062348794
158	0xbda803cd	-0.0820385
159	0x3d0ad29c	0.03389226
160	0xbcc8bd85	-0.024504432
161	0x3d478fd8	0.048721164
162	0xbc4d0605	-0.012513642
163	0x3d3f8cdf	0.046765205
164	0xbc667f1a	-0.014068389
165	0x3c88b078	0.01668571
166	0xbcf33c8d	-0.029691959
167	0x3ace84aa	0.001575609
168	0x3c3e2237	0.011604837
169	0xbd0996df	-0.033591148
170	0xbcba7316	-0.022759955
171	0xbd4f470c	-0.050604865
172	0xbd4a5bf4	-0.0494041
173	0xbca986a8	-0.020694092
174	0xbbc1eff6	-0.005918498
175	0x3cf2cbe2	0.029638235
176	0xbd3303c1	-0.043704752
177	0xbd8ef87e	-0.0698099
178	0x3cdc4842	0.026889924
179	0x3c5814b6	0.013188532
180	0x3cf59213	0.02997688
181	0x3d95594b	0.07292422
182	0xbd4f9af9	-0.050684903
183	0x3ce94bd3	0.028478539
184	0x3d9f84d4	0.07789007
185	0x3d1402c5	0.036135454
186	0x3c106e4d	0.00881536
187	0x3d1d0360	0.038333297
188	0x3d2b1a87	0.041773345
189	0xbd029ddd	-0.03188883
190	0xbd341250	-0.043962777
191	0xbd29c581	-0.04144812
192	0xbd242f2c	-0.04008405
193	0x3d9f39d9	0.077747054
194	0xbc612ec9	-0.013744065
195	0xbd3f2771	-0.046668474
196	0x3d54c4c9	0.05194548
197	0x3d081820	0.033226132
198	0x3d2beee3	0.041975867
199	0xbd920a59	-0.0713088
200	0x3c9afb3e	0.01891863
201	0x3a824b09	0.0009940575
202	0xbd82aa76	-0.06380169
203	0x3d7f58e1	0.06234062
204	0x3d87dae0	0.06633544
205	0x3d75b7fe	0.05998992
206	0x3b6f5d16	0.003652399
207	0xbcea3fad	-0.028594816
208	0x3bdb9978	0.0067016445
209	0x3d68b55f	0.056813594
210	0xbd79cad4	-0.060984448
211	0x3d54cb0d	0.051951457
212	0x3d91ccc0	0.07119131
213	0x3cdf09b2	0.027226303
214	0xbd66e4c2	-0.056370504
215	0xbd7d52ee	-0.061846666
216	0xbd3f2c7e	-0.04667329
217	0xbd2236e9	-0.039603148
218	0x3d7032ab	0.05864207
219	0x3cdb8416	0.026796382
220	0x3b29e62a	0.0025924542
221	0xbd68416a	-0.05670301
222	0x3d158fdf	0.03651416
223	0x3d3df6a8	0.046377808
224	0xbb82424e	-0.0039751893
225	0x3d03e4d2	0.032200642
226	0xbd9e9b24	-0.077444345
227	0xbcc4c687	-0.024020446
228	0xbd73560f	-0.059408244
229	0x3d031541	0.03200269
230	0x3d8faa15	0.070148624
231	0xbd29d620	-0.04146397
232	0xbc100594	-0.008790392
233	0x3c6f25ee	0.0145964455
234	0x3d884b24	0.06654957
235	0xbcde499b	-0.027134707
236	0xbb1bd4fa	-0.0023778067
237	0x3c89592a	0.01676615
238	0x3d65e6f7	0.05612847
239	0x3d851682	0.06498434
240	0x3b6162d1	0.0034391175
241	0x3c33158e	0.010930432
242	0xbcdcadf3	-0.026938414
243	0xbd81395a	-0.06309767
244	0x3ba23081	0.00494963
245	0xbd19008b	-0.037354033
246	0x3d9018f6	0.07036011
247	0xbd798f7a	-0.060927846
248	0x3c129880	0.008947492
249	0xbd510d74	-0.05103822
250	0xbd8de8c1	-0.0692916
251	0xbc3446ae	-0.0110031795
252	0xbcf7a80c	-0.030231498
253	0x3c937532	0.018000219
254	0xbcdf741c	-0.027277045
255	0x3d073e3e	0.033018343

encoder.6.bias f4 [32]
0	0xbd2e8446	-0.042606615
1	0x3d46b100	0.048508644
2	0x3cae0cbc	0.021246307
3	0xbd747687	-0.05968335
4	0xbcd902ed	-0.026490653
5	0xbd59cc43	-0.053173315
6	0x3d83f8fa	0.06443973
7	0xbd51afc0	-0.051193
8	0x3d74faac	0.05980937
9	0x3d51c297	0.051210966
10	0xbd0b80e1	-0.034058455
11	0xba8d57cd	-0.0010783613
12	0x3d972fc8	0.073821604
13	0x3d67ba7d	0.056574333
14	0x3c945890	0.018108636
15	0xbd160bc5	-0.036632318
16	0x3bf4b454	0.007467786
17	0x3b484929	0.0030561185
18	0xbd36cdc6	-0.044629835
19	0x3c77a82c	0.015115779
20	0x3d7dcda2	0.061963685
21	0x3a8ecdeb	0.0010895109
22	0x3d7930d2	0.060837574
23	0xbd710082	-0.058838375
24	0xbbaa9371	-0.0052055647
25	0x3cc82dc8	0.024435893
26	0x3c3bec41	0.011469902
27	0x3d2f0ff4	0.042739823
28	0x3da9e452	0.08295502
29	0xbcc51558	-0.024058029
30	0x3cb0b114	0.021568812
31	0xbd4305ad	-0.047612835

decoder.0.weight f4 [32, 64, 4]
0	0x3d0abba6	0.03387036
1	0xbd1221ba	-0.035676695
2	0xbcb31f36	-0.021865468
3	0xbd2ce98a	-0.042214908
4	0x3d74c299	0.059755895
5	0x3bf30f37	0.0074175852
6	0xbcb50617	-0.02209763
7	0x3ce57db9	0.02801405
8	0x3b012372	0.0019704965
9	0x3d7f016c	0.062257215
10	0xbce4113e	-0.027840253
11	0x3d3404ac	0.043949768
12	0x3c0f790c	0.008756887
13	0x3d4ce2eb	0.050021093
14	0xbd804d22	-0.06264712
15	0x3d7c29d5	0.06156333
16	0x3d45c7e9	0.048286352
17	0x3c95a0de	0.018265184
18	0xbd37b7d9	-0.044853065
19	0x3d3ac66d	0.04559939
20	0x3d000491	0.031254355
21	0x3ceb76b0	0.028743118
22	0xbd3a695e	-0.045510642
23	0x3c18ac78	0.0093184635
24	0xbd4e54bd	-0.05037378
25	0x3d1702b1	0.0368678
26	0xbd294ecb	-0.04133491
27	0xbd41fb5e	-0.047358863
28	0xbd5daf19	-0.054122064
29	0xbcbb8acd	-0.022893334
30	0xba824317	-0.0009938207
31	0xbd8d1c21	-0.06890131
32	0xbcfbff4d	-0.030761385
33	0x3d3fefa6	0.046859406
34	0x3d4b24f0	0.049595773
35	0x3bdb1cb5	0.0066867718
36	0xbd0ddfc2	-0.03463722
37	0xbd1638cf	-0.03667527
38	0xbcc9e19c	-0.024643712
39	0x3ce0a8e8	0.02742429
40	0x3ba1e32e	0.004940412
41	0x3d7214ec	0.059101984
42	0x3be9b867	0.007132578
43	0xbd44946b	-0.047993105
44	0xbd281822	-0.04103864
45	0xbd6fe93a	-0.05857203
46	0x3d055b4a	0.032557763
47	0xbcd416aa	-0.025889713
48	0x3d0217eb	0.03176109
49	0xbc186f98	-0.00930395
50	0x3d20c25c	0.039247856
51	0xbb494682	-0.0030712192
52	0x3d360e2d	0.044447113
53	0x3c76da51	0.015066699
54	0xbc2a0e50	-0.010379389
55	0x3d64687c	0.055763707
56	0xbcb7aa13	-0.022419965
57	0x3cf8c732	0.030368421
58	0xbd2f2adf	-0.042765494
59	0xbd34a2e3	-0.044100653
60	0x3d669984	0.056298748
61	0x3d304db1	0.043042842
62	0xbbadca70	-0.0053036734
63	0x3d24acc1	0.040203813
64	0xbc91a188	-0.01777722
65	0xbcef52e4	-0.02921433
66	0xbd35b4c3	-0.04436184
67	0x3c54d681	0.012990595
68	0x3c20681f	0.009790449
69	0xbd20b901	-0.039238933
70	0x3c42610c	0.011863958
71	0xbc1ac20e	-0.00944568
72	0xbd6d7275	-0.057970483
73	0xbd8df64a	-0.069317415
74	0x3bd3841a	0.0064549567
75	0x3d1b466d	0.03790896
76	0x3d70fa06	0.05883219
77	0xbc96230a	-0.018327255
78	0xbbfbbdd6	-0.0076825423
79	0xbcba5cbd	-0.0227493
80	0x3a358c43	0.00069255027
81	0x3bca6b42	0.006177337
82	0x3d2c8377	0.042117562
83	0x3c01cd2b	0.007922451
84	0xbabef39d	-0.0014568452
85	0xbd2ebe97	-0.04266223
86	0x3ca06eeb	0.01958414
87	0x3d040f9d	0.032241452
88	0x3b9fcd2f	0.0048767547
89	0xbb942984	-0.0045215506
90	0x3cd6a0e2	0.026199762
91	0x3d0e3118	0.03471479
92	0xbcbb5f45	-0.022872576
93	0xbc81de5f	-0.015853105
94	0x3d3e19ff	0.04641151
95	0x3c2cff87	0.010558969
96	0xbd0e60c4	-0.03476025
97	0xbc6801ea	-0.014160613
98	0x3c26952d	0.010167402
99	0x3d51ef87	0.05125382
100	0x3d5c671e	0.053809278
101	0xbcdfc797	-0.027316852
102	0xbca59aad	-0.020215357
103	0x3c0cce87	0.008594162
104	0x3b33115e	0.0027323584
105	0xbc12140f	-0.008915915
106	0x3d39ff0a	0.04540924
107	0x3c84827a	0.016175497
108	0x3caabd82	0.020842317
109	0xbd293580	-0.041310787
110	0xbd07cae8	-0.03315249
111	0xbc86c3b3	-0.016450739
112	0x3c1b234b	0.009468864
113	0x3d4ae6a0	0.049536347
114	0x3c6ea257	0.014565072
115	0xbd24bc53	-0.040218662
116	0x3c920b3c	0.017827623
117	0x3ced227c	0.028947107
118	0x39dd4732	0.0004220545
119	0xbc2b7f6a	-0.01046739
120	0xbd4c1a6f	-0.049829897
121	0xbce11f48	-0.027480736
122	0xbc86fe88	-0.016478792
123	0xbc8ee67d	-0.01744389
124	0x3c96201f	0.018325863
125	0x3c83b32b	0.016076645
126	0xbbbd1335	-0.005770112
127	0xbd3683fa	-0.044559456
128	0x3c35bab3	0.011091876
129	0x3b8451d0	0.004038073
130	0x3d374b94	0.04474981
131	0xbbb6846a	-0.005569984
132	0xbd4fc3cb	-0.050723832
133	0x3c98aeff	0.018638132
134	0xbd09f955	-0.033685047
135	0x3d344cdf	0.044018622
136	0x3d27626f	0.040865358
137	0x3c4ccce9	0.012500026
138	0xbcf46341	-0.029832484
139	0xbd828dd7	-0.0637471
140	0x3c454a0b	0.012041579
141	0xbc379f2c	-0.011207383
142	0xbcacd1a1	-0.021096053
143	0xbbaa3a2b	-0.0051949224
144	0x3d3fc7d0	0.046821415
145	0x3c82716e	0.015923228
146	0xbd0f8a24	-0.03504385
147	0x3d16b2c4	0.036791578
148	0x3d0b58c7	0.03402021
149	0x3cee0322	0.029054228
150	0xbd0a1dcf	-0.033719834
151	0x3d60b1dd	0.054857124
152	0x3c589305	0.013218646
153	0xbd48278a	-0.048865832
154	0x3c848d9f	0.016180811
155	0xbd60d834	-0.054893687
156	0x3c97c244	0.01852525
157	0xbc89c071	-0.016815396
158	0x3b67c28b	0.003536376
159	0x3d38eb22	0.045146115
160	0x3d009a7f	0.03139734
161	0x3d877cf8	0.06615633
162	0x3d46cfd7	0.048538055
163	0x3ca26fc2	0.01982868
164	0x3d0aa594	0.033849314
165	0xbc492af4	-0.012278307
166	0xbd369ee8	-0.04458514
167	0xbcd9a72c	-0.026568972
168	0x3d31c674	0.04340215
169	0x3d6cab4f	0.05778056
170	0xbc687c19	-0.014189743
171	0x3d422602	0.04739953
172	0x3a0a8cce	0.0005285264
173	0xbc459e4b	-0.012061666
174	0x3ba3cdbc	0.0049988907
175	0x3d1cb825	0.03826155
176	0x3c918bca	0.017766852
177	0x3d0ed0d8	0.034867138
178	0x3d06beea	0.032896914
179	0xbd4adee1	-0.04952896
180	0xbd09f783	-0.03368331
181	0xbd181617	-0.03713044
182	0xbb235f3e	-0.0024928595
183	0xbcf0df92	-0.029403482
184	0xbd57b03c	-0.052658305
185	0x3d6b1d00	0.057400703
186	0xbabd38ee	-0.0014436522
187	0x3d3df7c5	0.04637887
188	0x3c0f9781	0.008764149
189	0xbd34963f	-0.0440886
190	0xbcdcd6b8	-0.026957855
191	0xbc235717	-0.009969494
192	0x3bd35d3d	0.006450324
193	0xbc242eda	-0.010020936
194	0xbccdc962	-0.02512044
195	0xbd6fab41	-0.05851293
196	0x3d4a44ce	0.049382024
197	0x3c9ef98d	0.019406104
198	0x3c0c26fa	0.008554215
199	0x3d59b607	0.05315211
200	0xbc9407c2	-0.018070105
201	0x3d46f3db	0.048572402
202	0xbcaeedf0	-0.021353692
203	0x3cc1fa34	0.023678876
204	0x3c9cc39c	0.019136243
205	0x3d29357b	0.04131077
206	0xbcc88e90	-0.024482042
207	0xbc31a4d0	-0.010842517
208	0xbc97b20e	-0.01851752
209	0xbbc9c800	-0.006157875
210	0xbc6372f5	-0.013882388
211	0x3d3803bc	0.044925436
212	0x3c34e0de	0.011039941
213	0x3d7e61de	0.062105052
214	0x3a8dad9f	0.0010809189
215	0xbc80aefe	-0.015708443
216	0xbcf1ac89	-0.029501216
217	0xbd650a0f	-0.055917796
218	0xbcc651e3	-0.024208969
219	0x3bb90bce	0.005647159
220	0xbd5e350f	-0.05424982
221	0x3cbdeb5d	0.023183519
222	0xbd47923c	-0.048723444
223	0x3d2a4422	0.041568883
224	0x3d4fdcc7	0.05074766
225	0x3be15997	0.006877135
226	0xbc031080	-0.007999539
227	0xbd4b431a	-0.04962454
228	0x3d030435	0.031986434
229	0xbb1e42c1	-0.0024148675
230	0xbcf6aae0	-0.030110776
231	0xbc11dab1	-0.008902238
232	0x3d25ea8a	0.040506877
233	0xbc08803c	-0.008331355
234	0xbc5e6393	-0.013573545
235	0xbc81da26	-0.015851092
236	0xbc4bd5bc	-0.012441095
237	0xbd277a2b	-0.040887993
238	0x3d6b513d	0.05745052
239	0xbc3703fc	-0.011170384
240	0x3bda9565	0.0066706412
241	0xbcaf4281	-0.021394016
242	0x3d596f4f	0.053084668
243	0x3d20f25a	0.039293624
244	0xbb10762c	-0.0022043092
245	0xbd53a6c9	-0.05167273
246	0xbc9b7d22	-0.018980566
247	0x3d24fd62	0.040280707
248	0x3cbc2434	0.022966482
249	0x3d82f946	0.063952014
250	0x3c21b41a	0.0098696
251	0xbd253d36	-0.04034158
252	0xbcf81b61	-0.030286493
253	0xbd3031f4	-0.04301639
254	0xbcf45a70	-0.02982828
255	0x3d83eef9	0.06442065

decoder.0.bias f4 [64]
0	0x3d1d3ee0	0.03839004
1	0x3d6aaaa9	0.05729166
2	0x3d4fcdcd	0.050733376
3	0xbbee4653	-0.007271567
4	0x3bdae309	0.0066798967
5	0xbca0fb95	-0.019651214
6	0xbd8dd576	-0.0692548
7	0x3d5d99c8	0.054101735
8	0x3d802987	0.06257921
9	0xbc4dee67	-0.012569047
10	0x3d84ddac	0.06487593
11	0xbcbb50a4	-0.0228656
12	0x3b0195c2	0.00197731
13	0xbd2d5530	-0.04231757
14	0x3d836cda	0.06417246
15	0xbd1a0845	-0.037605543
16	0xbd66b837	-0.056328025
17	0x3c87fbe9	0.016599612
18	0x3cb3b508	0.021936908
19	0x3bcecea7	0.006311256
20	0xbd11da11	-0.035608355
21	0xbc3eaafe	-0.011637447
22	0x3d265578	0.040608853
23	0x3caad527	0.020853592
24	0x3cc9ac78	0.024618372
25	0x3d719324	0.058978215
26	0xbc7e4569	-0.015519478
27	0x3c21acd7	0.009867868
28	0x3d288619	0.04114351
29	0x3d04340b	0.032276195
30	0x3b88431d	0.004158391
31	0x3d206288	0.039156467
32	0xbcd3c6d5	-0.025851646
33	0xbca1de15	-0.019759217
34	0xbc8c2c0f	-0.017110853
35	0x3d8500f1	0.0649432
36	0xbd7d7943	-0.061883222
37	0x3c82a777	0.015948994
38	0xbd3c0e90	-0.045912325
39	0x3d3912b7	0.045183863
40	0xbd1713d0	-0.03688413
41	0xbd1922ae	-0.03738659
42	0xbd5cfa7c	-0.053949818
43	0xbcf94223	-0.030427044
44	0xbd1c842b	-0.038211983
45	0xbc4f9449	-0.012669631
46	0xbd1179ff	-0.035516735
47	0x3d176217	0.03695878
48	0x3c6a19ac	0.014288347
49	0xbc5eeaa2	-0.0136057455
50	0x3d07dcca	0.033169545
51	0xbd446925	-0.047951836
52	0x3d279368	0.040912062
53	0x3c3de06c	0.011589151
54	0xbc46d4a2	-0.012135657
55	0x3d129ed7	0.035796013
56	0x3d682bfb	0.056682568
57	0x3d48d508	0.049031287
58	0x3d746e4d	0.059675504
59	0x3d74fcd2	0.05981142
60	0xbcefc058	-0.029266521
61	0xbd4f50b4	-0.050614074
62	0xbc12ecad	-0.008967561
63	0xbd07e5b2	-0.03317804

decoder.2.weight f4 [64, 128, 4]
0	0x3cd943f9	0.02652167
1	0x3c8aa5be	0.016924735
2	0xbcbed1c1	-0.023293378
3	0x3d05d874	0.03267713
4	0xbcb373c3	-0.021905785
5	0x3d2d673d	0.042334784
6	0x3b844609	0.004036669
7	0x3d0313bf	0.032001253
8	0x3bf1b0df	0.007375821
9	0xbb7902f7	-0.0037996152
10	0x3cafe84e	0.021473076
11	0x3d22d94f	0.039758023
12	0xbc1d6551	-0.009606675
13	0x3cddb5e6	0.027064275
14	0xbcdf24a8	-0.027239159
15	0x3d20001b	0.0390626
16	0xbc53277c	-0.012887832
17	0x3cd0ad45	0.025473246
18	0xbd1472b8	-0.036242217
19	0xbd0942ad	-0.033510853
20	0xbc21153a	-0.009831721
21	0x3cf252dc	0.029580526
22	0xbca5f2f1	-0.020257445
23	0x3c82eea5	0.015982935
24	0xbcd7e761	-0.026355447
25	0x3bcef6a9	0.0063160253
26	0xbd0ba0c4	-0.034088865
27	0x3caac6de	0.02084678
28	0xbd2b1485	-0.041767616
29	0xbca3df77	-0.020004017
30	0x3c9da15d	0.019241983
31	0xbbdd02fb	-0.00674474
32	0xbd06af5e	-0.032882087
33	0xbd379534	-0.044820026
34	0xbbe55436	-0.006998564
35	0xbc74a552	-0.014931994
36	0xbce6cee3	-0.028174823
37	0x3c9b16c3	0.018931752
38	0xbcf8cbc4	-0.0303706
39	0xbd1d0e26	-0.03834357
40	0x3cc37c61	0.02386302
41	0xbcf4c3ac	-0.02987846
42	0xbc054a4e	-0.008135391
43	0x3c5aad0f	0.013346924
44	0xbcceaf63	-0.025230115
45	0x3adfd92f	0.0017078276
46	0x3c93777a	0.018001307
47	0xbca61580	-0.020273924
48	0xbc4e41cc	-0.012588929
49	0x3c73735d	0.014859048
50	0xbc8f0f73	-0.017463421
51	0xbcc55b53	-0.024091398
52	0xbc4a45c0	-0.012345731
53	0x3c501937	0.012701324
54	0xbd4c2a0b	-0.049844783
55	0xbd1df386	-0.03856232
56	0xbcad0799	-0.021121787
57	0x3d6149ae	0.055001907
58	0xbc4182b8	-0.011810951
59	0xbd0bbef7	-0.034117665
60	0x3c0d2f55	0.008617242
61	0xbd0ddd2c	-0.034634754
62	0xbc6727dc	-0.014108624
63	0x3be3edc7	0.0069558355
64	0xbcbd5cd0	-0.023115546
65	0x3cd3aa4b	0.025838038
66	0x3c326c24	0.010890041
67	0xbcf9dd5d	-0.030501062
68	0x3bef448a	0.0073018717
69	0xbd333442	-0.04375101
70	0xbc768d7a	-0.015048379
71	0xbb5ddc12	-0.0033853096
72	0x3bdde010	0.006771095
73	0xbc3ee02b	-0.0116501255
74	0xbca31bb2	-0.019910667
75	0x3cf87028	0.030326918
76	0xbd14abc0	-0.036296606
77	0x3c29208e	0.010322703
78	0x3b5f1591	0.0034039954
79	0xbb4d972a	-0.0031370618
80	0x3bd6a263	0.0065501197
81	0x3c04e4af	0.008111163
82	0x3d0e4a8b	0.03473906
83	0xbce9b83b	-0.02853023
84	0xbc98d1d2	-0.018654738
85	0x3ce21973	0.027600026
86	0x3c92774a	0.017879147
87	0xbb8e53ab	-0.00434347
88	0x3c2ee322	0.01067427
89	0xbd0566a3	-0.032568585
90	0x3b98808b	0.0046539954
91	0xbced4f44	-0.02896846
92	0xbcda2b49	-0.026631968
93	0xbcb52633	-0.022112941
94	0xbd45c03a	-0.048279025
95	0xbd0a9aea	-0.033839144
96	0x3cb8fe29	0.02258213
97	0x3d20a3fe	0.039218895
98	0xbd13a2e1	-0.036044005
99	0x3c5c3bb7	0.0134419715
100	0x3b8eb059	0.0043545184
101	0xbb72c78a	-0.0037045204
102	0x3c38c1c2	0.011276664
103	0xbd08f424	-0.033435956
104	0x3d0df54a	0.034657754
105	0x3c53cd61	0.012927384
106	0x3cd77ded	0.026305163
107	0x3d079c60	0.033108115
108	0x3d0d4554	0.034489945
109	0x3d373297	0.04472598
110	0xbce75296	-0.028237622
111	0xbcaa4709	-0.020785825
112	0x3cf81100	0.030281544
113	0xbd04c476	-0.032413922
114	0x3c613d69	0.0137475515
115	0x3ccba5d1	0.02485934
116	0x3c10d66c	0.008840185
117	0x3b99bc1f	0.0046916152
118	0xbc363d53	-0.011123019
119	0x3c0ef224	0.008724723
120	0xbcde172b	-0.027110657
121	0xbcf801a5	-0.030274222
122	0xbd35ecac	-0.04441516
123	0xbb330905	-0.0027318608
124	0x3c4fa5bc	0.0126737915
125	0x3cb25f02	0.021773819
126	0x3c96d63c	0.018412702
127	0x3d3f99c0	0.046777487
128	0xbd062824	-0.032753125
129	0x3cd57f04	0.026061542
130	0x3c10bbf3	0.008833873
131	0xbb6f9a18	-0.0036560353
132	0xbcffe4c5	-0.031237016
133	0x3d426788	0.047462016
134	0x3c551fe6	0.013008093
135	0xbca8f657	-0.020625276
136	0x3cccaf29	0.024985867
137	0x3c8579e8	0.016293481
138	0x3d49dbf4	0.04928203
139	0xbb7a2a59	-0.0038172214
140	0xbc6c2754	-0.014413673
141	0xbb9e87ba	-0.004837957
142	0x3cdb138a	0.026742715
143	0x3c3099f7	0.010778896
144	0xbd11e363	-0.035617243
145	0x3d45bbc9	0.04827479
146	0x3b85aa75	0.004079158
147	0x3cea2194	0.028580464
148	0xbb50db8e	-0.0031869146
149	0xbd002f77	-0.031295266
150	0x3c15959a	0.009129906
151	0xbc7e1cd7	-0.015509806
152	0x3cfc311b	0.030785134
153	0x3ce1d094	0.027565278
154	0x3bebfc29	0.0072016907
155	0x3c8d9a67	0.017285539
156	0xbbf70a44	-0.0075390656
157	0xbcd51331	-0.026010128
158	0x3ce048f0	0.02737853
159	0x3d1df8c9	0.03856734
160	0x3c15e43e	0.009148655
161	0xbc8de7e1	-0.017322483
162	0xbcc1c908	-0.02365543
163	0x3cf6644d	0.030077124
164	0x3d2ce546	0.04221084
165	0xbb554954	-0.0032544928
166	0xbc9f7e8c	-0.019469522
167	0x3d179f35	0.037017066
168	0x3c8fd8c7	0.017559422
169	0xbd2d4ba2	-0.042308457
170	0xbd0b8d7b	-0.034070473
171	0x3d26b37e	0.04069852
172	0xbd217e2f	-0.03942698
173	0x3b266ab6	0.0025393195
174	0x3bd1bc21	0.0064006005
175	0x3b960fe1	0.0045795296
176	0xbd023855	-0.031792004
177	0xbc934c49	-0.017980712
178	0x3d287701	0.041129116
179	0x3d0d0e6e	0.03443759
180	0xbd3d18a9	-0.046166096
181	0x3d1fb7b9	0.03899357
182	0xbcd34b57	-0.02579276
183	0x3ccd01c1	0.02502525
184	0x3d42c820	0.047554135
185	0x3bde86c5	0.006790968
186	0x3cf8b7e6	0.030361127
187	0x3cfb8425	0.03070266
188	0x3cba1db9	0.022719251
189	0xbb7287c9	-0.0037007204
190	0xbca28e8b	-0.01984336
191	0x3cf1c8e5	0.02951474
192	0xbd2d5c7b	-0.042324524
193	0x3c428257	0.011871896
194	0xbcf04bc9	-0.029333012
195	0x3cd8ad3c	0.026449792
196	0xbc9ca834	-0.019123174
197	0x3d1349fd	0.035959233
198	0x3d137661	0.036001567
199	0x3d03ea31	0.032205764
200	0x3d08beb0	0.03338498
201	0x3bb01114	0.0053731296
202	0x3d090f63	0.03346194
203	0x3c7e17d6	0.015508613
204	0x3d2795d1	0.04091436
205	0xbb99bb66	-0.004691529
206	0x3b5e39e1	0.003390901
207	0x3c904c8f	0.017614631
208	0x3b9e4dcd	0.004831052
209	0xbd38ec47	-0.045147207
210	0xbcd14345	-0.025544772
211	0xbd02f0c8	-0.03196791
212	0xbd19fc7f	-0.037594315
213	0xbc5ad43c	-0.013356265
214	0xbcb0341d	-0.021509225
215	0x3c75900c	0.014987957
216	0xbb454d22	-0.003010579
217	0x3a479b4d	0.0007614389
218	0x3cd371fc	0.025811188
219	0x3caac82e	0.020847406
220	0xbd2c2cdc	-0.04203497
221	0xbce5edd2	-0.028067503
222	0xbd13ecb8	-0.036114424
223	0x3b811cb8	0.003940191
224	0xbc71c0a7	-0.014755405
225	0xbcb6bcce	-0.022306826
226	0x3ca72d1e	0.020407256
227	0x3d42d16f	0.047563013
228	0xbc80485e	-0.015659507
229	0x3c053873	0.008131134
230	0x3d0edcda	0.03487859
231	0x3d044450	0.03229171
232	0x3bf22dbe	0.007390707
233	0xbccbf8c1	-0.024898889
234	0x3ce83cf7	0.028349383
235	0xbc02ddbd	-0.007987437
236	0x3cd91870	0.02650091
237	0x3d50a5a5	0.05093922
238	0x3d2c65b1	0.042089168
239	0xbc9ca8bd	-0.01912343
240	0x3d14b3a0	0.036304116
241	0x3ccbfbe4	0.024900384
242	0x3c39a0e0	0.0113298595
243	0x3c93f461	0.018060865
244	0xbc6aed94	-0.01433887
245	0x3c5f692d	0.013635916
246	0x3d131dd2	0.03591711
247	0xbcac4f05	-0.021033773
248	0x3c386820	0.011255294
249	0xbcb99e80	-0.022658587
250	0xbcee9ff7	-0.029129012
251	0x3ce41bac	0.027845226
252	0x3d002329	0.03128353
253	0x3c23363a	0.009961659
254	0xbd04f793	-0.032462668
255	0xbd573f98	-0.052550882

decoder.2.bias f4 [128]
0	0xbb31d888	-0.002713712
1	0x3c3d3990	0.0115493685
2	0xba1fe3aa	-0.0006099293
3	0xbd1fdbc8	-0.03902796
4	0x3c35f0af	0.011104747
5	0x3d09bcf5	0.03362747
6	0x3cdd7dc1	0.027037503
7	0xbcfe3c20	-0.03103453
8	0xbb512f27	-0.0031918974
9	0x3ba710de	0.0050984463
10	0xbc979288	-0.018502489
11	0x3c34fbaf	0.011046334
12	0x3cf2ad3b	0.029623618
13	0x3d28890a	0.041146316
14	0x3cb1fab4	0.02172599
15	0x3d0127d5	0.031532127
16	0x3d3be5ed	0.04587357
17	0x3c7a4b5d	0.015276757
18	0x3cd3c684	0.025851496
19	0xbc30be3c	-0.010787543
20	0xbce6bfe0	-0.028167665
21	0x3d5d044b	0.053959172
22	0xbcdc3ab4	-0.02688346
23	0xbb3e7a3c	-0.0029064557
24	0x3d079e56	0.033109985
25	0x3cf1c10e	0.029511001
26	0x3b3e40db	0.0029030356
27	0xbcaa8d7e	-0.020819422
28	0x3c42d173	0.011890757
29	0x3c1f851a	0.009736324
30	0xbc89db9d	-0.016828353
31	0x3cecc839	0.028904067
32	0x3cbbf00b	0.02294161
33	0xba4b2e25	-0.00077507115
34	0xbd1daa1d	-0.03849231
35	0xbd148dbe	-0.03626799
36	0xbcdfba79	-0.027310597
37	0x3b74975f	0.003732167
38	0x3b0346a1	0.0020031112
39	0x3cb33c4d	0.02187934
40	0xbca98f81	-0.02069831
41	0xbcffaeb9	-0.031211244
42	0x3ad696bf	0.001637183
43	0x3d15ec38	0.03660223
44	0x3bf568e1	0.007489309
45	0xbd4026b9	-0.04691193
46	0xbc7085e7	-0.014680362
47	0xbcd23253	-0.025658762
48	0xbc14ba8d	-0.00907768
49	0xbc84b5fc	-0.016200058
50	0xbd1303bc	-0.035892233
51	0xbd2d372f	-0.042288955
52	0x3d092ed6	0.03349193
53	0xbb2608b3	-0.0025334775
54	0xbcea72e9	-0.028619247
55	0xbccfc9c4	-0.025364764
56	0x3d46afc1	0.048507456
57	0xbc81c2b7	-0.015839918
58	0xba58efab	-0.00082754594
59	0x3bc070c6	0.0058728186
60	0xbc713850	-0.014722899
61	0x3caa7287	0.020806564
62	0x3bc593f7	0.0060296017
63	0x3bde8257	0.00679044
64	0x3cd13f53	0.02554289
65	0xbc6a2a85	-0.014292364
66	0xbc15d8c1	-0.009145916
67	0xbd1ac2f8	-0.037783593
68	0xbcacb800	-0.021083832
69	0x3ba66278	0.0050776564
70	0x3d32d68b	0.043661635
71	0x3b84999f	0.0040466334
72	0xbbe458ec	-0.006968608
73	0xbc30ef48	-0.010799237
74	0x3cf96e00	0.03044796
75	0xbca6d2e9	-0.020364242
76	0xbb3c962c	-0.0028776033
77	0x3d090280	0.03344965
78	0x3c2052fa	0.009785408
79	0xbd1011dc	-0.035173282
80	0xbcf0dc02	-0.029401783
81	0x3d151c05	0.036403675
82	0x3c28eb10	0.0103099495
83	0xbb8c099c	-0.0042736065
84	0x3ca95789	0.020671623
85	0xbcda5f4d	-0.026656771
86	0x3d2d7bf2	0.04235453
87	0xbcabfaa3	-0.020993536
88	0x3d1a6d2e	0.037701778
89	0x3cd865b8	0.02641569
90	0x3b1df7c7	0.0024103986
91	0x3d1d0490	0.03833443
92	0x3c3f9b66	0.011694765
93	0xbd2b31c8	-0.041795522
94	0xbc7f1688	-0.015569337
95	0xbccfbe7a	-0.025359381
96	0xbd42ce66	-0.04756012
97	0x3bceaa81	0.0063069467
98	0xbd074c7a	-0.033031918
99	0xba7a2693	-0.0009542491
100	0xbbb8596b	-0.005625894
101	0xbc5b2ecd	-0.013377857
102	0xbcdcb815	-0.026943246
103	0xbb1f8121	-0.0024338441
104	0x3ab13563	0.0013519939
105	0xbcc076bb	-0.023494115
106	0x3cadfb10	0.02123788
107	0xbc12c193	-0.0089572845
108	0xbc2669f2	-0.010157095
109	0xbae5e62e	-0.0017539912
110	0x3d4faac6	0.05069997
111	0x3d0f8f3f	0.03504872
112	0xbc9b155b	-0.018931082
113	0x3c6eb625	0.014569794
114	0x3d3db49f	0.04631483
115	0xbc87c641	-0.016574027
116	0x3c9dcca3	0.019262617
117	0x3a7e6104	0.00097037875
118	0xbc8202a9	-0.01587041
119	0x3cb57985	0.022152672
120	0x3cec36e3	0.028834766
121	0x3cac6c27	0.021047665
122	0xbd397e88	-0.045286685
123	0x3b360d80	0.0027779043
124	0xbc1e8755	-0.00967582
125	0x3bd531a7	0.006506163
126	0xbb24f3a1	-0.0025169628
127	0x3d216811	0.039405886
