backend/resources/models/response_model.pth (torch, 296898 bytes, 11 tensors)

encoder.0.weight f4 [128, 1, 3]
0	0x3e0b4f94	0.13604575
1	0xbe7334c4	-0.23750597
2	0x3e8e48e9	0.2779
3	0xbefad7c9	-0.48992756
4	0xbe8ef97c	-0.27924716
5	0x3e1a6b09	0.15079893
6	0x3ed37039	0.41296557
7	0xbe2119cc	-0.15732497
8	0xbd9747a8	-0.07386714
9	0xbea9ee16	-0.33189458
10	0x3f13bc00	0.5770874
11	0xbde50181	-0.111819275
12	0x3f0bbfac	0.54589343
13	0x3ea20b25	0.31649128
14	0xbe4b9e9f	-0.19884728
15	0xbf14bfef	-0.5810537
16	0xbf0b41e3	-0.5439741
17	0xbe8c67ad	-0.27422848
18	0x3ecec22a	0.4038251
19	0x3e8ed54a	0.27897102
20	0x3d3f55f5	0.046712834
21	0xbdb8e411	-0.09027875
22	0x3de74196	0.112918064
23	0x3d5173fa	0.051135994
24	0xbe4b8814	-0.19876128
25	0xbdca2947	-0.09871154
26	0xbe360377	-0.17774759
27	0xbcf2c03c	-0.02963268
28	0x3d2cf8f6	0.042229615
29	0xbf154514	-0.5830853
30	0x3c086349	0.008324453
31	0x3abf8b3e	0.0014613641
32	0xbebe157d	-0.3712577
33	0xbedf436e	-0.43606132
34	0xbb86fd91	-0.004119583
35	0xbec9810a	-0.39356261
36	0x3e3e3f92	0.18578938
37	0xbf06d58d	-0.526696
38	0x3d43bdd6	0.047788464
39	0x3f057182	0.52126324
40	0xbed0ae36	-0.40757912
41	0x3eaef5bd	0.34171858
42	0xbee7541a	-0.45181352
43	0x3e03ccfb	0.12871163
44	0xbe0e5b1c	-0.13901943
45	0xbccfc5f6	-0.02536295
46	0x3efeccd8	0.49765658
47	0x3ee410a7	0.44543955
48	0xbea4dc00	-0.32199097
49	0xbe3a6a82	-0.18204692
50	0x3e8ab9fc	0.2709502
51	0x3eadacf7	0.33921024
52	0x3e4bc0a3	0.19897704
53	0xbe899a9d	-0.26875773
54	0x3e430165	0.190435
55	0xbdc4015c	-0.09570572
56	0xbe810257	-0.25197098
57	0xbe7f61eb	-0.24939696
58	0xbeb8e726	-0.36113852
59	0xbde83627	-0.11338454
60	0x3e0016e0	0.12508726
61	0xbc008f9f	-0.007846742
62	0x3ef25f9e	0.47338575
63	0xbe9ab27e	-0.30214304
64	0xbe39b3e3	-0.18135028
65	0x3dcc96e7	0.0998972
66	0xbe15edb6	-0.14641461
67	0xbea0e8c5	-0.3142759
68	0xbefe1e44	-0.49632466
69	0xbe46fc81	-0.1943226
70	0xbe889d2d	-0.26682416
71	0xbd871431	-0.06595648
72	0xbe6e77bd	-0.23287864
73	0x3de93ab4	0.1138815
74	0x3ed0336a	0.40664226
75	0xbef50950	-0.47858667
76	0x3d8a7d40	0.06762171
77	0xbe2f61d9	-0.1712717
78	0x3da07564	0.078348905
79	0xbf00b6db	-0.50279015
80	0x3e885c2a	0.26632816
81	0xbea6ef25	-0.32604328
82	0x3e2ecea2	0.17071012
83	0xbe93f1bd	-0.2889537
84	0xbdf0b92c	-0.11754069
85	0x3d8fc0d2	0.070191994
86	0x3ed09b60	0.40743542
87	0xbdc45f46	-0.095884845
88	0xbec7b134	-0.39002383
89	0x3e598475	0.21241935
90	0x3ec3193b	0.38105187
91	0x3eaf6687	0.3425791
92	0x3e93bb89	0.28854015
93	0x3eb9dc4b	0.36300883
94	0x3e902536	0.2815339
95	0xbe1aa3d5	-0.1510156
96	0xbe49cd50	-0.19707227
97	0x3d2a221e	0.041536443
98	0x3eb78e6b	0.35850844
99	0x3edbfcd3	0.42966327
100	0xbe6c0b08	-0.23051083
101	0x3f046351	0.51714045
102	0x3ea8f80e	0.3300175
103	0x3efecb62	0.49764544
104	0x3f11fd49	0.5702711
105	0x3eb8159f	0.35953996
106	0x3eaea144	0.3410741
107	0x3f02ede0	0.5114422
108	0x3d55140f	0.052021082
109	0x3f0bfa82	0.5467912
110	0x3ee777e0	0.45208645
111	0x3e331ae1	0.17490722
112	0xbebf8702	-0.3740769
113	0xbf08acde	-0.53388774
114	0x3e77dc1f	0.24205063
115	0x3f06736a	0.5251986
116	0xbf10832a	-0.5645014
117	0xbebf8dd4	-0.37412894
118	0xbdb17062	-0.086640134
119	0xbe47ba49	-0.19504656
120	0x3e3928ed	0.18082018
121	0xbdd8639e	-0.105658755
122	0xbe8fd2a1	-0.28090385
123	0xbf0aef90	-0.54271793
124	0x3eac6fef	0.3367915
125	0xbe4dd7d1	-0.20101859
126	0x3ed528c4	0.41632664
127	0xbe870d49	-0.26377323
128	0x3ec6e0e2	0.38843447
129	0xbd77fb53	-0.060542416
130	0xbea6c12e	-0.3256926
131	0x3e435f88	0.19079411
132	0x3eb0b26b	0.34511122
133	0xbe2ba870	-0.16763473
134	0x3e2ce7fd	0.16885372
135	0x3dbd2ef5	0.09237472
136	0xbe58c8a0	-0.21170282
137	0x3e802ed8	0.2503574
138	0xbea9bc00	-0.33151245
139	0xbeb5946a	-0.35464793
140	0xbe73f46a	-0.23823705
141	0xbf0b061e	-0.5430621
142	0xbedbebe9	-0.42953423
143	0xbe8ac4ea	-0.27103359
144	0xbe459d68	-0.19298327
145	0xbdc3be4b	-0.0955778
146	0xbefabb20	-0.4897089
147	0xbdce9fe5	-0.10089091
148	0x3e82d416	0.25552434
149	0xbed07c5d	-0.40719882
150	0xbe9700bc	-0.29492748
151	0x3c8e26ed	0.017352546
152	0xbf068279	-0.52542835
153	0xbf0d1623	-0.551119
154	0xbf10ec2e	-0.5661038
155	0xbb4eb81f	-0.003154285
156	0xbed14e57	-0.4088008
157	0xbef6295f	-0.4807844
158	0xbe004a2d	-0.12528296
159	0xbec13f50	-0.37743616
160	0xbf090ed3	-0.53538245
161	0xbe8b4dae	-0.27207702
162	0x3ee3d75a	0.44500238
163	0x3e8235c0	0.25431633
164	0xbc305ea6	-0.010764753
165	0xbe724d62	-0.23662332
166	0xbf0bc158	-0.54591894
167	0xbe0a1324	-0.13483864
168	0xbf075174	-0.5285866
169	0x3d8b5da8	0.06804973
170	0xbebe3291	-0.37147954
171	0x3ee0d982	0.43915945
172	0xbf05a70c	-0.5220802
173	0xbf0d1a68	-0.5511842
174	0x3eb43736	0.35198373
175	0x3e580537	0.2109574
176	0xbdc20a29	-0.09474594
177	0x3d126a87	0.035746124
178	0x3d352738	0.044226855
179	0x3f0376fb	0.51353425
180	0x3ec21eb3	0.37914047
181	0xbe314cf4	-0.17314512
182	0x3d8e88ca	0.06959684
183	0x3e4ae08f	0.19812225
184	0x3f073876	0.5282053
185	0xbeaeeb4e	-0.34163898
186	0xbf16a762	-0.58849156
187	0xbeeb37eb	-0.459411
188	0x3f0870db	0.53297204
189	0x3f07a3bb	0.5298421
190	0x3ec49555	0.3839518
191	0x3e1b470a	0.15163818
192	0x3e046642	0.12929633
193	0xbee5cbc9	-0.44882038
194	0x3e4ae080	0.19812202
195	0xbe0b4519	-0.13600577
196	0x3e12ca23	0.14334922
197	0x3ebcf028	0.36901975
198	0xbe0183e1	-0.12647964
199	0xbe3b8071	-0.18310715
200	0x3e78c139	0.24292459
201	0xbeb55e0c	-0.35423315
202	0x3ee43367	0.44570467
203	0x3eae01f1	0.33985856
204	0xbe6ff7d2	-0.2343438
205	0xbe761a14	-0.24033386
206	0x3ddd6aa5	0.108113565
207	0x3df371c2	0.11886932
208	0xbdcf1dc9	-0.10113103
209	0xbef3c24f	-0.47609183
210	0xbd7bdd4b	-0.06149034
211	0x3e041a5b	0.12900679
212	0xbec29f51	-0.38012174
213	0xbea4d461	-0.32193282
214	0xbef9022d	-0.48634472
215	0xbf043cfc	-0.51655555
216	0xbe324c91	-0.1741202
217	0xbdf314cc	-0.11869201
218	0xbe64ccfc	-0.2234382
219	0x3d39d36a	0.045367636
220	0x3e08539f	0.13313149
221	0xbe844278	-0.25831962
222	0xbe73517c	-0.23761553
223	0xbe923a72	-0.28560215
224	0x3e96ccae	0.29453033
225	0xbef168c6	-0.47150248
226	0x3ec8f719	0.3925102
227	0xbeb7e445	-0.35916343
228	0xbe2ccacf	-0.1687424
229	0x3f052afb	0.5201871
230	0x3d116b68	0.03550282
231	0xbe91a7ff	-0.28448483
232	0xbe821b31	-0.2541137
233	0x3eed7b0e	0.46382946
234	0xbedca1e5	-0.43092266
235	0xbe8e2346	-0.27761286
236	0x3eef17c9	0.46697834
237	0x3f06d0e3	0.52662486
238	0x3e824ea8	0.25450635
239	0x3d6f995b	0.05849586
240	0x3d907833	0.07054176
241	0x3d9c1841	0.076218136
242	0x3e4691b8	0.19391525
243	0x3ce0a3b0	0.027421802
244	0x3d9b1227	0.07571822
245	0x3f0a44da	0.5401131
246	0xbd34ed38	-0.044171542
247	0x3eacd50f	0.337563
248	0xbec87d83	-0.39158258
249	0x3f040b6b	0.5157992
250	0x3e62e9a9	0.22159447
251	0xbce6521c	-0.028115325
252	0xbf05b3a4	-0.52227235
253	0x3d074311	0.033022944
254	0x3e30cb4c	0.17265052
255	0x3e346b9a	0.17619172

encoder.0.bias f4 [128]
0	0x3c6330c4	0.013866607
1	0x3e7fe86f	0.2499101
2	0xbdc26c51	-0.09493316
3	0xbec71698	-0.38884425
4	0xbf104824	-0.5636008
5	0x3e265f27	0.16247235
6	0x3eef6fd0	0.46764994
7	0xbdc8aa6b	-0.0979813
8	0xbea53c00	-0.3227234
9	0xbd91852b	-0.07105478
10	0x3da2ca7f	0.07948779
11	0xbeb2c287	-0.34914038
12	0x3f0043c6	0.50103414
13	0xbe8b9561	-0.27262405
14	0x3c2b6e08	0.010463245
15	0xbec529be	-0.3850841
16	0xbeb4f270	-0.35341215
17	0xbe0af4e6	-0.13569984
18	0xbf0c8d67	-0.5490326
19	0x3d441ec2	0.047880895
20	0xbeb9e5f5	-0.36308256
21	0x3d715f13	0.05892856
22	0x3e2ccbc8	0.16874611
23	0xbda678c9	-0.08128507
24	0xbe89ed1d	-0.26938716
25	0x3eaeff37	0.34179088
26	0xbefc19e0	-0.4923849
27	0xbc64c597	-0.013963125
28	0x3ebc613c	0.36792934
29	0x3e08a39a	0.13343659
30	0xbe636ae1	-0.2220874
31	0xbe8c9f55	-0.2746531
32	0xbe11757c	-0.14204973
33	0xbed30f16	-0.41222447
34	0x3f0e0173	0.5547096
35	0x3eca6238	0.3952806
36	0x3cb5c0a3	0.022186583
37	0xbb623277	-0.0034514943
38	0x3d49adfe	0.049238198
39	0x3cac87fc	0.021060936
40	0xbeaa96a8	-0.33318067
41	0x3de92f36	0.11385958
42	0x3e6ed64b	0.23323934
43	0x3e987829	0.29779175
44	0x3e47c1fc	0.19507593
45	0xbc831edd	-0.016005928
46	0x3e00f238	0.12592399
47	0x3e290f8b	0.16509835
48	0xbeded4cb	-0.43521723
49	0x3ee02c96	0.43784016
50	0x3c793574	0.015210498
51	0xbef84d36	-0.48496407
52	0xbdaab8ad	-0.08336005
53	0xbcf74eed	-0.030189002
54	0xbec2a105	-0.38013473
55	0xbde52704	-0.11189082
56	0x3e044a9b	0.12919085
57	0xbda5a4f4	-0.08088103
58	0xbe676c66	-0.22599944
59	0xbe939a0d	-0.2882847
60	0x3eeb5dde	0.45970052
61	0x3f06f5c5	0.52718765
62	0x3e314780	0.17312431
63	0xbeecd4d6	-0.4625613
64	0x3e9c68ce	0.3054871
65	0xbecbe9d4	-0.39826834
66	0x3be4200c	0.006961828
67	0xbec465d8	-0.3835895
68	0xbd61b308	-0.055102378
69	0xbe3741aa	-0.17896143
70	0xbe1bb748	-0.15206635
71	0xbe4364ee	-0.1908147
72	0xbe26139f	-0.16218422
73	0x3e86fc01	0.2636414
74	0xbeea83e0	-0.45803738
75	0xbe5c99a9	-0.21542992
76	0xbedc5ac5	-0.43038002
77	0xbe7972c1	-0.24360181
78	0xbe1f81cc	-0.15576857
79	0xbf0a9565	-0.5413421
80	0x3eb12827	0.34600946
81	0x3e8957fa	0.26824933
82	0xbddf577f	-0.109053604
83	0x3dbbd07d	0.09170625
84	0xbaeb0821	-0.00179315
85	0xbe923f04	-0.28563702
86	0xbed30323	-0.4121333
87	0xbe933654	-0.28752387
88	0xbdc6b00f	-0.09701549
89	0xbeb1689b	-0.3465012
90	0xbecc5575	-0.3990895
91	0x3eef0c87	0.46689245
92	0xbdee827b	-0.11645981
93	0x3e64d548	0.22346985
94	0x3d77f711	0.060538355
95	0xbef594f5	-0.47965208
96	0x3d03354c	0.03203325
97	0xbe259d8f	-0.16173385
98	0xbeecd55f	-0.4625654
99	0xbe0981fa	-0.13428488
100	0xbeae60aa	-0.34058124
101	0xbf06ef04	-0.5270846
102	0x3dc997a9	0.0984338
103	0x3ddcc6a5	0.10780076
104	0x3d5bea17	0.053690042
105	0x3cef67e7	0.02922435
106	0x3e2541fd	0.16138454
107	0xbee43875	-0.44574323
108	0xbee2ed6d	-0.44321766
109	0xbec24c1f	-0.379487
110	0x3e9f80b8	0.31152892
111	0x3d82b23e	0.06381653
112	0x3eef0d18	0.46689677
113	0x3ee379a8	0.44428754
114	0xbee8704b	-0.45398173
115	0xbe006bb9	-0.12541093
116	0xbe53b408	-0.20674145
117	0xbd3e8043	-0.04650904
118	0xbe877484	-0.26456082
119	0x3c2e01b2	0.010620521
120	0xbe93032c	-0.28713357
121	0xbe8bc13f	-0.27295873
122	0xbd8e117c	-0.06936929
123	0x3f02b3e7	0.5105576
124	0xbee0c8da	-0.43903238
125	0xbdabeb65	-0.08394507
126	0x3eaf4738	0.34234023
127	0xbeaf7306	-0.34267443

encoder.3.weight f4 [64, 128, 3]
0	0xbd09d115	-0.03364666
1	0xbd67f558	-0.056630462
2	0x3cb1463c	0.021639936
3	0xbcbfd47a	-0.023416746
4	0xbc6179eb	-0.013761978
5	0x3d514db5	0.051099498
6	0xbc6e110f	-0.014530434
7	0x3d2ea129	0.042634163
8	0x3d17a4f6	0.037022553
9	0xbc4a1cc1	-0.012335957
10	0xbcece2a3	-0.028916663
11	0xbd52637a	-0.0513644
12	0x3d07fbd3	0.033199143
13	0x3d14dab2	0.036341377
14	0x3c71d609	0.014760503
15	0xbb2d6579	-0.0026458187
16	0xbd02fe9a	-0.03198109
17	0x3d1f120a	0.038835563
18	0xbb43490a	-0.0029798173
19	0x3d6c75e8	0.05772963
20	0x3c4b68c1	0.012415112
21	0x3d1af931	0.037835304
22	0x3d355541	0.044270758
23	0xbd1f78d3	-0.038933586
24	0xbb615b97	-0.0034386867
25	0x3d90f73e	0.07078408
26	0xbd33e119	-0.04391584
27	0xbd7ca63a	-0.061681964
28	0x3bdd6b9f	0.006757214
29	0xbc76b20a	-0.015057096
30	0xbca5d6c4	-0.02024401
31	0xbcc9dfcd	-0.02464285
32	0x3ad73817	0.0016419914
33	0x3d739b5e	0.05947434
34	0xbca0d6a3	-0.019633597
35	0xbd0bf60d	-0.0341702
36	0x3d283587	0.041066673
37	0xbc6ce9cb	-0.014460037
38	0x3d0ca010	0.034332335
39	0x3d0142dd	0.031557906
40	0xba01712e	-0.00049378246
41	0xbd0238c7	-0.03179243
42	0xbd217e7d	-0.03942727
43	0xbd5e9e5c	-0.054350242
44	0xbd14d3cc	-0.036334798
45	0xbbca9a27	-0.006182927
46	0x3d0925ca	0.033483304
47	0xbd5341dc	-0.05157648
48	0x3ce38dc0	0.027777553
49	0xbd0e8c4d	-0.03480177
50	0x3c95748d	0.018244052
51	0x3d3be6f2	0.045874543
52	0x3cbfc3c7	0.023408784
53	0xbc0b118c	-0.00848807
54	0xbcf22970	-0.029560775
55	0xbcf4c57f	-0.02987933
56	0xbc66b168	-0.014080383
57	0x3c17d8d0	0.009268001
58	0xbb328ebe	-0.0027245726
59	0xbca858bc	-0.020550124
60	0x3c71d437	0.014760069
61	0xbbc9964e	-0.006151951
62	0xbd076cbe	-0.03306269
63	0xbcbc91f2	-0.02301881
64	0xbcc07654	-0.023493923
65	0xbd3d268b	-0.046179336
66	0xbbf68787	-0.0075234803
67	0x3ab73b0e	0.0013979392
68	0xbcd9d124	-0.026588984
69	0xbd4fcf73	-0.05073495
70	0xbd789f11	-0.060698573
71	0xbd1b684e	-0.03794127
72	0x3c5b17e9	0.0133724
73	0xbba1717a	-0.0049268575
74	0xbd5ec202	-0.05438424
75	0x3ce21001	0.027595522
76	0xbc40097f	-0.011721014
77	0xbd1552d7	-0.036455955
78	0x3d1ad87a	0.037804104
79	0x3c0b8b6b	0.008517127
80	0xbc2089c7	-0.009798474
81	0xbd7383f1	-0.059452
82	0xbd41bf36	-0.047301494
83	0x3cdb9391	0.026803764
84	0x3d22f333	0.039782714
85	0xbaf4f520	-0.0018688776
86	0xbc02c979	-0.007982605
87	0xbd4b5869	-0.04964486
88	0xbd010091	-0.03149468
89	0x3c966b34	0.018361665
90	0x3c802a70	0.015645236
91	0xbd3cc0f5	-0.046082456
92	0x3c33ad43	0.010966602
93	0x3d487c76	0.04894682
94	0xbcbe1b4e	-0.02320638
95	0xbd0bef19	-0.03416357
96	0xbceaea5a	-0.0286762
97	0x3cd914cf	0.02649918
98	0xbc9492d2	-0.018136416
99	0xbd0d5078	-0.03450057
100	0x3c266d50	0.010157898
101	0x3c35b70c	0.011091005
102	0x3bbd8b13	0.005784401
103	0x3cbd8f4f	0.023139624
104	0x3d1a34ad	0.03764789
105	0x3d1a5685	0.037680168
106	0xbc97dac2	-0.018536929
107	0xbcc3b5a2	-0.02389032
108	0x3d0f6f9a	0.03501854
109	0x3d26a212	0.040681906
110	0x3d072c8e	0.033001475
111	0xb7877fd5	-1.615278e-05
112	0x3c5dc7dd	0.013536421
113	0x3c09760c	0.008389961
114	0xbcc5d208	-0.024148002
115	0x3c89c953	0.016819632
116	0xbd35bec9	-0.0443714
117	0xbd279b86	-0.040919803
118	0x3c576926	0.013147628
119	0xbd581e39	-0.052763198
120	0x3cffd3af	0.031228868
121	0xbd8997ec	-0.0671843
122	0x3d004b07	0.03132155
123	0xbc2f9e4f	-0.010718896
124	0xbc420b83	-0.011843565
125	0xbc8faf39	-0.017539607
126	0xbc75bedb	-0.014999117
127	0x3a8294f9	0.000996261
128	0x3c6eb336	0.014569094
129	0xbcdc9aef	-0.026929347
130	0xbc23f8e1	-0.010008068
131	0x3ca0b313	0.01961664
132	0x3d1f5d47	0.038907316
133	0xbd38eaff	-0.045145985
134	0xbccc4338	-0.024934396
135	0x3d08a148	0.033356935
136	0xbc3e87ed	-0.011629087
137	0x3ce94bb7	0.028478486
138	0xbc84f7fa	-0.016231526
139	0x3cf90a6a	0.030400474
140	0x3d25cb82	0.040477283
141	0xbd445945	-0.047936697
142	0x3cee34d5	0.029077927
143	0xbd345095	-0.04402216
144	0x3d3441a1	0.0440079
145	0xbd245d85	-0.04012825
146	0x3d0d8168	0.03454724
147	0x3d466ea6	0.048445366
148	0xbcb3b422	-0.02193648
149	0x3d632120	0.055451512
150	0x3c8274c6	0.015924823
151	0xbcefdc42	-0.029279832
152	0x3d325266	0.043535613
153	0x3dc31059	0.095246024
154	0xbcb30064	-0.021850772
155	0x375d02fc	1.3173321e-05
156	0xbd84591a	-0.06462307
157	0x3cc20f0a	0.023688812
158	0xbccff78e	-0.025386598
159	0xbc715314	-0.01472928
160	0xbd063b09	-0.032771144
161	0x3cd02fa3	0.02541334
162	0x3c2da632	0.010598706
163	0xbc4973f4	-0.012295712
164	0xbd07443e	-0.033024065
165	0xbd3f306b	-0.046677034
166	0xbd9618de	-0.07328962
167	0x3d11f612	0.03563506
168	0xbd579d6e	-0.05264037
169	0x3d2cbbe3	0.04217137
170	0xbc3a0f7e	-0.011356233
171	0x3c9e1807	0.019298567
172	0xbd6fbe23	-0.058530938
173	0xbc25a439	-0.0101099545
174	0x3d45394c	0.048150346
175	0x3d4d639c	0.050143823
176	0xbbda4b09	-0.006661777
177	0xbb51de59	-0.0032023399
178	0x3cdd7888	0.027035013
179	0x3b444c15	0.0029952575
180	0x3c918f28	0.017768458
181	0x3c13b952	0.009016352
182	0x3d003941	0.0313046
183	0xbbb38ee6	-0.0054796813
184	0x3cd711ca	0.0262536
185	0x3d2fa37b	0.042880516
186	0xbcdbf63f	-0.026850818
187	0xbc912443	-0.017717486
188	0x3bfe5e80	0.00776273
189	0xbbffbc10	-0.007804401
190	0xbafe47d3	-0.0019400067
191	0x3bb3a68b	0.0054825
192	0x3cf9fcae	0.030515995
193	0x3ccb1a78	0.024792895
194	0xbd20c067	-0.03924599
195	0xbd096f57	-0.033553448
196	0xbd31996f	-0.043359216
197	0x3c68fa02	0.014219763
198	0xbd6f4ebf	-0.058424708
199	0xbd3c7049	-0.04600552
200	0xbd3acf92	-0.04560811
201	0xbd6b3413	-0.05742271
202	0xbd143179	-0.036179993
203	0x3c0a418e	0.008438481
204	0xbcd75a82	-0.026288275
205	0xbb938155	-0.0045015016
206	0x3c138778	0.009004466
207	0xbcae3b48	-0.021268502
208	0x3b4d92dd	0.0031368055
209	0x3c887b9e	0.016660508
210	0xbc19dc00	-0.009390831
211	0xbc771c23	-0.015082392
212	0x3d6e924f	0.058245
213	0x3cae8f66	0.021308612
214	0xbd6f6a5c	-0.05845104
215	0x3c96840c	0.018373512
216	0x3b1dcae9	0.0024077243
217	0x3d23f6e4	0.040030375
218	0x3d29a738	0.041419238
219	0xbb9b7f35	-0.004745389
220	0xbc869b05	-0.016431341
221	0xbc6f6cb2	-0.014613317
222	0xbcc12bd6	-0.023580473
223	0x3d097b91	0.033565108
224	0xbbc087da	-0.00587557
225	0x3d595bad	0.053065944
226	0x3d785b20	0.06063378
227	0x3d65f3fe	0.056140892
228	0x3d112ac0	0.03544116
229	0x3c246f58	0.010036312
230	0x3cbb0b18	0.022832438
231	0x3d4498c1	0.04799724
232	0xbc9170a0	-0.0177539
233	0x3bf21c24	0.0073886085
234	0xbb02a333	-0.00199337
235	0xbc82bf4d	-0.01596036
236	0xbd54fc6b	-0.051998537
237	0xbd345548	-0.044026643
238	0xbd2a96d4	-0.041647747
239	0xbd14e50b	-0.036351245
240	0x3d6a6859	0.05722842
241	0x3aff50fe	0.0019479094
242	0x3c9db001	0.019248964
243	0x3c3dff43	0.011596504
244	0x3c2d49c9	0.010576674
245	0x3d4e3c9d	0.050350774
246	0x3c36c525	0.011155401
247	0xbd2a819f	-0.041627523
248	0xbd67f1ba	-0.056627013
249	0x3d048fb4	0.03236361
250	0xbb5b1013	-0.003342633
251	0x3c8461ad	0.016159857
252	0xbd0a7c04	-0.033809677
253	0x3ae50594	0.0017472976
254	0x3cd1392b	0.025539955
255	0xbd3cda5e	-0.04610669

encoder.3.bias f4 [64]
0	0x3c577367	0.013150073
1	0x3cb1ceff	0.021705149
2	0xbc7b0cc1	-0.015322865
3	0xbc795c70	-0.015219793
4	0x3cc84e91	0.024451526
5	0x3cffb84b	0.031215807
6	0x3d0a4dc4	0.03376557
7	0x3d12a8b7	0.03580543
8	0x3c0cb768	0.008588649
9	0x3b2e7717	0.0026621276
10	0x3c576695	0.013147016
11	0x3bc63b2f	0.0060495357
12	0xbcf41947	-0.02979721
13	0x3c421a3f	0.011847078
14	0xbaf631ba	-0.001878313
15	0xbd181a2a	-0.037134327
16	0x3cdbfaa5	0.026852915
17	0xbd7cd363	-0.06172503
18	0xbd0cb559	-0.034352634
19	0xbcd7ee06	-0.026358616
20	0x3b10365b	0.0022005055
21	0x3c7133c8	0.014721818
22	0xbcec1276	-0.028817397
23	0xbd4ccf69	-0.05000249
24	0x3d465099	0.048416708
25	0x3c9ced93	0.019156253
26	0x3bbe6668	0.0058105476
27	0xbc37dd4c	-0.011222195
28	0x3d2365d8	0.039892048
29	0xbd5525af	-0.05203789
30	0x3ca01226	0.019539904
31	0xbb5eecdc	-0.003401569
32	0xbc9f7201	-0.019463541
33	0xbb0469cc	-0.0020204661
34	0x3d51dfe0	0.051238894
35	0x3d01b8f1	0.031670514
36	0x3d04e0f3	0.03244109
37	0xbc500810	-0.012697235
38	0x3d307134	0.04307671
39	0xbcc15f2e	-0.023604956
40	0x3a5ad60a	0.00083479343
41	0x3d42d436	0.04756566
42	0x3c57b6bc	0.013166126
43	0xbbc09468	-0.0058770664
44	0x3d52f828	0.05150619
45	0x3c3aad94	0.011393923
46	0x3c096061	0.008384795
47	0x3c82956b	0.015940389
48	0xbcbae7e8	-0.02281566
49	0x3c3a5f2d	0.011375231
50	0x3c2f8fcf	0.010715439
51	0xbcdc85d5	-0.026919285
52	0x3d6999e7	0.05703154
53	0x3cb6eccb	0.022329709
54	0x3c107f6a	0.00881944
55	0xbd360a9d	-0.044443715
56	0x3d08fcbd	0.033444155
57	0xbcd11c08	-0.025526062
58	0xbd0a3f1e	-0.0337516
59	0xbcf0dd0c	-0.029402278
60	0x3d3be461	0.045872096
61	0x3ba19b72	0.0049318606
62	0xbbcb3e31	-0.006202482
63	0xbd1efafa	-0.03881357

encoder.6.weight f4 [32, 64, 3]
0	0x3d9bdd8f	0.07610618
1	0x3c55e36a	0.013054708
2	0xbc67c2e6	-0.0141455885
3	0xbd05b3df	-0.03264224
4	0xbbe67326	-0.0070327697
5	0x3d867d7c	0.06566903
6	0x3d32f83d	0.04369377
7	0x3d89c685	0.06727318
8	0xbcdf0f7e	-0.027229067
9	0x3b289700	0.0025724769
10	0x3d4ca4ce	0.049961857
11	0xbd61c0ff	-0.055115696
12	0xbd880cf8	-0.066430986
13	0xbd70695a	-0.05869422
14	0xbd90d66f	-0.0707215
15	0x3cb14f4d	0.021644259
16	0x3d4929e7	0.049112227
17	0x3b76f317	0.0037681514
18	0x3ce6f0ef	0.028191058
19	0xbd3323af	-0.043735202
20	0xbd9742f6	-0.07385819
21	0x3d960e5d	0.07326958
22	0x3d536019	0.051605318
23	0x3d20be5a	0.039244033
24	0x3d36cf0d	0.044631053
25	0xbd6ef2e6	-0.058337115
26	0xbd68b9b1	-0.056817714
27	0xbd3f256f	-0.04666656
28	0x3d68e1e5	0.056856055
29	0xbcc90140	-0.024536729
30	0xbce90f23	-0.0284496
31	0xbd95a2cb	-0.07306441
32	0x3d7a205c	0.061066017
33	0x3b87fa03	0.0041496768
34	0xbd6974b1	-0.05699605
35	0x3d8df2f6	0.06931107
36	0x3c85fa55	0.01635472
37	0x3d0f9435	0.03505345
38	0x3d1b5aeb	0.037928503
39	0xbd79e847	-0.061012533
40	0xbc37d03f	-0.011219083
41	0xbd188892	-0.03723962
42	0xbc3425bf	-0.0109953275
43	0xbce5ebfe	-0.028066631
44	0x3b08ee97	0.0020894164
45	0xbd8f316e	-0.0699185
46	0xbd9287d3	-0.07154813
47	0xbdc08faa	-0.09402402
48	0x3a3875c7	0.0007036593
49	0xbbf27302	-0.007398964
50	0xbb6910cf	-0.0035562997
51	0x3d20a51d	0.039219964
52	0xbd986a8a	-0.07442196
53	0xbd39cc42	-0.04536081
54	0x3d872122	0.065981165
55	0xbc02b669	-0.00797806
56	0x3cedb7aa	0.029018242
57	0x3cc24461	0.023714246
58	0x3d3f09b4	0.046640113
59	0x3d09da2b	0.033655327
60	0x3d780d34	0.060559466
61	0x3d41f3fa	0.047351815
62	0xbcb13929	-0.021633701
63	0x3cee22da	0.029069353
64	0x3d33398d	0.043756057
65	0x3cc1ecb7	0.023672445
66	0xbca73193	-0.020409381
67	0xbda8a171	-0.082339175
68	0xbd57b48f	-0.05266243
69	0x3cd690f8	0.026192173
70	0x3c2c0a74	0.010500539
71	0xbda19e04	-0.07891467
72	0x3c57a0aa	0.013160864
73	0xbd3758f7	-0.044762578
74	0x3cf4dfe7	0.029891921
75	0x3beaa9e2	0.007161365
76	0x3c1b1492	0.009465354
77	0x3aff1133	0.0019460082
78	0xbd893c41	-0.06700946
79	0xbcfe0d6d	-0.031012261
80	0x3d4bf395	0.049792845
81	0xbd2a6afb	-0.04160593
82	0x3cd6a96c	0.026203834
83	0xbd4b8f2e	-0.049697094
84	0xbd5a3fc9	-0.053283487
85	0xbce9cca2	-0.02853996
86	0xbd10d0ec	-0.035355493
87	0xbd2e06a9	-0.04248682
88	0xbd107f64	-0.03527774
89	0xbbf85543	-0.0075785234
90	0x3d16ca8a	0.03681425
91	0xbd6db8b6	-0.058037482
92	0x3c7a468c	0.015275609
93	0x3d05c05f	0.032654162
94	0xbd953b7e	-0.07286738
95	0x3c868be9	0.016424136
96	0x3a58d6cb	0.0008271753
97	0xb9fcf3ac	-0.00048246735
98	0xbcd2a8ed	-0.025715316
99	0x3d1a1f3c	0.037627444
100	0xbb8f7b39	-0.004378703
101	0xba8c7c61	-0.001071822
102	0x3d6dd6bf	0.058066126
103	0x3c60ff4f	0.013732745
104	0xbcf4c412	-0.02987865
105	0xbcfa5a1e	-0.03056055
106	0x3cbb2581	0.022845032
107	0xbcf5b935	-0.02999554
108	0x3ccb23f9	0.024797427
109	0xbd44f1ba	-0.04808209
110	0x3d409030	0.047012508
111	0xbd75282f	-0.059852775
112	0x3bbcc4ce	0.0057607656
113	0xbd0d291a	-0.034463026
114	0x3cabb43c	0.020959966
115	0xbbac9251	-0.0052664657
116	0xbcadd590	-0.021219999
117	0xbc865723	-0.016398972
118	0xbdbc6d73	-0.09200563
119	0x3d91762e	0.07102619
120	0xbce4812b	-0.027893623
121	0xbcdf14ad	-0.027231539
122	0xbc8baea0	-0.017051041
123	0x3c9df13a	0.019280065
124	0x3d8b30d4	0.067964226
125	0x39f86d93	0.00047383885
126	0x3cc1bdfc	0.023650162
127	0x3bc3773a	0.0059651406
128	0x3d31c279	0.043398354
129	0xbce1e68d	-0.027575755
130	0xbba0335e	-0.004888936
131	0x3d8aef13	0.06783881
132	0xbd3831a1	-0.044969205
133	0x3c807be5	0.015684078
134	0x3d3b7755	0.0457681
135	0xbd1f900c	-0.038955733
136	0x3d5e1222	0.05421651
137	0xbc53eb34	-0.012934495
138	0x3d092ad1	0.0334881
139	0xbd111848	-0.035423547
140	0xbcba4211	-0.022736581
141	0x3cfab046	0.030601632
142	0x3d034793	0.03205068
143	0xbce3e1f0	-0.027817696
144	0xbc2e5612	-0.010640638
145	0x3d85fc48	0.065422595
146	0xbbf4977b	-0.007464347
147	0x3cefddb7	0.029280527
148	0xbd5e63df	-0.054294463
149	0x3ce24c5e	0.027624305
150	0x3d60446b	0.05475275
151	0xbd2435c4	-0.040090337
152	0x3d021c0c	0.03176503
153	0x3db8793a	0.09007497
154	0xbd840cc3	-0.064477466
155	0x3d8be238	0.06830257
156	0x3d822d49	0.06356294
157	0xbd3129b5	-0.043252666
158	0xbcc19d33	-0.023634529
159	0xbd65c6e4	-0.05609788
160	0x3d34f00a	0.04417423
161	0x3c280cb1	0.010256932
162	0xbd082c97	-0.03324565
163	0xbd1a4535	-0.037663657
164	0xbd9c1a23	-0.07622173
165	0xbc85f781	-0.01635337
166	0xbd318f45	-0.043349523
167	0xbdaaea21	-0.08345438
168	0xbd48afa7	-0.04899564
169	0x3c82914d	0.015938425
170	0xbd929e1b	-0.071590625
171	0x3d0e44c4	0.03473355
172	0x3d031ea1	0.032011632
173	0x3cfa4741	0.030551555
174	0xbcd07fcb	-0.025451561
175	0xbc9e5eae	-0.019332256
176	0x3d0a09d5	0.033700783
177	0x3b03c805	0.0020108235
178	0x3d6ce7a1	0.057838086
179	0x3ce99d6c	0.028517447
180	0xbb8c4cb3	-0.004281604
181	0xbd838f7e	-0.06423853
182	0x3c7251a2	0.014789971
183	0x3cfea022	0.031082217
184	0x3cd2c145	0.025726924
185	0x3d225821	0.039634828
186	0xbd5ee8e3	-0.054421317
187	0x3d165018	0.036697477
188	0x3d980ab6	0.07423918
189	0xbd13a4c0	-0.03604579
190	0x3c9101a9	0.017700987
191	0xbdc106ba	-0.09425111
192	0x3d6b4717	0.057440843
193	0x3bbd3b19	0.0057748673
194	0x3d857d2d	0.06518016
195	0xbd41e67a	-0.04733894
196	0xbd4e46dd	-0.05036055
197	0x3d888574	0.06666079
198	0x3d73cffc	0.05952452
199	0x3c00314b	0.007824252
200	0xbd006b8c	-0.031352565
201	0x3d13e620	0.036108136
202	0x3d956897	0.072953396
203	0xbca0adb4	-0.019614078
204	0x3d89aaa4	0.06722
205	0x3c6ce23d	0.014458236
206	0xbd65b2ba	-0.05607865
207	0x3c91821b	0.017762234
208	0xbd4d4b31	-0.050120536
209	0x3d2564e8	0.040379435
210	0xbd5a4984	-0.053292766
211	0xbc7ba7f6	-0.015359869
212	0x3d7d1cd6	0.06179508
213	0xbc4e7ad7	-0.0126025295
214	0x3d01bc1b	0.031673532
215	0xbca240c4	-0.019806273
216	0x3c237e72	0.009978877
217	0xbd786df5	-0.06065174
218	0x3d1e9acc	0.038721845
219	0xbd06fef9	-0.032958005
220	0xbce69e8a	-0.02815177
221	0xbd05e640	-0.032690287
222	0xbd21ffae	-0.039550476
223	0x3cede71f	0.029040871
224	0xbb02e25b	-0.0019971344
225	0xbcb704a2	-0.022341076
226	0x3bc172c5	0.005903574
227	0x3c455d16	0.012046119
228	0x3a750e79	0.0009348165
229	0x3d90e577	0.07075017
230	0xbcae1511	-0.02125028
231	0x3bffa14d	0.007801211
232	0xbc1943f7	-0.009354583
233	0xbd77fdfe	-0.06054496
234	0xbdb03cce	-0.086053476
235	0x3d129fc8	0.03579691
236	0x3c782703	0.01514602
237	0x3c950710	0.018191844
238	0x3d706166	0.058686636
239	0x3d0745a3	0.033025395
240	0x3cff8622	0.03119189
241	0xbb93dd6d	-0.00451248
242	0xbd087d45	-0.03332259
243	0xbb86f98c	-0.004119104
244	0xbd5ed5d2	-0.054403134
245	0xbcecee8e	-0.028922345
246	0x3d7e6e98	0.06211719
247	0x3d3e70e1	0.04649437
248	0xbd456d4e	-0.048199944
249	0xbcc3b2d4	-0.023888983
250	0x3d81d70e	0.063398466
251	0x3d597fdf	0.053100463
252	0xbd283cf4	-0.041073754
253	0x3d004172	0.031312414
254	0xbd565546	-0.052327417
255	0x3ce32571	0.027727814

encoder.6.bias f4 [32]
0	0xbd758bb4	-0.059947684
1	0xbd6ba7d6	-0.057533108
2	0x3d938130	0.07202375
3	0x3d3e1bab	0.046413105
4	0xbd65050a	-0.05591301
5	0x3c79f0f3	0.015255201
6	0x3b02f863	0.0019984476
7	0x3d8bfa07	0.06834798
8	0x3bff772b	0.0077961884
9	0xbd019119	-0.031632517
10	0xbd823521	-0.0635779
11	0xbd63c2a8	-0.05560556
12	0xbcc4b023	-0.02400977
13	0xbbdb94fa	-0.006701109
14	0x3d75a887	0.059975173
15	0xbd20daf1	-0.0392713
16	0x3cfc737a	0.030816782
17	0x3d816ff2	0.0632018
18	0xbd8d8df9	-0.06911845
19	0xbd07ee58	-0.033186287
20	0x3d7ba507	0.06143668
21	0x3cfac1e7	0.030610038
22	0xbc513c89	-0.01277078
23	0xbd241698	-0.04006061
24	0xbd58e1c3	-0.05294968
25	0xbcdff410	-0.027338058
26	0xbd539fac	-0.051665947
27	0x3d847950	0.06468451
28	0xbb6371e4	-0.0034705335
29	0xbd6f3ef9	-0.058409665
30	0x3d8b5fd7	0.068053894
31	0x3d2b1851	0.041771237

decoder.0.weight f4 [32, 64, 4]
0	0x3d05e3c2	0.03268791
1	0xbccddaba	-0.025128711
2	0xbd31c411	-0.043399874
3	0x3d08cef5	0.033400495
4	0x3adb8e2d	0.0016750746
5	0x3b515ea2	0.0031947275
6	0x3caf73ad	0.021417463
7	0xbc3fa341	-0.011696638
8	0x3a40dc91	0.00073570857
9	0xbce2bfc8	-0.027679339
10	0x3ba88365	0.0051426166
11	0xbd2ae308	-0.04172042
12	0xbc56843b	-0.01309305
13	0x3d2b7d34	0.04186745
14	0xbc812b3b	-0.015767684
15	0xbcf9f304	-0.030511387
16	0x3b977b8f	0.0046228836
17	0x3cba7d1a	0.022764731
18	0x3d1785a0	0.03699267
19	0xbc847f37	-0.016173942
20	0x3c9a9a97	0.018872542
21	0x3bb95116	0.005655418
22	0xbd57d1e2	-0.052690394
23	0xbb59f03b	-0.003325476
24	0x3d926916	0.0714895
25	0xbd3ec2f5	-0.046572644
26	0x3bc514ec	0.006014457
27	0x3d8e29ae	0.069415435
28	0xbd54e62b	-0.051977318
29	0x3c24f26d	0.010067564
30	0x3ceace19	0.028662728
31	0xbd9e3ce8	-0.07726461
32	0xbd0ee5b1	-0.03488702
33	0x3d17bc7f	0.037045
34	0xbd68b50a	-0.056813277
35	0xbd848d16	-0.064722225
36	0xbbd04f14	-0.006357083
37	0xbc4b2172	-0.012398111
38	0x3d88d05f	0.06680369
39	0x3d0cc077	0.034363236
40	0xbc0f208b	-0.008735786
41	0xbcefe3d5	-0.029283443
42	0xbc53999e	-0.012915043
43	0x3cbb7d84	0.022886999
44	0x3d1fee6e	0.039045744
45	0xbc933f50	-0.017974526
46	0x3d19a8c9	0.03751448
47	0xbcb8aef5	-0.022544364
48	0xbd5c7121	-0.053818826
49	0xbd171abb	-0.036890727
50	0x3d5057b3	0.050864886
51	0x3d2a6f9b	0.04161034
52	0x3d27731b	0.040881258
53	0xbce6b703	-0.028163439
54	0x3c8f78d2	0.017513666
55	0xbc0a0600	-0.008424282
56	0x3ba2d4c9	0.0049692136
57	0x3c36f292	0.011166232
58	0xbd5818fa	-0.052758195
59	0xbd8901ca	-0.06689794
60	0x3d285e4f	0.041105565
61	0x3d101371	0.03517479
62	0xbcaeed1d	-0.021353299
63	0x3d12b98c	0.035821483
64	0xbba756e5	-0.005106794
65	0x3cc9dfbc	0.024642818
66	0xbc0d6376	-0.00862967
67	0x3c1bc243	0.009506765
68	0x3c740dd3	0.014895874
69	0x3c5e880f	0.013582244
70	0x3d60b757	0.054862347
71	0x3d2ff37e	0.04295682
72	0xbc141c12	-0.009039896
73	0xbd690e3d	-0.056898344
74	0x3d25d35a	0.040484764
75	0xbc75d561	-0.015004487
76	0x3ce4c524	0.027926035
77	0xbc6d389d	-0.01447883
78	0x3c96994e	0.018383648
79	0xbc45f807	-0.01208306
80	0x3d519ec9	0.05117682
81	0xbd3a2b95	-0.04545172
82	0x3ccc6f3a	0.02495538
83	0x3d3ea051	0.04653961
84	0x3d1d3d0c	0.038388297
85	0x3d3b2863	0.045692813
86	0x3d75ba84	0.05999233
87	0x3c3d0a91	0.011538164
88	0xbce7a0db	-0.028274944
89	0x3d0fee5b	0.035139423
90	0x3c38bcb3	0.011275458
91	0xbcaa76d4	-0.020808615
92	0x3a90a85d	0.0011036504
93	0x3d7b4e7e	0.061354153
94	0xbcb67956	-0.022274654
95	0xbcd3a1f6	-0.025834065
96	0xbbbb79ab	-0.005721291
97	0x3ccd457c	0.025057547
98	0x3cbc9f61	0.023025217
99	0x3d931846	0.07182364
100	0xbcf3b8c8	-0.029751197
101	0xbd7e8024	-0.062133923
102	0x3d1799cc	0.037011907
103	0xbcb298f6	-0.021801453
104	0xbd271366	-0.040789984
105	0x3cf798a4	0.030224152
106	0x3cf64e18	0.030066535
107	0xbd305556	-0.043050133
108	0xbc6f616b	-0.014610629
109	0xbc2193ee	-0.009861929
110	0x3d671b7c	0.056422696
111	0xbcf04201	-0.029328348
112	0xbd7925e5	-0.060827155
113	0xbd35c8c3	-0.044380914
114	0x3a1c506f	0.0005962913
115	0x3cd1452e	0.025545683
116	0x3c23144f	0.009953572
117	0xbc5a4a13	-0.013323325
118	0x3d237ae0	0.039912105
119	0xbd42701f	-0.04747021
120	0xbd81f92a	-0.063463524
121	0x3d359226	0.04432883
122	0xbd5daf21	-0.054122094
123	0xbd5bdcf9	-0.053677533
124	0x3da10ac4	0.078633815
125	0xbcb4a11c	-0.02204948
126	0xbd64b258	-0.055834144
127	0x3d18be4b	0.037290853
128	0x3c9ac4f1	0.018892737
129	0x3cc2ab81	0.02376342
130	0x3d75127b	0.059832077
131	0xbba620d4	-0.0050698314
132	0x3cd13c93	0.02554158
133	0xbd00e10e	-0.03146463
134	0xbd322f10	-0.043501914
135	0xbcaa686a	-0.020801742
136	0x3c4bb954	0.012434322
137	0xbd69fab3	-0.05712385
138	0xbd8ddf5b	-0.06927367
139	0xbbdb3c8c	-0.0066905674
140	0xbd3cbea9	-0.046080265
141	0xbd466149	-0.048432622
142	0xba78be38	-0.0009488794
143	0x3d568e37	0.05238172
144	0x3c005b4d	0.007834268
145	0x3cd0dd22	0.02549607
146	0xbd39a110	-0.045319617
147	0x3cfe28bc	0.031025283
148	0x3aec7147	0.001803913
149	0xbd8160ff	-0.06317329
150	0xbd810fc4	-0.06301835
151	0xbcf10f8c	-0.029426359
152	0xbd1f502b	-0.038894814
153	0xbd19b9c0	-0.03753066
154	0xbd4b3908	-0.049614936
155	0x3d0505fc	0.03247641
156	0x3d5667b2	0.052344985
157	0x3d01e135	0.031708915
158	0x3d4a22b9	0.04934952
159	0x3cd5a80b	0.026081106
160	0x3cce4191	0.025177749
161	0x3d945b91	0.072440274
162	0xbd1f2164	-0.038850203
163	0x3d86144e	0.065468416
164	0x3d683b05	0.05669691
165	0xbc4dcbef	-0.012560829
166	0x3d1fcfba	0.039016463
167	0x3d35868a	0.04431776
168	0x3d81eae8	0.06343633
169	0xbaacec3e	-0.0013192964
170	0xbcc62bab	-0.024190744
171	0xbc728023	-0.014801058
172	0xbcab068b	-0.020877143
173	0x3d7ba818	0.061439604
174	0x3cdc2be6	0.026876401
175	0x3cba0f62	0.022712413
176	0x3d0f2373	0.034945916
177	0x3ce3707c	0.027763598
178	0x3cf06f23	0.02934987
179	0x3d251de3	0.040311705
180	0xbd771e50	-0.060331643
181	0x3beccd20	0.0072266012
182	0xbc0aed1b	-0.008479382
183	0xbb4820d9	-0.0030537157
184	0xbc1bd516	-0.009511253
185	0xbd129c73	-0.035793733
186	0x3d820ccd	0.06350098
187	0x3d567666	0.052359007
188	0x3d4224c1	0.047398333
189	0xbc889872	-0.016674254
190	0xbd6f16f7	-0.05837151
191	0x3d39f26e	0.045397215
192	0xbd0bdcf4	-0.034146264
193	0x3d7b7767	0.061393168
194	0xbd356868	-0.044289023
195	0xbd4658c2	-0.04842449
196	0xbd711468	-0.05885735
197	0xbd41f5e8	-0.047353655
198	0x3c070834	0.008241702
199	0xba8d826e	-0.0010796317
200	0x3c3caf96	0.011516472
201	0xbd469fc2	-0.0484922
202	0xbd2560e1	-0.040375594
203	0xbc902214	-0.017594375
204	0x3d645ce9	0.05575267
205	0xba65a981	-0.0008760915
206	0xbd39f517	-0.04539975
207	0x3cc346a9	0.023837404
208	0xbd01f506	-0.031727813
209	0x3a1a6b60	0.0005890634
210	0xbd3dce38	-0.046339244
211	0xbc80c327	-0.015718056
212	0xbd2d465e	-0.042303436
213	0xbd06be31	-0.032896224
214	0xbbfdd122	-0.007745878
215	0x3cf5b22c	0.029992186
216	0xbd5789ba	-0.05262158
217	0x3c2f9461	0.010716529
218	0x3d29a83a	0.0414202
219	0xbcc4e70a	-0.02403595
220	0xbcfe1804	-0.03101731
221	0xbd2a4ffb	-0.04158018
222	0x3c1df4dd	0.0096408995
223	0x3d09e435	0.0336649
224	0x3d06accc	0.032879636
225	0xbd83e50d	-0.06440172
226	0x3d2ca3e7	0.042148497
227	0xbd4a5e82	-0.049406536
228	0x3d038017	0.032104578
229	0xbce80f88	-0.028327718
230	0xbcd0b1a5	-0.025475333
231	0x3d3d4fe0	0.046218753
232	0x3b650e20	0.0034951046
233	0x3cf3d88b	0.029766342
234	0x3d12468e	0.035711817
235	0x3d76f733	0.06029434
236	0xbb93e472	-0.004513317
237	0xbd0abb85	-0.03387024
238	0x3d0d6eab	0.03452937
239	0x3d3416a0	0.04396689
240	0x3d016aaa	0.031595863
241	0xbd4d3e09	-0.05010799
242	0xbcaae10d	-0.020859266
243	0x3d153fe7	0.036437895
244	0x3d547c8f	0.0518766
245	0xbce3445d	-0.02774256
246	0x3cca2ed8	0.02468054
247	0xbd8aecfe	-0.06783484
248	0xbd5b5c4f	-0.05355483
249	0xbce6e271	-0.028184148
250	0x3d4fd874	0.050743535
251	0x3c8621d2	0.016373549
252	0x3c121cc7	0.008917994
253	0x3d47458e	0.048650317
254	0x3da49066	0.08035354
255	0xbce307f0	-0.027713746

decoder.0.bias f4 [64]
0	0x3cbb6a30	0.022877783
1	0xbd03c0eb	-0.032166403
2	0x3ca6e45d	0.020372564
3	0xbc6205ef	-0.01379536
4	0xbc675dd1	-0.014121489
5	0x3c500ced	0.012698394
6	0x3d0f9f8f	0.035064276
7	0xb9466a1a	-0.00018922277
8	0xbcf07d4f	-0.029356627
9	0xbd6a23d9	-0.057163093
10	0x3d3b6034	0.045746043
11	0x3c4cc672	0.012498485
12	0xbcc844f9	-0.024446951
13	0x3bf1e993	0.0073825805
14	0xba770891	-0.0009423579
15	0xbd4499e1	-0.047998313
16	0x3cf84ca4	0.030309983
17	0x3d04cfa2	0.032424577
18	0x3d1d5c9a	0.03841839
19	0x3d00608c	0.031342074
20	0xbd6a897d	-0.057260025
21	0x3d423be2	0.04742039
22	0xbc85858c	-0.016299032
23	0xbcfb6039	-0.030685531
24	0x3d6db021	0.058029298
25	0xbd6c3dc1	-0.05767608
26	0x3c93568d	0.017985607
27	0x3cd7ff12	0.026366744
28	0xbc8d60a2	-0.017257992
29	0x3cc04694	0.023471154
30	0x3c513d46	0.012770956
31	0xbd60f42a	-0.054920353
32	0x3d40bdec	0.047056124
33	0xbc55875b	-0.01303276
34	0x3b60f158	0.003432354
35	0x3d0466f3	0.032324743
36	0xbbadaff0	-0.0053005144
37	0x3d2b448e	0.041813426
38	0x3cdd0820	0.026981413
39	0x3d6df648	0.0580962
40	0xbd73de77	-0.05953833
41	0x3d0a1dd0	0.033719838
42	0x3cb30449	0.02185263
43	0x3d4e7a36	0.05040952
44	0xbccdc1c1	-0.025116803
45	0x3d044ac7	0.032297876
46	0xbd37596e	-0.04476302
47	0xbcf92ad7	-0.030415935
48	0xbcd1e4f6	-0.025621872
49	0x3c1f7e09	0.009734639
50	0x3d1c3447	0.038135793
51	0xbc2d447b	-0.010575409
52	0x3d4aefde	0.04954516
53	0x3b9ece14	0.004846344
54	0x3d071d4a	0.032986917
55	0xbc54a580	-0.012978911
56	0x3c171877	0.0092221415
57	0x3d4c54fa	0.049885727
58	0x3d7333e0	0.059375644
59	0xbcdc7a9e	-0.026913937
60	0xbd61a5f8	-0.05508992
61	0xbcdf8a60	-0.027287662
62	0xbc0e4a03	-0.008684638
63	0x3d4ec60f	0.050481852

decoder.2.weight f4 [64, 128, 4]
0	0x3ca0a580	0.019610167
1	0xbc5fcb66	-0.013659334
2	0xbd19a68e	-0.037512355
3	0x3d1a9d7f	0.037747856
4	0xbb79a16c	-0.00380906
5	0x3bd154cf	0.006388284
6	0x3c15ea2d	0.00915007
7	0xbd172d41	-0.036908392
8	0x3d008ae3	0.031382453
9	0x3ce32036	0.02772532
10	0xbc224474	-0.009904016
11	0x3b9f3fea	0.004859914
12	0x3cfc3ed2	0.030791674
13	0xbce1acc9	-0.02754821
14	0x3c80a5c5	0.015704045
15	0x3c469931	0.012121485
16	0x3cde1f78	0.027114615
17	0x3c5c4f1b	0.013446595
18	0xbc1b7fca	-0.0094909165
19	0x3cd7c688	0.026339784
20	0xbb37cb1d	-0.002804465
21	0x3b0f7b67	0.0021893622
22	0xbc3edfb3	-0.011650014
23	0xbd2e271f	-0.042517778
24	0x3cc95349	0.024575846
25	0xbd284a48	-0.041086465
26	0xbd13deca	-0.03610114
27	0xbd406b12	-0.04697711
28	0x3d10e9a6	0.035379075
29	0xb927f172	-0.00016016306
30	0xbd16607a	-0.0367131
31	0xbcedd144	-0.02903045
32	0x3cbbceeb	0.022925815
33	0xbc8a0b5a	-0.016851116
34	0x3c696ee0	0.014247626
35	0xbc8068e3	-0.015675014
36	0xbb07d6a3	-0.0020727299
37	0x3ca2aeb8	0.019858703
38	0x3cceed95	0.025259772
39	0xbccdf37c	-0.025140516
40	0xbd298832	-0.04138965
41	0x3c61da24	0.013784919
42	0x3cb53655	0.022120634
43	0x3b8d9717	0.00432099
44	0x3d2fac52	0.042888947
45	0x3beef51e	0.007292404
46	0x3c769e13	0.015052336
47	0x3c9203c0	0.017824054
48	0x3d1f3c32	0.038875766
49	0x3d214361	0.0393709
50	0x3baa41ac	0.005195817
51	0xbb09fcdb	-0.0021055255
52	0x3d4b6ddc	0.049665317
53	0xbc969d72	-0.018385623
54	0x3cb5e6f4	0.022204854
55	0x3d340301	0.043948177
56	0x3d20ed94	0.039289072
57	0xbd199d68	-0.03750363
58	0xbbedbf28	-0.0072554536
59	0xbaa871ed	-0.0012851335
60	0xbcd8ac06	-0.026449215
61	0xbce33da2	-0.02773935
62	0x3d2b76a9	0.04186121
63	0x3d257564	0.040395156
64	0xbd16c103	-0.036805164
65	0x3c20006e	0.009765727
66	0x3c62853d	0.013825712
67	0x3bfb007f	0.0076599712
68	0x3ca66a10	0.020314246
69	0x3d1702ca	0.036867894
70	0x3cacf84c	0.02111449
71	0x3c695bd4	0.014243085
72	0xbcf8d77d	-0.03037619
73	0x3d075930	0.03304404
74	0x3cc27cc1	0.023741128
75	0x3d173e9a	0.036924936
76	0x3c5886d7	0.013215742
77	0x3c10d549	0.008839914
78	0x3d21aef3	0.039473485
79	0x3cddc2cc	0.027070425
80	0x3c408c23	0.011752161
81	0xbcb8bd4f	-0.022551207
82	0xbbfa2570	-0.0076338574
83	0xbcc922da	-0.024552751
84	0xbd058ddd	-0.032605994
85	0x3d0b00a3	0.033936154
86	0xbd228daa	-0.039685883
87	0x3b7382cd	0.003715682
88	0x3c1c4f16	0.00954034
89	0x3d0aa822	0.03385175
90	0xbb435518	-0.0029805358
91	0x3d5a6e81	0.05332804
92	0x3d233837	0.039848533
93	0x3c80fd1e	0.015745696
94	0x3d0cd816	0.034385763
95	0x3d11b590	0.035573542
96	0x3d0db1f6	0.034593545
97	0xbd537655	-0.051626522
98	0xbbf0dc28	-0.0073504634
99	0xbc7311c5	-0.01483578
100	0x3be84308	0.007088069
101	0x3d4653b2	0.04841966
102	0xbc6e14bd	-0.014531312
103	0x3ce14679	0.027499424
104	0xbcf93606	-0.030421268
105	0x3ca8ad26	0.020590376
106	0xbd03fd93	-0.03222425
107	0x3cb1005d	0.021606619
108	0x3c17b391	0.009259121
109	0xbc8630c7	-0.01638068
110	0x3d0bc1f0	0.0341205
111	0x3d137392	0.03599889
112	0x3d1fed62	0.039044745
113	0xbc85ad59	-0.01631801
114	0xbbf5b8cf	-0.0074988375
115	0x3d0ac02f	0.033874687
116	0x3cc9eb53	0.024648344
117	0x3cf664b4	0.030077316
118	0xbc72f94d	-0.014829946
119	0x39493d46	0.0001919168
120	0xbcc98130	-0.024597734
121	0xbd123610	-0.03569609
122	0xbc088519	-0.008332514
123	0x3d42dc68	0.047573477
124	0xbc8033ca	-0.015649695
125	0xbc716119	-0.014732623
126	0x3cdc65df	0.026904045
127	0xbd25514d	-0.040360738
128	0x3d28c9ba	0.041208006
129	0x3d603411	0.054737154
130	0xbc17cf42	-0.009265723
131	0xbc055988	-0.008139022
132	0xbcc38093	-0.02386502
133	0xbc9afb73	-0.018918728
134	0xbcc1f7bc	-0.0236777
135	0xbcd43213	-0.025902783
136	0xbc9585c8	-0.018252268
137	0x3ce6a0c8	0.028152838
138	0x3d0816de	0.033224933
139	0xbc524e71	-0.012836085
140	0xbba6c47f	-0.005089342
141	0x3b0873d6	0.0020820997
142	0xbd1cb18e	-0.038255267
143	0xbcbca027	-0.023025585
144	0x3cd672cc	0.026177786
145	0x3c5b95ae	0.013402386
146	0x3ca51ec5	0.020156274
147	0xbd053333	-0.03251953
148	0xbccdc164	-0.02511663
149	0xbca1ec82	-0.019766096
150	0xb92e4ec9	-0.00016623283
151	0xbbc9b9a8	-0.006156165
152	0x3d38c009	0.045105014
153	0xbc47341d	-0.012158421
154	0xbbc5cc32	-0.006036305
155	0x3c4b96e7	0.012426115
156	0xbce41188	-0.02784039
157	0x3ca66964	0.020313926
158	0xbd1a2154	-0.03762944
159	0xbd19c7a4	-0.037543908
160	0xbd3882a6	-0.04504647
161	0xbd1f99b1	-0.03896493
162	0xbc8f0c55	-0.017461935
163	0x3c93f5d8	0.018061563
164	0x3c3ad5ab	0.0114034815
165	0x3aa6d756	0.001272897
166	0xbd03eae6	-0.03220644
167	0xbbcc4a90	-0.0062344745
168	0x3c9d82ee	0.019227471
169	0x3ca39cfa	0.019972313
170	0xbd045e4d	-0.032316495
171	0xbcf9a333	-0.030473327
172	0x3d132b41	0.035929922
173	0xbc883053	-0.016624605
174	0x3d39a3e2	0.045322306
175	0xbce32639	-0.027728187
176	0x3cc15601	0.02360058
177	0xbd0ea8e5	-0.03482904
178	0xbbe6988c	-0.007037228
179	0x3cb80a6c	0.022465907
180	0x3cd7e19f	0.026352702
181	0x3cf863b4	0.03032098
182	0x3d1f81bc	0.038942084
183	0xbbaaef3a	-0.0052165063
184	0xbc2d068d	-0.010560644
185	0x3d1e834b	0.03869943
186	0xbc79057b	-0.015199061
187	0x3cacd6fc	0.021098606
188	0x3cdd971c	0.027049594
189	0xbd10724d	-0.035265256
190	0xbc78d551	-0.015187577
191	0xbcb15816	-0.021648448
192	0xbc9648f4	-0.018345334
193	0x3cc33e4b	0.023833415
194	0x3d0166db	0.03159223
195	0xbce9c088	-0.028534189
196	0x3ca188ad	0.019718492
197	0x3bad3827	0.005286235
198	0xbc9e9f47	-0.019363059
199	0x3cbd8da3	0.023138827
200	0x3c9a000f	0.018798856
201	0xbcfb53cf	-0.030679611
202	0xbc9bb1fd	-0.01900577
203	0x3d1d6366	0.03842487
204	0xbb62ab29	-0.0034586883
205	0x3cd42c4d	0.02590003
206	0xbcd79091	-0.026314052
207	0x3bd09393	0.0063652485
208	0xbd208dd1	-0.039197747
209	0x3d074a48	0.033029824
210	0x3ccb1482	0.024790052
211	0xbd15e2c4	-0.036593214
212	0xbceaafaa	-0.028648216
213	0x3d66bf15	0.056334574
214	0xbd5d227b	-0.05398796
215	0xbc4e7234	-0.01260047
216	0x3a6af5c0	0.0008963011
217	0x3a017273	0.0004938014
218	0x3ce2f64c	0.027705334
219	0xba7fd472	-0.0009759135
220	0x3bc0dd64	0.005885767
221	0x3cdecf8d	0.027198577
222	0x3d0bad68	0.03410092
223	0x3bfe0929	0.007752557
224	0x3bd8d072	0.0066166455
225	0x3cd83085	0.026390323
226	0xbcf3b178	-0.02974771
227	0xbd0af93b	-0.03392909
228	0xbc7fc32a	-0.015610496
229	0xbca629b2	-0.020283554
230	0x3d1894c6	0.037251256
231	0x3ce0579d	0.027385527
232	0xbbcfa357	-0.0063366103
233	0x3bb36d29	0.0054756594
234	0x39361405	0.0001736433
235	0x3ad82c95	0.0016492779
236	0x3ccc7dbb	0.024962297
237	0xbca6d7bf	-0.020366548
238	0x3d26ac61	0.040691737
239	0xbce59a06	-0.028027546
240	0x3cf5a045	0.029983649
241	0x3d1920b3	0.0373847
242	0x3c0f4a05	0.008745675
243	0x3d41156a	0.047139563
244	0x3be21187	0.006899062
245	0x3d1bb24c	0.038011834
246	0x3d2b5bb8	0.041835517
247	0x3b91b956	0.0044471426
248	0xbd37aec0	-0.04484439
249	0xbd59b471	-0.053150598
250	0x3d0c5530	0.03426093
251	0x3d7e7c0a	0.06213001
252	0x3c3de224	0.011589561
253	0xbcb45322	-0.022012297
254	0xbd0a3b10	-0.033747733
255	0xbb5db1d0	-0.0033827908

decoder.2.bias f4 [128]
0	0x3b1c1835	0.002381814
1	0xbd30ec27	-0.043193962
2	0x3a9199ee	0.0011108497
3	0xbcf90172	-0.030396197
4	0xbd2c62f2	-0.04208655
5	0xbbb90cc8	-0.0056472756
6	0x3a0b1ea1	0.0005306993
7	0xbc69a27a	-0.014259929
8	0x3cd6e9f4	0.026234604
9	0xbc8c5b77	-0.017133458
10	0xbcc98c25	-0.024602959
11	0xbd029285	-0.031878013
12	0x3d0bb84d	0.03411131
13	0xbcedf06a	-0.029045302
14	0x3d0f17a7	0.034934666
15	0xbd2b6df9	-0.041852925
16	0xbcbdc07c	-0.023163073
17	0xbc96000c	-0.01831057
18	0x3b8ae126	0.0042382656
19	0xbc807776	-0.015681963
20	0x3c4356b6	0.011922529
21	0xbd05f689	-0.032705817
22	0x3a062c0f	0.00051182596
23	0x3cae279a	0.021259118
24	0xbc50339d	-0.012707618
25	0xbcaf00dc	-0.021362714
26	0x3cc4b94e	0.024014141
27	0x3d1e97a4	0.038718835
28	0x3cd3b91e	0.025845107
29	0x3c29b75f	0.0103586605
30	0xbc6fedf1	-0.014644132
31	0xbca61298	-0.020272538
32	0x3d5c8d14	0.05384548
33	0xbca2fa5c	-0.019894771
34	0x3ce67869	0.028133588
35	0x3cb17375	0.0216615
36	0xbce23fbf	-0.027618287
37	0xbc5c150c	-0.013432752
38	0xbc846055	-0.016159216
39	0xbb9f642f	-0.0048642377
40	0xbbbe42f1	-0.00580632
41	0xbc87b616	-0.016566318
42	0xbd053735	-0.032523353
43	0xbcf59d11	-0.029982122
44	0xbb1eacb9	-0.0024211837
45	0xbb04b42b	-0.002024899
46	0xbd09de42	-0.033659227
47	0x3c2db3b3	0.010601926
48	0xbca1aad4	-0.019734778
49	0x3b5f3732	0.0034059999
50	0xbd344f0c	-0.044020697
51	0xbd16f4c4	-0.03685452
52	0x3d1751f2	0.036943384
53	0x3c4c6317	0.012474797
54	0x3c83fcc6	0.016111743
55	0x3d1d49a1	0.038400296
56	0x3d0001e9	0.03125182
57	0xbc2fa0e2	-0.01071951
58	0xbab824d7	-0.0014049065
59	0xbd0e590d	-0.034752894
60	0x3d0c24cb	0.034214776
61	0x3cd50f76	0.026008349
62	0xbcd794f5	-0.026316145
63	0xbcdcc5a5	-0.026949713
64	0x3d275963	0.04085673
65	0xbd14af9d	-0.03630029
66	0xbbc0c1b9	-0.0058824685
67	0x3ce0312d	0.027367199
68	0xbcbeb674	-0.02328036
69	0x3d2211a1	0.039567593
70	0x3cda026b	0.026612481
71	0xba3b98c9	-0.00071562506
72	0xbcc7f557	-0.02440898
73	0xbcd35212	-0.02579597
74	0xbb419a44	-0.0029541412
75	0xbcdd3c1b	-0.0270062
76	0xbd1e6d87	-0.038678672
77	0x3cb204a8	0.021730736
78	0xbbebbf2d	-0.007194421
79	0xba3b1e26	-0.00071379764
80	0x3d186d6b	0.037213724
81	0x3c3b2c15	0.011424084
82	0x3c234b94	0.00996675
83	0x3ca48cb4	0.020086624
84	0xbc55eac0	-0.013056457
85	0xbcf64e16	-0.030066531
86	0x3bbc6d7b	0.005750356
87	0xbcde81e0	-0.027161539
88	0x3cc59d44	0.024122842
89	0x3a7fd506	0.0009759221
90	0x3cdb8e97	0.02680139
91	0x3d206996	0.039163195
92	0x3c80d671	0.015727254
93	0xbc8d9353	-0.017282164
94	0x3926f48c	0.00015922094
95	0xbc10bd81	-0.008834244
96	0xbcf9c081	-0.0304873
97	0xbc890f46	-0.016730916
98	0xbd1462f0	-0.036227167
99	0xbcb92f19	-0.022605466
100	0xbc2c7026	-0.010524785
101	0xbcd967d0	-0.02653876
102	0xbcd3e501	-0.025866034
103	0x3c133ef2	0.008987175
104	0xbce5d6ae	-0.028056469
105	0xbd172fab	-0.036910694
106	0xbca81288	-0.020516649
107	0xbbb2bffb	-0.0054550148
108	0x3d239921	0.039940957
109	0x3c7bf8be	0.015379129
110	0x3cce0fe5	0.025154063
111	0x3cc8a554	0.024492897
112	0xba67fdc4	-0.00088497647
113	0x3b8ed46d	0.004358819
114	0x3d32d94c	0.04366426
115	0xbb6c1de6	-0.0036028563
116	0x3cb153aa	0.02164634
117	0xbc680ec4	-0.014163677
118	0x3c055429	0.008137741
119	0x3cf2c9c1	0.02963722
120	0xbb68a008	-0.0035495777
121	0xbcf6fa02	-0.03014851
122	0xbd280f2e	-0.0410301
123	0xbca98b46	-0.020696294
124	0x3c500915	0.012697478
125	0xbc7b7a40	-0.015348971
126	0x3cd7ee02	0.026358608
127	0x3cea2e77	0.02858661
