backend/resources/models/response_model.pth (torch, 297378 bytes, 11 tensors)

encoder.0.weight f4 [128, 1, 3]
000000 7c ac 12 bf 0d 01 fc 3e f1 33 9e 3e 36 f7 3b be
       -0.5729444 0.49219552 0.30899003 -0.18356022
000010 6f 06 3f 3e f5 8c 17 3f c6 fc 0e bf 1e 8f ed 3e
       0.18654798 0.5919946 -0.5585445 0.46398252
000020 d4 94 15 bf 58 15 cb be d2 b3 e3 be 4a f7 00 3f
       -0.5843022 -0.3966472 -0.4447313 0.50377333
000030 49 6e 39 3e ee 22 e2 be 8e 09 c0 3e 8b 41 19 3e
       0.18108477 -0.44167274 0.3750729 0.14966409
000040 a0 68 88 be f6 a9 fc 3e f6 c5 e3 3c 4c 81 45 3e
       -0.26642323 0.4934842 0.027804356 0.19287604
000050 2e cf 64 3d 89 ea 5e be 41 4f 14 3f a2 6d 1e be
       0.055861644 -0.21769156 0.5793343 -0.15471509
000060 b8 a8 e6 3d e9 e6 03 be 0e f2 d3 3e 33 86 00 3e
       0.11262649 -0.12881054 0.4139561 0.12551193
000070 ec 1c 9a 3e f1 72 9c 3e 00 45 b8 3e 89 94 27 3e
       0.3010019 0.30556443 0.35990143 0.16365255
000080 61 9e 1d bc 73 51 d0 3e d3 44 a9 bd 8e 2e 2d bf
       -0.00962028 0.4068714 -0.0826508 -0.6764916
000090 09 a5 0e 3f f8 2c 33 3d c6 6b e6 3d ac 70 02 be
       0.55720574 0.043744057 0.11251025 -0.12738293
0000a0 7a 4f 1b bc 72 99 ad be 49 10 39 3d fe e5 80 3d
       -0.009479398 -0.33906132 0.045181546 0.062938675
0000b0 6c b0 c8 3e f0 6e 85 bd 3d 4b a7 bd f8 75 db be
       0.391971 -0.065153 -0.081686474 -0.4286344
0000c0 0b 59 1a bf fe 4a a3 3d 07 46 05 3c d0 fa f2 3e
       -0.6029212 0.07973288 0.008134372 0.4745698
0000d0 d0 14 b2 3d 1a d9 ec 3e 13 76 f4 be 98 e5 15 3f
       0.08695376 0.46259385 -0.47746333 0.5855346
0000e0 41 23 04 bf bb ad 16 3e bd 7b 9b be e5 0f b6 bd
       -0.51616293 0.1471471 -0.30367842 -0.088897504
0000f0 f1 53 17 3e a4 a5 75 3c 7c a1 9c 3e d5 d7 95 be
       0.14778115 0.014993105 0.30591953 -0.2926623
000100 b6 fe 01 3e 8e bc 2f bd 41 da dc 3e 18 67 9d 3e
       0.12694821 -0.04290443 0.43135265 0.30742717
000110 a2 09 d0 3e 3f 55 1a bf 13 b4 49 be b7 92 88 be
       0.4063235 -0.60286325 -0.19697599 -0.26674435
000120 cf fe 0b 3e 97 8b 67 be f7 d4 af be 97 ac 37 be
       0.1367142 -0.22611843 -0.34342167 -0.17936932
000130 ab a2 0d bf 65 4e be be 39 55 57 3e 8a 86 8d bd
       -0.55326337 -0.37169185 0.21028604 -0.06910427
000140 50 03 60 bc 55 53 8a be 3c 39 bf 3e 00 96 52 be
       -0.013672665 -0.27016702 0.37348354 -0.20565033
000150 11 5c 1b bf fe f0 82 3e 1c 49 46 bd 40 fe f3 3d
       -0.6068736 0.25574487 -0.048409566 0.11913729
000160 9b 89 a2 3e 3d c4 49 3e f6 d9 b0 3e 1b 0c 9b bd
       0.3174561 0.19703765 0.3454129 -0.07570668
000170 3f 02 e8 bc 7c 23 d6 be f6 50 f3 be 67 ad 08 bf
       -0.028321384 -0.41823947 -0.47522706 -0.5338959
000180 4a 0f f0 3e 36 56 0c 3f dd 83 f4 be 68 03 a7 bd
       0.46886665 0.5481905 -0.47756854 -0.081549466
000190 50 ae 95 3e 8a f3 87 be c5 5f a5 3e 7b 76 0c 3e
       0.29234552 -0.26552993 0.3229963 0.13717072
0001a0 3f 60 be be ed a7 61 bd 7a a1 d6 be e6 d2 e2 bd
       -0.37182805 -0.055091787 -0.41920072 -0.11075382
0001b0 6e 42 1a bf 4c 54 b2 3e 1e 57 6d be ab ff 02 bf
       -0.60257614 0.34829938 -0.23177764 -0.5117137
0001c0 35 65 97 3e bf d2 0a 3f 3a d4 80 3e d8 87 d4 3d
       0.29569402 0.54227823 0.25161916 0.10377473
0001d0 be e0 05 bf f8 81 01 3f 86 3c 29 be e6 86 0b 3f
       -0.52296054 0.5058894 -0.16526994 0.54502714
0001e0 30 f0 02 bf 18 ff 19 bf e4 20 43 3d ae 61 13 be
       -0.5114775 -0.6015487 0.04763879 -0.1439273
0001f0 1f 04 d9 be 0f 17 3a 3d 9b d4 13 bf 8d 0f 09 bf
       -0.42385957 0.045432147 -0.57746285 -0.53539354
000200 43 31 07 3f a8 63 27 3e 65 f9 07 be ec 45 ec be
       0.5280954 0.1634661 -0.1327873 -0.46147096
000210 7a c3 2a 3a 1b 87 a3 bd 4d f1 32 bf 0c 9f 09 bf
       0.00065141136 -0.07984754 -0.69899446 -0.5375831
000220 e4 7f e6 be 0a 66 eb be be 3d f8 be 2f 6c 14 bf
       -0.45019448 -0.45976287 -0.48484606 -0.57977575
000230 5c 79 e4 be aa f3 ee 3e 5d df 02 be f0 df f4 3e
       -0.4462384 0.46670276 -0.12780519 0.478271
000240 53 49 03 3f 5d e7 61 bd 2f 62 a4 3e ef be e8 3e
       0.5128376 -0.055152286 0.32106158 0.4545817
000250 c9 ff 08 bf f8 96 dd be 95 2a 05 bf 67 d9 fc be
       -0.535153 -0.43279243 -0.520181 -0.49384615
000260 25 2f e7 bd 2d 2d 87 bd 76 bd 2a bd 8f 84 08 bf
       -0.11288289 -0.066004135 -0.04168459 -0.5332727
000270 d4 dc 37 be ba 40 ef bd 8c f1 9b be ed 27 09 3c
       -0.17955333 -0.116822675 -0.30457723 0.008371335
000280 90 02 04 bf 1c 4f 93 be c4 70 97 3d ca e8 c6 3e
       -0.5156641 -0.28771293 0.07394555 0.3884948
000290 ac 1f 9d bd 45 85 b4 be 3e ce 0f 3f 3e f4 94 3e
       -0.076720566 -0.35257927 0.56174076 0.29092592
0002a0 9d a6 9a 3e 81 cc 81 3d 7e 5a 01 3f d7 4c 7a 3e
       0.3020524 0.06337834 0.50528705 0.24443375
0002b0 9e b9 53 3e b3 8f 51 be b2 19 40 bc 96 d9 ff 3e
       0.20676276 -0.20464973 -0.011724876 0.49970692
0002c0 78 e7 f4 be cc 83 00 3e 37 4b 54 be 2b 68 95 3e
       -0.47832847 0.12550277 -0.20731817 0.29181036
0002d0 49 5e 96 3e 5c 5c d6 bd 2b ba fa be 08 9f f0 3e
       0.2936881 -0.10466835 -0.4897016 0.4699633
0002e0 60 2a b2 3e f8 09 01 bf 5a 1b 0e bf ef 98 00 bf
       0.34797955 -0.50405836 -0.55510485 -0.5023336
0002f0 b9 b8 5f 3e 52 dd e1 3c b7 d2 ef 3e 0d 46 7d be
       0.2184781 0.027571354 0.4684045 -0.24733754
000300 6c 73 12 3f 08 77 dc 3d 6b 8e 70 3e 4a ca e1 3e
       0.5720737 0.10764891 0.23491828 0.44099647
000310 e9 04 b1 3d 91 ef 0b 3e d3 60 0b bf de 62 01 bf
       0.08643515 0.13665606 -0.5444462 -0.50541484
000320 63 82 bd bc f5 e6 01 3f 54 6b 21 be 5d a5 c1 be
       -0.023133462 0.5074304 -0.15763599 -0.37821475
000330 4b f4 70 3d 63 69 41 3e 59 3b e8 be b5 a3 43 3e
       0.058826726 0.18887858 -0.4535778 0.19105418
000340 75 a6 39 3e ca 4b 1c bf 02 43 b0 be c4 51 1b 3f
       0.18129905 -0.61053145 -0.34426123 0.6067164
000350 e0 50 0f 3f 77 52 b0 3e be 2f 15 bf 88 c3 12 3f
       0.5598278 0.34437916 -0.58275974 0.57329607
000360 c8 f3 09 3e 89 93 48 3e 0d 53 62 3e 73 3a e2 be
       0.13471901 0.1958753 0.22101994 -0.44185218
000370 15 e8 fd be 75 72 19 3e d8 fd af 3c 64 28 f6 be
       -0.49591127 0.14985068 0.021483347 -0.4807769
000380 44 ee e4 bd da e3 10 bf 8b 7a 53 be 51 05 00 bf
       -0.11178258 -0.56597674 -0.20652215 -0.5000811
000390 01 e6 ff 3c d8 ac 29 3c e5 23 e2 3e 73 b5 e9 be
       0.031237604 0.010356151 0.4416801 -0.45646247
0003a0 b9 d7 d0 be b7 93 a9 be b9 78 eb 3e e1 13 61 be
       -0.40789583 -0.3312051 0.45990542 -0.2198024
0003b0 25 36 b4 3e 56 90 51 be cb 9f 07 bf 41 6d a7 be
       0.3519756 -0.20465216 -0.529782 -0.32700542
0003c0 9b 3c 11 3e 16 30 64 be 74 b5 ab bc 34 6b 41 3e
       0.14183275 -0.22283968 -0.020960547 0.18888551
0003d0 ae d0 5b 3d d6 ab 18 be c5 48 15 bf b1 0c a4 3e
       0.05366581 -0.149093 -0.5831416 0.32040933
0003e0 65 0a 1c bf 8f 42 01 bf 2e 27 21 3e 04 e1 90 be
       -0.6095336 -0.50492185 0.15737602 -0.28296673
0003f0 c2 aa 13 bf 0c fa c5 be d0 3a 0f 3f de 11 8e be
       -0.5768243 -0.38667333 0.55949116 -0.27748007

encoder.0.bias f4 [128]
000000 c3 88 92 3e 44 2d dd be b4 94 10 bd 16 36 df 3e
       0.28619966 -0.43198597 -0.035298064 0.43595952
000010 e3 ab ae 3d ad 76 06 3f 6a c8 f8 be 60 06 bf be
       0.085288785 0.52524835 -0.48590404 -0.3730955
000020 0a bd 27 bd a0 ea 03 3f fc ca 3b 3e fb 06 84 bd
       -0.040951766 0.51529884 0.18339151 -0.06446644
000030 40 89 48 3e 9d 51 08 3f c1 4a 12 be 18 4b f2 3e
       0.19583607 0.5324953 -0.14286329 0.47322917
000040 0b 27 4d be 73 a4 db 3e cc 1a dd 3d 95 5d 52 3e
       -0.20034425 0.42898902 0.10796127 0.20543511
000050 f9 ce 9e 3d 20 20 63 be 5d 5e c4 be 2b bb a6 3e
       0.07754321 -0.22180223 -0.38353243 0.32564673
000060 57 6d e6 be 00 fc ed be c7 04 2a 3e 14 a5 18 bf
       -0.45005295 -0.46481323 0.16603385 -0.5962689
000070 54 08 99 3d cc 36 8d 3e 84 85 3d be fc 8e 4e 3e
       0.074722916 0.2758087 -0.18507963 0.20171732
000080 fe a8 dd 3d b1 51 da 3e f3 9a 3f 3e d2 7d 09 bf
       0.10823248 0.4264045 0.18711452 -0.5370761
000090 02 a4 e2 be 2c 17 6b 3e 28 ab fd 3c b3 d6 84 3e
       -0.44265753 0.22958058 0.030965403 0.25945053
0000a0 24 07 ff be 71 cb 36 be 3f 83 ff 3e 84 73 bf 3e
       -0.49810135 -0.17851044 0.4990482 0.3739282
0000b0 66 a4 f6 be 2f 6f 0a 3f 51 ec ed be ae 20 02 3f
       -0.481723 0.540759 -0.46469358 0.50831115
0000c0 06 87 88 3e 04 a8 9f be 01 83 b8 3e 19 42 51 be
       0.26665515 -0.31182873 0.36037448 -0.2043537
0000d0 73 76 a3 be 4b c4 c4 3c c8 1b 9c 3b 66 2b f6 3e
       -0.31926307 0.024019381 0.004764054 0.48079985
0000e0 25 f5 5c 3e 53 8d fe bc 07 d6 4c bc 98 dc 44 be
       0.2157789 -0.031073248 -0.0125022 -0.19224775
0000f0 da 09 90 be 19 00 13 3e b9 2e 2a 3e 7d ac 04 bf
       -0.28132516 0.14355506 0.16619386 -0.51825696
000100 03 f1 f2 be ad e9 a4 be fc b0 39 3e 61 93 8f 3e
       -0.47449502 -0.3220953 0.1813392 0.2804213
000110 ae 65 09 3e ba ec 91 bd b3 c3 f8 3e 6e 15 9f bc
       0.13417694 -0.0712523 0.48586807 -0.019419398
000120 8d 5c 07 bf fd d4 06 bf 7b 61 46 be 14 92 cb 3d
       -0.52875596 -0.52668744 -0.19373123 0.099399716
000130 85 fe a1 3e 60 b3 8e 3e 38 4b e2 3e b8 89 09 be
       0.31639495 0.27871227 0.44198012 -0.13431442
000140 5e c0 d2 3e 54 d7 dc 3e e4 cc c4 be 7e 91 d9 3e
       0.4116239 0.43133032 -0.3843757 0.42493814
000150 ea 73 25 be ee 3d e9 3d 35 6f 0d 3f 70 8d aa be
       -0.16157499 0.11388765 0.55247813 -0.33311033
000160 c4 51 e1 3e b5 58 e1 b9 33 7f af 3d cc e6 74 be
       0.44007695 -0.00042981436 0.08569183 -0.23916167
000170 dc 7c 55 be 07 5a 9e bd ff 2c c1 3e e1 d2 fc bd
       -0.20848411 -0.07732015 0.37729642 -0.123449095
000180 ca e7 55 be 57 ef 92 3e 18 da 95 be 26 d9 40 3e
       -0.20889202 0.28698227 -0.29267955 0.18832836
000190 0b 68 e8 3e c4 27 7f be 0c b4 8e 3e 1a de f7 be
       0.45391878 -0.24917513 0.2787174 -0.48411638
0001a0 d8 54 cc 3e ce 0a c2 be d7 04 f2 be 7b e6 87 be
       0.3990848 -0.37898868 -0.47269318 -0.2654303
0001b0 cf 38 ae 3d a3 a4 9b 3e bf cf 82 bd 96 8c 03 bf
       0.08506929 0.30399045 -0.06387281 -0.5138639
0001c0 1e fc 01 bf 0a 6d 05 3e cd f5 02 bf d7 39 0d 3f
       -0.50775325 0.13029876 -0.5115631 0.5516638
0001d0 b6 b7 10 3f 9b a3 0f 3f 0b 94 f2 3e 27 66 37 be
       0.5653032 0.5610902 0.47378573 -0.17910062
0001e0 a1 19 ee bd 3c 84 43 be 1e e8 c5 be fb 00 21 3e
       -0.11625982 -0.19093412 -0.38653654 0.1572303
0001f0 14 b3 94 3e e1 5c c1 be 94 fc 28 3e 7b 4f 67 3e
       0.29042876 -0.37766173 0.16502601 0.22588913

encoder.3.weight f4 [64, 128, 3]
000000 f0 da f7 3c 8b 6f f3 bc 91 ab 64 bd 5b 0e 23 bc
       0.030255765 -0.029716274 -0.05582768 -0.009952153
000010 1e 59 49 3d 27 8b 07 bc ae 23 11 3d d9 22 51 3d
       0.049157254 -0.008272923 0.035434417 0.051058624
000020 f0 78 9d 3b 86 94 09 3d d3 f2 2c 3d e3 39 88 bc
       0.0048056766 0.03358891 0.042223763 -0.016629165
000030 8e 83 36 bd a9 ec 06 3a 19 4e 8a 3c 4b 59 2a bb
       -0.044559054 0.00051469594 0.016882943 -0.0025993164
000040 62 23 bb bc 99 69 13 3b 74 3b 6f bc 37 99 7a bc
       -0.02284402 0.002249336 -0.014601577 -0.015295318
000050 72 ad fa 3a 26 cb cb 3c 9a b6 b9 bc d5 86 d7 3c
       0.0019125177 0.024877142 -0.022670079 0.02630941
000060 fb ab 3e 3c 31 61 71 3d 16 94 c1 ba 73 1b fa bc
       0.011637683 0.05893058 -0.0014768864 -0.030530667
000070 48 99 ec bc 59 a8 95 3a 2a 11 ac 3c df a9 36 bd
       -0.028881684 0.0011417969 0.021004278 -0.044595595
000080 26 9e 8a bb 85 c0 5f 3d 32 df 28 3a 29 01 39 3d
       -0.0042302785 0.05462696 0.000644195 0.045167122
000090 70 d0 2e ba 0f 40 4d 3d 64 3a 70 bc a6 a1 7a 3c
       -0.0006668633 0.05010992 -0.014662359 0.015297329
0000a0 63 45 42 3c cc 29 c3 bc fd ce 26 bd 56 52 37 3d
       0.011857363 -0.023823641 -0.040724743 0.044756256
0000b0 82 1e b1 bc 59 ce c2 3c 91 eb d3 bb 56 76 1b 3c
       -0.021620993 0.023780035 -0.0064672907 0.009488663
0000c0 2f bb 27 bd ac 93 dd bc 90 ec e0 bd 83 e5 2e bd
       -0.040949997 -0.027047954 -0.10982621 -0.04269935
0000d0 0c 19 43 3d b3 1c 98 bc e2 5d 81 ba c5 0a 22 bd
       0.04763131 -0.018568372 -0.0009869898 -0.039561052
0000e0 18 cf 81 3d 91 d1 e5 bb c2 e0 89 3c 6d 86 90 bc
       0.06338328 -0.0070135077 0.016830806 -0.017642224
0000f0 7a c1 84 3c f1 d5 14 3d a5 dd 45 3c 1d 2e 19 bc
       0.016205538 0.036336843 0.01207677 -0.009349373
000100 68 3f b0 bc 3f 08 43 bd ab 41 3a bd 3a 01 51 bd
       -0.02151461 -0.047615286 -0.045472782 -0.05102656
000110 f3 cc 42 bc a0 e4 41 bc b8 cf 09 bd 6a 34 ae 3c
       -0.011889684 -0.011834294 -0.03364536 0.021265227
000120 e0 f6 74 3d 1e 91 77 bd fa 28 91 bd a3 8d 14 bd
       0.05980575 -0.06044113 -0.07087894 -0.036267888
000130 b1 9d 56 bd a5 01 02 bd ac 8b 26 bd 34 49 73 3c
       -0.05239648 -0.03173985 -0.040660545 0.014848996
000140 67 3d 27 3d b6 1d 0f 3d 1e 07 55 bb e0 cf 3a 3d
       0.040830042 0.034940444 -0.0032505463 0.0456084
000150 30 cf d1 3c 13 02 91 3b 8f c2 3d bb 59 5e a5 3b
       0.02561149 0.004425296 -0.0028955077 0.0050466475
000160 c1 a9 bf 3c 81 71 47 bd b6 d3 47 3d 5f 66 06 bd
       0.023396375 -0.04869223 0.048785888 -0.032812472
000170 54 8c 79 3c 0a e8 29 bd f8 33 fd 3c e9 38 42 3d
       0.015231211 -0.041481055 0.03090857 0.047417555
000180 e0 e2 32 3c a4 51 7e bc 49 4d 89 3c 9a a1 8f bc
       0.010918349 -0.015522394 0.016760485 -0.017533112
000190 a4 93 70 3c 52 2e b4 3c 67 cc 3d bc a4 19 10 bd
       0.014683638 0.021994743 -0.011584378 -0.035180703
0001a0 4c e8 0b 3d 04 39 3c bc a1 31 d2 3b 3d 13 bd 3c
       0.034157082 -0.011488203 0.0064146076 0.023080463
0001b0 2e a3 94 3c 27 24 56 bc af 33 59 bd 08 25 10 bd
       0.018144216 -0.013070143 -0.053027805 -0.035191566
0001c0 b8 88 82 3c 5e 27 ed bc 4b 16 25 3c 26 01 90 3a
       0.015934333 -0.028949436 0.010076116 0.001098667
0001d0 e6 ac 4d 3d 5c 6f 6e bd 67 60 ce 3c 56 05 52 3c
       0.050213717 -0.05821167 0.025192453 0.012818655
0001e0 81 99 16 bd c7 a9 3a bd 15 0b 62 bd e8 5b 4e bd
       -0.036767486 -0.04557207 -0.05518635 -0.050380617
0001f0 68 53 4f bd b3 e5 11 bd 27 49 24 3d cf 96 23 bb
       -0.05061665 -0.03561945 0.040108826 -0.0024961715
000200 e3 2f ae 3b 0b b2 b5 bc 70 a1 84 3c 35 47 b6 3c
       0.005315767 -0.022179624 0.01619026 0.022250751
000210 0d 04 7b 3c cc a1 2f bd 9f 13 b6 bd 05 16 ea 3a
       0.01532079 -0.04287891 -0.08890461 0.0017859346
000220 50 6b 32 3d 0a b3 b9 bc b2 50 44 bd 2f 3d af bc
       0.043559372 -0.02266838 -0.04792852 -0.02139148
000230 6b 00 d6 3c df 44 e5 3a 6b 5c c4 bc 86 56 b2 3c
       0.026123246 0.0017491839 -0.02396985 0.021769773
000240 13 be b9 3c e9 8c 00 3c 38 ff 1b 3d 31 8e 09 3d
       0.022673642 0.007846096 0.038085192 0.03358287
000250 b8 d7 29 bd 26 04 03 bd d1 2b 2a 3d f8 8a 3d bd
       -0.04146549 -0.031986378 0.041545693 -0.04627511
000260 88 3e 15 bd 77 73 1c bd ea 28 e2 bc 26 a1 ae bc
       -0.036436588 -0.038196053 -0.0276074 -0.021317076
000270 9d f7 04 3c 17 df 65 3d f9 a8 04 3d 18 c4 c2 bc
       0.008115676 0.05612096 0.032387707 -0.023775145
000280 3c b4 3b 3d b2 00 c6 3c fc b7 77 3d 9b 12 ed ba
       0.04582618 0.024170253 0.060478196 -0.001808721
000290 35 f8 ee 3c 55 67 40 3d de c1 b6 bc b4 1e 0a bd
       0.029171089 0.046973545 -0.02230924 -0.033720687
0002a0 44 70 03 bd 87 87 f7 bc 0d aa 12 3d c7 43 9c bc
       -0.032089487 -0.030215992 0.035806704 -0.019075288
0002b0 58 1f 1b bd 25 54 87 3d 1e bf ce bb 09 b0 13 bc
       -0.03787169 0.06607846 -0.006309404 -0.009014138
0002c0 1d 42 4b 3d 83 dc b3 3c 8f 60 39 bd 54 62 e4 bb
       0.049623597 0.021955734 -0.0452581 -0.0069697294
0002d0 a3 45 c2 bc 64 b8 2f bd a1 61 61 bd 3e c2 65 3b
       -0.023714846 -0.042900458 -0.055024747 0.0035058404
0002e0 22 4e 3c bd e7 db 04 3d a7 aa 22 3d 72 28 b4 bc
       -0.04597295 0.032436278 0.039713528 -0.021991942
0002f0 b6 73 22 3c 51 05 a6 bb 02 4e 16 bd fc 73 98 bc
       0.009915283 -0.0050665517 -0.036695488 -0.018609993
000300 57 69 97 3c 07 5b 2a 3d 71 a3 50 bd 63 11 ef ba
       0.018482847 0.041590717 -0.05093712 -0.0018239435
000310 a1 88 1e bc e8 48 15 3b 75 7e 37 bc 66 db a6 3a
       -0.00967613 0.0022779051 -0.011199583 0.0012730181
000320 df fc 55 3d 8f 57 f9 bc 39 f0 b9 3c ec 42 53 bc
       0.05224311 -0.030437259 0.022697555 -0.012894373
000330 2b ff 4d 3a a5 de 35 3d d5 ee d4 3c 6f 28 12 3d
       0.00078581524 0.044401783 0.02599279 0.03568309
000340 b6 6c 7d bc de d5 9e 3d ae 19 fe 3c a5 ea 01 bd
       -0.015467813 0.07755636 0.031018104 -0.031717915
000350 e7 f6 67 bd 1a be 39 3d 6f 00 33 3c 43 83 ae 3c
       -0.05663195 0.04534731 0.010925396 0.021302825
000360 a6 10 5b bd d6 98 ce 3c 4a b7 da 3c 76 51 da 3c
       -0.053482674 0.025219362 0.026698727 0.026650172
000370 ff 02 d1 bd b8 6c 93 bd f8 95 a9 bd 69 be 49 bc
       -0.102056496 -0.07198471 -0.082805574 -0.012313464
000380 10 2a a3 bd c4 b9 18 bd 83 f3 c4 3c 16 af ce bc
       -0.07967007 -0.037286535 0.024041897 -0.025229972
000390 d7 c4 40 3d f4 43 e8 3c 79 2b 68 3a e6 71 48 3d
       0.04706272 0.028352715 0.00088565756 0.048936747
0003a0 f5 e7 bb bc 19 f7 2c bc b8 f1 d3 3c 04 92 3e bd
       -0.022937754 -0.01055696 0.025872096 -0.04652597
0003b0 e7 26 75 3c 1a 8d 8a 3b 79 05 8e bc 64 03 b2 bc
       0.014962888 0.0042282464 -0.017336594 -0.021730132
0003c0 28 09 ac 3c ff fa 2f bd 3c 11 93 3b 61 a7 2e 3d
       0.02100046 -0.042963978 0.0044881385 0.042640094
0003d0 35 32 54 bd b5 45 0b 3d c5 8f cb 3c a4 68 c3 bc
       -0.051805694 0.034002025 0.024848828 -0.023853607
0003e0 c7 2f cf 3c 4d fa 8d bc f6 3b 1d bd 20 a2 5f 3d
       0.025291337 -0.017331267 -0.03838726 0.054597974
0003f0 93 9b d2 bc 5c f9 ee bc 86 01 04 bd db d5 59 3d
       -0.02570895 -0.029171638 -0.032228015 0.053182464

encoder.3.bias f4 [64]
000000 36 3b 81 bc 10 aa 40 3c 1c 73 34 bd 91 68 d2 bc
       -0.015775304 0.011759296 -0.04405509 -0.025684627
000010 17 07 e2 3c f0 ca c7 3c de 19 1c bd df 2c 3e 3d
       0.027591271 0.02438876 -0.038110606 0.04642951
000020 ac a6 02 3c 7e a7 45 bb 74 4b e8 bc 23 8d 28 bd
       0.007974308 -0.0030159648 -0.028356291 -0.041150223
000030 8b e5 d7 3b 59 31 ac bc 37 80 91 3a ff 10 d4 3c
       0.006588643 -0.021019625 0.0011100833 0.02588701
000040 14 4a 04 3d cd 29 9d 3c 82 cc 04 bd 05 5e 14 bd
       0.03229721 0.019184971 -0.032421596 -0.036222477
000050 9c 97 70 bc 3b 5c 53 3d 17 d7 56 3d 17 c7 25 bd
       -0.014684584 0.05160163 0.05245122 -0.04047307
000060 cb c9 c2 bc 6f 39 43 bd 28 98 3c 3c 90 1d e2 bc
       -0.023777863 -0.047662195 0.011510886 -0.027601987
000070 6c 95 41 3d 26 57 57 3c 33 92 b9 3c 9d 8f 76 3a
       0.04726164 0.013143336 0.022652721 0.00094055553
000080 b4 cb f5 b8 49 ba b5 bb 99 99 fc 3c 31 f7 8d 39
       -0.00011720453 -0.0055458886 0.03083496 0.00027077788
000090 e5 42 e1 3b 4c 8d e6 3c f8 67 42 3c 77 32 63 3d
       0.0068744295 0.028143547 0.011865608 0.05546805
0000a0 a0 0e 25 3d 40 19 27 bc 46 d9 fa 3c 2c 07 6c 3c
       0.04029715 -0.010198891 0.030621182 0.014406007
0000b0 be 8f 08 bd 49 3a 09 bc df 61 c5 bc 68 c3 e0 3c
       -0.03334021 -0.008375713 -0.02409452 0.027436927
0000c0 18 d0 db bc 99 48 28 3c be 12 52 bb dc 25 0e 3d
       -0.026832625 0.010271215 -0.0032054628 0.034704074
0000d0 b9 5f ce 3c 2c 6d 5d 3d 1e af 4a 3d 89 a1 3c b9
       0.025192128 0.054059193 0.04948341 -0.00017989254
0000e0 59 cc fe bc 78 53 cd b9 2d 11 d1 bc db 45 b5 3c
       -0.0311033 -0.00039162836 -0.025520885 0.022128036
0000f0 ce bf 41 bb 24 e9 02 bd 92 32 01 bd 32 6e 16 3d
       -0.0029563787 -0.03196062 -0.03154237 0.036726184

encoder.6.weight f4 [32, 64, 3]
000000 14 55 75 bd a4 43 50 3d d5 ff 71 3d 73 e9 82 ba
       -0.05989559 0.050845757 0.05908187 -0.0009987786
000010 c0 b2 69 3c 9c b0 3e 3c ef ca b6 3c bb ee 92 bc
       0.014263809 0.011638787 0.022313563 -0.017936101
000020 90 97 5b bd b9 e9 f6 3a 8b 1c 08 bd a4 81 d9 bc
       -0.05361134 0.0018837965 -0.033230346 -0.026551075
000030 ac 22 7d bb 57 fd 65 3d 4d 84 82 bc 09 f5 87 3d
       -0.0038625402 0.056149807 -0.015932227 0.066385336
000040 c8 78 7b 3c 90 16 90 bd 75 ce 34 3b 5c 53 62 bd
       0.015348621 -0.070355535 0.0027588878 -0.05525528
000050 bc 66 33 bd 57 25 6f bb dc 22 41 bd c9 39 4d 3d
       -0.043799147 -0.0036490762 -0.047152385 0.050103936
000060 67 e0 b4 3c 85 73 8c bc 62 1e 7a 3d 9c 69 41 3c
       0.02207966 -0.017144928 0.06106413 0.011804964
000070 eb 9a f7 3a 2d 8b ab bd 81 7b 0b 3c d2 6b 90 3d
       0.0018890774 -0.08376155 0.008513332 0.07051815
000080 34 f9 54 bd 76 d8 49 bd db 0d 55 3c e1 70 98 bd
       -0.05199547 -0.0492787 0.013003792 -0.07443405
000090 a6 25 e2 3c df 2f 54 3d 5e 04 a6 bd 61 65 e3 3c
       0.027605843 0.051803466 -0.08106302 0.027758302
0000a0 73 41 13 3d 29 5f 2d bd 83 1a 22 3c 16 a5 71 bc
       0.03595109 -0.04232708 0.009894016 -0.014748832
0000b0 e5 41 b9 bc cc 0a 4b bd ca dd a7 3d 3d 9a 27 bb
       -0.022614429 -0.049570844 0.081966 -0.002557411
0000c0 5a 50 d7 3c 21 de ef b9 67 23 6b bd 47 bd 15 3c
       0.026283432 -0.0004575113 -0.05740681 0.0091393655
0000d0 d4 c1 fa bc c2 c6 e1 bc 6d a7 71 bd f3 61 52 3d
       -0.030610003 -0.027560595 -0.05899756 0.051362943
0000e0 d0 1c a1 bc b0 d0 1c bd fb df 76 3d 56 c4 69 3d
       -0.01966706 -0.038284957 0.0602722 0.057072006
0000f0 cc b2 0f bb e2 77 bd 3c db 7c 19 bc eb ca 61 3d
       -0.002192664 0.023128454 -0.009368147 0.05512516
000100 17 cb c1 bc 14 9e a8 3b 2d 05 8a bd 14 9e 32 bd
       -0.023656411 0.0051457975 -0.067392685 -0.043607786
000110 4a b2 c7 bc 19 c0 3a bd 7e 39 19 bd 55 ac 3c bd
       -0.024377007 -0.045593355 -0.037408344 -0.046062786
000120 32 94 80 3d d6 25 24 3d 42 e9 76 bd 5a 44 89 bd
       0.06278266 0.040075146 -0.060281046 -0.0670249
000130 5f 40 fc bc 50 aa 54 3d af ea 07 3d 5a 74 07 bd
       -0.030792413 0.051920235 0.033182796 -0.033069946
000140 9f 27 7e 3d 19 6a 12 3c 53 a5 77 3d af 81 43 bd
       0.062049504 0.008936428 0.0604604 -0.047731098
000150 04 b3 fb bc 18 2d 57 bd 8e 3c e8 bc 8d be 9e 3c
       -0.03072501 -0.05253324 -0.028349187 0.019377971
000160 66 d2 c4 bd 4d a4 8e bb 8a 89 b2 bc a3 49 29 bd
       -0.09610443 -0.0043530823 -0.0217941 -0.04132999
000170 ae e4 65 3c c0 9f f3 3b 54 dc 28 3d 10 40 6b bc
       0.014031572 0.007434815 0.041225746 -0.014358535
000180 1d 23 56 3c bd b1 a5 bc 4c 89 61 bd b5 4b 4d 3d
       0.013069895 -0.020226354 -0.055062577 0.050121028
000190 22 ef 36 bd 6d da c6 bd 54 e1 93 bd fe 7c 25 3c
       -0.04466165 -0.0970963 -0.07220712 0.010100601
0001a0 a9 16 2c 3d 30 71 83 3d 04 28 9e 3c 27 9b b6 ba
       0.042013798 0.06418073 0.01930619 -0.0013931737
0001b0 26 59 49 bd 5e db ca 3c 3f 96 37 3c 3a 9d 95 bc
       -0.049157284 0.024762806 0.011205255 -0.018263448
0001c0 2b 4b c3 3c fc 27 7a ba ae 9d a8 bc bf 04 39 3b
       0.023839554 -0.00095427013 -0.020583 0.0028231589
0001d0 99 4e e4 3b a0 14 b9 3c ac 8b 0f 3d 56 d4 8b 3d
       0.0069673774 0.022592843 0.03504531 0.06827609
0001e0 9e b7 38 bd b4 f2 96 3d 6f c9 1e 39 ad b7 8d 3b
       -0.045096986 0.07370511 0.00015143094 0.0043248744
0001f0 5e 9d 07 3d 38 47 01 bc 4e 11 a8 bb b9 84 ba 3c
       0.03310906 -0.007890515 -0.005129016 0.022768365
000200 a0 1f 81 3c fb d6 68 bd af df 86 3d fa 2f 16 bd
       0.01576215 -0.056845646 0.06585633 -0.036666848
000210 37 e1 85 3c 2a 62 b9 bd ab 0e 42 bc 38 d9 ea bc
       0.016342742 -0.090519264 -0.011844317 -0.028668031
000220 a0 69 a0 bd aa 4d 44 bd db 0e a1 bb db 4b 4a 3d
       -0.07832646 -0.04792563 -0.004915101 0.049388748
000230 c4 9b ee 3c 60 f3 b5 3c f7 c9 d9 bd 72 73 4e bd
       0.02912701 0.022210777 -0.10634225 -0.050403066
000240 76 b8 a5 bd d0 da 0a 3c 61 d4 6c bd df c2 2c 3d
       -0.08091824 0.0084750205 -0.057819728 0.04217803
000250 06 94 9a bc f9 91 86 3d 74 86 25 3d 8d 63 c2 3c
       -0.018869411 0.06570811 0.040411428 0.02372911
000260 15 31 a7 3b a3 6b 79 3c d3 9e 1b 3d a0 3c d8 bb
       0.0051022866 0.0152234165 0.037993263 -0.006599024
000270 dc 61 87 3d d6 80 ab bd e3 bf c0 3d 01 48 58 3b
       0.06610462 -0.08374183 0.094115995 0.0033001902
000280 7e 18 8b bc 0d 7d 25 bd b3 2f 8e 3a f2 6b 19 3c
       -0.016979452 -0.04040246 0.0010847956 0.009364115
000290 db b8 2a bd 51 c5 8b 3d 5f 39 23 bd 6e 91 0e 3d
       -0.0416802 0.068247445 -0.039849635 0.03480666
0002a0 5d 6b 87 3a b7 98 84 bd f1 ee 41 bd a2 30 06 3e
       0.0010331679 -0.064744405 -0.047347013 0.1310449
0002b0 aa 6e d9 3c b8 86 98 3d 8a bd b2 bc 50 de eb 3c
       0.026542027 0.074475706 -0.021818895 0.02879253
0002c0 7f ec 66 3b 80 d4 8c 3d 5a 51 23 bc 8c d6 aa 3d
       0.0035236178 0.06876469 -0.009968126 0.08341703
0002d0 53 49 9c 3d bf ca 4b bd 78 07 85 bd d1 ab 18 bd
       0.07631173 -0.0497539 -0.06495565 -0.037273232
0002e0 18 79 25 3c f5 58 0c bd 8b 45 c3 bc 7c 62 59 bd
       0.010099672 -0.034264524 -0.023836872 -0.053072438
0002f0 d8 95 72 bd 50 02 51 3c 5d 28 17 bc 0e 76 5e 3c
       -0.059224933 0.012756899 -0.009225932 0.013577951
000300 70 07 06 3b 87 ab ea bc d2 fa ba bd ea 94 76 bd
       0.002045121 -0.028646244 -0.091298714 -0.06020061
000310 5b 45 0a bc ab 34 ff bc 02 74 59 3d 51 7b 2e bd
       -0.008439387 -0.031153044 0.05308915 -0.042598072
000320 98 66 8a 3c ce 01 98 3d a3 bd 91 bc c2 85 21 3d
       0.016894624 0.07422219 -0.017790621 0.039434202
000330 cf a7 05 bd 84 3b 92 bb 82 1e c4 bc 68 9f ea 39
       -0.032630738 -0.004462661 -0.023940329 0.00044750725
000340 5a 75 26 3d 03 c1 a9 3c 17 25 70 bc 82 1d 50 bc
       0.04063926 0.020721918 -0.01465728 -0.012702348
000350 94 65 84 bd 37 bd c8 3d 66 e4 f6 3d 80 4c 9f 3b
       -0.06464687 0.09801715 0.12055282 0.0048614144
000360 1c 0a 14 bd 39 3c 25 bd 18 a9 53 3c 56 81 0c bd
       -0.036142454 -0.040340636 0.012918733 -0.03430303
000370 00 44 5d bd bc f5 01 bd 36 04 da 3c d8 e6 48 bd
       -0.054019928 -0.03172849 0.026613336 -0.049048275
000380 57 9c 48 bd 44 e4 f0 3c a4 33 53 bc 2b b8 f0 bc
       -0.048977222 0.02940572 -0.01289073 -0.029384693
000390 af 99 59 bd cc d3 36 bc b0 85 05 3d 26 90 9a bd
       -0.05312508 -0.011158895 0.032598197 -0.075470254
0003a0 02 d1 95 3d 0f 61 35 3d 46 e7 b5 bc 2a 5c 27 3d
       0.07315256 0.044282015 -0.022205006 0.04085938
0003b0 6d b2 4c bd fe fc fc bc c6 37 e4 bc d9 4d c2 bc
       -0.049974848 -0.030882355 -0.027858626 -0.023718761
0003c0 86 6e 6d 3b f1 74 45 3d 8b 08 49 bd 7a fd f6 3c
       0.0036229207 0.048207227 -0.049080413 0.030150164
0003d0 6e 43 13 3d 60 f1 a7 3d 66 d6 5e 3d e5 2f 0b 3d
       0.035952978 0.082003355 0.054403685 0.033981223
0003e0 a3 fa 2c 3d 6b c7 3a bc 77 13 0e bd 2f cb d9 3c
       0.042231213 -0.011400084 -0.034686532 0.026586143
0003f0 1c 85 d4 3a fe 9d 54 bc 75 68 03 bd 78 13 0a 3e
       0.0016213986 -0.012977121 -0.03208204 0.13483989

encoder.6.bias f4 [32]
000000 9f 37 0d bd 24 fe 70 3c 06 26 7e 3d a0 ad 61 bd
       -0.034476873 0.014709029 0.06204798 -0.055097222
000010 b0 3a 54 bd 7c 46 c4 bc cb 7f 53 3d 4e 82 44 bd
       -0.05181378 -0.02395939 0.051635545 -0.04797583
000020 67 0f 3f 3d 4d 66 70 3d 04 41 27 bc f7 02 87 3d
       0.04664555 0.05869131 -0.010208372 0.065923624
000030 c4 59 c4 3c 0a 06 59 3d b5 6b b8 3c 4f 8e 4e bd
       0.023968585 0.052984275 0.022512296 -0.050428685
000040 80 73 9e bd c1 5a 54 3c 56 6b 1a bd e9 cc 54 bd
       -0.077368736 0.012961091 -0.03770002 -0.05195323
000050 25 2e 97 3d bb 8b 76 3c 0d e4 4f bd d6 73 c3 3b
       0.07381848 0.015047963 -0.050754596 0.0059647365
000060 67 33 b4 3b 58 e1 58 3d 63 86 7a bd cb 10 26 3d
       0.0054992917 0.05294928 -0.061163317 0.04054336
000070 30 65 91 3b fa 70 33 3d 74 a8 99 3a e6 c6 2a 3d
       0.0044371113 0.043808915 0.0011723177 0.04169359

decoder.0.weight f4 [32, 64, 4]
000000 12 e5 85 3c e1 a0 ce 3c 45 bc b7 bd 56 79 12 3d
       0.01634458 0.025223197 -0.089714564 0.035760246
000010 59 ba 4b 3c aa aa b7 3c ae 63 5a 3d f5 fe 43 3d
       0.012434565 0.022420246 0.05331772 0.047850568
000020 07 f8 7a 3b c2 90 51 bc cb c9 a6 3c 11 8c 9e bd
       0.0038294808 -0.012790861 0.020359894 -0.07741559
000030 e3 65 73 bc 95 3c ac bd 7e a0 bb bc 60 1e 21 bb
       -0.014855835 -0.084099926 -0.022903677 -0.0024584755
000040 7e 81 8d 3c d7 51 5d bd 0d 06 03 bc 97 21 dd bc
       0.01727366 -0.054033127 -0.007997048 -0.026993556
000050 13 8e b1 3c 4e 16 d7 3b 68 98 81 bd 25 a2 c2 3c
       0.021674192 0.006563938 -0.06327897 0.023758957
000060 b5 71 59 3b 82 02 fa bc 7c 3b 87 bd ae 7f e7 bd
       0.0033179347 -0.030518774 -0.066031426 -0.1130365
000070 44 f8 81 3d 18 97 b4 3c e7 94 9a 3a 59 9d 24 39
       0.06346181 0.022044703 0.0011793644 0.00015698875
000080 7e 00 f4 3c e3 84 b0 bd 93 89 1e bd ab 8c 9d bc
       0.029785391 -0.08619096 -0.03870542 -0.019232115
000090 d5 6a a2 3c d1 2b 7d 3b 34 a2 4a 3d 0b 69 86 3c
       0.019826332 0.0038630853 0.049471095 0.01640751
0000a0 f6 f1 11 3d fc 49 48 3d ac 11 6d bd a9 bc 72 bd
       0.035631143 0.048898682 -0.05787818 -0.05926195
0000b0 c8 d1 87 3c b8 8c 6d bc 0b db 4b 3d d7 cc 31 bc
       0.016579524 -0.014498882 0.049769443 -0.01085206
0000c0 b8 a3 0d bd 2a 9f b9 bc 36 80 0a bc 92 fe 30 bd
       -0.034579962 -0.022658903 -0.008453419 -0.043211527
0000d0 87 9e 89 bc 4e 1b 01 3d ad e7 5c bd 27 58 76 bd
       -0.016799225 0.03152018 -0.05393188 -0.060142662
0000e0 ce b4 54 bd 62 7e 14 ba 63 d4 25 bd a2 3c f6 3c
       -0.05193024 -0.00056645845 -0.04048575 0.030058209
0000f0 5a 9b 3a bd 0f d1 f9 3c f7 81 b0 39 fa 28 83 3c
       -0.04555831 0.030495195 0.00033666167 0.01601075
000100 7c 07 bd bd c6 57 b6 bc 7c 0c ca 3c 46 5f d9 bd
       -0.09229943 -0.02225865 0.024664156 -0.10613875
000110 0e 3a ed 3c a5 0b 3b 3d cd b9 af 3c e6 13 41 3d
       0.028958347 0.045665402 0.021450901 0.047138117
000120 ab f2 93 3d 60 66 8b 3c ee 52 53 3d a5 8e 0e bc
       0.072240196 0.01701659 0.05159276 -0.008701001
000130 0d ef e8 3c 4d 94 91 bc 80 e8 9e 3b 9f 32 cd bc
       0.0284343 -0.01777091 0.0048494935 -0.025048552
000140 a6 c5 98 3c c6 df 22 3c 89 dd ea bc 2d 01 48 bd
       0.018648934 0.009941047 -0.02867009 -0.048829246
000150 45 bb 8c 3c 0f a4 51 bc 89 a6 d9 bb 6b 17 09 3d
       0.01717914 -0.012795462 -0.006642167 0.0334696
000160 ba 16 18 bd 2a e9 54 3d ac 31 4d bc af 8e 3e bb
       -0.03713105 0.051980175 -0.01252405 -0.0029076745
000170 ed 76 d9 bc c0 d3 83 bc 00 9a 28 3d 39 63 be 3b
       -0.026545966 -0.016092181 0.04116249 0.005810168
000180 74 f5 e7 bc 62 1b ec 3c c0 d4 ee 3c 68 f9 5c bd
       -0.028315283 0.02882165 0.029154181 -0.05394879
000190 c5 2b f3 bc 42 7e cd bb 72 ce 3c 3c bd ef c4 3c
       -0.029683957 -0.0062711546 0.01152383 0.024040097
0001a0 59 7d f8 3c 01 a2 80 bb 44 ec db 3c 13 67 30 bd
       0.030333208 -0.0039255624 0.026846059 -0.04306705
0001b0 99 ad c0 bc d1 65 6a 3d 9a e2 17 bd 19 76 2e 3d
       -0.023520278 0.057226006 -0.03708134 0.042593095
0001c0 11 84 3a bd 2a e6 73 3c e0 4f 0c 3d 4d 76 94 bd
       -0.045536105 0.014886418 0.034255862 -0.072491266
0001d0 0a 35 0a 3c 4c 71 6a 3c a3 0d 88 bd ef ec 48 bd
       0.008435497 0.014309239 -0.06643226 -0.049054082
0001e0 ca 63 1e bd 30 04 c4 3c 2c 71 36 bd 0b 9c 36 3d
       -0.038669385 0.023927778 -0.044541523 0.044582408
0001f0 5b 45 02 bc f8 66 11 bb 28 93 79 bd e8 ec cf 3c
       -0.007951106 -0.0022186618 -0.060931355 0.02538152
000200 ae 3f 33 bd 7e 20 18 bd 5e 98 b3 bb d8 bc ac bc
       -0.0437619 -0.037140362 -0.00548081 -0.021086141
000210 42 b4 1e 3d e2 1f a3 bc 07 be 81 bc e4 02 60 bd
       0.038746126 -0.019912664 -0.015837682 -0.054690257
000220 30 17 38 bd b1 81 83 bd 82 5e 30 3d 26 2d 5b bd
       -0.04494399 -0.06421221 0.04305888 -0.053509854
000230 5b ae 67 bd 7b 64 45 bd ad c5 3d bd 0d 44 19 3d
       -0.056562763 -0.04819153 -0.046331096 0.037418414
000240 49 60 e1 3b 29 86 6a 3c 87 fe 25 bc a1 4f 00 bd
       0.006877933 0.014314213 -0.010131485 -0.03132594
000250 20 71 4c 3d 70 e1 d0 3c cc 30 8c bc c1 66 68 3d
       0.049912572 0.025498122 -0.017113112 0.05673862
000260 96 90 b2 3c 82 f1 dc bc 48 1a cc bb 6c 03 89 bc
       0.02179746 -0.026970629 -0.006228719 -0.016725264
000270 4c eb 2b 3d 89 0b e0 ba bb f1 6a bd ce 9f 23 3d
       0.041972443 -0.0017093281 -0.05735944 0.039947324
000280 6d 5e 54 3d 83 0f 92 bc fb a1 7f bd ae 45 7a bd
       0.051847864 -0.017829662 -0.062410336 -0.061101608
000290 47 e2 15 bc 62 62 00 3d ae 41 8a bd 27 44 25 3d
       -0.009148187 0.031343825 -0.06750809 0.0403482
0002a0 74 08 c4 3c 81 b3 9b bc d4 90 e5 3c 33 5b 8b 3d
       0.023929812 -0.019006493 0.028023161 0.06804504
0002b0 77 46 b8 b9 26 26 0d bd 58 a0 eb bc 28 ec 2a bd
       -0.00035147715 -0.03446021 -0.028762981 -0.041729122
0002c0 f0 76 07 bd fa ef 65 3c ed 69 76 3d 78 48 18 bd
       -0.033072412 0.014034266 0.060159612 -0.037178487
0002d0 2b f2 2b bd 5a 62 e1 bc 8b 7d 21 3d f6 ce 11 3d
       -0.041978996 -0.027512718 0.039426368 0.035597764
0002e0 d0 6f d2 bb 00 35 6f 3b 9b 2a 77 bd bf 4f 6a bd
       -0.0064220205 0.0036500096 -0.060343366 -0.057204958
0002f0 44 c2 9e 3d 79 ca 37 3d eb f5 e1 3c 3c c0 03 3d
       0.07751897 0.044870827 0.027583083 0.03216575
000300 d7 2c 29 39 9a a0 cb 3c 9f ef 8e 3d 32 61 1c bc
       0.000161338 0.024856854 0.06979298 -0.009544658
000310 13 0f fb 39 5e fe ce bd 6e 05 1c 3d b6 fa 6a 3d
       0.00047885682 -0.101071104 0.038091116 0.057368003
000320 5e 68 2b bd 09 1b 01 bd c4 d0 b4 bc 05 e0 2d 3d
       -0.04184758 -0.031519923 -0.022072203 0.04244997
000330 58 d3 78 3b 98 f1 40 bd 09 23 23 3d 22 99 5b bd
       0.0037967768 -0.0471054 0.039828334 -0.053612836
000340 68 8c 14 3d 47 80 13 3d 63 0f 84 bc ea 14 41 3c
       0.036266714 0.036011007 -0.016120618 0.011784771
000350 8a cf 0e bd e6 c4 fa 3c c6 76 57 bd 27 91 56 3c
       -0.034865893 0.030611467 -0.052603506 0.01309613
000360 95 08 b4 3c 33 9d 26 3d 95 d9 b1 bc 1d 41 7f bb
       0.021976748 0.04067726 -0.021710197 -0.0038948723
000370 b1 f2 f8 bc 14 6a 14 3d 73 04 19 3d 1e c7 45 bd
       -0.030389162 0.036233976 0.03735776 -0.048285596
000380 6b 27 86 bc 87 ac 34 bd 20 f2 cf ba c2 f1 ce 3c
       -0.016376218 -0.044109847 -0.0015865006 0.025261763
000390 91 88 98 bd a5 89 02 bb 29 e6 46 bd f0 da a9 3c
       -0.07447923 -0.0019918468 -0.04855934 0.02073428
0003a0 16 29 e1 bc 35 18 0d 3d 4b a3 80 bd ff 71 c9 bc
       -0.027485412 0.034446914 -0.06281146 -0.02459049
0003b0 cd 7d ac bc dc c4 01 bd 09 a4 cf bc cd 23 07 bd
       -0.02105608 -0.03168188 -0.025346773 -0.032993127
0003c0 c7 83 12 3d fd 4f 49 bd 03 f8 a8 3c 23 2a 69 3d
       0.035770204 -0.04914855 0.020626074 0.05692495
0003d0 66 93 aa bd 1a f4 1c 3d bc 3e 65 3d 09 fb 16 bd
       -0.08328895 0.03831873 0.05596803 -0.0368605
0003e0 a2 0a f1 bb ec 23 81 3d b6 d1 a6 bb 1c 99 de 3c
       -0.007356004 0.0630568 -0.0050909175 0.027172618
0003f0 09 d9 e6 bb 20 ea f0 bb 80 e8 a5 bc 60 cd 44 bc
       -0.0070449156 -0.0073521286 -0.020252466 -0.012011856

decoder.0.bias f4 [64]
000000 1e bb 87 3b 3e a5 c3 bc 33 dc 32 3c 6e ef 45 bc
       0.004142179 -0.023882505 0.010916757 -0.01208101
000010 cb 1a 9a 3b d5 85 4a 3b 92 35 59 3d df 90 33 3d
       0.004702901 0.0030902524 0.053029604 0.04383933
000020 ba 9b a6 bc 20 e3 91 3c bb bc 9f 3c a6 9b 4e bd
       -0.020337928 0.017808497 0.019499173 -0.050441407
000030 9d ba 35 3d b5 24 5c 3d 9e 04 b3 3c 18 0f ce 3c
       0.04436742 0.053745944 0.021852788 0.025153682
000040 54 05 fe 3c be f2 53 bc a2 d9 10 bc 19 62 ac bc
       0.0310084 -0.012936292 -0.00884095 -0.02104287
000050 5b c0 29 3b 96 ef 1a bd 71 af 2e 3b f6 d0 aa bb
       0.0025902006 -0.037826143 0.0026654864 -0.0052128984
000060 4c d5 20 bc da 82 1a bd 7f 7f 24 bd 26 56 4f bd
       -0.009816479 -0.037722446 -0.040160652 -0.050619267
000070 c0 00 9c 3c 4e c4 ac bc 59 a2 5c bc fe d7 cf bc
       0.019043326 -0.0210897 -0.013466441 -0.025371548
000080 1b 81 f8 bc a8 99 7b 3b 13 dd 52 3d 4d a8 91 bc
       -0.030335 0.0038391147 0.051480364 -0.017780447
000090 90 c2 01 bd d8 70 60 bd 7a 79 8d 3c 40 9e 75 bc
       -0.03167969 -0.054795116 0.017269839 -0.014991343
0000a0 22 4a 5b 3c b7 21 51 3d 58 c2 28 3d ec 53 c5 bc
       0.013384374 0.051057544 0.041200966 -0.024087869
0000b0 92 f7 53 3d 4b 18 03 bd 02 97 0c 3b 98 79 66 3d
       0.051749773 -0.03200559 0.0021452312 0.056268305
0000c0 9d 59 42 3c 4e bb e9 3c ee e4 e5 3c cc 0e d0 bc
       0.011862186 0.028531697 0.028063264 -0.02539768
0000d0 ab 50 d2 3b ea ea 45 3c ff 98 e5 3c 45 37 9a bb
       0.006418308 0.012079934 0.028027056 -0.0047062957
0000e0 f4 5c 88 bc 2b db 06 3d 8c f7 40 3d fd 25 27 bd
       -0.016645886 0.03292386 0.04711108 -0.040807713
0000f0 a8 73 a5 bb 8b c2 42 bd c3 8a 55 3c 19 e8 1a bd
       -0.0050491877 -0.047548812 0.013033572 -0.037819

decoder.2.weight f4 [64, 128, 4]
000000 8f 0b d1 bc 0b 5c 4f bd 2c c4 6c bc 70 37 c4 bc
       -0.025518207 -0.05062489 -0.014451068 -0.023952216
000010 7a 12 3e bd 6b 43 23 3c 90 d4 c0 3a 1d da a0 3b
       -0.04640434 0.009964804 0.0014711786 0.0049088136
000020 52 d3 50 bd 72 46 99 bc 3a d9 ae 3c 8f be 26 bd
       -0.05098278 -0.018710349 0.021343816 -0.040709075
000030 d6 ca cc bc b1 8d 1a 3c 64 bb 22 39 e3 b6 4d 3d
       -0.024999063 0.009433196 0.00015519332 0.050223242
000040 57 04 21 3c 7f fa 6a bd 7b d6 28 bd e6 a2 a0 bc
       0.009827695 -0.057367798 -0.04122017 -0.019608926
000050 5a dd 19 3c a1 68 13 3d ab 53 bb bb 06 dc cb bb
       0.009391153 0.035988454 -0.005716761 -0.006221297
000060 b1 88 9b 3c 8e b5 cd 3c 02 d1 56 bc fe 26 8f 3c
       0.018986078 0.025110986 -0.013111355 0.017474648
000070 2a d8 2d bd ed ed 6f bd 3d 97 20 3c 5f 2a 9f bc
       -0.04244248 -0.058576513 0.009801683 -0.019429384
000080 07 6b ba bc a7 e7 23 3d da 11 e9 bc 48 14 06 bd
       -0.022756113 0.040015843 -0.028450895 -0.032734185
000090 b0 87 7c bc ec dc da 3b 3d 7a a6 bb 8c d2 0a 3c
       -0.01541321 0.006679168 -0.00508049 0.00847305
0000a0 97 72 12 3b c1 51 6b bc e0 3e b0 bc 62 a4 35 3d
       0.0022346133 -0.014362753 -0.021514356 0.04434622
0000b0 02 a0 5f bd 98 b1 fb 3a dc da 3b bd dc fa 4a bc
       -0.054595955 0.0019202707 -0.045863017 -0.012388911
0000c0 65 21 1a bd ee 46 6c 3c a3 67 ca bc a9 4c 9b b9
       -0.037629504 0.014421208 -0.024707621 -0.0002962102
0000d0 c1 a0 ec bc 0c 7c d9 3c 74 2b ea 3c 9f d8 8d bc
       -0.028885247 0.026548408 0.028585173 -0.017315207
0000e0 2e 40 0d bd 14 fd 67 bc e0 ba 3e bd 9d af d4 3c
       -0.034485035 -0.01415946 -0.046564937 0.025962645
0000f0 6f e4 d4 3b 50 ff fe 3c 08 de 29 bd 23 37 78 bd
       0.006496958 0.031127602 -0.04147151 -0.060599457
000100 8d 62 b6 ba e9 42 36 bd e3 d1 10 3d 09 34 af 3c
       -0.0013914868 -0.044497404 0.035356414 0.021387117
000110 28 f9 87 bc 15 5d 80 bc 6a 4a c3 3c 3f 1c 70 3c
       -0.0165983 -0.015669385 0.023839194 0.014655172
000120 05 ac 11 3d d7 84 1b bc 05 de 53 3d 35 42 46 ba
       0.03556444 -0.009492121 0.051725406 -0.0007562966
000130 02 e0 02 3c 60 4a ac bb 1d 78 17 bd 0b 13 c7 bc
       0.007987978 -0.0052578896 -0.036979783 -0.024301073
000140 52 03 be 3c fe 95 fa 3c 7a 96 00 3c 99 74 0a 3d
       0.023194943 0.0305891 0.007848376 0.033802602
000150 d4 b4 24 bc a9 08 2d bc 34 d6 0c 3d da 6b 74 3c
       -0.010052878 -0.010561147 0.034383968 0.014918292
000160 43 09 e5 bc 86 b6 bf 3c 35 02 cd bb 48 ea e1 3c
       -0.027958518 0.023402464 -0.0062563666 0.027577534
000170 2e f2 e8 bb b0 ab 72 bc d2 1f 7b 3c 6b ba ca bc
       -0.007108948 -0.014811441 0.015327411 -0.024747094
000180 30 b3 c3 3c 4b 22 1a bd 5a 55 22 3d 7d e2 c6 bb
       0.023889154 -0.03763036 0.03963218 -0.00606948
000190 43 64 9e 3c 88 f3 29 bc 41 9c a0 3c 1d 22 9f 3b
       0.019334918 -0.010373004 0.019605758 0.0048563615
0001a0 96 b9 07 bd 92 99 f8 bb fc c4 e2 3c 97 3a b0 bc
       -0.033135973 -0.0075866664 0.02768182 -0.021512313
0001b0 a8 b6 81 3b 46 46 9b bc bf c0 e2 bc 9b ed 4e bc
       0.003958542 -0.018954407 -0.0276798 -0.012629892
0001c0 2a 5d 3b bc 6c 90 2d bd 7f 1e be 3a 34 13 0f bc
       -0.011435786 -0.04237406 0.0014504938 -0.008732606
0001d0 a1 0d e2 bc d8 d1 79 3d 81 19 26 3c 51 b4 40 3d
       -0.02759439 0.06099114 0.010137917 0.047046963
0001e0 7e 94 0c bd 07 f3 05 3d b8 f9 67 3d 77 ab 5b 3c
       -0.0343213 0.032702472 0.056634635 0.01340758
0001f0 18 b6 75 bc 89 60 76 3c b0 7f 9f bc 11 9f e1 bc
       -0.014997028 0.015037664 -0.019470066 -0.02754167
000200 c9 5c 00 bd 02 19 62 ba e2 71 a3 bc a3 b9 49 bd
       -0.031338487 -0.0008624942 -0.019951764 -0.049249303
000210 25 5a 1a bc db 0c 0f bd bb 19 9e bc 6d eb 4c bd
       -0.009420906 -0.03492437 -0.019299379 -0.050029207
000220 d5 c0 95 bc e5 c1 81 bc 99 f3 db 3c ef e6 4c bd
       -0.018280426 -0.015839526 0.026849555 -0.050024923
000230 95 77 01 3d c4 d0 0f 3d f0 a5 10 bc 2b 76 30 3c
       0.031608183 0.035111204 -0.008828625 0.010770361
000240 67 2c fc bc ba c6 1e 3d 18 63 4b 3c 8e 9c f3 3c
       -0.030782891 0.03876374 0.0124137625 0.029737737
000250 25 52 d5 bc bd 49 95 bd 69 1a e3 bc 70 85 97 bc
       -0.026040146 -0.07289455 -0.027722554 -0.018496245
000260 36 1e 06 bd 9f 29 e2 bc e6 79 4d 3c e0 f1 a1 bc
       -0.032743655 -0.027607737 0.01254127 -0.019768655
000270 0d a3 e1 ba e5 c6 ea b8 cf 64 57 3c 98 b7 9e 3c
       -0.0017214731 -0.000111950365 0.013146593 0.019374654
000280 1d e6 a9 3c f9 34 14 3d 51 0c fe bc 10 1a 6e bc
       0.02073961 0.03618333 -0.031011732 -0.014532581
000290 a6 44 81 3c ac 3d 8e bc 0e 98 f6 ba 38 e3 08 3d
       0.015779804 -0.017363392 -0.0018813626 0.033419818
0002a0 d9 bc 9a bc 11 f3 97 3c 5c f7 b8 bc c2 d6 88 3c
       -0.018888878 0.01854852 -0.022578888 0.016703967
0002b0 df 98 94 bc 09 17 c3 3b cd e2 24 bd b4 5f 48 bd
       -0.0181393 0.0059536737 -0.040255357 -0.048919395
0002c0 fa 88 eb 3b 63 5f 65 3d 20 c9 44 bb ed 1f 25 3d
       0.0071879597 0.05599917 -0.0030027106 0.04031365
0002d0 6c b9 4f bb 87 9e e3 3c 1e 50 cd 3c d7 ab d1 3c
       -0.0031696213 0.027785553 0.025062617 0.025594635
0002e0 fb 7c a0 3c 71 37 83 bc ef 28 d6 bc 9b 00 4d bb
       0.019590845 -0.016017647 -0.026142566 -0.0031280878
0002f0 41 ee ad bc 18 f0 5d bd 4d 97 1d bd e5 7c 01 bd
       -0.021231772 -0.05418405 -0.03847437 -0.03161325
000300 92 fe ba bc 8f 7e 4c 3a 5c 76 af 3b 7b 2a 6a 3a
       -0.022826467 0.0007800841 0.0053546857 0.00089327217
000310 68 12 f7 3a 73 c7 fd bc 77 29 c9 bc 0f 3a bd bc
       0.001885009 -0.030978894 -0.024555905 -0.023098974
000320 00 59 03 bd 3d 95 2c 3c 72 35 49 3d d6 4c d6 3c
       -0.0320673 0.010533628 0.049123235 0.026159685
000330 1b b7 53 3d 47 1a 7d 3d 9a 94 0f 3d fc e5 b3 3a
       0.051688295 0.06179264 0.035053827 0.0013725157
000340 cf f1 6c 3d 40 4e 94 3b a5 0e 70 3b 38 c2 af 3c
       0.057847794 0.0045259297 0.0036629823 0.021454915
000350 16 50 a4 ba 2e 7d ee bc 1e 58 5f bc c5 c8 0f 3d
       -0.0012536075 -0.029112425 -0.013631849 0.035103578
000360 72 f3 4d bc 2e 99 da 3b b1 6a ac 3c cf d0 c6 3b
       -0.012570249 0.0066710925 0.021046968 0.0060673724
000370 10 89 7f 3d 52 46 bc bc 21 f8 a4 3c 9c 90 1c bd
       0.062386572 -0.02298275 0.020137848 -0.038223848
000380 69 7e 56 3d 1c 48 c2 3c bb 1d 85 3b eb 45 0b bd
       0.052366648 0.023716025 0.004062382 -0.034002226
000390 77 45 31 3d e0 9b 4f bd a1 ea 9a 3c b3 f3 5a bd
       0.043279137 -0.050685763 0.018910708 -0.053455066
0003a0 81 62 4e ba 03 d4 cd 39 8d 1a 08 bc 3c 5a 23 bc
       -0.00078729546 0.00039258608 -0.008307111 -0.009970244
0003b0 0d 08 51 bc 0b c9 1c 3d 97 1b 23 3d 7d 7b 23 3c
       -0.012758267 0.038277667 0.039821234 0.009978172
0003c0 5d 1a ec 3a eb b3 9d 3b b6 5f 32 3d d3 8c 0b bd
       0.0018013228 0.0048127077 0.04354831 -0.034069847
0003d0 22 27 eb bc 1e 40 e2 3c a7 9c 2e bd 09 7a 01 bb
       -0.028705183 0.027618464 -0.042629864 -0.0019756577
0003e0 fb ee 94 3c 63 c4 2d 3d 0d dc da 3c e4 2a be bc
       0.018180361 0.042423617 0.026716257 -0.023213811
0003f0 ef 8f 53 3d 8d 74 cd 3b 8f 01 fd 3c d3 84 09 bc
       0.051650938 0.0062699975 0.030884532 -0.008393484

decoder.2.bias f4 [128]
000000 2c 41 8c bb 18 c7 93 38 67 a0 f0 bc 84 45 e1 b9
       -0.00428023 7.04659e-05 -0.02937336 -0.00042967137
000010 60 ed 01 3d e6 20 7e bc a5 d0 c4 3c af ef d5 3c
       0.03172052 -0.015510773 0.02402527 0.026115267
000020 ce 51 69 bc ac 7c 12 3d fe 38 67 3c 2f 59 12 3d
       -0.014240695 0.035763428 0.014112709 0.035729583
000030 e0 71 d3 3a 66 ee cb bc 1d 96 5b bb 41 84 fe 3b
       0.001613196 -0.02489395 -0.0033506223 0.0077672307
000040 90 78 07 bd 10 98 f7 3c a5 c9 2e 3c 46 dc 9c 3c
       -0.03307396 0.030223876 0.010668193 0.019148003
000050 65 0c 7f 3c 2e 76 dc 3c e8 ae b3 3c 6c c1 cf bc
       0.01556692 0.026911821 0.021933988 -0.025360785
000060 92 80 3f bd 25 c1 67 bc 2f 12 29 3d 6e 91 08 3c
       -0.046753474 -0.01414517 0.041277107 0.008335454
000070 01 96 27 bd d9 bd 0d bd 47 ef cb bb 4f 07 91 3c
       -0.04091454 -0.03460488 -0.0062235924 0.01770368
000080 9b 64 e8 3b 6c 6e 52 ba dc 13 c7 3c 80 0f fd 3c
       0.007092071 -0.00080273184 0.024301462 0.03089118
000090 dc 39 63 3c cc c1 d8 3c 50 29 6c bc 40 37 c1 ba
       0.013868775 0.026459597 -0.014414147 -0.0014741197
0000a0 20 f4 ec bb 55 44 37 3c 06 61 f7 3c 3d 88 f8 bc
       -0.0072312504 0.011185725 0.030197632 -0.030338401
0000b0 2e 9b ba bc ec 7b d4 39 37 96 e7 3c 7b 1f ec 3c
       -0.022779074 0.0004052812 0.02826987 0.028823605
0000c0 3e 0e bc bb 42 45 fa 3b 0f f8 14 3d 49 ff 27 3a
       -0.0057390025 0.0076376507 0.03636938 0.0006408585
0000d0 61 a1 77 bc 70 1a 8d 3c 2b 2f 73 3c 54 23 78 bc
       -0.015114159 0.01722452 0.014842789 -0.015145142
0000e0 bd aa 09 3d 15 d9 83 bc c7 97 c6 3c d6 85 af 3b
       0.033610094 -0.016094724 0.024242295 0.0053565307
0000f0 26 ff d9 bc b9 f0 49 3d 63 16 03 3d 8c 4f a9 bb
       -0.026610922 0.049301837 0.03200377 -0.0051669534
000100 e3 4a e7 3c a4 65 ef 3b 75 4f 67 3c 60 5a c7 3c
       0.028233951 0.0073058177 0.014118065 0.024335086
000110 93 64 0e 3d 58 0b 1d 3d bd 16 5e bc 2a 63 97 3c
       0.034763884 0.038340896 -0.013555226 0.018479902
000120 11 30 84 bb 3d c1 81 3b 46 13 51 3b c3 67 cd 3a
       -0.0040340503 0.0039598034 0.0031902357 0.0015671182
000130 df 85 f8 3c 90 a2 a5 bc c2 fe c6 3c 8b e0 c5 3c
       0.030337272 -0.020219117 0.0242914 0.024154922
000140 48 62 8f 3b e0 63 ce 3c 84 96 19 bd f5 c4 fc 3b
       0.0043757297 0.025194108 -0.03749706 0.007713909
000150 08 03 9f bc bc ab e2 bb 11 c4 f3 bc 3d 42 2e 3d
       -0.019410625 -0.006917445 -0.029756578 0.04254364
000160 67 06 d9 bc e8 c6 c3 3b c9 86 06 3d 47 c3 b9 bc
       -0.02649231 0.005974639 0.032843385 -0.022676123
000170 d3 e1 a6 3c 39 6b 0a 3d 1b 77 01 bd 89 7f 35 bc
       0.020371353 0.03379366 -0.03160773 -0.01107777
000180 60 c0 89 bc 66 2a 21 3d e9 77 0b 3d 3c 34 33 3d
       -0.016815364 0.039347075 0.034049902 0.043750986
000190 8b 53 89 3c 35 db d3 3c 5a d5 8f 3c da 15 16 3d
       0.01676347 0.025861362 0.017557789 0.036641933
0001a0 06 cb 9a 3b 35 34 0d 3a 1a 30 46 3c 08 77 05 bd
       0.0047239093 0.00053865026 0.012096429 -0.03258422
0001b0 e2 21 cc 3a 67 32 e7 3b f5 d7 09 bc 8c 35 07 bb
       0.0015574063 0.007055569 -0.008413305 -0.0020631282
0001c0 f8 2c b4 3c 7c 17 aa b9 f8 ed 36 3c 2b cc d0 bc
       0.021994099 -0.00032442424 0.011165135 -0.02548798
0001d0 01 b8 01 3d 15 cb 95 3c 99 9e 41 bc aa b0 5a bc
       0.03166962 0.018285314 -0.011817598 -0.013347784
0001e0 b9 61 ed bc bd 8e 9a ba a7 8f 31 bd 54 23 32 3d
       -0.028977262 -0.0011791807 -0.04334989 0.043490723
0001f0 5f 79 5c bc 6e 35 1d 3d cd ab e5 bb 0c 84 f7 bc
       -0.0134566715 0.038381033 -0.0070090056 -0.030214332
