backend/resources/models/throughput_model.pth (torch, 297410 bytes, 11 tensors)

encoder.0.weight f4 [128, 1, 3]
000000 c9 c1 c3 be 51 c9 c1 be 9e 5f ba 3e 7e 6d 3e bb
       -0.38233784 -0.37848905 0.36401075 -0.0029056962
000010 db 01 c4 bd 54 dc ff 3e 55 e3 8f 3d 60 17 fa 3e
       -0.095706664 0.49972785 0.07025782 0.4884596
000020 fc 79 ff 3e 14 8b 3c 3e 31 22 f0 be 5f 92 28 be
       0.49897754 0.18412429 -0.46901086 -0.16462086
000030 42 72 47 3e 21 7e 16 3e 6a 12 a7 3e 64 1d 7e 3e
       0.1947718 0.14696552 0.32631236 0.24815899
000040 a1 e2 47 be e3 1a fa 3d 08 68 28 3d 7e 3f cf be
       -0.19520046 0.122121595 0.041114837 -0.40478128
000050 1b 37 ab be 1d bf c1 be 79 fe 3c be 30 26 a3 3e
       -0.3344048 -0.3784112 -0.18456449 0.31865072
000060 0e d2 16 be f9 ff fa be 00 f9 f0 be 83 fe cf 3e
       -0.14728567 -0.49023417 -0.47064972 0.40623865
000070 7f c0 4a be 31 80 fd 3e db 54 f7 be d5 fc 97 3e
       -0.19799994 0.49511865 -0.48306927 0.29685083
000080 2a 94 e6 bd 83 63 e6 3e 7b 63 80 be 7f c1 0d bf
       -0.11258729 0.44997796 -0.25075898 -0.55373377
000090 37 05 e5 3e 3d 3a 0b 3f 4b 30 e2 3d 1d a3 aa 3e
       0.4473054 0.5438574 0.110443674 0.3332757
0000a0 93 13 69 be 23 c8 90 be 10 16 0d 3f 32 a0 0d 3f
       -0.22761373 -0.28277692 0.5511179 0.55322564
0000b0 be ee b9 3d d4 43 38 3e 4d 70 05 3f 34 15 c6 3d
       0.090787396 0.17994624 0.5212448 0.09672013
0000c0 ef 3a 95 3e 33 fe 10 3d 35 fd 6e 3e 66 9a e9 be
       0.29146525 0.035398673 0.23338778 -0.4562561
0000d0 32 23 97 3e 6c 4a 35 be 61 5d 01 3f 65 8c 8c be
       0.2951904 -0.17704171 0.5053311 -0.27450863
0000e0 40 c6 12 3f c5 0e ad 3e 71 01 d4 bc fb 61 08 be
       0.57333755 0.3380033 -0.025879594 -0.13318627
0000f0 b4 5a df be a6 c2 43 be d3 ac a2 be 0c ff 5a 3e
       -0.43623888 -0.19117221 -0.3177248 0.21386355
000100 c3 bb bc 3e b9 82 06 bf ac a6 0c 3e 21 1b 00 bf
       0.36862 -0.52543217 0.13735455 -0.50041395
000110 b0 bd b1 bd 29 4a 01 3e 8e c3 01 bf 3a 68 b8 3e
       -0.08678758 0.12625946 -0.5068902 0.3601702
000120 b2 d4 66 3d a3 16 ee 3e 1d b2 42 bd 0f 66 d5 be
       0.056355186 0.46501645 -0.047533143 -0.41679427
000130 bc cd 62 3e 6c c8 81 be 0c 40 be 3e 75 75 c8 be
       0.22148794 -0.25348222 0.3715824 -0.39152113
000140 c0 b7 ba 3e 16 e5 88 3e 8f 1d 14 bf c4 4a ef 3d
       0.36468315 0.2673728 -0.578576 0.11684182
000150 30 50 03 3f 8d 76 d4 3e 04 f7 10 3f f4 77 7d 3e
       0.5129423 0.41496697 0.56626916 0.2475279
000160 73 5a 80 bd c9 fe d3 3e a4 da 04 bf 2a f6 ee bd
       -0.06267252 0.41405323 -0.5189612 -0.11668046
000170 c6 ae 18 3f ce 9d ce 3c fe 26 89 3d 0c 6c 08 3f
       0.59641683 0.025221732 0.0669689 0.53289866
000180 37 e3 02 3e 89 0b 00 3f e1 4d bb be a3 86 d6 3e
       0.12781988 0.500176 -0.36582854 0.41899595
000190 2e 26 59 3e 7b df d4 be bf 97 eb 3e d6 2f 06 3f
       0.2120597 -0.41576752 0.4601421 0.5241674
0001a0 1f 3c ca be 0e 8e ff be dd ce 81 3e 2c fb 99 be
       -0.39498994 -0.49913067 0.25353137 -0.3007444
0001b0 dc e7 de be 2d e9 98 3d 40 76 8c be c9 5d b5 be
       -0.4353627 0.0746635 -0.27433968 -0.35423115
0001c0 b7 16 63 be de be 14 3f 0e 61 d5 be 04 97 bd 3e
       -0.22176634 0.5810374 -0.4167561 0.37029278
0001d0 a5 91 66 3d be 74 79 3e e9 23 8b bd ea 68 0a 3f
       0.05629124 0.2436094 -0.06793959 0.54066336
0001e0 57 78 0e be 80 5c e3 bd 11 2e a9 be 87 c9 58 3e
       -0.13913094 -0.11101627 -0.33042958 0.21170627
0001f0 8d b5 44 3e c0 61 c9 be 80 0d c4 3d e2 0b 0c 3f
       0.19209881 -0.3933239 0.095728874 0.5470563
000200 68 85 00 bf 8d 13 d7 3e ef cd 11 3f b4 fe 11 3f
       -0.5020356 0.42007104 0.56954855 0.5702927
000210 80 85 b2 be aa 12 ae 3e 26 0d 8b be d1 ab 80 bc
       -0.34867477 0.33998615 -0.2715847 -0.015706928
000220 95 72 8e be 4a 13 52 3e de 87 89 3e 37 72 11 3f
       -0.27821794 0.2051517 0.2686147 0.56814903
000230 44 38 0f 3f c6 dc 5e 3e f7 0d d6 be b6 3f 4a be
       0.5594523 0.21763906 -0.4180753 -0.19750866
000240 4f 89 cb 3e 5c e3 86 3e c8 2c 7f 3d a6 bf 88 3e
       0.39753196 0.26345336 0.062298566 0.26708716
000250 20 dc 09 bf 06 b3 15 3f 05 e1 81 be de 12 05 3f
       -0.5385151 0.58476293 -0.2536699 0.51981914
000260 88 a3 9e be d8 52 50 3e de dd ef be 40 10 e9 be
       -0.3098414 0.20344102 -0.4684896 -0.4552021
000270 71 f0 4a 3e d4 bd e0 bd 60 f1 7b 3e 06 da 0b 3f
       0.19818284 -0.10973707 0.24603796 0.5462955
000280 5a fc 00 3f f2 2b d7 bd c5 57 83 be c2 b3 9d bd
       0.5038506 -0.10506429 -0.256529 -0.07700302
000290 9a 53 21 3f a0 e9 e3 be 84 ad a7 be 07 00 ce be
       0.6301819 -0.4451418 -0.3274957 -0.40234396
0002a0 e9 98 d8 be a2 6b d0 be 9f e5 bc bd 16 1f 4b 3c
       -0.4230416 -0.40707117 -0.09223484 0.012397548
0002b0 12 11 4d 3e 83 83 97 be 42 6c 01 3f 17 3e e7 3e
       0.20026043 -0.29592523 0.50555813 0.45164558
0002c0 3a 48 8e be e2 b7 a9 3e 93 2f 00 be ff 91 9f 3e
       -0.2778948 0.33148104 -0.12518148 0.31166074
0002d0 4d fe 67 3b 3b 5e b9 3e 27 e5 a1 be 92 30 c9 3e
       0.0035399378 0.36204705 -0.31620142 0.3929487
0002e0 be 89 00 be ed f7 1f bf ac 15 d3 be ff 91 e6 be
       -0.12552544 -0.6248768 -0.41227472 -0.4503326
0002f0 f3 ce 9a bd a9 2e 17 3e f5 60 cc 3e 04 71 4c 3e
       -0.07559004 0.14763893 0.39917722 0.19964987
000300 91 d1 94 be 41 f1 3a be ed 28 55 3e 01 77 ea bd
       -0.29066136 -0.18256094 0.20816393 -0.114484794
000310 47 16 c6 be af 2b 3a 3e dc 13 cf 3e 9a a1 38 3e
       -0.3868887 0.18180726 0.4044484 0.18030396
000320 36 41 c8 be 5c 4f 6e be 26 48 09 3e 99 5d 57 bd
       -0.39112252 -0.2327246 0.13406429 -0.052579496
000330 34 4d 86 3e e9 a7 0f bf 04 18 bf be de ad 51 bd
       0.26230776 -0.56115586 -0.3732301 -0.051191203
000340 c3 28 e0 3d 26 c7 d4 be 36 e3 00 3f f0 7f 8a 3e
       0.10945275 -0.41558188 0.50346696 0.27050734
000350 bb 35 45 be 03 a4 49 3d b4 34 de be 5e 10 92 bd
       -0.19258778 0.04922868 -0.43399584 -0.07132028
000360 3f ca 8f bd 17 75 cc 3e 49 93 f4 be 79 c2 68 be
       -0.07020997 0.39933082 -0.4776862 -0.22730435
000370 f4 67 87 be 3c fb 02 bf 97 ce b7 3d 5b a5 1d be
       -0.26446497 -0.51164603 0.08974951 -0.1539511
000380 15 3a a0 bc 08 ec b7 3e 3c b3 8f be 28 09 14 bf
       -0.019558946 0.35922265 -0.28066432 -0.5782647
000390 98 16 20 bd d3 d7 10 3d 8f ff e9 be 33 ed 37 be
       -0.039084047 0.035362076 -0.45702788 -0.17961578
0003a0 74 04 3c 3e ba 4f 2f 3e 00 e7 d2 be b3 ea 83 3e
       0.18361074 0.17120257 -0.41191864 0.25765
0003b0 d3 61 b3 3e ae a2 89 3e 0f d4 ae 3e 3f 46 85 be
       0.3503557 0.26881927 0.34146163 -0.26030156
0003c0 26 86 79 be c5 a7 a0 be 73 dd 73 be a8 05 bc 3d
       -0.2436758 -0.31377998 -0.23814945 0.09180766
0003d0 c5 aa 91 3e 4c 53 21 3e 52 50 89 be 06 f6 1d 3e
       0.284506 0.15754431 -0.26819092 0.15425882
0003e0 a7 f2 9d be 50 14 06 3f 8a 1b 6b be 75 66 de bd
       -0.30849192 0.52374744 -0.22959724 -0.10859386
0003f0 86 f3 ee be be 8c 8b 3d 3b df 9b 3e c6 75 87 bd
       -0.4667017 0.06813954 0.3044375 -0.066142604

encoder.0.bias f4 [128]
000000 63 ba a1 3e bf 8b 82 be cf 55 96 3e 3b 91 6b bd
       0.31587514 -0.25497243 0.29362342 -0.05751155
000010 e5 c2 f9 3e 5a 15 cf be d0 1c ec be 6c c6 03 3e
       0.48781505 -0.40445977 -0.46115732 0.1286866
000020 6c 42 9d 3e 90 45 a6 3e d3 e9 d4 3e 08 35 1a 3e
       0.30714738 0.32474947 0.41584644 0.15059292
000030 ce 87 7c 3e 0b 61 fd be 0b f1 8b 3d c3 e9 ea 3e
       0.2466118 -0.494881 0.06833085 0.4588147
000040 dc 4b 23 3d cf 66 03 bf ab da 83 be a7 b3 13 bf
       0.039867267 -0.5132875 -0.25752768 -0.57696
000050 61 f5 b4 bd b4 dc 0d 3e 74 93 70 3e bd cb a9 3d
       -0.08835865 0.13853723 0.23493749 0.08290813
000060 6b 86 a3 3e f7 db 8f 3e d8 4e 0e 3e 4d 43 48 3e
       0.3193849 0.28097507 0.13897264 0.19556923
000070 e0 0f 4f 3e eb 90 2a bd 13 02 e5 bd 7b 4f a1 3e
       0.202209 -0.04164211 -0.11182036 0.3150595
000080 bb d2 d5 be 7e 6a 08 bf fe 7a 19 bf fd e4 cb be
       -0.41762337 -0.53287494 -0.59953296 -0.39823142
000090 42 a5 9d 3e b7 49 30 bf a7 41 b6 3e aa a4 71 bd
       0.30790144 -0.6886248 0.35596964 -0.058994927
0000a0 b2 b7 91 3d 98 16 53 3c 91 bf 34 be 7d 8a 73 3e
       0.07115115 0.012883805 -0.17651202 0.23783298
0000b0 d7 c2 53 3e 2e f0 34 be 56 60 08 3f 81 b0 04 3f
       0.20679794 -0.17669746 0.53271997 0.51831824
0000c0 f5 4e c7 be 4c bd 44 3e 7c 3b ed 3e 0e a9 1f bd
       -0.38927427 0.19212836 0.46334445 -0.038979582
0000d0 fd b4 81 be a2 4f b8 be 2f c8 8a be 22 96 14 bf
       -0.25333396 -0.35998255 -0.27105853 -0.58041584
0000e0 a2 78 0f be 68 60 31 be 14 89 64 3e 31 67 0b 3f
       -0.14010862 -0.17321932 0.22317916 0.5445433
0000f0 37 b9 5e 3e 23 e1 79 be 9e 03 de be aa b5 0b 3f
       0.21750341 -0.24402289 -0.43362135 0.5457407
000100 1c 4a a2 be 98 7d 0a bf 85 8d 90 3e ac 34 a8 3e
       -0.31697166 -0.5409789 0.2823297 0.32852685
000110 00 ed 95 3e 5c 9c 2e be 40 a9 18 3e 9e 32 c0 bd
       0.2928238 -0.17051834 0.14908314 -0.093846545
000120 fc 5a f1 3e e5 30 26 3b 9d e3 87 3e 06 ba 0a be
       0.47139728 0.0025358733 0.26540843 -0.13547525
000130 bb 8e 11 bf d0 46 ac bc 28 ee 05 3f 7d d2 33 3e
       -0.56858414 -0.02102986 0.5231652 0.17560764
000140 85 5f 05 be db 5b 07 3f 3d c3 e2 3e f2 eb 15 3f
       -0.13024719 0.52874535 0.4428958 0.5856315
000150 6e 88 06 3f 28 e5 08 3f 90 b6 d7 be 63 ca a8 3d
       0.52551925 0.53474665 -0.42131472 0.08241727
000160 fb ad b1 be 83 e0 fb be 68 4d 87 3e 1a 0d 08 bf
       -0.3470305 -0.49194726 0.26426244 -0.5314499
000170 e7 ba 69 3b 94 55 84 bd bb 8a ab 3e 1c 6c 95 be
       0.003566438 -0.06461635 0.3350428 -0.29184043
000180 c2 03 04 bf 44 a3 dd 3e ef ac 73 bb 94 0f ab 3e
       -0.51568234 0.43288624 -0.0037181934 0.33410323
000190 44 97 a4 bd b6 75 a6 3e 0c 69 45 be d9 e6 5c 3e
       -0.08036664 0.3251168 -0.19278353 0.21572436
0001a0 bb 6e 00 3f 08 2c bc be f9 7d 15 bb 73 e2 22 bd
       0.5016896 -0.36752343 -0.0022810681 -0.03976674
0001b0 0a 63 7c be 68 20 a9 3e 8c d3 fc be 65 a1 20 3e
       -0.24647155 0.33032537 -0.49380147 0.15686567
0001c0 38 57 8a bd 16 d9 20 be 69 03 91 bc 5c 43 9e 3c
       -0.06754917 -0.15707812 -0.017701821 0.019319229
0001d0 b9 9d fe 3e 47 55 e9 3e 6f 6d b9 be 1a 7d a3 3e
       0.49729708 0.45572874 -0.36216304 0.31931382
0001e0 ad a2 bd be 89 a0 d7 3e 82 b1 5e 3c 38 a9 e2 3e
       -0.37038174 0.42114666 0.013592126 0.4426973
0001f0 60 8b f0 3e 22 e4 9f 3e 14 eb 3b 3e 43 4d b9 bc
       0.46981335 0.3122874 0.18351394 -0.02261985

encoder.3.weight f4 [64, 128, 3]
000000 02 11 e7 3c 6f 9e fe 3c 9e 89 f1 3c e7 e5 28 3c
       0.028206352 0.031081406 0.029484566 0.010308719
000010 1a b6 56 3d bc 87 84 3d b1 cb 34 3d f5 ca 79 3c
       0.05241976 0.06471202 0.044139568 0.015246143
000020 b7 69 ae 3c ef c0 a5 3c 54 d5 41 3d 4d 1d 16 3c
       0.021290643 0.0202336 0.047322586 0.009162259
000030 af c9 5b 3d 50 f4 94 3c 41 d6 0d bc 09 41 bc 3b
       0.053659137 0.018182904 -0.008657039 0.0057450575
000040 e1 ce ca bc 26 7f 38 bd 49 5f 43 bd 91 d7 56 3c
       -0.02475685 -0.045043133 -0.047698293 0.0131129185
000050 4b 0b 0e bb b1 b3 10 bd b6 ab 3f 3d 16 6d b4 3c
       -0.0021674212 -0.035327617 0.046794616 0.022024672
000060 f9 8e 2e 3d 6c 7c f9 bc 24 2d 47 3d f5 12 d9 3b
       0.042616818 -0.030454837 0.048627034 0.0066245743
000070 c7 91 30 3d ad f7 36 bc 0f b0 c4 bc 4f 40 26 bd
       0.043107774 -0.011167449 -0.024009733 -0.040588673
000080 48 54 3c 3c 28 01 c3 3c 4c f7 66 3d 4c 75 46 bb
       0.011494704 0.023804262 0.056388184 -0.0030282317
000090 59 c9 8c bc 78 0b 65 3d e7 3f a9 bc 5e 8e 77 3d
       -0.017185854 0.05591914 -0.020660354 0.060438506
0000a0 62 a4 d4 3c 2e 3a 94 3d 3c 41 87 3b 80 d2 ff 3c
       0.02595729 0.072376594 0.0041276496 0.031228304
0000b0 89 a5 12 bd 29 66 85 3b 04 26 40 3d 4b ae f6 ba
       -0.035802398 0.0040710163 0.046911255 -0.0018820254
0000c0 70 2d 29 bc 2e 79 09 3c c5 0c dc bc 5b e9 e6 3d
       -0.010325775 0.008390708 -0.026861558 0.11274978
0000d0 e2 36 b1 3d 38 aa 31 3c 7f 19 1f 3d aa 8f 5f 3d
       0.08653046 0.010843806 0.038842674 0.054580368
0000e0 e4 c7 34 3d 7c 90 6b bd 86 9d a2 bd 63 87 59 bd
       0.044135943 -0.057510838 -0.079402015 -0.05310763
0000f0 1e 6e f3 3c 57 17 d7 bc 99 a8 c2 bb e6 ac 16 bc
       0.029715594 -0.026256246 -0.0059405086 -0.009196496
000100 ba 30 f7 bc c1 73 84 bc 44 c6 20 bd 44 5a 54 bc
       -0.030174602 -0.016168477 -0.03925158 -0.012960974
000110 3d 59 2b 3c 00 1b 2d 3c 95 e1 5d ba 78 59 83 3b
       0.010458288 0.010565519 -0.00084640953 0.0040084682
000120 40 78 40 3d 65 50 15 bd 9c 30 de 3c 45 ea fe 3c
       0.04698968 -0.036453623 0.027122788 0.031117568
000130 ac 5d e8 bc 47 66 5a bc bb e1 9b bc 35 83 2a 3d
       -0.028364979 -0.013330049 -0.019028535 0.041629035
000140 51 4c 15 3c e8 fe 29 bd 94 45 1f 3d ac 40 12 3d
       0.0091124335 -0.041502863 0.038884714 0.035706207
000150 ac 22 28 bd 61 aa 3c 3b 11 d1 8e 3d 82 f8 08 3d
       -0.04104869 0.0028788077 0.0697347 0.03344012
000160 cc e6 9c bc 4f 95 ab 3c 35 18 5c 3d de 4d a3 bd
       -0.019153021 0.02094522 0.053734023 -0.07973836
000170 8d db 8d 3c f3 c3 59 3d 15 2e 23 3d 30 92 73 bc
       0.017316604 0.053165387 0.03983887 -0.014866397
000180 96 a9 69 bd 25 b5 96 bc 39 7c 9a bc e3 bf 96 bc
       -0.057046495 -0.018396923 -0.018858062 -0.018402046
000190 b4 3b 5f bd b5 50 32 bc e4 61 b3 3c 25 62 32 bd
       -0.054500297 -0.0108835 0.021897264 -0.04355063
0001a0 1c 05 95 3c a5 75 0c 3d 0e cc 17 3c 44 f7 96 bd
       0.018190913 0.034291882 0.009264959 -0.07371381
0001b0 97 9a a1 bc f3 51 12 bd 8f 8e 2b bc 45 03 80 3d
       -0.019727034 -0.035722684 -0.010471 0.062506236
0001c0 01 8c 5c bd b9 f5 71 bd cd 1c 72 3d 4f 92 ee 3b
       -0.053844456 -0.05907223 0.059109498 0.007280625
0001d0 fc 39 39 3d 3b dc fc bc f6 11 71 3c 75 a4 40 3c
       0.045221314 -0.030866733 0.014713755 0.01175796
0001e0 d8 8e 4f 3d 4b a4 4a bb 51 65 96 bc 66 d0 25 bd
       0.050673336 -0.003092068 -0.018358858 -0.040481947
0001f0 03 8e 2c bd 96 87 fd bd 12 8d 6c bd 8d 85 12 3d
       -0.04212762 -0.123793766 -0.057751723 0.035771895
000200 60 fb ac 3c d8 27 ca 3c 01 72 a4 bc 45 65 7c 3b
       0.021115959 0.024677202 -0.020073893 0.003851251
000210 e6 bd 46 3d cd ea 0c bd d4 f8 d2 bc fd 6e 82 3d
       0.048520945 -0.03440361 -0.025753416 0.063688256
000220 0d 15 2b 3d 1c 2e 07 bd b8 6e 73 3c 5e de 43 3b
       0.041768122 -0.033002958 0.01485794 0.002988718
000230 79 de 42 3d 4f c4 f0 bb bd cd 01 bd 70 a1 ce 3c
       0.047575448 -0.0073476206 -0.031690348 0.025223464
000240 c4 47 5a 3b a5 00 46 3d 99 2f ec bc 47 a4 83 bc
       0.0033306936 0.04834046 -0.02883129 -0.016069544
000250 f1 6b 29 bd 70 ef 7a 3d 88 a3 86 bc a0 a7 ec bc
       -0.041362707 0.0612635 -0.0164354 -0.028888524
000260 0e f8 1e 3d 6f c2 77 3c 91 44 ad 3c ff aa 81 3c
       0.038810782 0.01512204 0.02115086 0.015828608
000270 d3 16 21 3c 7a 65 29 bd d1 27 ca bc 8e bc df 3c
       0.009832102 -0.04135654 -0.024677189 0.02731159
000280 23 d5 8e 37 30 2a b5 3c b0 96 15 3c c0 89 21 3d
       1.7026969e-05 0.022114843 0.009130165 0.03943801
000290 c3 c1 71 3d 3f 02 38 bd d5 fc 82 bd a3 85 be 3c
       0.059022676 -0.044924017 -0.0639588 0.023257082
0002a0 5e dd 0b 3d d4 45 20 bd 1e 87 3e bb 19 f8 1e 3c
       0.03414666 -0.039129093 -0.0029072235 0.009702706
0002b0 72 67 d8 3c 71 aa 9c 3d 4d b2 d9 bc cb e3 28 bc
       0.026416514 0.076496966 -0.026574278 -0.010308216
0002c0 0e f7 6b bc 3e bf b8 bc d1 93 07 bd 31 63 4d 3a
       -0.014402164 -0.022552129 -0.033099953 0.000783491
0002d0 33 bf 15 bd 64 d8 87 3c 77 53 08 3d 50 58 27 bd
       -0.036559295 0.016582675 0.033282723 -0.040855706
0002e0 5a 4c 0c bd 71 3e 42 bb d6 0d 3e 3a 11 68 36 bc
       -0.034252502 -0.0029639269 0.00072499865 -0.01113321
0002f0 aa 80 21 bd bf fb 9c 3b e1 27 1d ba c8 c0 20 bc
       -0.039429344 0.0047907527 -0.0005995017 -0.009811588
000300 c8 e8 dc bb 9d 51 6d ba e0 0d 05 3d e2 22 9c 3d
       -0.006741617 -0.0009052994 0.032483935 0.07623841
000310 54 86 c9 ba a6 8e 86 3d 21 04 b7 3c 0d 0f 05 bd
       -0.0015375116 0.06570177 0.022340836 -0.032485057
000320 5c 62 05 3d eb cb 87 3b d4 a4 09 bd a0 2e 42 bc
       0.032564506 0.004144182 -0.033604458 -0.011851937
000330 14 db 23 bc f6 4d 1e bd 85 fe bf bc c3 ea b1 bc
       -0.010000963 -0.038648568 -0.023436794 -0.021718388
000340 2a 67 08 bd 93 ca e4 bc 8b 3f 2e 3d b8 64 a1 bb
       -0.03330151 -0.027928626 0.042541068 -0.0049253367
000350 d2 95 27 3a e2 b4 ae 3c c6 15 ef 3c c1 f6 0e bc
       0.00063928694 0.021326486 0.029185187 -0.008725823
000360 73 4f 28 3d ee 4b d2 bc e9 58 47 3b 9c f4 b1 bc
       0.041091394 -0.025670972 0.0030417985 -0.021723084
000370 1e e3 34 bd 25 50 f2 bb 57 97 23 3d ab 3c 3d 3d
       -0.04416191 -0.007394808 0.03993925 0.046200436
000380 5a 1c f5 3c b4 0f c9 3c 2c 53 cb 3c 99 c1 cc 3b
       0.029920746 0.02454362 0.024819933 0.0062486646
000390 52 c2 ae 3d e2 82 2d 3d 20 39 f8 3c 81 f0 74 3d
       0.085331574 0.042361148 0.030300677 0.059799675
0003a0 af 12 df 3c c3 0b 2a 3b 12 2c 74 3d d2 09 3b 3d
       0.027230589 0.0025946952 0.05961234 0.045663662
0003b0 7b e0 b8 3c e3 16 a1 bc 5c da 26 3d b0 d2 0d bc
       0.022567978 -0.019664234 0.040735587 -0.008656189
0003c0 24 ac 1f bc 59 da 12 bd 76 0a 90 bc 4f 66 cc bb
       -0.009745631 -0.035852764 -0.017583113 -0.006237782
0003d0 78 c8 0f 3d 15 26 85 3c ec 7e 9f bc 95 9f 00 bd
       0.03510329 0.01625351 -0.0194697 -0.03140219
0003e0 47 b7 0c bd 35 ec 3b bc 8b 0c 37 3d 2a 3f ed 3b
       -0.034354474 -0.01146989 0.044689696 0.0072401958
0003f0 87 4c cc bc ed 22 67 3d 90 80 fb 3c 9f 3a 13 bb
       -0.024938835 0.056429792 0.030700952 -0.002246536

encoder.3.bias f4 [64]
000000 80 ed 23 bb 43 a3 4f 3d 12 d3 23 3d b0 0e 9b 3c
       -0.0025013387 0.050692808 0.039996214 0.018927902
000010 20 15 09 3d db 2e 91 3c 29 01 a9 bc 2a 95 97 bc
       0.033467412 0.017722538 -0.020630436 -0.018503744
000020 ac 2d 17 bd 3f fa 1f bc 59 61 e0 3b b6 1c 1f bd
       -0.03690879 -0.009764253 0.0068475422 -0.03884574
000030 b1 15 22 3d 9c 4e 40 3d 44 31 bc 3c f0 40 95 bc
       0.039571468 0.046949968 0.02297271 -0.018219441
000040 81 47 b0 3c 7b fa 9f bc a8 ba 0a bd 7f ab 24 bd
       0.02151847 -0.019528618 -0.033869416 -0.040202614
000050 e4 f3 b2 3c 89 f9 f7 bc 94 bd 90 bc 62 47 27 bd
       0.021844812 -0.030270355 -0.017668523 -0.04083956
000060 1d 14 ac 3a 0f 0f f8 3c 0c d7 35 bd 39 47 0b 3d
       0.0013128553 0.030280618 -0.044394538 0.03400347
000070 96 d6 8c bc 96 5b 5e 3d 02 0e fd 3b 4a 85 48 bd
       -0.017192166 0.054286562 0.007722617 -0.04895524
000080 24 9a 6b 3d 6b e6 fc bc 52 f8 07 bd 1c 31 3a bc
       0.057520047 -0.03087159 -0.0331958 -0.011364248
000090 51 e8 ce 3c 62 2d 0a bd 94 d7 cd bc d9 77 f4 bc
       0.025257261 -0.033734687 -0.02512721 -0.029842304
0000a0 e9 a1 4a bc 4e cd 15 bd 16 0b 68 b9 e0 0f 12 bd
       -0.012367704 -0.036572747 -0.00022129374 -0.03565967
0000b0 82 9a 8a 3c 03 83 51 bb 24 0f ec 3c 88 c1 23 bd
       0.016919378 -0.0031968958 0.028815813 -0.039979488
0000c0 1e 20 48 3d 32 17 0f bd e9 2c 6c 3d cc ef 6a 3c
       0.048858754 -0.03493423 0.057660017 0.014339399
0000d0 67 01 0b bd 43 6a fa bb 6d d9 8e bd cd 57 0d bd
       -0.033936884 -0.007642062 -0.069750644 -0.03450756
0000e0 04 62 ac bc fd ee 31 bd 50 1a 93 3c 7f 9c 45 bd
       -0.021042831 -0.043440808 0.017956883 -0.04824495
0000f0 6d fc 26 3d 80 90 81 3c 2d 2c d4 3c eb f6 25 bd
       0.040768076 0.015815973 0.02589997 -0.040518682

encoder.6.weight f4 [32, 64, 3]
000000 6d 3d 47 bd ed aa 1d 3d 5f 98 a1 3c 41 81 5a 3c
       -0.048642565 0.038493086 0.019725977 0.013336481
000010 b7 fe 8a 3d d2 1b 85 3a 9a 45 40 3d 55 3f 74 bd
       0.06786864 0.0010155386 0.046941377 -0.05963071
000020 ae b5 6e bd 50 89 2f bd d7 ea 03 3b 77 b3 76 ba
       -0.058278732 -0.04285556 0.002012899 -0.00094108976
000030 26 57 be 3c 18 94 ca 3b 0d 19 9d bd 46 b5 74 3d
       0.023234915 0.006182205 -0.07670794 0.05974319
000040 13 b2 42 3d 1d 73 3e bc b4 5f d9 bc e6 b8 02 3d
       0.047533106 -0.011624125 -0.026534893 0.031914614
000050 90 29 39 3c fd 98 7e bd b1 dd 83 bd 48 9e 50 bb
       0.011301413 -0.06215762 -0.06438769 -0.0031832624
000060 9a 33 f8 bc 66 e7 94 3d 9c ed cb 3b 88 1f 1c 3d
       -0.030298043 0.07270698 0.0062233936 0.038116008
000070 24 0c 80 3c ad e9 83 3d c4 9c d4 bc ab d3 7d 3d
       0.01563079 0.064410545 -0.025953658 0.06196944
000080 cc f3 b9 bb c5 08 e1 3c f4 04 87 3d 19 36 6a 3d
       -0.005674815 0.027470002 0.065927416 0.057180498
000090 85 5f 24 3c aa 68 3a bd 32 a1 0c bd 02 9f 0d 3d
       0.010032539 -0.04550997 -0.034333415 0.03457547
0000a0 66 c7 25 3d ff 29 4e bd fb b9 cc bc cf e4 44 bd
       0.040473364 -0.05033302 -0.024991026 -0.04806977
0000b0 96 ce 74 bd ac fd 8a 3d c1 00 8f 3d 88 26 fe bb
       -0.05976733 0.06786665 0.06982566 -0.007756058
0000c0 25 c1 92 bd 93 72 44 bd 1f 20 16 bd e1 ae 02 3c
       -0.07165746 -0.04796083 -0.036651727 0.007976265
0000d0 c7 93 9e 3b 38 5e c0 bb 9f 03 cd bc 58 c2 e7 3c
       0.004839394 -0.0058706068 -0.02502614 0.028290913
0000e0 26 c0 4b 3b 7f 87 a2 bd 6d 17 8a 3d 60 30 fb bb
       0.0031089871 -0.07936 0.06742749 -0.007665679
0000f0 18 e8 0e 3d 7e 6a 5d 3d 17 04 55 bc 7a 4b c4 3c
       0.03488931 0.054056637 -0.013001463 0.023961771
000100 76 5c 91 3d 9e a7 69 bd e1 89 d4 bb f0 f3 03 bc
       0.07097714 -0.057044618 -0.006486163 -0.008053765
000110 1c 24 91 3c 8c f0 3a bd e4 e6 5e bd b8 0d 17 bc
       0.017717414 -0.04563956 -0.054419413 -0.009219579
000120 97 cc f3 bc 72 43 89 3d 75 af 80 3d 23 3e 3a bd
       -0.029760642 0.06702317 0.06283466 -0.045469414
000130 b7 ae 6f bd 3b d8 d8 bb ad cb fb bc ad e1 44 3d
       -0.05851623 -0.0066175736 -0.030736769 0.048066784
000140 82 7a 84 bd 37 74 75 bc 5a 9b 05 3d c2 6c c3 bc
       -0.06468679 -0.014981321 0.032618858 -0.02385557
000150 26 fe 87 bd f4 b0 16 3d a2 ac 37 bd c7 87 3e 3d
       -0.06640272 0.03678985 -0.04484237 0.046516206
000160 43 87 1a bd a8 d3 1f bd 72 57 99 bc 7b 1c 9d bd
       -0.037726652 -0.03902021 -0.018718455 -0.07671448
000170 1d dd 68 3c 2b 2f 43 bb cc be 8d 3d 6d a5 8a 3d
       0.014212874 -0.0029782753 0.06921157 0.06769834
000180 d1 f0 a7 bb 3c bf 94 3c c0 35 fb ba d1 fb 0c 3d
       -0.005125143 0.018157594 -0.0019165799 0.03441984
000190 bc 13 68 3d f0 56 17 bd ff a4 61 3d 29 85 aa 3d
       0.056659445 -0.036948144 0.055088993 0.083261795
0001a0 39 b6 1d 3d d6 ec 32 3c 16 20 fc bc f9 ff ac bd
       0.03850386 0.010920724 -0.030777019 -0.084472604
0001b0 48 11 69 bc 3f b2 7f bd 8c e8 b3 bc 48 c8 7a 3c
       -0.014225312 -0.062425848 -0.021961473 0.01530654
0001c0 a0 3b 18 3d 07 43 9a 3c 29 26 80 3d c8 ed dc 3c
       0.037166238 0.01883079 0.062572785 0.026968852
0001d0 59 5d 12 bd c6 de b1 3d 2f 14 da 3c 29 bc 89 bd
       -0.035733555 0.08685069 0.026620952 -0.06725342
0001e0 29 a4 a1 3d c1 dc d7 3c 2a b9 6d bd 50 a0 ce bc
       0.07892639 0.02635038 -0.058037914 -0.025222927
0001f0 52 55 d7 ba a9 b2 08 3d bc c9 28 3d 1a 8e 97 bc
       -0.0016428626 0.03337351 0.041208014 -0.018500376
000200 08 ce 68 bd b2 ca e0 3d 44 b6 c7 3c 52 4e b5 bd
       -0.05683711 0.10976161 0.024378903 -0.08852829
000210 52 fd a0 3d 59 61 ca 39 79 ae 39 bb 75 83 ff bd
       0.07860817 0.00038600972 -0.0028332754 -0.12476245
000220 ce 39 b4 bd e2 14 29 bd ae b3 d2 3c 8f a0 26 bd
       -0.08800088 -0.04127968 0.025720444 -0.040680464
000230 fb 28 c9 3b 90 44 64 3d cb 6f ce bc 5e 53 2e bd
       0.0061389185 0.05572945 -0.025199791 -0.042559974
000240 ca 9c 7e bd 83 67 1d 3d 58 37 3d bd 96 47 dc bc
       -0.062161244 0.038428795 -0.046195358 -0.026889604
000250 66 02 9b 3c ca 6a 4a bd 4a 99 39 bd c7 df 5d 3c
       0.018922042 -0.04941825 -0.045312203 0.013542122
000260 d4 20 4c bd bb 03 64 3d fd 31 1a 3c 8d 8e d9 3c
       -0.049835995 0.05566762 0.009411332 0.026557231
000270 7d 3a 93 bc f7 52 84 bd e8 0c c5 bb 30 3d d5 bc
       -0.017972225 -0.06461137 -0.0060135014 -0.026030153
000280 e6 16 89 3c 11 14 47 3d 7c fd d8 3c 64 94 6c bd
       0.016734552 0.04860312 0.026488058 -0.057758704
000290 61 cc 29 3d dd 97 0d bd 85 68 9b ba 10 c9 80 bd
       0.041454677 -0.034568656 -0.0011856711 -0.0628835
0002a0 ba ab 15 bc 9c dd 41 bd c4 2e 2b bb 85 a2 aa 3d
       -0.009135181 -0.047330484 -0.0026120404 0.083317794
0002b0 c5 5b 58 bd 7f b5 01 3d ed f5 00 3d c2 dc 5f 3d
       -0.052821893 0.03166723 0.031484533 0.05465389
0002c0 bd 3d 73 3b 71 4c 30 bd 43 3a 07 bd db 55 8e 3d
       0.0037115656 -0.04304165 -0.033014547 0.069499694
0002d0 fa ac a0 3d d8 20 90 3c 41 37 4c 3d e5 15 50 bd
       0.07845493 0.017593786 0.04985738 -0.05080213
0002e0 8d 9c f4 bc 57 7d 14 3d 7a 3b 70 bd b0 b1 b0 bc
       -0.029859805 0.036252346 -0.05865047 -0.021569103
0002f0 64 c1 42 bc c4 36 89 bd 31 9c 43 bc 5c 87 9d 3c
       -0.011886928 -0.06699899 -0.011939094 0.019229583
000300 77 20 3b bd 7d 9c d2 3b d0 9d 64 bd d9 ee 85 3d
       -0.045685258 0.0064273463 -0.055814564 0.06539697
000310 db bd 9a bc 7a 20 2a ba 64 12 f9 bc c2 26 02 3d
       -0.018889358 -0.0006489825 -0.030404277 0.031775244
000320 5c 4e 77 3c a7 11 a8 3d 89 8b be 3c a1 c5 70 3c
       0.015094366 0.08206492 0.023259895 0.014695556
000330 e1 04 54 bd 4f 51 0b 3c 53 0f 88 3d 40 9c 76 3d
       -0.051762465 0.008503272 0.06643548 0.060207605
000340 0e e7 4f 3d 79 8a 4b bb d1 47 88 bd 7c 64 0b bb
       0.05075746 -0.0031057878 -0.06654323 -0.002126961
000350 31 71 67 bd a1 36 42 3d df a3 ca 3c c1 e9 2f bd
       -0.056504432 0.04741538 0.024736343 -0.042947534
000360 55 9b 8a 3d fd 67 bb 38 6f 5f 4f bd 74 36 d4 bd
       0.067679085 8.936224e-05 -0.050628122 -0.103619486
000370 61 f0 4a 3c 59 a3 65 bd 47 06 8a 3d 5a 57 45 3d
       0.012386412 -0.056063984 0.067394786 0.048179008
000380 89 43 90 bc 85 11 6b bd b1 df 5c 3d 27 ef 78 3c
       -0.017610328 -0.057389755 0.053924266 0.015193737
000390 47 06 47 3d 4c 43 48 3c 4e 03 50 3d f0 68 5a 3d
       0.04858997 0.012223076 0.0507844 0.053322732
0003a0 bd bc 32 3d f0 4f 44 bc a4 8a d9 bc 48 91 6f 3d
       0.043637026 -0.011981949 -0.026555367 0.05848816
0003b0 58 78 03 3d 56 85 05 3d 6f 1b 57 3d aa bb 23 3d
       0.03209719 0.032597862 0.052516397 0.039973892
0003c0 fc aa c5 3c 2e 03 4b bd aa 84 1d bd f4 e6 20 3d
       0.024129383 -0.04956358 -0.038456596 0.039282754
0003d0 46 03 4f 3d b3 11 22 3d d6 2c 1f bd 1a 2a 8a bc
       0.05054023 0.03956766 -0.03886112 -0.016865779
0003e0 66 ac 77 3d 45 d6 bb 3c ce 39 51 bd b0 40 87 3a
       0.060467146 0.02292932 -0.051080517 0.0010318961
0003f0 31 bc 5d bd c3 06 d7 3c 95 70 17 3c b3 59 ca bc
       -0.05413455 0.026248341 0.00924315 -0.024700975

encoder.6.bias f4 [32]
000000 d1 ff 84 3d db 69 67 3c 5c 41 5e 3c 1f 7d 3b bd
       0.064941056 0.014124359 0.013565388 -0.04577362
000010 3e 67 a3 bc 01 22 a6 bc fa c5 3c bd 83 97 f1 bc
       -0.01994669 -0.020279886 -0.046087243 -0.029491192
000020 97 09 b2 bc 56 f0 55 3d 50 f0 0f 3d 4e 84 2b 3d
       -0.021733088 0.052231155 0.03514129 0.041874222
000030 83 52 5f 3d de 00 94 3d 19 87 02 3d 5d 6d 83 bd
       0.05452205 0.07226728 0.03186712 -0.06417344
000040 8a 75 05 bd 89 da 88 3b eb 64 04 3d 0e a6 7a bd
       -0.032582797 0.004176442 0.032322805 -0.06119352
000050 a8 6f 5c 3d cb 67 e4 bb 23 12 75 bd 63 82 2b 3d
       0.05381742 -0.006970381 -0.05983175 0.041872393
000060 32 53 7c 3d b6 7e 44 3d b5 26 47 bd 01 6b 56 3d
       0.06160278 0.047972403 -0.0486209 0.05234814
000070 3e e4 04 3d fe 7c 71 3c b4 25 d3 bc 4a 51 36 3d
       0.03244423 0.014739273 -0.025774814 0.044511117

decoder.0.weight f4 [32, 64, 4]
000000 e9 bd 09 bd cb 90 6c 3c 78 5e 9d 3d 27 67 38 bd
       -0.033628378 0.014438818 0.07684034 -0.04502025
000010 f7 03 dc bb ec be 87 bc df 29 a4 bc 28 04 27 3d
       -0.00671434 -0.01657053 -0.020039497 0.040775448
000020 64 96 43 bd 70 8a 9c bb c8 a5 84 bc c4 93 05 3b
       -0.047750846 -0.004777245 -0.016192332 0.0020382265
000030 f0 77 bf bb 72 65 9c 3c 07 f2 86 ba 4a 58 cc bc
       -0.005843155 0.019091342 -0.0010295518 -0.024944443
000040 4c aa 59 bd 89 05 25 bd 2b 24 e7 bc 7d 2e 3f bd
       -0.053140923 -0.04028848 -0.028215488 -0.046675194
000050 93 73 87 bc 6e fb fb 3b f0 87 3a 3b fa 74 8c bc
       -0.016534602 0.007689885 0.0028462373 -0.017145623
000060 18 9f 18 bd 7b d0 05 3d 08 50 98 3c a0 e8 88 3b
       -0.0372611 0.032669526 0.01859285 0.0041781217
000070 57 e9 79 3d aa 61 40 bc d4 2f 47 bd c0 ea b5 bc
       0.061013546 -0.011742035 -0.048629597 -0.022206664
000080 59 e1 4a 3d 77 47 56 bc 80 ee 70 3d 2a 8d 93 3c
       0.049531315 -0.013078562 0.0588212 0.018011648
000090 c9 4c 9b 3a 5e 5c 0f bd cd 6b 87 3d 5c a8 96 3d
       0.0011848445 -0.035000198 0.06612358 0.07356331
0000a0 25 93 40 3a 6e bd b0 bc 9b 8e 4c 3d 24 05 21 3d
       0.0007346145 -0.021574702 0.049940687 0.039311543
0000b0 ee 7d 55 bd cb 52 e8 bc 0e 47 56 3c aa a0 38 3d
       -0.05212205 -0.028359791 0.013078464 0.045075096
0000c0 0c f4 6b 3d 20 6c 5a 3d 50 69 61 bd 84 96 a7 bc
       0.057605788 0.053325772 -0.055032074 -0.020457514
0000d0 01 4d cd bc 63 cc 12 3d bc 41 5e 3d 3d 52 69 3d
       -0.025061132 0.03583945 0.054261908 0.056963194
0000e0 58 ca 9a 3c 16 8e 37 bc dc e6 29 bc a1 e3 90 3c
       0.018895313 -0.0112033095 -0.010369983 0.017686667
0000f0 b2 4b 49 3d 49 3e 5d 3d 59 5e 6d 3c ac c6 a7 3c
       0.049144454 0.054014478 0.014487826 0.020480476
000100 60 d4 ad 3a 0a 00 66 3d 03 89 1d bd 3f 25 7e bd
       0.0013262145 0.05615238 -0.038460743 -0.06204724
000110 1e 87 e6 b8 79 9f fa 3a bd 4a 85 3c b3 49 01 3d
       -0.00010992422 0.0019121013 0.01627099 0.031564426
000120 cc df 35 3d 62 32 3d 3d 36 e9 76 bc 14 40 fd 3c
       0.044402882 0.046190627 -0.01507025 0.030914344
000130 4c 27 99 bd f1 a9 23 bd 7a 00 3d 3d 02 32 37 3d
       -0.074781984 -0.03995699 0.046143033 0.044725426
000140 8a 0e ed 3c 8d f7 73 3c 69 75 fd 3a 59 39 9a 3c
       0.028937597 0.014890564 0.0019337359 0.018826174
000150 16 7d 35 3d d8 75 43 bd 59 26 71 3d a6 9d b1 bb
       0.044308744 -0.047719806 0.05887446 -0.0054204045
000160 b6 e7 99 3c 8a 41 74 3d 05 24 33 3d f7 47 68 3d
       0.018787246 0.059632815 0.043735523 0.056709256
000170 71 29 2d bd fe aa 7c 3d 0f b2 e5 bc a6 06 6f 3d
       -0.04227585 0.06168651 -0.028039007 0.05835595
000180 36 e2 49 bd 74 7b 08 bd a9 02 be bc 66 1e 2d 3d
       -0.049287997 -0.03332086 -0.023194628 0.04226532
000190 c6 53 32 bd e9 61 6b 3b 8b 8e f5 bc fd 3d 82 bd
       -0.043536924 0.0035916513 -0.029975196 -0.063594796
0001a0 3b b3 82 3c 4b 44 1c 3d 69 99 42 3d 0e ed 9b bd
       0.015954604 0.038151067 0.047509585 -0.07613574
0001b0 1c 55 38 3d d4 24 81 bc 31 0a a5 3c 0d 13 e0 3c
       0.04500304 -0.015764631 0.020146461 0.027352834
0001c0 2f 0a 56 3c 48 5c 41 bd bb df 4e 3d 6c af 81 bc
       0.013063951 -0.047207147 0.050506335 -0.015830718
0001d0 48 87 8f bd d4 c4 0f 3d b5 a5 13 3d 36 c5 92 3b
       -0.07008225 0.03509982 0.036046702 0.004479076
0001e0 25 68 2d 3d 86 53 40 bd f7 2f ab 3c e2 bb 2f bd
       0.042335648 -0.046954654 0.020896895 -0.04290379
0001f0 59 5e 31 3d b6 fa 4b 3d fe 0e 1c bd 9a 51 80 3c
       0.043302868 0.049799643 -0.038100235 0.01566391
000200 92 65 2d 3c b0 aa 7e 3d 80 16 9b 3c b7 0b 33 3c
       0.010583298 0.0621745 0.018931627 0.010928086
000210 85 58 68 3d 7f b3 28 3d 0d 6f 57 bd 22 1f f1 3a
       0.056725044 0.041186806 -0.05259614 0.0018396119
000220 09 88 4d 3d c8 00 14 bd ef 82 4b bd f8 a8 24 3d
       0.05017856 -0.036133558 -0.049685415 0.040200204
000230 cb 21 06 bd d6 69 66 bd c6 93 15 3c 62 4d a6 3c
       -0.03274707 -0.056253277 0.00912947 0.02030057
000240 17 38 10 3c 03 43 6b 3d 5e a9 9c 3c be ee 44 3c
       0.008802435 0.057436954 0.01912373 0.012019811
000250 8f 04 03 bd 35 83 42 3d 22 08 15 bd 73 4f 98 bc
       -0.03198677 0.04748841 -0.03638471 -0.018592572
000260 c9 74 9f bc 48 a4 24 3c 6a 69 d3 3c c4 78 6a bd
       -0.019464867 0.010048933 0.025807101 -0.057244077
000270 11 72 84 bb ea 8f 8b bd 15 51 8d 3d de d1 17 bd
       -0.004041918 -0.06814559 0.06900231 -0.03706538
000280 01 75 6c bd a2 c9 fd 3a 90 43 1d 3d 9a f0 ed 3c
       -0.05772877 0.001936246 0.03839451 0.029045392
000290 ed 2e 4b bd f4 7f 7e 3c 10 73 04 3d 20 cb 16 3d
       -0.0496053 0.015533436 0.032336295 0.03681481
0002a0 a3 72 00 3d bb 79 c9 3c 79 85 3e bd bf 92 4d bd
       0.031359326 0.024594178 -0.04651401 -0.050188776
0002b0 af bb 9d bc 09 4e 19 bc 77 6f 5f bd 3c 89 84 bd
       -0.019254534 -0.009356984 -0.05454966 -0.06471488
0002c0 ed 55 34 bc 8e cc 3b bd 2f d1 51 3b d4 d3 65 3d
       -0.011006814 -0.045849375 0.0032015552 0.05611022
0002d0 b5 dc 6f 3d 5f 34 15 3d 3c 40 2a 3c 34 b5 ae 3c
       0.058560092 0.036426898 0.010391291 0.021326639
0002e0 97 90 74 bc ab 79 e0 bc 9f e5 7c 3d ba 4f 97 3d
       -0.014927051 -0.027401766 0.06174242 0.073882535
0002f0 0b c5 0d 3d 64 84 bb bc 6e f7 43 3d a5 ae 7c bd
       0.034611743 -0.022890277 0.04784339 -0.06168999
000300 2c a3 2f 3d fb 10 dd bb 76 9c 38 bd e7 f2 08 3b
       0.042880222 -0.006746409 -0.045071088 0.0020896734
000310 9a 39 c2 bd 5c d8 40 3d be 70 f4 bb 4a 3a 09 3d
       -0.09483643 0.047081336 -0.007459729 0.033502854
000320 b7 5d ad 3c 93 0d b6 3c 8b ee 91 3c e3 ab 22 bd
       0.02116285 0.02222327 0.017813941 -0.039714705
000330 bd ac 37 bc 5f d1 55 3d 82 55 8e bc a1 16 ae 3b
       -0.011210618 0.052201625 -0.017374758 0.005312756
000340 12 7b 38 3c 5d c0 e4 bc d6 54 18 bd b1 cd 9d 3d
       0.011259811 -0.027923757 -0.03719028 0.07705248
000350 aa 75 f7 3b 08 ab b2 3d 27 30 67 3d 0a ad a5 bd
       0.0075518684 0.08724028 0.056442406 -0.08089645
000360 ab a5 89 38 9d 83 ec 3c c5 ff c9 bc b8 fb 92 3d
       6.563527e-05 0.028871352 -0.024658093 0.07176918
000370 6a ab 76 bd b9 5e 2e bb 44 54 e6 3c 28 c0 f5 3c
       -0.060222067 -0.0026606752 0.028116353 0.029998854
000380 06 9f c1 bc 5c c6 42 bd 15 ac 80 3d e0 5b 54 3d
       -0.023635399 -0.04755245 0.06282822 0.05184543
000390 e2 33 cf 3c 8e 6a 59 3d 8c 54 37 3c aa 72 55 3d
       0.025293294 0.053080134 0.011189591 0.052111305
0003a0 d2 4b 04 3d a2 48 95 bc 63 1c 0b bc 50 0e 84 bc
       0.03229887 -0.01822311 -0.008490655 -0.016120106
0003b0 49 89 4e 3d 04 3c b8 3c 86 38 02 bc eb 6c 1d 3d
       0.050423894 0.022489555 -0.007948047 0.03843395
0003c0 75 e1 06 3c c1 14 6f 3d f9 ec 60 3c 28 cc 56 3d
       0.008232464 0.0583694 0.013728374 0.052440792
0003d0 b3 e3 5c bd e3 a7 86 3a d7 1b 75 3d b4 0c 4f bd
       -0.05392809 0.0010273423 0.059841003 -0.050549224
0003e0 5a 71 5f bc af 82 10 3d db 4f 93 3c 58 db f4 3b
       -0.013637865 0.03528088 0.017982414 0.007472437
0003f0 45 b8 2c 3d 4b 7a e2 bc 51 07 4f bd 65 14 36 3d
       0.04216792 -0.027646204 -0.050544087 0.044453043

decoder.0.bias f4 [64]
000000 08 6d 2f 3d e4 d4 33 3b 68 50 36 bb 90 89 67 3d
       0.04282859 0.0027440125 -0.0027818922 0.056527674
000010 bb 79 34 3c bd 2f cf ba 80 37 f7 3a bf 91 33 3d
       0.011015351 -0.0015807074 0.0018861145 0.043840166
000020 46 bd fb 3c 6b 43 78 bc 46 ef bf 3b 7e d5 62 bd
       0.030729901 -0.015152792 0.005857381 -0.055379383
000030 1d bc 7a 3d ba 45 5b bd 39 16 90 3b 20 c2 02 3d
       0.061214555 -0.053533293 0.0043971804 0.031923413
000040 7d 0b 77 3d 00 52 81 bd 08 10 63 3c d5 d8 3e 3b
       0.06031369 -0.063144684 0.013858803 0.0029120941
000050 f7 b9 53 bd 10 cb 53 bc cc 1d fe 3c e6 c8 2a 3d
       -0.05169102 -0.012926832 0.031020068 0.041695498
000060 9e c2 1a 3b 46 27 87 3b c0 3d f0 3c 07 8c 04 3d
       0.0023614536 0.004124555 0.02932632 0.032360103
000070 67 be 27 bd 9d 01 e0 bb 74 7c 0e 3d fa ba 90 bc
       -0.040953066 -0.00683613 0.034786656 -0.017667282
000080 25 2d da bc 88 4d 15 3d b9 78 88 3d f7 54 5c bd
       -0.026632855 0.036450893 0.06663651 -0.053791966
000090 2b fa bb bc 03 9f 2e bc 6d 9c c2 3c 7e 15 c6 3c
       -0.022946438 -0.010658029 0.02375623 0.02418017
0000a0 96 94 55 3c d9 ae 3f bd 02 3b 0a 3d a0 c6 8d 3c
       0.013035914 -0.046797607 0.03374768 0.017306626
0000b0 d8 4b 02 b9 41 7a 27 bc ca 30 16 bd 55 5a 81 bd
       -0.0001242602 -0.010222019 -0.036667623 -0.063160576
0000c0 73 45 06 3d 58 bd 70 bd 4d 92 f8 3c 59 db 6b bd
       0.032781076 -0.058774322 0.0303432 -0.057582233
0000d0 1e f7 47 bd f8 49 44 bd 55 72 58 3c 7e 75 0d bc
       -0.048819654 -0.047922105 0.013210853 -0.008633969
0000e0 b9 b8 c7 ba d5 e2 93 3b b1 92 4f bd 91 20 69 3d
       -0.0015237547 0.0045131245 -0.050677005 0.056915823
0000f0 da 17 89 bc 13 60 fc bc 10 33 07 bd e6 e7 2e 3d
       -0.016735006 -0.03080753 -0.03300768 0.042701624

decoder.2.weight f4 [64, 128, 4]
000000 9c 8f 0a 3d 72 f8 5d 3d 21 51 c1 3c a9 f8 1a 3c
       0.033828363 0.054192014 0.023598256 0.009458699
000010 e4 47 44 3b 63 2f 1c 3d 37 26 a3 3c de 0c 08 3d
       0.0029950077 0.03813113 0.019915683 0.033215396
000020 97 1d 04 bc df c2 20 3d 52 47 38 bc 67 47 56 bc
       -0.008063695 0.039248344 -0.011247473 -0.013078547
000030 ce d5 c1 3c 48 a1 23 3c a5 7b ac bc 3b 89 48 ba
       0.02366152 0.009987183 -0.021055052 -0.00076498435
000040 49 96 1d bd 93 bd 35 bd b6 4d 34 bd dc 16 04 bc
       -0.0384734 -0.044370245 -0.044019423 -0.008062091
000050 06 59 17 3d e9 2a d6 bb c1 8f 16 bd bf 5a 0b 3d
       0.036950134 -0.006535877 -0.03675819 0.03402209
000060 98 60 cb 3c 26 a7 29 bd 09 d5 e7 3c af 7a b9 bc
       0.024826333 -0.04141917 0.028299825 -0.022641508
000070 04 11 4a 3d e6 a9 f6 3c cf 8a 1d 3d fd 27 27 bc
       0.049332634 0.03011031 0.038462456 -0.010202405
000080 7e d3 83 3d b9 1a 0e 3d c3 24 73 3d 5e e8 e0 3b
       0.06436823 0.034693453 0.05936123 0.006863638
000090 7f 29 9b bc aa cd 12 bd a7 f9 22 3d 2b f1 9a 3b
       -0.018940685 -0.035840668 0.03978887 0.0047284565
0000a0 f5 89 a6 bc b2 2e 0f 3a 9d 44 39 3d 50 ea 40 bc
       -0.020329455 0.0005461975 0.04523145 -0.011774614
0000b0 cf b9 83 bd b6 04 1a 3d 2e 95 ef 3c 04 5c 8b 3c
       -0.064319246 0.03760215 0.02924594 0.01701165
0000c0 25 c5 d1 bb 83 65 05 bd 30 66 2a 3c 92 25 ba 3c
       -0.0064016753 -0.032567512 0.01040034 0.022722993
0000d0 6e a7 19 bd 9c 81 89 3c 2b 86 3f bb 86 4b ff 3b
       -0.03751319 0.016785435 -0.0029224257 0.0077909855
0000e0 d3 9b 27 bd e8 ba 77 3d 76 9a af b9 01 8a 36 3c
       -0.04092009 0.060480982 -0.00033493683 0.011141301
0000f0 84 0e 81 3d 4a 1d a0 bc a0 8a 4e 3b f2 d9 0a 3d
       0.06301597 -0.019545216 0.0031515732 0.033899255
000100 a6 a1 a1 bb b9 d8 d0 3c c2 f1 59 bc 1a 9c 38 bd
       -0.0049326 0.025493966 -0.013302268 -0.045070745
000110 8c 32 13 3b 7c fa af bc 93 c7 7c 3c 09 7f 47 3b
       0.0022460548 -0.021481745 0.015428442 0.003044071
000120 84 15 24 bb d9 0d ab bc 7f 8f 8e ba fc dc bf 3c
       -0.0025037238 -0.020880627 -0.0010876505 0.023420803
000130 6a 8f 9f 3c 0d 00 c4 3b cb 10 fd 3c 40 af 04 bd
       0.019477565 0.0059814514 0.030891797 -0.032393694
000140 7d 2f 10 bd c8 2f 3f bd 43 28 17 bb eb b5 31 bd
       -0.03520154 -0.046676427 -0.002306477 -0.04338638
000150 ba 16 79 bb 85 df 10 3d 1d db 08 bc 82 6a 40 3c
       -0.003800793 0.035369415 -0.008353022 0.011744143
000160 2a 8d 48 bd d6 f9 0e bd c6 7a fc 3c 45 d7 85 bc
       -0.04896275 -0.03490623 0.030820262 -0.016338
000170 7f e5 68 bd a4 c6 bc bc 75 3b 9e 3c 1a 34 2c bd
       -0.05685949 -0.023043938 0.01931546 -0.042041875
000180 9e aa b2 3a 93 28 1e 3d 4e e9 dc 3c 75 89 af bc
       0.001363117 0.038612913 0.026966717 -0.02142785
000190 da d1 81 bc e9 23 e9 3c 72 f6 3c bc f6 8c 90 3b
       -0.015847135 0.028459506 -0.0115333665 0.004411335
0001a0 be e3 9d 3c 4d 4c 2f 3d dc 24 47 3c a4 6d 6a bc
       0.019273635 0.042797375 0.012154784 -0.014308367
0001b0 a0 58 10 3a 9f 00 34 bd 3b 4f 44 bb 6e 82 b5 3a
       0.000550637 -0.043945905 -0.0029954452 0.0013848075
0001c0 4c 6e c8 bc 2c 9f 08 3b 50 91 b6 ba 6f ea 26 3d
       -0.024466656 0.0020846827 -0.0013928805 0.040750917
0001d0 89 b8 66 bc 9e 33 77 3a 0c 81 da 3c bc 9c 03 bb
       -0.014082083 0.0009429994 0.026672862 -0.0020082435
0001e0 cf f0 b2 bc 00 b2 9a ba f9 76 39 bd 87 d8 ba bc
       -0.021843342 -0.0011802316 -0.045279477 -0.022808326
0001f0 ee eb 30 bd a0 e3 06 bb 3b 8b 0d 3d 9f a4 c8 3c
       -0.04319375 -0.0020582452 0.03455661 0.02449256
000200 93 99 d2 3c a3 5c 69 3c 60 97 2d bc 97 6a f5 3b
       0.025707996 0.014243278 -0.010595173 0.007489513
000210 4c 15 65 bc 6f fd 85 3c 92 70 da bb bf 0c f9 bb
       -0.013982128 0.016356198 -0.0066662515 -0.0076003964
000220 80 08 a2 3c 2e e7 13 3d bb d3 86 bc c9 92 35 bd
       0.019779444 0.036109142 -0.016458383 -0.04432944
000230 f6 a9 ee 3c 23 72 8a 3c f0 8e ac 3c ad bd 8c bc
       0.029133778 0.016900128 0.021064252 -0.017180288
000240 31 5d 02 bd 07 d4 3e bd 95 30 1a bd 84 b8 1c 3b
       -0.031827156 -0.046588924 -0.037643988 0.002391369
000250 90 f0 22 3d 01 cb 84 bb 10 2a 18 3d 5b 94 af 3c
       0.0397802 -0.0040525203 0.03714949 0.021433046
000260 75 4d 2a bd 59 a1 18 bd cd ac 28 bd 82 3b 83 bc
       -0.041577775 -0.037263248 -0.04118042 -0.016019586
000270 f8 d4 84 bc dd 20 5a 3c 1b 7d 2a bc 47 3a 5e 3c
       -0.016214833 0.013313499 -0.010405804 0.013563699
000280 3e 77 1f 3d 97 bb 9c bc 65 f1 31 bd 00 3e 67 3a
       0.038932078 -0.019132419 -0.043443102 0.00088211894
000290 52 90 c3 bc 37 63 af 3c a6 b0 bb bc 09 39 00 3d
       -0.023872528 0.021409614 -0.022911381 0.031304393
0002a0 fa 1a 8d ba e7 26 cf 3b 8d 8e ff 3c 9c b3 63 bc
       -0.0010765486 0.006321776 0.031195903 -0.013897803
0002b0 79 c9 1a 3d db 2c d0 bc 03 b4 c8 bc 89 d2 1d bd
       0.037789796 -0.025412014 -0.024499899 -0.03853086
0002c0 16 71 20 3d f3 20 b2 3c b8 1f 48 3d bc e7 e4 bc
       0.039170347 0.021744227 0.048858374 -0.02794253
0002d0 18 c9 71 bb 63 f0 ad bc 24 9c 2b 3d 6a 60 98 bc
       -0.0036893543 -0.02123279 0.041896954 -0.018600661
0002e0 e3 e5 00 3d b3 60 b7 3b 7e 3e 17 3c 4f 1b d2 3b
       0.031469237 0.0055962442 0.009231208 0.006411947
0002f0 35 0d 82 bd e6 15 d2 3c 90 21 90 3d 04 03 1f 3d
       -0.06350175 0.025645208 0.070376515 0.038821235
000300 a8 2f 0e 3d 6e 32 14 bc ad b0 b6 bc d4 4a 0e bd
       0.034713417 -0.0090452265 -0.022301042 -0.03473933
000310 52 97 55 ba 66 78 81 bc 4c b4 4b 3b 03 30 23 bd
       -0.00081478537 -0.01580448 0.0031082807 -0.03984071
000320 fc ed 03 bd 50 91 1d bb 1d 0f 36 bd a4 44 fa 3c
       -0.03220938 -0.0024042912 -0.044448007 0.030550309
000330 7a 06 27 3d ae 19 46 3d 17 cd 9c bc 5f 5e 15 bc
       0.04077766 0.048364334 -0.019140763 -0.009116738
000340 bf 57 2b bd f5 1c c2 bc 48 d6 e4 bc 87 17 8d 3c
       -0.041831728 -0.023695448 -0.027934209 0.017223133
000350 60 ee 0d 3d a8 6c c2 ba 57 6e e0 3c 45 fb 98 bc
       0.03465116 -0.0014833407 0.027396364 -0.018674502
000360 4d 27 59 bc db 00 40 3d 78 0a e1 3a 69 e8 67 3c
       -0.013253999 0.046875816 0.0017169258 0.014154532
000370 77 4d 94 3c 3e 08 2d 3d df 13 0e bd 53 c4 df bb
       0.018103344 0.04224419 -0.03468692 -0.0068288236
000380 66 98 ce 3a 50 c4 d1 bc f0 f4 06 3c 81 ac c1 bc
       0.0015761971 -0.025606304 0.008237109 -0.023641827
000390 81 4a 02 3c 27 74 67 3c 95 32 c0 3c 7e 16 9f bc
       0.007952333 0.014126814 0.02346162 -0.019419905
0003a0 12 15 66 3c 06 ea 1b bd c2 63 04 3d ef fc 5b bb
       0.0140431095 -0.03806498 0.0323217 -0.0033567508
0003b0 2f 22 f9 bc 17 c7 30 3c 6c f1 2c 3c d4 f5 eb bc
       -0.030411808 0.010789654 0.010555606 -0.028803743
0003c0 8e 56 01 3d 67 0b 91 3c 0d 0c 2e bd 2d a5 bd 3b
       0.031576686 0.017705632 -0.04249196 0.0057875128
0003d0 c6 46 49 3c b5 85 ba 3b 3a e2 fa 3c d5 75 7e 3c
       0.01228494 0.0056922087 0.030625451 0.015531023
0003e0 1c e7 bd bc 10 ad df bc aa 1a 10 bd 52 17 fc 3c
       -0.02318149 -0.027304202 -0.03518168 0.030772839
0003f0 38 d0 dc 3a 53 59 1a 3d 5d 5a b5 3c 27 4a df bc
       0.0016846722 0.037682842 0.022137815 -0.027257038

decoder.2.bias f4 [128]
000000 d8 6f 97 3c e4 2a 10 3c eb 5c d7 bc ac 4a c9 3b
       0.018485948 0.008799288 -0.026289424 0.006142935
000010 32 1e e2 3c 25 b7 db 3c 1e d7 ce 3c 9d c1 b2 3c
       0.027602289 0.026820729 0.02524906 0.021820838
000020 f5 0c 92 3c 64 6f 5d bc 6b 20 94 3c ec a6 e5 bc
       0.017828444 -0.013515327 0.018081864 -0.028033696
000030 0b 24 d5 3c b7 26 96 bc ad 2d 85 bd 08 b0 2a 3d
       0.026018163 -0.018329008 -0.065028526 0.041671783
000040 d4 bb 31 bc d1 f4 eb bb 1f f1 ae 3c 9d c9 0a 3c
       -0.010848004 -0.0072008152 0.02135521 0.00847092
000050 fb ff 68 3c c1 64 28 bd a3 b6 15 bd ba 54 2e bd
       0.014221187 -0.04111171 -0.03655113 -0.04256127
000060 4a b2 02 bd 82 82 dc bc 35 f6 c0 b9 f3 02 06 bd
       -0.03190831 -0.0269177 -0.00036804532 -0.032717656
000070 63 02 12 bd f6 af 09 bc 2e 76 70 3c 21 6a 11 bd
       -0.035646807 -0.008403769 0.014676614 -0.035501603
000080 d3 38 db bc 83 cb 74 3c 85 ab 45 3c 40 94 bc 3c
       -0.026760494 0.014941099 0.012064819 0.02301991
000090 6c 97 19 ba 61 b7 23 3d 97 52 96 3c c1 9e 59 bc
       -0.00058590504 0.039969806 0.018349929 -0.013282479
0000a0 eb 87 06 3d 0e f3 ad bc 59 92 5c bb ad 05 1c 3d
       0.032844465 -0.021234062 -0.0033656566 0.03809135
0000b0 87 fe 41 3d 41 9e 39 bc cd 5d 2e bc 39 50 d4 bc
       0.047361877 -0.011329235 -0.010642481 -0.02591716
0000c0 99 4a 08 3d 5b e0 1c bd 45 a4 d0 bc f7 0d 0a 3d
       0.033274267 -0.0382999 -0.025468955 0.033704724
0000d0 d1 94 f0 bc 81 0a 66 3c 13 c8 a1 3c 9c 3f 63 3c
       -0.029367836 0.01404059 0.019748723 0.013870146
0000e0 6c 2b f9 3c 9f e2 cd 3c 44 69 7f 3c 6a e2 94 3b
       0.030416213 0.025132475 0.015589062 0.004543592
0000f0 6d 4b 33 bc 87 8c a9 ba 34 96 2d b9 a6 44 ea 3c
       -0.010943276 -0.0012935557 -0.0001655452 0.028597187
000100 2a 4f 9e bc 15 ea e9 bc 6d bb 37 3d a3 a7 01 bd
       -0.019324858 -0.028554002 0.044856478 -0.03165401
000110 74 fd 42 bd fd 04 02 bb 49 7a ca bc 8c 00 f8 3c
       -0.047604993 -0.00198394 -0.024716513 0.030273698
000120 b8 cd 86 bd 95 6b f1 bc b1 06 7b 3c b4 9e 94 bd
       -0.065822065 -0.029470244 0.01532142 -0.07256833
000130 0e 69 be 3c ea f4 7b 3c f8 79 32 3a 48 b4 cc bc
       0.023243453 0.015378216 0.0006808336 -0.024988309
000140 3e e6 8a bc a8 2a b9 bc de 9b 3d 3c 9c 6c f6 3c
       -0.016955491 -0.022603348 0.011572806 0.030081086
000150 ec fc c2 3b 03 95 9a bc 3c e6 ec 3b 64 fb 18 3d
       0.005950561 -0.018869882 0.0072295945 0.03734912
000160 1c 8b 45 bd 5f 80 1e 3d d6 18 8d bd 7d f9 0b bd
       -0.04822837 0.038696643 -0.06889503 -0.034173477
000170 14 81 ec bc 12 2e 54 3b dc 0f da 3c 6e 9d 4a 38
       -0.028870143 0.0032376093 0.02661889 4.830717e-05
000180 66 c1 f8 bc 1f 11 34 3d 68 47 6c 3c a4 f8 ee 3b
       -0.030365657 0.04396164 0.014421321 0.007292824
000190 23 ca 26 bd b0 a3 00 3d 6a 9e aa 3c ad 69 49 bc
       -0.040720116 0.031406105 0.02082749 -0.0122932615
0001a0 45 1b f9 bb e5 b8 57 bd 41 00 9a 39 d7 03 3a 3b
       -0.0076021277 -0.052666564 0.00029373358 0.0028383636
0001b0 4c b1 19 3d 25 74 cd bb ae 29 88 bc e3 34 d8 bc
       0.0375226 -0.006269949 -0.016621437 -0.026392406
0001c0 e0 53 a9 bc de 0f 2f 3c cf cd 12 3d a7 76 16 bd
       -0.020669878 0.010684935 0.035840806 -0.03673425
0001d0 68 14 0c 3d 23 e7 12 bd 1f a3 3e 3d cc 74 0f 3d
       0.03419915 -0.03586496 0.046542283 0.035023496
0001e0 33 c0 01 3b 1b 76 c2 3c 2c 5f 39 bd ac 5b 8d bc
       0.0019798398 0.023737958 -0.04525678 -0.017255627
0001f0 44 04 8b 3c bf 51 f0 3c f1 f5 54 3d 21 c4 88 3c
       0.016969807 0.029335855 0.05199236 0.016695084
