backend/resources/models/throughput_model.pth (torch, 296898 bytes, 11 tensors)

encoder.0.weight f4 [128, 1, 3]
000000 07 e2 40 3d a3 26 e6 be a1 b6 cb 3e d0 2c 96 bc
       0.047090556 -0.44951352 0.39787772 -0.018331915
000010 ee 88 ba 3e 1a c2 4b be 19 0d cf 3e 80 ab 9c bb
       0.36432594 -0.19898263 0.4043968 -0.0047811866
000020 07 14 12 3f 49 2c c7 bc 83 eb 4b 3e c3 f1 c7 be
       0.5706181 -0.024313109 0.1991406 -0.39051637
000030 dc 39 18 bb 96 55 13 3f 01 70 51 be 66 5b 44 be
       -0.0023227846 0.5755247 -0.20452882 -0.1917549
000040 58 8d 0a bf 96 19 6c be a5 bc 51 be 6b a2 d5 be
       -0.54121923 -0.23056635 -0.20482118 -0.41725478
000050 db de 82 be 4d c6 b7 be 1c d1 a6 be a3 00 1e 3e
       -0.2556065 -0.3589348 -0.32581413 0.1542993
000060 7d c1 00 be 4a 32 bb be fa 8a e5 bd 04 4f 0a 3e
       -0.1257381 -0.36561805 -0.11208148 0.13506705
000070 e6 8c 13 bf 1a 77 5a be be f2 06 3f 7d 07 ac be
       -0.5763687 -0.21334496 0.52714145 -0.33599463
000080 3d 7a fb 3e 92 36 98 be 6b ba 62 3e bc bc b3 3e
       0.49116698 -0.29729134 0.22141425 0.3510493
000090 d3 de 14 bf c5 fd 23 3e 07 1e c2 3e 50 91 83 3e
       -0.581525 0.16014774 0.37913534 0.25696802
0000a0 a2 7f 93 be 9d 92 a3 3e 4c c5 65 3e e0 41 45 3e
       -0.28808314 0.31947795 0.22438544 0.1926341
0000b0 81 b5 c8 bd d9 f4 1c 3e 09 e5 f6 be 62 6e 02 bf
       -0.09800244 0.15327777 -0.48221615 -0.5094968
0000c0 06 90 da be 1f 6f 0c 3e d1 ff e4 3e d2 71 f5 3e
       -0.42688006 0.13714264 0.44726422 0.479384
0000d0 1d 4b 88 3e fb a6 00 bf 39 d0 de 3e 2d 84 87 3e
       0.26619807 -0.5025479 0.43518236 0.2646803
0000e0 7d af ac be 99 cc c8 bd 79 ab b8 3c df 75 4e be
       -0.33727637 -0.09804649 0.022542702 -0.20162152
0000f0 78 e0 68 3e 9e 73 6b be 42 50 0a be 44 2e 2d be
       0.22741878 -0.22993323 -0.13507178 -0.1691218
000100 52 de d5 3e 64 cb eb be a7 4f 5c be c5 73 90 be
       0.4177118 -0.46053612 -0.2151476 -0.28213325
000110 dd 02 18 3f d8 a8 3b be 0c f8 91 3c c0 d8 f4 3e
       0.5937937 -0.18326128 0.017818473 0.47821617
000120 f9 eb c2 be a5 3a e6 3e 70 76 ae 3d dd f4 02 bf
       -0.38070658 0.44966617 0.08518684 -0.5115488
000130 1a 4b 5a 3e 57 62 44 3e ff 09 f1 be 5b 02 ff 3e
       0.21317711 0.19178139 -0.4707794 0.49806485
000140 8d 81 8c 3d b2 fa b4 be 68 e0 8c be c8 57 71 3e
       0.06860647 -0.35347515 -0.27514958 0.23568642
000150 87 cd b3 bd 62 33 d1 be e7 8b a3 3e a0 2d a0 3c
       -0.087794356 -0.40859514 0.31942675 0.019553006
000160 58 12 9b bd a5 cd 9c 3e 34 30 eb 3e 14 e2 9c be
       -0.07571858 0.30625644 0.45935214 -0.30641234
000170 f3 f8 10 3e 1b 0f b8 3e 09 88 eb 3e 39 68 63 3e
       0.14157467 0.35949025 0.46002224 0.22207727
000180 b7 5f e1 3d 79 35 98 bd de 07 c9 be 31 4c a2 3e
       0.11004584 -0.07432074 -0.39263815 0.31698754
000190 eb a7 9b be d5 15 c2 3e 6f f3 97 3e af 89 a0 3d
       -0.3040155 0.37907282 0.29677913 0.07838761
0001a0 c5 80 14 3a 05 cb 6e 3e 4c eb 02 3e 6b 75 f5 3d
       0.000566494 0.23319633 0.12785071 0.11985286
0001b0 54 9b d2 3e 44 33 a6 be b6 a3 ed 3e a4 79 0b bf
       0.4113413 -0.32460988 0.46413964 -0.54482484
0001c0 1b 78 0b bf 5d 66 06 bf 59 3a f0 3e 1c 52 d3 3e
       -0.5448014 -0.52499944 0.46919516 0.41273582
0001d0 c1 1d 0d 3f 8a 85 ef 3e c8 3f d9 bd ca 4a 14 be
       0.55123526 0.4678157 -0.106078684 -0.14481655
0001e0 a3 87 ba 3e 55 a2 e4 3e d4 72 81 be 5c 6c 8a 3e
       0.36431608 0.446551 -0.2528292 0.27035797
0001f0 c0 0b a9 be aa 46 9d bd de f4 3d 3d 7a 19 62 bd
       -0.33016777 -0.07679494 0.0463761 -0.055200078
000200 c3 f6 58 be 59 8a 87 3e 56 a7 92 3d 62 31 e7 be
       -0.21187882 0.26472738 0.07160823 -0.45154864
000210 6d 09 26 3e f1 3a ee 3e aa 9e 0c 3f 6e a8 e5 3e
       0.16214533 0.46529344 0.549296 0.44855064
000220 25 dd b7 be e9 7d 01 3f 20 0f 63 be 27 8e 4d be
       -0.35910907 0.5058275 -0.22173738 -0.20073758
000230 b7 19 ff be 21 a3 54 3c 08 3c cd be 24 46 30 3e
       -0.49824306 0.012978346 -0.40084863 0.17214257
000240 76 a7 1d 3e fd 70 06 bf 07 f1 c7 be 41 f2 1d be
       0.15395913 -0.52516156 -0.39051077 -0.15424444
000250 c1 35 08 bf e2 26 ab bd 94 d1 56 be c2 c5 0e 3d
       -0.5320702 -0.08357026 -0.20978385 0.034856565
000260 77 e4 8c 3e 60 69 a8 be 6a 2c 6f 3d 83 f5 10 3f
       0.27518055 -0.32892895 0.058391966 0.5662462
000270 47 7d cc 3e 18 14 d4 bd 08 de 06 3e d7 05 ee bc
       0.3993933 -0.10355395 0.13170636 -0.029055519
000280 e8 e0 c1 be 2f 1e 44 3e 8b 0f a8 be 8f 88 04 be
       -0.37866902 0.19152139 -0.32824358 -0.12942718
000290 fe fd 69 3e 48 ba ea 3d d5 90 89 be 8c 79 b8 be
       0.22850797 0.114613116 -0.2686831 -0.36030233
0002a0 88 2c a1 3e 15 5b f7 3e 72 72 39 3e 07 81 02 bf
       0.31479287 0.48311678 0.18110064 -0.5097813
0002b0 47 c7 47 be e2 47 24 bd 46 52 77 3e 98 8d 81 3e
       -0.19509612 -0.040107615 0.24152479 0.2530334
0002c0 42 3c 15 bf b7 20 13 be 67 09 88 bd 97 16 32 3e
       -0.5829507 -0.14367948 -0.06642418 0.1739143
0002d0 a0 ce 4b bd ed 13 4a be 6e 71 6d be 4f f3 2e bd
       -0.0497576 -0.19734164 -0.23187801 -0.042712506
0002e0 a1 09 d7 3a 8d db 10 3f 87 89 c0 be 13 d0 a3 be
       0.0016406068 0.5658501 -0.37604925 -0.31994686
0002f0 d9 be 05 3d c6 15 72 be 4b 89 46 be a5 f2 fd be
       0.03265271 -0.23641118 -0.1938831 -0.49599186
000300 6f 63 f7 3e 96 74 b4 3e ae ac 84 3e bc 7b a3 be
       0.4831805 0.35245198 0.25912994 -0.3193034
000310 df 94 f9 3d b7 7b 0f 3f 69 0b 73 be 28 23 be 3e
       0.12186598 0.5604815 -0.23734821 0.37136197
000320 ce af 9a be 7d 4e c5 bd 3c 8f d5 3d 75 e6 f1 3e
       -0.30212253 -0.09634111 0.104277104 0.47246137
000330 43 db 05 3f b0 8f 70 3e 4e e6 fa be e1 12 30 be
       0.5228769 0.23492312 -0.49003834 -0.17194702
000340 13 f3 64 3e e5 c6 53 3e 39 3e df bd bd 47 f4 be
       0.2235835 0.20681341 -0.1090054 -0.47710982
000350 e5 7e dd 3b eb f9 4b 3e f8 ff 2d 3e 06 bd 54 3e
       0.006759512 0.19919555 0.16992176 0.20775232
000360 18 d8 99 3e 05 d4 cc 3e 1f 66 1a be 61 bd ed be
       0.3004768 0.40005508 -0.15078019 -0.46433547
000370 d0 67 be 3e 51 63 8a be 96 d8 af be e1 e1 51 3e
       0.37188578 -0.27028897 -0.3434493 0.20496322
000380 80 07 25 be d1 d9 0c 3f ff 79 ea bd 4d cd 0d 3f
       -0.16116142 0.5501986 -0.1144905 0.5539139
000390 55 ff ef 3b 16 28 02 3f 27 77 01 3f 88 98 06 bf
       0.007324139 0.50842416 0.5057244 -0.52576494
0003a0 13 d6 b8 3d ee 4d 06 3f ca cd 5d 3e 13 e0 95 3e
       0.090252064 0.5246266 0.21660534 0.29272518
0003b0 a9 34 07 3f 61 4a 1a 3e bd 80 9e be 0e 9f d9 be
       0.5281473 0.15067436 -0.30957595 -0.42504162
0003c0 bd 26 0b 3f 27 3d 11 bf e6 92 36 3e 28 ec e6 3e
       0.54355985 -0.56733936 0.17829475 0.45102048
0003d0 83 b5 8f be ea e0 63 3c 1e 77 ac 3d 0f 86 77 be
       -0.2806817 0.013908604 0.08421157 -0.24172233
0003e0 14 08 0e 3f 83 5f 3c be b6 53 40 3e c2 61 b6 3c
       0.55481076 -0.1839581 0.18781933 0.022263411
0003f0 d2 46 11 3f 0e 12 1b be 2a 57 09 bf 0c 16 bf 3e
       0.5674869 -0.15143606 -0.53648627 0.37321508

encoder.0.bias f4 [128]
000000 85 e6 90 bc bd b9 30 bd 4d 42 10 bf df 2f 8f 3c
       -0.017688045 -0.043145884 -0.56351167 0.017478881
000010 df a2 09 3f 44 e0 8d 3e 0f 16 83 be b3 4c 02 bc
       0.53764147 0.27710164 -0.25602767 -0.007952857
000020 fa 83 9f bd 6c 92 07 bf 9f d2 33 3e 98 c6 ba bd
       -0.077888444 -0.529578 0.17560814 -0.0911991
000030 8a 67 12 3f f8 96 95 bd 62 04 8e be 4b 0a e8 3d
       0.5718924 -0.07304186 -0.2773772 0.11330088
000040 47 a1 2d 3e ef d0 be be 31 9a fc be 9c 95 eb 3e
       0.16956054 -0.3726878 -0.4933639 0.4601258
000050 57 b6 3b 3e 45 c0 0a bf d0 89 cb be 99 ab 46 3e
       0.18331276 -0.5419963 -0.3975358 0.19401397
000060 89 8a ca bd 05 c2 d1 3e 8e 35 10 3f 87 de ab be
       -0.09889705 0.40968338 0.5633172 -0.33568212
000070 b6 37 b5 be 9a 55 18 bf 7b 0e 71 3e 4f 01 ea be
       -0.35394067 -0.5950562 0.2354068 -0.45704123
000080 f3 cf 8a be f3 16 08 3f 77 c9 a7 bd 32 81 68 be
       -0.27111778 0.5316002 -0.08192723 -0.22705534
000090 16 59 20 3d 26 8b 48 3e c4 5f 8b 3e 74 8e 03 bf
       0.03914746 0.19584331 0.272215 -0.5138924
0000a0 b3 a7 24 bd 62 63 b4 bd 34 ec 09 3f d7 43 81 3e
       -0.040198993 -0.08808018 0.5387604 0.2524707
0000b0 d1 de 2e bd 8a 9e 1b 3e 72 df 86 bd e5 d1 e8 3e
       -0.042692963 0.15197197 -0.065855876 0.45472637
0000c0 16 fe 10 3f e7 5b e4 be fa 6b 1f 3e 24 59 0c 3f
       0.56637704 -0.44601366 0.15568534 0.5482352
0000d0 5b d2 36 be f8 4f 04 bf 97 ac f6 be 2d e8 a0 be
       -0.17853682 -0.5168452 -0.4817855 -0.31427136
0000e0 08 6d c9 bd 9c 93 d4 be 73 14 80 be d4 1c 00 3f
       -0.09835249 -0.41518867 -0.25015602 0.5004399
0000f0 b3 d9 c1 3e 02 b9 19 3e 99 2b f0 3e 3b c7 0d 3f
       0.37861404 0.15011981 0.46908262 0.55382127
000100 08 e1 01 bf 43 ad ef 3e 6e 2f e9 bd d0 4e 08 3f
       -0.50733995 0.46811876 -0.113859996 0.5324526
000110 3f f2 00 3f 04 2c fb 3e 18 0b 4b be 75 f7 95 be
       0.5036964 0.4905702 -0.1982845 -0.29290357
000120 1a fc 1c 3e aa a6 20 be 48 a7 01 3f 99 48 9e be
       0.15330544 -0.15688577 0.50645876 -0.30914763
000130 dd c2 08 bf 49 1e ec 3e 82 a2 fd 3e 4e 5a 5e be
       -0.5342234 0.46116856 0.49538046 -0.21714136
000140 f6 16 53 be 1a 4c 09 bf 23 21 b7 3e 1b 95 16 3e
       -0.20614228 -0.53631747 0.3576747 0.14705317
000150 38 9d 0e 3f c4 99 59 be ab af 97 3e 4e af 09 3f
       0.55708647 -0.21250063 0.29626212 0.5378312
000160 3d 68 19 be b3 da 14 3f 52 ac 00 3f 32 e9 f5 3d
       -0.1498117 0.5814621 0.5026294 0.12007369
000170 c4 d8 05 3e 66 a4 eb be e1 f6 0e 3f 75 d5 8b be
       0.13070971 -0.46023864 0.5584546 -0.27311292
000180 8c f9 d1 be 89 c0 62 bd ff 42 89 be 99 ac d5 3c
       -0.41010702 -0.055359397 -0.26808926 0.026083278
000190 2f f3 fd be 2f 66 22 3e 2f ba 97 3e ef de a4 3d
       -0.49599597 0.15859292 0.29634234 0.08050334
0001a0 11 b5 3a be bb 21 29 3e 76 92 16 be 69 03 21 be
       -0.18233134 0.16516773 -0.14704308 -0.15723957
0001b0 a1 02 f9 3e 71 9c 03 3c 7e 1e c8 be ea 97 15 3f
       0.48634818 0.008032904 -0.39085764 0.5843493
0001c0 24 45 96 be e3 4d 4c 3e d1 f0 ed bd 9b 4a 2d 3e
       -0.29349625 0.19951586 -0.11618198 0.16922991
0001d0 d1 e5 13 3f e0 69 03 be bc 46 2c be b0 b3 d8 3e
       0.57772547 -0.12833357 -0.16823858 0.4232459
0001e0 59 a7 7e bc d2 f7 9d 3e bf 55 00 bf 80 34 1e be
       -0.0155428285 0.30853134 -0.5013084 -0.15449715
0001f0 52 86 0d 3f b9 22 f4 3e af 8a b1 be 39 d4 c0 3e
       0.5528308 0.4768274 -0.3467612 0.37661913

encoder.3.weight f4 [64, 128, 3]
000000 2e 05 72 ba ac 10 b5 3d 41 19 ab 3d 68 c2 0f 3d
       -0.0009232339 0.088410705 0.08354426 0.03509751
000010 d8 5b 1e bc a7 b3 63 3d f9 5a 5a 3d 01 4d 8c 3c
       -0.009665452 0.05559125 0.053309415 0.017126562
000020 8d 6a 58 bb 07 06 a6 3c 88 2f c0 3b 54 3f 15 3d
       -0.0033022494 0.020266546 0.005865041 0.036437348
000030 ec 18 00 3d 14 ff 4e bd 66 e1 44 bd ed 6d 3d 3d
       0.031273767 -0.05053623 -0.04806652 0.04624741
000040 70 6b 46 3d b8 5e 0d bd b3 eb 11 bc b7 d3 29 3d
       0.048442304 -0.03451416 -0.008906293 0.041461673
000050 88 1d 0d 3d 1c 34 64 bd 9c 41 0a 3c 56 f5 4e 3d
       0.03445199 -0.055713758 0.008438494 0.05052694
000060 5b 6a 35 bd 38 5f 91 bb 70 43 80 bc 31 b4 83 bd
       -0.04429088 -0.0044364 -0.015657157 -0.06430853
000070 5d 7c 57 bc 2b 3c 14 bc f4 8e 1b bd 6f 6d cd 3c
       -0.013152209 -0.009047548 -0.037978128 0.025076596
000080 d0 9f cc bb de b9 55 bd 20 94 ea 3c 58 41 7d bb
       -0.006244637 -0.05217921 0.028635085 -0.0038643684
000090 97 93 da bc c0 2b 1f 3a 99 a1 e5 bc 8d d6 1a 3d
       -0.026681704 0.0006071888 -0.028031157 0.037802268
0000a0 1f b4 79 bc 2b f8 47 3c 32 7d 9d bc 6e 89 28 3d
       -0.015240698 0.012205164 -0.019224737 0.04114669
0000b0 35 27 99 bb 73 bf 04 bd b7 9c e4 bb 4e 2e 2b 3d
       -0.0046738633 -0.032409143 -0.0069766897 0.041792206
0000c0 1e 33 48 bd 76 cf 30 bd 6b 76 b7 3c 05 d7 14 3d
       -0.048876874 -0.0431666 0.022395333 0.03633787
0000d0 44 ce a3 3b 44 b8 2e 3c 14 ed 49 bb 74 7d 6b 3b
       0.004998954 0.01066405 -0.0030811476 0.003593293
0000e0 14 1a 30 3d d1 0b 0a bd 01 58 3b 3d 38 74 e7 3a
       0.04299362 -0.033702675 0.045738224 0.0017658537
0000f0 a1 96 0e bd f5 59 88 bc 16 c3 5b bc 3f 7d 06 3d
       -0.03481162 -0.016644457 -0.013413211 0.032834288
000100 99 c6 a4 bd bf 8a 48 3d 2a 5b 1c bd 5c cf aa 39
       -0.08045692 0.048960444 -0.03817288 0.00032579422
000110 01 40 9d 3c ea 8d 2f bc f2 80 f2 3a c4 f0 bc 3c
       0.019195559 -0.010714987 0.0018501563 0.023064025
000120 7b 4e 1c 3d 7f ba d7 3c 01 f4 a2 bc e3 d6 85 bc
       0.038160782 0.026334045 -0.01989174 -0.016337818
000130 e2 a4 ff bc 4b fc d9 3c 5e 2e 7b 3c cd a9 3f bd
       -0.031206552 0.02660956 0.015330879 -0.046792794
000140 2c ef 0c bd 1d 8f 03 bd 28 bd eb 3c e1 4e 3f 3d
       -0.03440778 -0.032118905 0.02877672 0.046706084
000150 a2 3c 83 bd 1c ef 31 bd 6a 33 f1 3c 62 72 a6 bc
       -0.06408049 -0.043440923 0.029443461 -0.020318214
000160 61 93 f7 bc 36 47 55 3d 1b d4 e4 bb 2d a4 80 bc
       -0.030221643 0.052069865 -0.0069832928 -0.015703285
000170 9a 5e 45 bc cd 3d 5b 3c d3 53 e2 3c 80 5d 44 3d
       -0.012046481 0.013381434 0.027627861 0.04794073
000180 dd 21 34 bd fd ca c4 bc 74 69 5e bd c3 89 f4 3c
       -0.043977607 -0.024022574 -0.054299787 0.029850846
000190 dd dc ea 3c 3c 0a ee bc 0f ba 2b bb 15 da d6 3c
       0.028669769 -0.029057615 -0.002620343 0.026227036
0001a0 96 1f 22 bd 59 76 76 3c 70 1c 27 bd bd d4 a0 3c
       -0.039580904 0.015042865 -0.040798604 0.019632692
0001b0 4b 01 c5 3c c1 2d 90 bc 72 ca 08 3d 8a 6b 36 bd
       0.024048468 -0.017599942 0.033396192 -0.04453615
0001c0 bf 4f 18 bd 98 ca e0 bc 55 32 83 bb d9 02 96 bc
       -0.037185427 -0.027440354 -0.004003803 -0.018311905
0001d0 dd 38 31 3d 6f bf 2c 3d 75 55 02 3d b7 55 9b 3d
       0.04326712 0.042174753 0.03181978 0.07584708
0001e0 89 03 57 3d 03 6a 2d 3d 1b d1 00 3c 8e e2 20 3d
       0.052493606 0.04233743 0.007862355 0.03927856
0001f0 44 64 2a 3c d0 b2 a3 bc 2e 5d 4a 3d 85 26 0f 3d
       0.010399882 -0.019982725 0.04940527 0.034948844
000200 37 7b 61 bb c8 45 9b bc db e8 14 bc 52 95 9d ba
       -0.0034405717 -0.018954173 -0.00908872 -0.001202265
000210 4b 90 2a 3d b3 71 01 bd 77 00 4a 3d 6c 22 49 3d
       0.041641515 -0.031602573 0.04931685 0.049105093
000220 99 34 ad 3c 45 1f 4f bb 97 4c 17 bd 5b bc 3d bd
       0.021143245 -0.0031604331 -0.036938276 -0.046322208
000230 e5 b8 8b bc 64 c7 d4 3b fb 16 2a bd 89 64 b4 3b
       -0.017055938 0.006493496 -0.041525822 0.005505149
000240 f8 82 be 3b df d0 4d 3d d7 b3 aa 3a a6 15 f5 bc
       0.0058139525 0.050248023 0.0013023567 -0.02991755
000250 65 06 d3 3c 18 0b a1 3c 9a 1e 03 3d df 9a c6 bb
       0.025759885 0.01965861 0.032011606 -0.0060609425
000260 74 85 5c 3b 2f cd e8 3b f6 63 43 bd ff dd 86 3c
       0.003364888 0.007104538 -0.047702752 0.016463278
000270 dd 69 36 3c 21 82 27 bd 1b 01 b7 3c af f7 57 bd
       0.011133638 -0.040895585 0.022339394 -0.052726444
000280 87 ab 6a bd e3 fa 9c bc 20 10 a2 3c 20 30 65 bb
       -0.057292487 -0.0191626 0.01978308 -0.0034971312
000290 86 55 8b bc a6 2b f6 bc 14 60 02 3d 45 4d 53 bd
       -0.017008554 -0.03005011 0.03182991 -0.05158736
0002a0 aa 0c 01 3c b7 a6 0f bd f3 59 02 3b d6 a1 9f 3c
       0.0078765545 -0.0350711 0.001989004 0.01948635
0002b0 bb ff f9 3c 28 ed 8d 3c d1 7c 2d bd 92 62 9e bd
       0.03051745 0.017324999 -0.042355362 -0.077336445
0002c0 cd fa 2f bd 8b 68 25 3d d0 7d 4a 3b d8 6e 0c bd
       -0.04296379 0.040382903 0.0030897744 -0.034285396
0002d0 26 a0 59 bc cb d7 ae bc 79 0a e4 3c eb f5 38 bb
       -0.013282811 -0.021343132 0.027837025 -0.002822275
0002e0 94 76 20 bb f1 57 4e bd f0 e4 76 bc 7f 89 1c 3d
       -0.002448474 -0.050376836 -0.015069231 0.038217064
0002f0 f9 92 11 3d 41 45 22 3d e9 b9 b0 bc 71 24 97 3c
       0.035540555 0.039616827 -0.021573024 0.018449994
000300 bf f3 39 3d a5 06 4e 3c 34 80 7d 3c fe 8d 71 bc
       0.04539847 0.012574826 0.015472461 -0.014743326
000310 a8 12 3f bd 82 24 a5 bb 3d dc 35 3d 62 de c6 bc
       -0.04664865 -0.0050397525 0.04439949 -0.024275962
000320 58 8f 52 3d 0f 48 2f bc 1f 64 48 bd e1 e3 e9 bc
       0.051406235 -0.010698332 -0.048923608 -0.028551044
000330 88 04 38 3d 08 54 43 3d f1 b6 01 bc 12 73 b0 3c
       0.044926196 0.04768756 -0.007917152 0.021539245
000340 e6 3f 40 3c ca 0d 97 bc 1e fc ed 3a 1c 84 bb bc
       0.011733985 -0.018439192 0.0018156802 -0.022890143
000350 dd 5a f0 3c b5 60 02 3c f1 b3 11 bc 08 91 b3 3b
       0.029340202 0.007957627 -0.008892999 0.0054799356
000360 d1 47 19 bd 49 f4 cd bc fc 42 78 3a 05 80 54 bd
       -0.037422005 -0.025140898 0.00094704307 -0.0518799
000370 76 60 0d bd ae 45 d2 bb 5c 0f 1e 3d ef db b8 bc
       -0.03451582 -0.006416998 0.038588867 -0.02256581
000380 88 91 87 3c ab b9 f5 bb d9 63 f6 bc b6 1c 71 bc
       0.016548887 -0.00749894 -0.030076908 -0.014716318
000390 1a 92 00 bd 35 1a 3a bc bc a2 16 3c 20 31 ed bc
       -0.031389333 -0.011358787 0.009194072 -0.028954089
0003a0 65 44 89 bb 34 aa 8c bc 06 1d cb bb f7 70 23 3d
       -0.0041890615 -0.017171003 -0.006198528 0.039902654
0003b0 6f f5 93 3c 6f e2 31 bd 05 9f 08 3d e8 25 b8 bc
       0.018061368 -0.043428835 0.033354778 -0.022479013
0003c0 38 c3 88 3d 30 13 9b 3b 28 16 d6 bc 81 84 80 3d
       0.0667786 0.004732512 -0.026133612 0.06275273
0003d0 91 5b 80 bb 3b a8 a5 3c 53 f8 4f 3c 65 a8 d4 3c
       -0.0039171656 0.02022182 0.012693482 0.025959203
0003e0 74 ba 0b bd eb 74 5c bd e4 bf 9f 3b c2 d6 a2 3b
       -0.034113362 -0.05382244 0.00487517 0.004969449
0003f0 5b 2f 35 3d d9 74 33 bd 05 a6 83 bc 45 b6 f3 3b
       0.044234615 -0.043812606 -0.016070375 0.0074374997

encoder.3.bias f4 [64]
000000 fd 50 74 3c 06 7d f6 3b 80 0d 17 3c 5f 4a ba 3a
       0.014911887 0.007522228 0.009219527 0.0014212838
000010 ec 2a 4e 3c 46 e5 7b bb c0 6a 16 3d fa 50 b4 3c
       0.012583476 -0.0038436218 0.0367229 0.022011269
000020 91 6b 89 3c be 9e db bc 42 b5 3b 3d 3b 8a b3 bc
       0.016774924 -0.026809093 0.045827158 -0.0219165
000030 6f 1d 41 3c 19 0f f8 bc e7 31 1b 3d ed 32 5f 3c
       0.011786803 -0.030280637 0.037889387 0.0136229815
000040 ca 99 1e 3d 1b 32 7c ba 80 d6 82 3d 72 11 41 bd
       0.038720883 -0.00096205034 0.06388569 -0.047135778
000050 40 ba 86 3d fa c6 22 bd 3f 40 1f bd be a0 68 bd
       0.06578493 -0.03974054 -0.03887963 -0.05679392
000060 dc 1d 26 3d 81 6a 31 3c 82 03 3a bc f5 9c 30 3d
       0.04055582 0.010828615 -0.011353375 0.043118436
000070 7e 00 c2 bc 63 0c 38 3d 7d e6 95 3c 10 d9 15 bd
       -0.023681875 0.044933688 0.018298382 -0.03658396
000080 70 5a 1b bd 25 a7 ef 3c 94 3a a1 3c b4 67 6d 3c
       -0.037928045 0.029254505 0.019681253 0.014490057
000090 b2 36 2b 3d 12 77 33 3d 6a ba 5d bc b6 78 23 bd
       0.04180021 0.043814726 -0.013533214 -0.03991004
0000a0 43 f9 aa bc 95 9a f2 bc af f6 d2 bb 9c 6d 36 3d
       -0.02087081 -0.029614726 -0.0064380984 0.044538125
0000b0 b9 89 2f 3c ce 2d b8 3c d0 95 42 bd b8 3b 31 3d
       0.010713988 0.022482779 -0.047506154 0.043269843
0000c0 5f 14 72 bc 53 00 8e bc d7 db 20 3d a3 f2 0d bd
       -0.014775365 -0.017334139 0.039272156 -0.034655225
0000d0 16 49 48 bc c6 b8 cc bc 97 b2 5a 3d a7 4c 64 3d
       -0.012224456 -0.02499045 0.053392973 0.055737164
0000e0 cd 44 0c bd 69 3a 6d 3d 1d 0a 91 bc b1 4f 18 bd
       -0.0342453 0.057917032 -0.017705018 -0.037185375
0000f0 71 6c 73 3c 17 00 f1 3c 19 87 8c bc ca 1a 13 bb
       0.014857397 0.029418988 -0.017154263 -0.0022446387

encoder.6.weight f4 [32, 64, 3]
000000 00 69 f3 3b f0 5c 14 bd a1 00 9c 3c c6 32 81 3d
       0.0074282885 -0.036221445 0.019043269 0.063085124
000010 1b 07 98 bc 02 66 23 3d 35 73 08 bd 92 04 e5 3c
       -0.018558076 0.039892204 -0.033312995 0.02795628
000020 d1 e0 07 3d f7 84 61 3d 95 26 4c bd 0c fc 7e 3d
       0.033173386 0.055058446 -0.049841482 0.06225209
000030 fc c3 a4 bc c7 22 9a 3d 7a ea f0 3c 17 d3 f4 bc
       -0.020112984 0.075261645 0.029408682 -0.029885812
000040 59 9d 6e bd 3e 2f 3c bd 42 1b be bc 44 9a 71 bd
       -0.058255527 -0.04594349 -0.023206357 -0.05898501
000050 9b 6b ae 3c 18 49 e7 3c b8 cf 96 bb 44 c6 3e 3d
       0.021291545 0.028233096 -0.0046023987 0.0465758
000060 51 63 92 b9 b0 89 75 3d 11 cd 46 3d 4f 3b 8d 3d
       -0.00027921287 0.059945762 0.04853541 0.06896078
000070 96 58 38 bd 7e 89 91 bc 27 b9 81 3c 2d bc 49 3d
       -0.045006357 -0.017765757 0.015835358 0.049251724
000080 65 2c 9e 3b 31 15 d9 3c 1b 7f 0a 3d 55 65 7b bd
       0.0048270696 0.026499363 0.033812623 -0.061375935
000090 1f 37 f8 3c 30 33 db bb 26 88 43 3d 46 5a 75 3d
       0.030299721 -0.0066894516 0.047737263 0.059900545
0000a0 6b 42 4a bd 3c 80 9d 3c f2 48 ea bc 39 75 1a 3d
       -0.049379747 0.019226186 -0.028599236 0.03770945
0000b0 26 c6 8d 3b f2 f3 fd 3c 45 4f 29 3a 79 8f 5a 3d
       0.0043265997 0.031000111 0.00064586505 0.053359482
0000c0 0e 5b 95 bd 94 29 12 bd 3d 57 ce bc 36 8c 2d 3d
       -0.07292758 -0.035684183 -0.025188083 0.042370044
0000d0 86 8b 48 3d a4 60 66 bd 64 32 cd 3c 09 60 85 3b
       0.048961185 -0.056244507 0.025048442 0.004070286
0000e0 5e dc 32 bd ce db 87 bd ed ff ab bc 18 37 59 3d
       -0.04366719 -0.06633721 -0.020996058 0.053031057
0000f0 3d 08 13 bd e2 f7 0d bd fc d9 5d bd 25 98 98 3c
       -0.03589653 -0.034660228 -0.054162964 0.018627236
000100 19 6a 1d 3d ac 70 8e 3d 71 ab 46 3c 24 32 4f bc
       0.03843126 0.06955084 0.012125836 -0.012646232
000110 09 69 86 bc 68 7a fe 3c 51 22 26 bd 48 cb 7f 3d
       -0.016407507 0.031064227 -0.04056007 0.062449723
000120 6d 5d 41 3d de 33 25 3d 9e 64 14 bd f9 a9 65 bd
       0.04720824 0.040332668 -0.03622877 -0.0560703
000130 65 a8 92 bd 8b 03 80 3d 7c bb 80 bd 21 6d 0d 3d
       -0.07161025 0.06250676 -0.0628576 0.0345279
000140 c7 61 a2 3d 00 50 4b 3d 91 49 ad 3b 9f f4 b0 3c
       0.07928806 0.04963684 0.005288311 0.02160102
000150 ae 9b f8 3b e4 57 9a 3b 4f 8e d6 3c 81 d5 d4 3c
       0.007586918 0.0047101844 0.026190905 0.025980713
000160 84 c8 68 3d 19 13 b3 bc 94 ae d3 bb 57 af b8 bc
       0.05683185 -0.021859692 -0.0064600203 -0.022544546
000170 de cb 73 bd 51 0d ce 3d 02 3a 83 3d 51 58 04 bb
       -0.059520595 0.10061134 0.064075485 -0.0020194242
000180 ec 1a 97 bd 2d a4 78 bd d5 70 63 3d 79 a3 96 bd
       -0.07378182 -0.060703445 0.055527527 -0.07355399
000190 eb e6 38 bd 2c 6f f8 3c 48 a0 81 bd 20 6d 62 3d
       -0.045142096 0.030326448 -0.06329399 0.05527985
0001a0 1d 00 a6 bc 62 75 15 3d 67 51 87 3d 3d bb 90 3d
       -0.020263726 0.036488898 0.06607323 0.07066963
0001b0 33 c5 d5 bc b2 de 88 3d 3c 06 a4 3b 19 90 ce 3c
       -0.026095008 0.06683101 0.005005626 0.025215195
0001c0 b2 4b 81 bd b7 99 24 3d 74 68 13 bd b2 15 4b bd
       -0.06313266 0.040185656 -0.035988286 -0.049581237
0001d0 2d c8 ff ba 7d d6 68 bd 71 1a 0d 3d 36 79 04 3d
       -0.0019514613 -0.056845177 0.034449045 0.03234216
0001e0 07 7a ce bd 90 f5 85 bc ff 8f de 3c 0d 20 89 3d
       -0.100818686 -0.016352445 0.027168272 0.06695566
0001f0 c6 c1 06 3d 0b dc 7d bd 40 07 98 bc 2b e1 0d 3d
       0.03289964 -0.061977427 -0.018558145 0.034638565
000200 71 d7 9f 3d 3d 27 fa bc 32 66 1a bd 6f 5e db 3c
       0.07804764 -0.030536288 -0.037695117 0.026778428
000210 64 7b 18 3d 99 5b 27 3d fa dc 48 bd 0b cd 0a bd
       0.03722705 0.04085884 -0.049038865 -0.03388695
000220 f5 2c 21 3d 67 1a 72 3c d7 72 8a bd 30 b8 b4 bb
       0.039349515 0.014776803 -0.06760185 -0.005515121
000230 82 e9 be 3c 64 3f a0 bc b6 b8 02 bd 84 fc f1 3c
       0.023304705 -0.019561477 -0.031914435 0.029539354
000240 0e dd f0 3c 45 da 7d 3d f0 57 61 bc 83 55 b5 bc
       0.029402282 0.061975736 -0.013753876 -0.022135502
000250 f7 1b 90 3d c0 cb a1 3d 27 6b 9c 3d ec c5 26 bb
       0.07036584 0.0790019 0.07637625 -0.002544756
000260 d5 02 a0 3c b5 26 1b 3d 77 73 65 bd 35 fa 40 3a
       0.0195326 0.03787871 -0.05601832 0.00073615025
000270 40 79 67 bd bb 26 96 bd 3f 67 a3 bc e8 b4 09 bd
       -0.056512117 -0.07331606 -0.019946693 -0.03361979
000280 00 8d 42 3d 76 77 34 bd f9 23 44 3b 84 56 6c 3d
       0.04749775 -0.04405924 0.0029928668 0.057699695
000290 17 90 37 3c 95 00 73 3d 95 57 54 3d 93 77 b6 bc
       0.011203787 0.059326727 0.051841337 -0.022273814
0002a0 f9 88 d9 bc 58 86 1c 3d e7 64 03 3d 26 30 ab bc
       -0.026554571 0.038214058 0.03207865 -0.020896982
0002b0 7b 26 1f 3d 4d d8 a5 3d 15 17 92 3d 32 54 8b 3d
       0.038855057 0.08097897 0.07133309 0.06803168
0002c0 46 03 6e bd 1d a1 c3 3b f3 63 05 3d 24 12 36 3d
       -0.05810859 0.005970134 0.032566022 0.044450894
0002d0 3d 07 aa 3c 6e dc af bb c1 70 f1 3c 42 2c 2b 3c
       0.020755405 -0.0053668534 0.02947271 0.010447564
0002e0 46 0c 17 3d 4b 8d 08 3d 33 2c 84 3c 86 39 1c 3c
       0.03687694 0.033337872 0.016134357 0.009535199
0002f0 cd c3 6d bc b0 98 74 3d aa c7 83 bd e4 c8 d1 3c
       -0.014512015 0.059715927 -0.06434567 0.025608487
000300 a8 d1 7b 3d 49 15 f0 bc 5d 29 a5 3c 05 14 8b bb
       0.06147924 -0.029307025 0.020161325 -0.00424433
000310 5f 1f d0 bb f6 39 b3 bd 53 90 47 bd 6a 77 46 bd
       -0.006351396 -0.087512895 -0.048721623 -0.048453726
000320 e5 cb 27 3d d4 fa 83 b9 a3 f1 42 bd b3 aa 90 3d
       0.040965933 -0.0002517315 -0.047593724 0.07063808
000330 dd ee 62 3d ff ef 1a bd de 5e 18 bd 79 c9 63 3d
       0.05540358 -0.037826534 -0.037199847 0.05561206
000340 2c 3f dd 3c 78 97 32 bd 96 94 f8 3c fc cf f0 3c
       0.027007662 -0.043601483 0.030344289 0.02939605
000350 70 f1 25 3d 34 f0 8b 3d fb e9 00 bd 59 40 85 bd
       0.040513456 0.068329245 -0.03147314 -0.06506414
000360 44 89 2d bc 8b 88 b4 bb 2d 1c 35 bd ae 5e d9 3c
       -0.010591809 -0.0055094413 -0.044216324 0.026534405
000370 40 3e be 3d 1f 81 70 3d e6 7b 06 bd 9b 33 2b bd
       0.09289217 0.05871689 -0.032833003 -0.04179726
000380 22 27 56 3d d4 bf 0c 3c 21 d3 27 bd 62 ba 40 bd
       0.052283414 0.008590657 -0.040972833 -0.04705275
000390 ce 9d 96 3d cc 92 16 3b 21 2a 29 3d d3 1e d9 3c
       0.073543176 0.0022975681 0.041299943 0.026503956
0003a0 eb 95 c0 b7 de 70 fd bb 84 b2 51 3d 3f 0d 8f 3d
       -2.2957995e-05 -0.007734402 0.051195636 0.06984948
0003b0 5b 45 43 3c 58 8a f4 3b 38 27 69 3b a1 02 ac 3d
       0.011918391 0.007462781 0.0035576355 0.08398939
0003c0 68 69 6d bd c3 1f 07 3a 0f 57 70 3d a0 7e 74 bd
       -0.05796185 0.0005154574 0.058676776 -0.05969107
0003d0 2e 58 04 3d d3 c1 06 3b b0 b5 40 bc 2e 43 33 3d
       0.032310657 0.0020562306 -0.011762068 0.04376524
0003e0 92 89 7c 3b 0c d5 34 bd 1e a3 ff 3b d3 3a d4 3c
       0.0038534147 -0.04414849 0.0078014275 0.025906956
0003f0 07 03 a4 3c 95 f7 da 3c 2e db cc bd 51 a7 00 3d
       0.020020975 0.026729384 -0.10002743 0.031409565

encoder.6.bias f4 [32]
000000 b9 6d 22 bd d2 a3 80 bd 13 19 0b bd 0b 00 1b bd
       -0.03965542 -0.06281246 -0.03395946 -0.037841838
000010 b9 e0 6b bc bc 5c 8d bd 49 b3 59 3d a1 c1 c5 bc
       -0.01439684 -0.06902453 0.053149495 -0.024140181
000020 04 b8 7a 3d 46 79 75 bd cd 5c 67 bd 1e 32 27 bc
       0.061210647 -0.05993011 -0.056484986 -0.01020482
000030 26 9b f3 bc bf 15 4b bb 7f 99 e0 bb ad f1 7f bd
       -0.029737066 -0.0030988303 -0.0068542357 -0.06248634
000040 ee f0 00 3d c2 58 86 3b 23 90 4f bd 82 e3 38 3d
       0.03147977 0.004099936 -0.05067457 0.045138843
000050 01 88 46 b9 75 dd 3a 3c 5d 8e 73 bd 1b 51 a2 3b
       -0.00018933417 0.0114053385 -0.05946194 0.004953516
000060 86 bc 21 3d 5d db a1 3c 25 ee 0d bd d6 93 56 bb
       0.03948643 0.01975792 -0.03465094 -0.0032741926
000070 5a ce 3e 3d a2 10 5f bd 83 76 00 bd b0 31 14 bd
       0.04658351 -0.05445922 -0.03136302 -0.0361802

decoder.0.weight f4 [32, 64, 4]
000000 36 3b f8 3c 02 77 af bc bf 50 39 3d 23 14 78 3d
       0.030301671 -0.021419052 0.04524302 0.06056608
000010 6c d6 74 bd 5b 01 61 bd 84 f0 2f bc 13 0a 74 3d
       -0.0597748 -0.054932933 -0.010738496 0.05957992
000020 eb b6 73 bd 7a 65 8d bb 9e ea 08 3c bb ff 88 3d
       -0.059500616 -0.0043150755 0.008356718 0.06689402
000030 88 ad cd bc 6e c5 dd 3c 58 47 c2 3c 4e 2b 04 bd
       -0.02510716 0.02707168 0.02371566 -0.03226786
000040 b0 89 f6 3a 03 f1 ad 3c 57 e6 8b bd f0 08 50 3c
       0.0018809345 0.021233087 -0.06831043 0.012697443
000050 cd 75 e5 bc 65 5c fb bc c2 30 20 3d 54 b2 1c 3d
       -0.028010273 -0.030683706 0.039109 0.038256004
000060 c5 75 77 bc a1 cd 57 bb 45 64 ed 3c 05 7c f4 bb
       -0.015103762 -0.003292896 0.028978476 -0.0074610733
000070 28 08 dc bc 82 98 32 bd f0 f7 3b bd 00 d0 71 3b
       -0.026859358 -0.043602474 -0.04589075 0.003689766
000080 8f 93 b8 3b 87 7c f1 3c 09 6b 99 3b 7e 27 21 bd
       0.0056328247 0.029478325 0.004681949 -0.039344303
000090 b1 0b 26 3d 91 d1 b6 bc fe 28 6f 3d b8 3a 65 3c
       0.040538494 -0.022316726 0.058388703 0.01399105
0000a0 b2 60 20 3d e9 cd f4 3c 52 80 6d bd 18 a7 76 3c
       0.039154716 0.029883342 -0.057983704 0.015054487
0000b0 08 fd e4 3c 9c f5 57 3d e9 6d 66 3d c3 89 28 bd
       0.027952686 0.052724466 0.056257162 -0.041147005
0000c0 e2 19 91 bc 6e 27 46 ba cf 69 22 3d c2 90 df 3c
       -0.017712537 -0.0007558976 0.03965169 0.027290706
0000d0 b6 e1 03 3d 85 41 59 bd 26 cf 34 3d 29 1c 0d bc
       0.032197677 -0.053041 0.044142865 -0.008612671
0000e0 69 44 82 ba 98 1b 5e 3d fd 0f e7 3c 59 08 25 bd
       -0.0009938601 0.054225534 0.028205866 -0.040291164
0000f0 75 e5 37 3c c4 f6 d8 3b 52 b3 f6 3c 14 c0 4d 3d
       0.01122414 0.0066212136 0.030114803 0.050232008
000100 5b 0f 49 3d ce a8 0e 3d e9 23 84 3d a4 38 26 bb
       0.04908691 0.034828953 0.06452162 -0.002536335
000110 2c f6 4b 3c 4c 7b e9 bc 80 63 49 3c cb 9a fd 3c
       0.012448829 -0.028501175 0.012291789 0.0309576
000120 ab 4f 8e 3b dc 86 3d bd 35 67 85 3d bd 8f 90 3b
       0.0043429933 -0.04627119 0.06513826 0.004411666
000130 51 98 3c bd 38 92 80 3c 13 56 e9 bc c3 72 5a bd
       -0.046043698 0.015694723 -0.028483426 -0.0533321
000140 f1 9b 1d 3d c5 43 4a 3d e0 a8 70 3d d1 48 3d 3d
       0.038478795 0.049381036 0.0587548 0.04621202
000150 b3 5e 99 3c 5f 79 21 3d 04 bf 11 bd a7 17 8e 3d
       0.018721914 0.03942239 -0.035582557 0.06938105
000160 d2 76 9d 3b 97 05 cc bc be c0 f0 3c b1 df dc 3c
       0.0048054243 -0.02490501 0.029388782 0.026962133
000170 0d 6b 88 bc a3 c3 2f 39 37 14 04 3d b9 84 9e 3c
       -0.016652608 0.00016762181 0.03224584 0.019350396
000180 2d 11 5b 3d 0d f5 3a bd 1d 09 0a bd 77 ef 1f bd
       0.053483177 -0.045643855 -0.033700097 -0.03904673
000190 25 34 c4 3c bc fb fc 3c 99 a9 a1 bc cb 8e 8c bc
       0.023950646 0.030881755 -0.01973419 -0.017157933
0001a0 56 cb 4d bd 19 48 7c 3d 2e 01 1d 3c 04 cd 56 3d
       -0.050242744 0.061592195 0.009582801 0.052441612
0001b0 38 39 70 bc 75 73 cc 3c 0a 91 3d 3d e6 2e 6b bd
       -0.0146620795 0.024957398 0.0462809 -0.057417773
0001c0 ae 20 a9 bb 5e c3 d0 bc 7d bb 98 3c d3 c8 51 3d
       -0.0051613664 -0.025483783 0.018644089 0.05121691
0001d0 f1 50 1a 3d 92 08 9d 3a f1 10 c4 3c 72 63 61 bd
       0.037674848 0.0011980704 0.02393386 -0.05502648
0001e0 6c 6a a6 3c 1f d9 28 bd ed 9e b6 bc 05 fb c4 3c
       0.020314418 -0.041222688 -0.022292579 0.024045477
0001f0 b1 33 f2 3a 0e 36 cd 3c 61 4d 28 bd 72 24 6a 3d
       0.001847854 0.02505019 -0.04108942 0.057163663
000200 e2 23 0b 3d 2e 77 32 bd e2 51 67 3d f6 3c 75 bd
       0.033969767 -0.04357069 0.056474574 -0.05987259
000210 1a 4f a4 bc e5 c1 4a bd 9f cd 07 3d d4 64 76 3d
       -0.02005725 -0.04950132 0.03315508 0.06015475
000220 0a 83 bf bd 88 7c 10 3d 47 32 f6 bc 24 0c 34 bd
       -0.093511656 0.035275012 -0.030053271 -0.04395689
000230 e1 f7 38 bd f5 85 02 3d fc 8e 6e 3d c8 af 32 bd
       -0.04515827 0.031866033 0.05824183 -0.04362467
000240 61 d8 88 3c 69 9a 57 bd b6 67 90 bd 2b 75 8a 3c
       0.01670474 -0.05263749 -0.07051031 0.016901573
000250 44 22 b8 bc e3 58 76 3d bf bc ea 3c 97 cc 0d bd
       -0.022477277 0.060143363 0.028654454 -0.03461894
000260 12 ae 48 3d 7f 64 d0 3c 12 73 83 3c e1 b9 55 bd
       0.04899413 0.025438545 0.01604608 -0.05217922
000270 09 a7 c4 bc e8 69 ff bc eb 17 0a bb 8a e3 4a bc
       -0.02400543 -0.03117843 -0.0021071385 -0.012383351
000280 07 33 24 3d 49 b7 f9 3a 96 62 92 bc 3e de 62 3d
       0.040087726 0.0019051816 -0.017869275 0.055387728
000290 17 fb 9d 3c fb 09 3f bc 48 59 0f bb 9b 93 e5 3c
       0.019284768 -0.011660094 -0.0021873284 0.028024485
0002a0 ab 7d 05 3d 1b 09 10 3d 0f b7 0e bc 05 91 a1 bb
       0.03259055 0.035164934 -0.008710637 -0.0049306178
0002b0 94 c8 6f 3d c8 1e 00 bd 1a df 72 3a 23 a0 35 3d
       0.058540896 -0.031279355 0.0009264812 0.04434217
0002c0 3c 37 60 bc 83 58 48 3d 52 26 7d bd ce 83 a5 bb
       -0.013685044 0.048912536 -0.061804123 -0.0050511127
0002d0 5d 55 20 3d ab 6a dd bc be 54 b6 bc ed 43 cc 3c
       0.03914391 -0.027028402 -0.022257205 0.024934733
0002e0 ed 45 0a 3c e0 12 ea 3c 87 22 1c bd 55 70 f3 3c
       0.008439523 0.028573453 -0.038118865 0.02971665
0002f0 29 f4 1a bd d8 b1 4e bd 41 24 94 3c 35 72 a9 bd
       -0.037830506 -0.050462574 0.018083693 -0.082737364
000300 6b b9 0f 3d 80 5a 4b 3c 86 e1 d1 bc 83 83 82 3c
       0.035088938 0.012411714 -0.025620233 0.01593185
000310 fd 82 88 3c a5 a5 3a 3b b4 e9 72 3d 6b 09 b3 bd
       0.016664023 0.002848008 0.059304908 -0.08742031
000320 47 00 0d bd fc 45 de bc 0c ac 60 3d db dd 64 3b
       -0.034424093 -0.02713298 0.054851577 0.0034922275
000330 8f 94 95 3c 5f 2c 1e bd ee 19 61 3c 5c 73 86 3d
       0.018259315 -0.038616534 0.013739092 0.06564972
000340 ad 9c 78 3c 09 18 30 bd 40 52 a5 3c 15 50 2d bd
       0.015174073 -0.04299167 0.020180821 -0.0423127
000350 62 ee 97 3b 42 a3 79 3d 58 d4 49 bd 1a bc 46 bd
       0.0046365717 0.06094671 -0.049274772 -0.04851923
000360 a0 ef 41 bd 3c 96 33 bd 0d 85 29 bc 45 e0 1a 3d
       -0.047347665 -0.043844447 -0.010346663 0.037811536
000370 5d d0 ad bd 89 b7 c6 bc 32 bb 16 bd 1e da 95 3c
       -0.08487008 -0.024257438 -0.036799617 0.018292483
000380 f9 c9 3d bc 69 5e 6d bd 34 b8 10 3d 4f d2 d8 bc
       -0.011583799 -0.057951365 0.03533192 -0.02646747
000390 23 2e d5 3c 30 06 62 3c aa 3c 8a bc 13 89 5e 3b
       0.026022976 0.0137954205 -0.01687463 0.0033956214
0003a0 fe 67 b0 3c 95 56 52 3d 12 12 5d 3d c5 0f 23 bc
       0.021533962 0.051352102 0.05397231 -0.00995249
0003b0 1f f2 61 bd f1 02 70 3d a8 3f 37 3d 6c 27 83 3c
       -0.055162545 0.058596555 0.04473844 0.016010009
0003c0 c4 2a 09 3d 01 f9 22 3d 07 8e 2c bd 92 bf 7e 3b
       0.03348805 0.03978825 -0.042127635 0.003887151
0003d0 18 fd e2 bb de f2 4c 3d 58 6d 6d 3d 4c 7a 19 3d
       -0.006927144 0.050036304 0.057965606 0.037470147
0003e0 90 6d fd 3c c6 7e 14 bd 90 08 f1 3b 9e a9 1c 3d
       0.030936033 -0.036253713 0.007355757 0.038247697
0003f0 75 80 2b 3d ac ee 1f 3d 95 3f d3 3c 91 e7 32 3a
       0.041870553 0.039045975 0.025787154 0.0006824667

decoder.0.bias f4 [64]
000000 0b 89 59 ba 5e a4 92 3b 5c 58 a7 bc 61 ef 9c 3b
       -0.0008298314 0.0044751605 -0.020427875 0.0047892784
000010 cf 69 71 bd 5d 57 e9 bb 4b 10 0c 3b 72 33 b3 bc
       -0.058938798 -0.00712101 0.0021372016 -0.021875117
000020 93 b1 64 bd c4 d3 b0 3c 35 26 85 3d bf c1 cf 3b
       -0.05583341 0.021585353 0.06501428 0.006340235
000030 88 1b 3f 3d a8 fb 3c 3d 17 06 a7 bc a2 3a 0b bc
       0.046657115 0.046138436 -0.020388646 -0.008497866
000040 ff fd 80 3d 3d d9 8f ba ed 51 55 3d b3 66 15 3c
       0.06298446 -0.0010974776 0.052080084 0.009118724
000050 fd 1a 4d bd 28 28 1a bd 12 2e 0d bd b7 5a 8e bc
       -0.050074566 -0.037635952 -0.034467764 -0.01737724
000060 36 68 3c 3d 99 97 60 bd 6a cc 96 bb 2d 46 07 3c
       0.04599782 -0.054832075 -0.004602005 0.008256477
000070 33 2b 1a bd 30 06 2a 3d f8 db e9 3b 49 38 66 3d
       -0.037638854 0.041509807 0.007136818 0.05620602
000080 81 fd 0e 3d ad 62 16 bc 70 0a e2 39 ef 8f 51 bb
       0.03490973 -0.0091788 0.00043113856 -0.003197666
000090 94 d2 e1 bc 2c 33 ef 3c ce 43 7e 3d 36 58 1b bc
       -0.027566232 0.029199205 0.062076382 -0.00948148
0000a0 e7 1f 5f 3d db bd ba bc 7c c8 79 3c d8 b7 79 3c
       0.054473784 -0.022795608 0.015245553 0.015241586
0000b0 47 98 75 3a e5 3e 4b 3c b2 11 cd 3b 10 1c 9f ba
       0.00093686994 0.012405132 0.006258213 -0.00121391
0000c0 79 a1 04 3d 4c cf 0d bb 63 e3 57 bd 9d 19 6e 3d
       0.032380555 -0.002163845 -0.052707087 0.058129895
0000d0 b2 91 4c bd 55 b7 9e bb 0d d7 90 3c 98 d3 47 bc
       -0.049943633 -0.004843632 0.01768067 -0.012196444
0000e0 31 c9 d7 3a 09 f5 ac 3c e2 70 b8 bb 1f 8d 6c bd
       0.0016463158 0.021112936 -0.005628691 -0.05775177
0000f0 6d a9 8c 3d 10 63 3d bd 88 61 54 bd 68 d9 b4 3c
       0.06868253 -0.04623705 -0.051850826 0.022076324

decoder.2.weight f4 [64, 128, 4]
000000 94 c8 a1 bc 4e 39 9a 3c ff c4 c5 3c 4b 82 72 3c
       -0.019748963 0.018826153 0.024141787 0.014801572
000010 77 91 2b bd a7 23 39 3d 56 7d 8e 3a 1a 75 1c 3d
       -0.041886773 0.045200016 0.0010871093 0.038197614
000020 5b 41 5a 3c 0c 1c 10 3d b0 b0 3b 3d 45 39 24 bc
       0.013321246 0.035182998 0.0458228 -0.01002342
000030 e2 2d 2c 3d 19 7c 2d bd 50 0e f3 bc 7e 26 06 3d
       0.042035945 -0.042354677 -0.02966991 0.032751553
000040 6c e0 5a bd 45 ca b0 3c da 67 dc bc 5a 47 a3 bc
       -0.05343668 0.021580825 -0.026904989 -0.019931484
000050 5c 2b 36 ba f3 7a a1 3a d4 84 33 3d 03 2a 34 3d
       -0.000694921 0.0012319967 0.043827847 0.043985378
000060 dd d6 1c bc 2d ee 99 3c 33 c4 7a bc 1c 0f 20 bc
       -0.009572712 0.018790329 -0.015305567 -0.009769227
000070 1c ca dd bc 32 8c ae bd 46 0e a1 3c 79 44 bd bc
       -0.027073912 -0.08522834 0.019660126 -0.02310394
000080 2f 18 de bc 79 ee e2 bc b6 fa a1 3c d1 5c 37 3c
       -0.027111141 -0.027701603 0.019772869 0.011191563
000090 55 a1 e7 3c ad 55 13 3d 66 b9 bb bc 18 cc 9f bc
       0.028275171 0.03597038 -0.022915553 -0.0195065
0000a0 04 c5 25 bb ba 38 a1 bc 64 71 07 bd 89 93 07 3c
       -0.0025294432 -0.01968037 -0.033067122 0.008274921
0000b0 ab 7c cb bc e8 89 d2 3b 32 bb dc bc 03 41 08 3d
       -0.02483972 0.006425131 -0.02694473 0.033265125
0000c0 a0 f1 c8 bc f2 38 89 bc 8e db 04 bd ae 1e 94 3c
       -0.024529278 -0.016750786 -0.032435946 0.018081035
0000d0 ea eb 31 bd 6b 0d fa bc 59 18 bb 3c ae 3c 26 3d
       -0.043437876 -0.030523976 0.022838758 0.040585212
0000e0 c2 75 c1 bc 4e b2 0c 3d 71 fa 5f bc b3 83 0d bd
       -0.023615722 0.034349732 -0.01367055 -0.034549426
0000f0 39 c5 8f 3a 8c c5 09 bd 09 33 d1 3c 47 93 3a 3c
       0.0010968811 -0.03363566 0.02553703 0.011387653
000100 2b 1f 0e 3d 85 f1 75 bc 5f 53 1a 3d 60 d8 cc 3a
       0.034697693 -0.015011196 0.037677165 0.001562845
000110 df 32 18 bd 6d 81 04 3d dc a0 01 bd d4 d3 52 bc
       -0.03715789 0.032349993 -0.031647548 -0.012867887
000120 b9 cc 2c 3d 0d 87 a3 bc 23 ab 1a 3d 0f 6c c1 3b
       0.042187426 -0.019961858 0.037760865 0.005902774
000130 96 da 3a 3d 01 15 d0 bc fd c6 a9 3c b5 e0 41 3c
       0.045618616 -0.02540064 0.020724768 0.0118333595
000140 b4 08 ad bc 3f 65 ba bc 28 a1 08 3a 1c 3d cd 3c
       -0.021122314 -0.022753356 0.00052120024 0.025053553
000150 b9 f0 de 3c ec e9 33 3c 09 c1 07 bc d5 a0 0d ba
       0.027214395 0.010981064 -0.008285769 -0.0005402689
000160 62 cd 90 bc 7f 2f ad 3c 2c 96 99 bc d9 95 c4 3c
       -0.01767606 0.021140812 -0.018748365 0.023997234
000170 02 d0 2e 3a c5 e7 bf bc 30 f3 1e bd 56 e0 41 bb
       0.0006668569 -0.023425946 -0.03880614 -0.0029583178
000180 1e 23 25 bd 2d cf cc 3c 2e 6b ab 3c fa 7b d0 3c
       -0.040316693 0.025001133 0.02092513 0.025449742
000190 c2 a7 30 3d 17 f9 09 3d d6 01 b0 3b d9 a5 e9 3c
       0.043128736 0.033684816 0.0053713126 0.028521465
0001a0 09 11 e8 3c fd 6f 24 3c 07 4d 07 bb 31 d5 24 3d
       0.028328435 0.010036466 -0.0020645277 0.040242378
0001b0 87 5c 05 3d 9d 0b 16 bd b7 cb 81 bc bc 01 0f 3c
       0.032558944 -0.03663217 -0.01584421 0.008728441
0001c0 99 75 06 3d ac 68 08 bd 1f 44 e1 bc 42 7e 22 3d
       0.032826994 -0.033302948 -0.027498303 0.03967119
0001d0 92 b9 80 3c d9 27 01 3d 7b 09 27 bc 75 92 44 3d
       0.015713487 0.031532142 -0.010195131 0.047991235
0001e0 d9 d2 2b 3d 30 da 06 bd 7e bf 20 bd 4a e5 f6 bc
       0.041949127 -0.032922924 -0.03924512 -0.03013863
0001f0 36 50 19 3d bd 2b 16 bd 35 25 ac 3c 8e 66 8d 3c
       0.03743001 -0.036662806 0.021013835 0.017260816
000200 c1 8d 26 3c 8b bd ad 3c 2c a8 23 3c dd 38 50 3c
       0.010165633 0.021208545 0.009988826 0.01270887
000210 0b 40 14 bd 31 7c a4 3c ae 6e 9b 3a 3e e7 ee 3c
       -0.03619389 0.02007875 0.0011858547 0.029163
000220 aa 6c e8 3a 60 7f b4 bc 99 f3 23 3d 79 e0 e9 ba
       0.001773258 -0.022033393 0.040027235 -0.0017843387
000230 00 3e 1e 3d 51 a0 0e bd 37 22 ed 3c fd 60 29 bd
       0.038633347 -0.03482086 0.028946979 -0.04135226
000240 b9 3f db 3c cf 76 9f 3c 36 8a 3a bc 97 01 18 3d
       0.026763784 0.019465832 -0.011385491 0.03711089
000250 a0 0a 29 3d 8d 1a 68 bc eb 61 6b 3c 40 1b af 3c
       0.0412699 -0.014166486 0.014366607 0.021375299
000260 fa a3 0b bd 98 fe 8f bc d8 ce 42 3c 65 87 f7 3c
       -0.034091927 -0.017577454 0.011890136 0.030215928
000270 60 3f b9 3c bc e0 14 bd 2c ae ba bc 0c 11 8b 3b
       0.022613227 -0.036347136 -0.02278813 0.0042439755
000280 2c c7 96 bc 9a 17 ab bc 75 d5 30 3d 8d dc d0 3c
       -0.01840552 -0.020885278 0.04317232 0.025495792
000290 c9 1a 5e bb 1c c8 08 3d 63 da cb 3c 01 55 22 bd
       -0.0033890477 0.033393964 0.024884408 -0.039631847
0002a0 02 ab 86 3b 72 a3 88 bd d1 5d 07 3d 28 84 9a bc
       0.004109741 -0.066718 0.033048455 -0.018861845
0002b0 20 dd aa 3a 9d 7f 8d 3c 1f 1e 8f bc 70 d6 7e 3b
       0.0013035871 0.017272765 -0.017470418 0.003888514
0002c0 9f a0 13 3d 84 ae 15 bc a3 61 14 3d b7 c8 c7 bc
       0.036041852 -0.009135846 0.036225926 -0.0243877
0002d0 40 10 47 3c a6 a0 1f bd 86 a2 9c bb b7 80 b2 bc
       0.01214987 -0.038971566 -0.0047801165 -0.021789892
0002e0 6a 55 ca bc b2 b9 83 bb 38 8b 2a 3c 96 c0 22 3d
       -0.024698932 -0.0040199393 0.010409169 0.039734446
0002f0 aa df f6 3c 83 6b 05 3d 03 54 d2 bc 8f 44 75 bc
       0.030135948 0.032573234 -0.025674826 -0.014969959
000300 3a f1 34 bc c8 77 93 bb d5 29 8d 3c 05 93 21 3d
       -0.011043841 -0.004500363 0.017231861 0.03944685
000310 0b 97 86 3c 07 e9 ef 3b e4 dc 44 bd b7 51 7e bc
       0.016429445 0.00732148 -0.04806222 -0.015522412
000320 93 d1 d7 3c 80 0e 44 3d 38 70 41 ba bd 28 31 bb
       0.02634505 0.04786539 -0.00073790876 -0.0027032339
000330 dd be 20 bd cf 95 c2 bc b1 9c 78 3c 31 90 ee 3b
       -0.03924452 -0.023753075 0.015174077 0.0072803725
000340 1c d0 02 3d b9 ed f0 3c f1 b2 18 bd 73 88 8d bb
       0.03193675 0.02941023 -0.037280027 -0.0043192445
000350 8d 94 48 3c c3 2b fd bc c3 8a 2a bd 99 9e ed bc
       0.0122424485 -0.030904656 -0.04163624 -0.02900629
000360 a4 a4 38 3c 57 c2 31 bd c2 4d 60 3c 39 cf d2 bc
       0.011269722 -0.043398228 0.013690414 -0.025733577
000370 d5 03 01 bd 61 60 6d 3b df a9 b7 bc b8 bf 24 3d
       -0.031497795 0.0036220776 -0.022419868 0.0402219
000380 bb f2 2f 3d c2 4a b3 bc ec 5c ca bc 3b 87 08 3d
       0.042956095 -0.021886233 -0.024702512 0.03333209
000390 6d aa b9 3c 44 ac 05 bc ca 22 c8 3c 04 3f f6 3b
       0.022664273 -0.008158747 0.024430651 0.0075148363
0003a0 98 fb 61 bc 93 79 c7 3c 37 ad 0e 3d 29 24 0c bc
       -0.013792895 0.024349963 0.03483316 -0.008553543
0003b0 6e fd 88 3b 0e 46 23 3d e5 af 31 3d 00 87 b2 3c
       0.004180602 0.03986173 0.043380637 0.021792889
0003c0 12 3b 15 bd 00 29 81 bc 0a b9 97 3b 57 7e c9 3c
       -0.036433287 -0.01576662 0.0046302127 0.024596376
0003d0 2b b2 ad 3c 49 56 81 3c cc 06 ba bc 20 d8 e8 bc
       0.021203121 0.015788214 -0.02270832 -0.028423369
0003e0 d8 c3 fd 3c 96 c6 08 bd 46 26 08 bd bb 57 e5 3b
       0.030977175 -0.03339251 -0.033239625 0.0069989837
0003f0 cb f4 4c 3b e3 87 2c 3d 2f 45 a2 3c b0 52 11 3d
       0.0031273838 0.04212178 0.01980838 0.035479248

decoder.2.bias f4 [128]
000000 ce ff b2 3a ab ab b1 bb 2e 0a 1f 3c 14 73 e8 3c
       0.0013656558 -0.0054220757 0.009707017 0.028375186
000010 4b f9 0a 3d 38 c2 e2 3c 0c 79 15 bd 45 52 7b 3b
       0.03392915 0.027680501 -0.036492392 0.0038348597
000020 29 82 97 3a a1 a2 01 3d 19 d6 31 bd 0e b1 47 bc
       0.0011559176 0.031649236 -0.04341707 -0.012188209
000030 25 11 f0 ba 31 1f d3 3c 51 64 ad bb 6b d1 30 3d
       -0.0018315656 0.02577171 -0.0052914997 0.043168467
000040 c6 58 ea bc a7 26 06 bc 25 b8 0d bd d5 34 42 3d
       -0.028606784 -0.008187926 -0.034599442 0.047413666
000050 b1 d6 16 bd 02 0f 2b 3d ae c5 bb bb 7b 69 aa 3c
       -0.03682584 0.04176236 -0.0057303524 0.02080225
000060 02 c6 ae bb b2 dd 04 bd 17 91 cb 3c f7 28 b0 bb
       -0.005333663 -0.032437988 0.024849458 -0.005375977
000070 e2 10 04 bb ed 8f 05 bd 9d f8 05 3d f4 05 d7 3c
       -0.0020151665 -0.03260796 0.0327078 0.026247956
000080 fa 0e 2c 3d 06 ff c2 3c 20 01 b2 3c e5 45 aa 3c
       0.04200647 0.023803245 0.021729052 0.020785281
000090 63 75 83 3c c5 1a 0e 3c 9a 1b 23 3d 2d bf 31 bc
       0.016047185 0.008673375 0.039821245 -0.0108488025
0000a0 09 27 25 bb 26 19 42 3d b5 04 2d 3c 5e aa c9 3c
       -0.0025200269 0.047387265 0.010560204 0.02461737
0000b0 a7 ee e1 bc 5b 3a 2e bd 78 ef 30 bd 4e 37 2a bd
       -0.027579619 -0.04253612 -0.043197125 -0.04155665
0000c0 99 c1 17 bd 6f b7 2d 3c 5c aa cd bb 55 a2 05 bd
       -0.037049863 0.010602816 -0.006276412 -0.032625515
0000d0 4b df 0b bc a9 b2 6e bb 23 19 d0 3b bd a9 94 3b
       -0.008537124 -0.0036422408 0.006350653 0.004536836
0000e0 13 55 6b bc e6 a9 1c 3d a8 ea 0e 3d c9 49 f8 bc
       -0.014363545 0.038247965 0.034891754 -0.030308621
0000f0 b2 d4 26 3b 32 2a db ba d9 c5 b3 3c 43 63 f9 bc
       0.0025456366 -0.0016720949 0.021944927 -0.03044284
000100 0a 18 0c bb 00 df 66 bc 6d 0d 1c bb 85 37 7b bc
       -0.0021376633 -0.014091253 -0.0023811713 -0.015333061
000110 bd 7b d2 ba e7 46 0d 3c 5d 27 8a bc 55 54 2e bd
       -0.0016058605 0.0086228615 -0.016864473 -0.042560894
000120 0f 82 50 3c 05 f7 5f 3b 2d c8 4b 3c 40 27 4d 3c
       0.012726321 0.0034174335 0.012437862 0.012521565
000130 c3 35 70 3c 41 50 41 bc 8d 31 0f bd 17 1a 9b ba
       0.014661255 -0.011798919 -0.034959365 -0.0011833337
000140 86 2d 39 bc 0c 4d e0 3b ec 65 6a bc 01 1e 86 3b
       -0.011302358 0.006845122 -0.014306527 0.004092932
000150 5b 68 d0 bc c3 49 7a bd 88 59 ae 3b 44 ee 7a bc
       -0.025440386 -0.0611055 0.0053207316 -0.015315596
000160 d7 d1 e4 3b 15 73 01 3d e7 f6 70 bc ac 05 18 3d
       0.0069830227 0.03160389 -0.014707304 0.037114784
000170 ed 60 3f bd 9a fb 84 3c d3 21 19 3d b8 89 1c 3c
       -0.046723295 0.016233254 0.037385773 0.009554319
000180 a7 20 06 bd d0 8d f7 3c 66 bf 23 3d 04 2b 65 3c
       -0.032745983 0.030218989 0.039977454 0.0139873065
000190 c2 50 63 bd cb f9 49 3c e9 12 9c 3c 6e b8 fb 3b
       -0.05549694 0.012327622 0.019051986 0.007681898
0001a0 d3 eb 41 3d a3 8e be bc c1 83 11 3d 23 b2 8f bc
       0.04734404 -0.023261374 0.03552604 -0.017540997
0001b0 32 2a cd 3c 79 99 99 3c 44 68 12 bd 3a d2 81 bc
       0.025044534 0.01874994 -0.035743967 -0.015847314
0001c0 dc d1 1f bd e1 65 e7 3c 41 f1 0b bd 76 c5 0f bd
       -0.039018497 0.028246822 -0.034165625 -0.035100423
0001d0 43 c0 6f 3c 41 a9 84 3c 6e 10 0b 3d 79 7a 8f bb
       0.014633241 0.016193988 0.033951215 -0.0043786136
0001e0 5b ce f7 3c 6f 7d 92 39 03 cd cd 3c 5e 30 60 bc
       0.030249765 0.00027940745 0.025122171 -0.013683407
0001f0 89 aa af bc 9e eb ee bc 60 64 4e 3b f5 cd 7d 3c
       -0.021443622 -0.029165085 0.0031492934 0.0154909985
