notebooks/lightning_logs/version_1/checkpoints/epoch=0-step=1351.ckpt (torch, 27867 bytes, 30 tensors)

encoder.0.weight f4 [16, 1, 1]
00000000: 4653 8bbe 0081 9bbd 185b 05bf 440d dabe
00000010: 4091 6cbd 9b30 a83f d191 0dbf 9e00 8b3d
00000020: 0a23 65bf cc92 8a3f 5b7b b23a 5dc2 2d3e
00000030: e625 113f b355 1d3f 23e7 0c3f 67f0 d7be
-0.2721197 -0.07592964 -0.52092123 -0.42588246 -0.05775571 1.3139833 -0.55300623 0.06787227
-0.8950659 1.0826049 0.0013617085 0.16968675 0.56698453 0.6145889 0.55040187 -0.421756

encoder.0.bias f4 [16]
00000000: 6f15 253e b41c 17bf 2d3c 6c3f f395 703f
00000010: c4f9 8fbe 5a2c 6abe fef2 a73d b8b6 633f
00000020: 54bc 213f 236a 5a3f b967 7c3f 4434 3f3f
00000030: d9cd 223f 0f36 223f 1686 543f 3d2a 0e3f
0.16121458 -0.5902817 0.9227932 0.93978804 -0.28120244 -0.22868481 0.08200644 0.8895068
0.6317799 0.853182 0.9859577 0.74689126 0.6359535 0.63363737 0.830171 0.555332

encoder.3.weight f4 [8, 16, 3]
00000000: 39b8 c5bd 8503 f43d 257d 0fbe 66d0 b1bd
00000010: e366 80bd d8e5 e6bd 092f 4a3b e7ac efbd
00000020: c035 d13b e8b4 003e e21a 44bc 38da fdbd
00000030: 0093 10bb 8f0c f1bd e6ab bc3d 3619 00be
00000040: 4b26 2c3d cc3e 27bd 0c01 c93d 9aa0 cdbd
00000050: e037 c23b 8349 c73d 35a9 b9bd b2bc 59bd
00000060: 90da 92bb 0f35 a0bc bfd0 07be 250d 78bd
00000070: c6c8 843b 069e 07bd b0df 983a 3461 15be
00000080: 6f6a 8fbd 53f4 4dbb 9c63 14be a842 123e
00000090: 59c5 c53d 9e38 c03d f6ca 32bd 373d 063e
000000a0: 8213 e2bd 2005 e3bd ad1e cc3d f178 b9bd
000000b0: 4255 853d 95f5 ea3d 8c29 aabc ecc5 e6bd
000000c0: 6632 b9bd f42d 0f3e bc69 ec3d 00ae 11be
000000d0: 544d 44bd f43f ad3d 2028 a83c d463 e2bc
000000e0: d339 02be 7cdc 6f3d c0b8 473d 4039 c83c
000000f0: 5676 19bd b4ad 73bd 6c44 ad3d d8fe 2abd
00000100: 1e2c f4bd 80ad 093e 2a83 7abd 6889 723d
00000110: b6e2 02be 8175 0bbe 30f4 56bc 8148 80bd
00000120: 689b 033e 4e1b c53d a882 463d a60b 09be
00000130: 8d45 11be 2c11 583d 302d 6c3d b074 abbc
00000140: 52b3 2ebd 64c0 103d 964a 33bd a4b8 fe3d
00000150: 09bf 9dbd 8864 0dbe 561d b13d 299d b6bd
00000160: 60b3 18bd f0a1 343c 8a2b 8fbd 40e9 25bb
00000170: 6c2f 103d ba8f 04bd f076 643d ecc6 05be
00000180: 0e5c e83d d09a 16be 17ee 0b3d 6653 cd3d
00000190: 1ad1 08bd 0065 ab3a e6f6 35bd bb5e febd
000001a0: 3b80 803d e0dc 193d 38fb e2bd 9b4c 0e3d
000001b0: d880 81bc 989c dc3d dc93 003d 131e a13d
000001c0: 4956 bd3e 78e4 e03e 1548 fabd f362 b3bb
000001d0: 9cfa 653d ef24 5dbd 0e94 cc3d a6ae e13d
000001e0: c83b b93d 20fb 16bd 1303 8dbc cf2b 8cbd
000001f0: 7ecc a3bd 7fa5 a53d 1ead 3cbd c23c 31bc
00000200: 88cf 3fbc 591b 88bd c932 9e3d 5e7f a73d
00000210: 5ad6 833c 7f17 56bd 5ec0 b43d fae6 d73d
00000220: cdbf afbd 60d4 f93d b860 bfbc eb2b 683c
00000230: 1e17 fb3d 4e2c a73d 8866 ac3d a336 09be
00000240: 458b f13d 3830 d6bd 349b 59bc 2270 943d
00000250: 88bb dbbd c09a c53b 63f6 30ba af79 d63d
00000260: 8c5d ae3d c819 edbd 7db0 523b 5664 bebd
00000270: 2f5e a7bd 56d5 ddbd 488d ef3d 3f1f c83c
00000280: 23e8 edbd 18f2 1abe a11a babd 5245 2e3c
00000290: 3440 95bd 663e bd3d 1cc3 85bd 6710 b93d
000002a0: 57a5 80bd bb36 5cbd eae0 7ebd d6de babd
000002b0: 0fc5 b9bd 974b 963b 39ac edbd 9245 eebd
000002c0: cfe0 443d e640 9b3b 094b 4fbd 855b 993d
000002d0: 88bc 033d 166c e33d 3ad7 a7bd 192d 20be
000002e0: aacf 4abd d87a ce3d 15b9 a83d a07d 163c
000002f0: 2818 59bc 33b7 8f3d 1e38 e93d a110 02be
00000300: 57ad 80bd 04fb 5cbe 939d eabc 4635 833d
00000310: c65b 75bd 8222 e4bd a894 53bd 129e 9e3d
00000320: 111a 803d 8619 c4bd b4dc 17be 1692 e8bd
00000330: b68f 943d 00f0 bd39 4a4c 10be 76a1 843e
00000340: 1594 883e f84c 373e cf26 a63d 2d97 f5be
00000350: ac5e a23e b916 003e f8d6 f13b 6f27 453d
00000360: fb0f 14be 3696 03bd 1517 32be a9a7 a8bd
00000370: a582 32bd e272 a03d c829 f73c c6e6 e03d
00000380: b244 0f3d 1593 03be 059e ac3c fa91 163d
00000390: f673 013e 535b efbc fc8c 6abc cb81 873d
000003a0: b020 9abc 0766 793c 0904 1b3e 8f3a 8e3c
000003b0: 219b c33d 0800 c2bd d4e2 1bbe c937 98bd
000003c0: 0b19 67bb efd4 a93d a7f3 fcbd 9c5e 103e
000003d0: 4c72 993d 1075 78bc 1233 853d cf05 66bd
000003e0: fe13 cdbd 56a4 e7bd 5ca0 09be 37d7 23bb
000003f0: c4b9 c53d 6b4f 0cbe cca1 f13d c4ff 9ebd
-0.09654278 0.11914734 -0.14012583 -0.08682327 -0.06269624 -0.11274308 0.003085079 -0.117029004
0.0063845813 0.1256901 -0.0119693 -0.123951375 -0.0022060275 -0.117699735 0.092124745 -0.12509617
0.042028707 -0.040831372 0.09814653 -0.10040398 0.005927071 0.09730818 -0.09065477 -0.05315847
-0.004481621 -0.01955655 -0.13263224 -0.06055941 0.0040522544 -0.033109687 0.0011663344 -0.14587861
-0.070027225 -0.0031426146 -0.14491123 0.1428324 0.09656782 0.09385799 -0.04365059 0.13109289
-0.11038877 -0.11084962 0.099667884 -0.09056271 0.06510402 0.11472622 -0.020771764 -0.11268219
-0.09042816 0.13982373 0.11543605 -0.14226532 -0.04792531 0.08459464 0.020526946 -0.027635492
-0.1271737 0.05855988 0.048760176 0.024441361 -0.03746637 -0.059491828 0.08460316 -0.041746944
-0.11922477 0.13445091 -0.061160244 0.059213072 -0.12781796 -0.13619043 -0.013119742 -0.06263829
0.12852252 0.096243486 0.048464447 -0.1338335 -0.14186688 0.05275075 0.05766028 -0.020929664
-0.042651482 0.035339728 -0.043772303 0.12437561 -0.07702453 -0.13807881 0.086481735 -0.08916695
-0.03728044 0.011024937 -0.06990726 -0.002531603 0.035201475 -0.03236363 0.05577749 -0.13064164
0.11345683 -0.14707494 0.034162607 0.100256726 -0.03340254 0.0013076365 -0.044424914 -0.12420412
0.06274458 0.03756416 -0.110830724 0.034741025 -0.015808508 0.107720554 0.03139101 0.07867064
0.36979893 0.43924308 -0.1222078 -0.005474442 0.056147203 -0.0539903 0.09989177 0.1101964
0.090446055 -0.036860585 -0.01721338 -0.06844293 -0.07997988 0.080882065 -0.046063535 -0.010817708
-0.011707194 -0.06645841 0.0772453 0.0817859 0.016093422 -0.0522685 0.08825754 0.10542102
-0.08581505 0.121987104 -0.023361549 0.014170627 0.12260269 0.08162747 0.08417994 -0.13399749
0.11794142 -0.10458416 -0.013281632 0.0724795 -0.10729128 0.0060304105 -0.00067505817 0.10472428
0.085139364 -0.11577183 0.0032148652 -0.09296481 -0.08172261 -0.10831706 0.11696869 0.024428962
-0.11616542 -0.15131414 -0.0908711 0.010636644 -0.072876364 0.09240417 -0.06531355 0.090363316
-0.06281536 -0.053763133 -0.062226214 -0.09124534 -0.09070789 0.0045866477 -0.116051145 -0.11634363
0.048065957 0.004737961 -0.05060867 0.07488159 0.03216222 0.111046 -0.08195348 -0.15642203
-0.04951445 0.10082024 0.082384266 0.009185225 -0.013250388 0.07017364 0.11387657 -0.12701656
-0.06283062 -0.2158013 -0.02863959 0.064066455 -0.059901975 -0.11139394 -0.05165544 0.07744993
0.06254972 -0.09575181 -0.14830285 -0.11355989 0.07253973 0.00036227703 -0.14091602 0.25904435
0.26675478 0.17900455 0.08112871 -0.479669 0.31712854 0.12508668 0.0073803626 0.04813331
-0.14459221 -0.032125674 -0.17391618 -0.08235104 -0.043581624 0.07834412 0.03017129 0.109815165
0.034977622 -0.12849076 0.021071443 0.036760308 0.12641892 -0.029218351 -0.01431584 0.06616553
-0.018814415 0.015222079 0.15138258 0.017361907 0.09551073 -0.09472662 -0.15223247 -0.07432515
-0.003526273 0.08292567 -0.123511605 0.1409859 0.074925035 -0.015164629 0.065038815 -0.056157883
-0.10013579 -0.113106415 -0.13440078 -0.0025000104 0.096545726 -0.1370217 0.117984384 -0.07763627

encoder.3.bias f4 [8]
00000000: 09ab 17bd 9f53 93bd 8ad8 7cbc 9f71 3a3c
00000010: fa74 9e3d e000 fa3d a14d fa3d 952d ed3d
-0.037028346 -0.07193684 -0.015432486 0.011379628 0.07737155 0.12207198 0.12221838 0.1158096

decoder.0.weight f4 [8, 8, 3]
00000000: e049 be3b 14d2 2bbd 3686 47be 8893 8e3d
00000010: 5c72 4a3e eab7 22be 80e4 813d 98da 9fbd
00000020: be46 083e d7ef b8bd 87c2 37be 539a 47be
00000030: 74e7 143d 066a 033e 58f2 4abe 1f76 3cbe
00000040: e0cd 3ebc bba8 1abe 38e5 953d a375 49be
00000050: 0349 19be aaa1 20be 8313 50be d090 0bbe
00000060: e0cc 32be 1d1e 04be 6058 1e3e e040 b93d
00000070: 7057 4cbc 14d0 273e 05be b03d 2446 833d
00000080: 87ef b6bd e751 59bc da32 15be 0cc3 29bd
00000090: 577d b63d 7bd4 ad3d 2012 413e 8f10 80bd
000000a0: 7c8a 1abd 0f9e 553e 03d6 363e c720 843e
000000b0: 7220 03be 5f6b 23be 981d 143e 9d6e 2d3e
000000c0: 08c0 433d 606d 023d eae6 ce3a e0c0 d5bc
000000d0: b7c2 32be 54b7 52bd 3a2b 843d dc67 123d
000000e0: dd7f 203e ff3b f1bd 5e7d 35be 3353 a63c
000000f0: c9a0 96bd 2ef0 1dba 1ff0 843d 6c97 14be
00000100: b19f 56be 7a44 18be 93cf 23be 2040 95bd
00000110: 1f4f 4abe 15ef 1dbc 8c12 013e 050d f6bc
00000120: 64df aa3d 374b 483e 3801 26be c09e 143d
00000130: 35fe c1bd 3470 f73d 6669 0bbe 9fb6 a73b
00000140: 40c5 25be d2e8 31bd 04c9 06bd 1b03 4d3c
00000150: 713f ecbd 7473 273e 4ecd bfbc 79e5 44bc
00000160: 7c48 a1bd 01a0 11bd c333 f43d 9e95 4c3e
00000170: e4d6 eb3d 83ae 8bbd 5c91 533e a26b 15be
00000180: 948e e73d 7414 07be eec5 bdbd 2753 d7bd
00000190: d07b 103e e0ca 0ebc fe62 1fbe fb3b e5bd
000001a0: d601 29be 46c4 0d3e 9854 2cbd 70ca 25bd
000001b0: 6177 a3bc 8513 a3be ad8d 3d3d 905d 2e3d
000001c0: 05af 093c 8af3 ff3d b58e 42be 17d2 f8bb
000001d0: ece9 85bc 68ae 0a3d 28e8 6abd f9d3 fcbd
000001e0: 5843 85bd 6439 2d3e 8a8c 3a3e 7080 ef3d
000001f0: c7dd 46be 0095 d33b 1a9c 40be 00be b43a
00000200: b03b 00be f889 203e 44f8 ec3d f864 ee3d
00000210: 741b 253d 7c4f f33d 583b 09bd dcec 293e
00000220: 84ff 973d 20f4 d5bd 3eaa 0cbe 0064 7d39
00000230: 9eb3 3abe e053 aabc d019 65bd c46d f33d
00000240: 4047 6fbb 6406 b6bc 9a59 0ebe 3abd 0b3e
00000250: 800d 723d 448b 1bbd a20f 5d3d f875 333e
00000260: 33aa 2d3e a089 b83c 9150 df3c 71c8 dcbd
00000270: 72d6 15be 918f 913c c94e 2e3e b613 19be
00000280: eee7 0ebe 3583 89bd 0cd4 b03d e1e9 a5bd
00000290: 233e 58bd 9125 0f3e 9b9e b2bd 75c3 ab3d
000002a0: 0008 39ba 176a 35be 0741 edbd ed58 42be
000002b0: bc10 c13d 4a44 f7bd 8eb6 11bd 52c5 b23d
000002c0: d8ba 91bc 74b3 cfbd f7c5 263e 94cd 00be
000002d0: 3002 533d 8c6d 8abd 4e42 c1bd 3a1d acbd
000002e0: 70b9 a9bd 5743 b8bd 9ea1 ebbd a103 36be
000002f0: ded2 473e 541f 273e 03ce c73c 9d5e 953d
0.0058071464 -0.041948393 -0.19484791 0.06961733 0.19770187 -0.1589047 0.06342411 -0.07805365
0.13308236 -0.09030121 -0.179453 -0.19492464 0.036353543 0.12833413 -0.1981901 -0.18404435
-0.011645764 -0.15103428 0.07319111 -0.19673781 -0.14969258 -0.1568667 -0.20319943 -0.1362946
-0.17460966 -0.12902112 0.154634 0.09045577 -0.012472019 0.1638797 0.08629993 0.06409863
-0.08932405 -0.013264156 -0.1457018 -0.041445777 0.089106254 0.08487793 0.1885457 -0.06253158
-0.037729725 0.20861076 0.17855076 0.25806257 -0.12805346 -0.15958928 0.14464414 0.16936727
0.047790557 0.03184259 0.001578537 -0.026092947 -0.1745709 -0.051444367 0.06453557 0.03574358
0.15673776 -0.117790215 -0.17723605 0.020303344 -0.07354886 -0.0006024864 0.06491112 -0.14510888
-0.20959355 -0.14869872 -0.15997152 -0.072876215 -0.19756745 -0.009639521 0.12604731 -0.030035505
0.0834339 0.19559942 -0.16211402 0.03628421 -0.09472314 0.12081948 -0.13614425 0.0051182057
-0.16188526 -0.043434925 -0.032906547 0.012512947 -0.11535538 0.16352636 -0.023413327 -0.012017601
-0.078751534 -0.035552982 0.11923935 0.1997895 0.115155965 -0.06820395 0.20660919 -0.1459184
0.113064915 -0.13191396 -0.09266268 -0.10513907 0.1410973 -0.008715361 -0.15565106 -0.11193081
-0.16504607 0.13844404 -0.042072862 -0.040476263 -0.019954385 -0.3185083 0.04627769 0.042569697
0.008403544 0.12497623 -0.18999751 -0.007593404 -0.016346894 0.033857733 -0.057350308 -0.12345118
-0.065069854 0.16916424 0.18217674 0.116944194 -0.19420539 0.006456971 -0.18809548 0.0013789535
-0.12522769 0.15677631 0.115707904 0.11640352 0.040309384 0.11880395 -0.03350386 0.16594261
0.074217826 -0.10446954 -0.13736817 0.00024165213 -0.18232581 -0.020791948 -0.05593282 0.118861705
-0.0036510974 -0.022219844 -0.13901368 0.13646403 0.059094906 -0.03797461 0.053969987 0.1752547
0.16959457 0.022526562 0.027260097 -0.10780419 -0.14632586 0.017768653 0.17022242 -0.14948925
-0.13955662 -0.06714479 0.08634195 -0.081012495 -0.052793633 0.13979174 -0.08721658 0.0838689
-0.0007058382 -0.17716251 -0.115846686 -0.18979235 0.0942702 -0.12073572 -0.03557449 0.08729042
-0.01778929 -0.1014165 0.16286455 -0.12578422 0.051515758 -0.06759176 -0.09436475 -0.08404012
-0.082873225 -0.08997219 -0.115054354 -0.17774822 0.19514033 0.16320544 0.024390226 0.07293437

decoder.0.bias f4 [8]
00000000: e877 b5bc 9127 a5bd ea0b a23c de81 e23d
00000010: 1e71 203e 43e0 f4bd c01b 98bd e2b6 d03d
-0.022151902 -0.08064187 0.019781072 0.110599265 0.15668151 -0.11956837 -0.07427168 0.10191132

decoder.3.weight f4 [16, 8, 3]
00000000: cece 0e3e a4d1 c83d ad88 1fbe 9dcc fd3d
00000010: e440 bebc 14a0 35be def7 58be 9b56 b83d
00000020: 21aa b03d 11b0 c83d ace7 983e 2351 993d
00000030: 54f4 76be 5ef9 0dbe 0d5e e13d 0a19 483e
00000040: 523a 35be 1f2f 14be b98e 8a3d 7da7 c6bb
00000050: 91e4 b73d 77a3 2d3e b283 22be c9ac 35bc
00000060: 6490 063e 78de 9c3c 3449 8ebd 87d5 5fbe
00000070: 8997 3abe c0e3 98bc 8263 6fbd c37d df3d
00000080: 90dc 90bc e37c 293e eeb4 2d3d 5257 27be
00000090: 8812 e6bd e047 7c3c 2882 253e 3c85 1c3d
000000a0: 38dd ad3d 9085 b83d ae3f f8bd d936 8abd
000000b0: 641c 09be 27d7 ac3d 99a3 c33c eab5 003e
000000c0: 6bf6 34be 1cdf edbd 2cbf 3cbd 5c0d 0cbd
000000d0: 7c5b 30bd c04a 15be 3beb 25be fafd e6bd
000000e0: 8cf5 3ebe c7ac 1bbe 246b c43d 1739 eebd
000000f0: 9872 e9bc 1805 1e3e 74a2 d23d f8b1 d43c
00000100: bad2 8abd 30eb 75bd f057 353c f490 17be
00000110: 5a3e 30be 68b5 ca3c 652a edbd 8cdc ca3d
00000120: 5a13 273e 1024 383e 92c4 f7bd a320 e5bd
00000130: 8c81 7a3d 4232 503e ba98 263e 351a e03d
00000140: b720 b93d 007a 1bbe cae5 f23d 3353 fa3d
00000150: d91b 18be 9f94 18be c2f7 4dbe 2adb 2d3e
00000160: 4698 d3bd 394d 27be 2d5e 0a3b 15a4 adbb
00000170: 7919 1dbe 32af 14be bb28 4fbe 44d7 38be
00000180: 0ff2 1ebe 5c4f 7cbd 024c 0a3e 7c3e 57be
00000190: c5ac 90bd ad8b eabc d1ff 343e 6ef5 24be
000001a0: 43b5 64be f3b3 4bbe 118e 8bbd 2b96 a8bc
000001b0: 310d bbba 4443 81be 445c 78be bccb 3a3e
000001c0: ecfb db3d 5220 503e 00dc 03be 0d56 83bd
000001d0: 3738 02be 386d c8bd 5b74 a03d 3c8b 57bc
000001e0: 1d1a 13be 31bd 4dbe ecea a0bd 8665 0f3e
000001f0: 1284 9b3e 3c80 323e 71ab 20be 7055 b3bc
00000200: 931f 86bd cf32 d53d 7701 ac3e f303 873d
00000210: 2e1b 113e 9ae4 97be ada4 13bd 5eb0 35be
00000220: 08df 023e 5caf 283e 9dd5 613e aaf9 fcbd
00000230: c6fa eabd e05b 523e ec48 25be 5bd9 49bc
00000240: 5441 103e 7e76 19be a570 2dbe 3741 c4bd
00000250: fe89 513e 6349 6c3d 25a9 9abc b7be fabd
00000260: aa12 c0bd 120a 413e aa4b 3e3e 2acb 1a3e
00000270: a5a5 7cbe 16ad 84be 666c 2cbd f00c 38bc
00000280: b068 833c f083 92bd cfca 463d 66db 8abd
00000290: f5f1 07be 357d 67be 4644 083d bdcc 32bd
000002a0: 30ac 9b3d 725a 95bd d871 16bd 5b70 453e
000002b0: 6e4a 81bd 65f4 00be 520a c2bc 87ae 893e
000002c0: 3c02 703e 3fbd 30be d8c9 d0bc bd71 ad3d
000002d0: d137 6f3e c6b0 813e ae44 33be b3a6 a6bd
000002e0: 9c75 57bd 78f0 123e 6c6d 093e ecd0 2ebc
000002f0: 25c7 593c c349 503d 9620 293e 80e3 fd3c
00000300: d980 1dbe ecb5 1c3e 50c8 f53d 9342 2e3e
00000310: ec72 b13d 02b1 8b3d 7858 28be ec62 61be
00000320: 44c4 6cbe e235 97bd aad1 333d fee9 37bd
00000330: 4d75 64be 8afe c1bd 44fb 253c d821 05be
00000340: 784e f03d 98af e03d efc1 3abe ffa4 e23c
00000350: 8dde 7c3d 7d57 013d 2022 2e3e 291d 14bd
00000360: 48ba a13d f884 b03c b637 023e aea2 19bc
00000370: 9cd0 4b3e 3aa3 153e 32ca e33d e292 bdbd
00000380: 9991 bd3d 11bd 9f3e 7890 90bd 6f15 313e
00000390: 0d79 0cbe d96d c2bc 9861 e43e 809f a33b
000003a0: 04e7 39be f083 28bd 5c95 f93c 3c46 063b
000003b0: 0e50 0f3e b1df e73d e3de 053d 6224 553d
000003c0: 98cf 993d a84d 273d 5093 163d 61b2 bb3c
000003d0: 0d7d 173d 1b62 773d 618c 033e 25c5 d6bd
000003e0: b359 17be 608b 833c f545 01be 162a a43c
000003f0: c0f2 423e 9c7e 43be 8c37 f8be e025 343d
0.13946077 0.09805611 -0.15579481 0.123925425 -0.023224302 -0.17736846 -0.21188304 0.09000894
0.086261995 0.09799207 0.29864252 0.07486179 -0.24116641 -0.13864657 0.11004267 0.19540802
-0.17698029 -0.144711 0.067655034 -0.0060624466 0.089791425 0.16956888 -0.1587055 -0.0110885585
0.13141018 0.01914905 -0.06947556 -0.21858798 -0.18221869 -0.018663287 -0.058444507 0.10912659
-0.017683297 0.16551547 0.042408876 -0.16341904 -0.11234003 0.015397996 0.16162932 0.038213
0.0848946 0.0900985 -0.12121521 -0.067487426 -0.13389736 0.084394746 0.02388172 0.12569395
-0.17672126 -0.1161482 -0.046080753 -0.034192428 -0.043055996 -0.14579296 -0.16203015 -0.11278911
-0.18648356 -0.15202628 0.09590748 -0.11631983 -0.028497025 0.1543163 0.10284892 0.025963768
-0.06778474 -0.060038745 0.011068329 -0.14801389 -0.17211285 0.024744704 -0.11580352 0.09905347
0.16315976 0.17982507 -0.1209804 -0.111878656 0.0611587 0.20331672 0.16269198 0.109424986
0.09039443 -0.15183258 0.11860235 0.122229 -0.14854373 -0.14900444 -0.20114043 0.16978136
-0.10331778 -0.16338052 0.0021113262 -0.005299101 -0.15341748 -0.14519957 -0.20230381 -0.18050867
-0.15522026 -0.06159912 0.13505557 -0.2101993 -0.07064203 -0.028631056 0.17675711 -0.16109249
-0.22334771 -0.19892864 -0.068142064 -0.020579418 -0.0014270899 -0.25246632 -0.24253947 0.18241781
0.1074141 0.20324829 -0.12876892 -0.06412897 -0.12716757 -0.09786457 0.07834693 -0.013155755
-0.1436543 -0.20091702 -0.07857308 0.14003572 0.303742 0.1743173 -0.156904 -0.021891326
-0.06548991 0.104100816 0.33594868 0.0659255 0.14170524 -0.29666597 -0.03604572 -0.1774306
0.12780392 0.16473144 0.22054143 -0.12352307 -0.114736125 0.2054286 -0.16141099 -0.012319888
0.1408742 -0.14986607 -0.16937502 -0.09582751 0.20462796 0.057687175 -0.018879483 -0.12243407
-0.0937856 0.18851498 0.18583551 0.15116563 -0.24672563 -0.25913304 -0.042095564 -0.011233553
0.01604113 -0.07154071 0.048533257 -0.06780128 -0.13275893 -0.22606356 0.033268236 -0.043652285
0.076012015 -0.07292642 -0.036729664 0.19281141 -0.063130245 -0.12593229 -0.023686562 0.26890966
0.23438352 -0.17259692 -0.025486872 0.084689595 0.23361136 0.2533018 -0.17506668 -0.08137264
-0.052602395 0.14349544 0.13420647 -0.010669928 0.013292109 0.050851595 0.16516337 0.03099227
-0.15381183 0.15303773 0.12001097 0.17017584 0.08664498 0.06820871 -0.16439998 -0.22010392
-0.23121744 -0.07383324 0.043901123 -0.044900887 -0.22310372 -0.094723776 0.010130707 -0.13001192
0.11733717 0.10970992 -0.18238042 0.027666567 0.06173568 0.031577576 0.17005205 -0.03616062
0.078968585 0.02154778 0.12716565 -0.009377165 0.19903797 0.14613047 0.1112255 -0.09256531
0.09256286 0.31198934 -0.07058805 0.17293333 -0.13718052 -0.02373402 0.44605708 0.004993379
-0.18154532 -0.04114145 0.030466728 0.002048864 0.13995382 0.113219626 0.032683264 0.05203665
0.075102985 0.040845543 0.036761582 0.022912206 0.036984492 0.060396295 0.12846519 -0.10486821
-0.14780311 0.01605767 -0.12624343 0.0200396 0.19037914 -0.19091266 -0.4847988 0.043981433

decoder.3.bias f4 [16]
00000000: d56b 273d 893a 7dbd ac08 33be a0e4 8e3a
00000010: 430a 813d c36f cbbd caf9 7a3d 7de2 e13c
00000020: a69a 373e 832e 17bd 9e81 833d 85d8 1ebe
00000030: af4f 203e fd5a fb3c 6955 193e 26de a63d
0.04087432 -0.0618234 -0.17483777 0.0010901876 0.063007854 -0.09933426 0.061273374 0.027573818
0.17930087 -0.03690959 0.06421207 -0.15512283 0.15655397 0.030683035 0.14973988 0.0814784

decoder.6.weight f4 [3, 16, 3]
00000000: d5b6 233d e0e6 19be 9868 ef3d 4035 e2bd
00000010: dd0a 483d 51ed c13d 6053 1dbd 8ae5 0cbe
00000020: 48ce ce3d 8122 853e 7835 f13c 486c ffbd
00000030: 5825 c83d fa56 b93d 6d98 b4bd 21dc 823e
00000040: ad77 563e 3586 b73d 38a9 473e 204e a8bd
00000050: def2 0a3e 125e 77be 7bff 09be 994d baba
00000060: a012 803d a2d4 a3bd e670 6a3b a921 253c
00000070: 06c1 1cbc 080b b33d 7858 083c d5f9 94bd
00000080: 646c b0bc 9132 913d ca09 283b 9675 c43d
00000090: 196c cf3d 3419 a6bd e02b ec3d 02b3 ea3d
000000a0: 1771 3bbd 90d9 523d 9ea9 c63d 473a a23d
000000b0: 254d 163d 94d3 1cbe a88d fcbd fff7 ffbc
000000c0: cc6c 713d 91c4 baba 1e03 1e3e 103e e33d
000000d0: 442f d5bd 7501 96bc b835 003d a455 fc3d
000000e0: 28f8 3c3d abf5 823e 84e7 123e f282 cdbd
000000f0: a9a2 17bd e880 203e 194a 9e3d 3e82 4a3e
00000100: bac9 823c d631 3f3e 1045 89bc 6e93 613e
00000110: 17e3 773c 251c ebbd 25c2 08be ef35 96bd
00000120: 99a5 31bc 705b df3d 8d6d fa3b 8710 90bd
00000130: 50f9 013e c40d 8a3d 858d 9bbc 80f6 f1bd
00000140: d55f 403c c8f6 9fbd 211e 92bd f470 0d3e
00000150: bebb c63d b298 e23d 6b97 963d 3fee e83c
00000160: e601 fb3d 4af2 a7bc 1727 fe3d 4a8a e13d
00000170: f534 9abd c973 7abd def2 5bbc 2bbc 47bd
00000180: 73cb 52bd 93bf ecbc 591f 393e 94c0 f63d
00000190: 6647 bb3d a78f 01bd 78fe c33d 2630 ad3d
000001a0: 3cb6 273d 9ef3 323e d334 8b3e 85f9 d5bd
000001b0: 1759 ddbd 4623 cabd aa28 fcbd 2abd e83d
000001c0: a331 ca3d 5954 d23d 9f8b fd3d b879 c43d
000001d0: a7f9 183e c520 8c3c f7a9 ecbd 8f3c c7bd
000001e0: 63a0 0c3e 032f 153e 43e6 49bb cfd2 e5bc
000001f0: 02b2 1a3d e416 093e 4133 cb3d 0f45 debd
00000200: 513b 76bd b1f9 6d3d 9fb1 263e 303e e6bd
00000210: 2754 043e ac70 1c3e 9fc8 acbd 580f a33d
00000220: 46a1 d03c b1fb fbbd 8fab 433e 965a 4c3c
00000230: c5d0 ebbb 7dbb 9b3c 87af 853d 74bf 1dbd
0.039969284 -0.15029478 0.116898715 -0.11045313 0.048838485 0.09469093 -0.03840959 -0.13759437
0.10097939 0.26002887 0.029444441 -0.12471825 0.09772748 0.090497926 -0.088181354 0.2555857
0.2094409 0.08961145 0.19498146 -0.08218026 0.13569209 -0.24156979 -0.13476364 -0.00142138
0.062535524 -0.07999541 0.003577286 0.010078826 -0.009567505 0.087423384 0.008321874 -0.07274214
-0.02153606 0.07089723 0.00256406 0.0959274 0.1012804 -0.08110276 0.11531806 0.11459924
-0.045762148 0.051477015 0.09700321 0.07921272 0.036694665 -0.15315086 -0.12331706 -0.031246183
0.058941647 -0.0014249255 0.15430877 0.11095822 -0.10409406 -0.018311242 0.03130123 0.12321022
0.046135098 0.25578055 0.14346129 -0.100347415 -0.03702036 0.15674174 0.07728977 0.19776246
0.015965331 0.18671355 -0.016756564 0.22028896 0.015129826 -0.114799775 -0.1335531 -0.07334506
-0.010842704 0.10906112 0.007642454 -0.07034402 0.12692761 0.06740907 -0.01898838 -0.11814594
0.011741598 -0.07810742 -0.07134653 0.1381262 0.09703778 0.110642806 0.073530994 0.028433917
0.122562215 -0.020501275 0.124097995 0.11012705 -0.07529632 -0.061145578 -0.013424603 -0.048763435
-0.051463556 -0.028899943 0.18078364 0.1204845 0.091444775 -0.03163114 0.095700204 0.08456449
0.040945277 0.17475745 0.2718874 -0.10447983 -0.10808008 -0.09870009 -0.123124436 0.11364205
0.09872749 0.10269994 0.12380146 0.095935285 0.14938985 0.01710547 -0.11555856 -0.097283475
0.13733058 0.14568715 -0.0030807413 -0.028054623 0.037767418 0.13387638 0.09921885 -0.10853016
-0.060115162 0.058099452 0.16278695 -0.1124233 0.12922727 0.15277356 -0.08436703 0.07961911
0.025467526 -0.12303866 0.19108413 0.012472769 -0.007196518 0.0190103 0.0652762 -0.038512662

decoder.6.bias f4 [3]
00000000: fbc8 553d 5386 99bc a97d 63bd
0.052193623 -0.018740809 -0.05553976

exp_avg f4 [16, 1, 1]
00000000: e87e 2e39 0000 0000 7863 4a38 9dfb 3339
00000010: 0000 0000 9cee 9fb9 e0cc b8b7 7a96 32b8
00000020: 6685 a339 6a52 0eb9 29f2 83b8 c438 6d38
00000030: 7888 c9b7 7cce 73b8 8773 16b9 7a32 5439
0.0001664121 0.0 4.825319e-05 0.00017164504 0.0 -0.0003050462 -2.2029912e-05 -4.257865e-05
0.00031189172 -0.00013572877 -6.2916726e-05 5.655807e-05 -2.4024615e-05 -5.812802e-05 -0.00014348152 0.000202367

exp_avg_sq f4 [16, 1, 1]
00000000: e12d a536 0000 0000 3d9f 0635 0ad5 4437
00000010: 0000 0000 a298 9f37 ceaf 2a33 6ae8 6635
00000020: 74dd 1838 7eec 3e37 6d34 4d36 2f0f bb36
00000030: 8b54 c335 dbf6 5936 309a 8b37 a024 a637
4.922724e-06 0.0 5.015061e-07 1.1732112e-05 0.0 1.9025352e-05 3.9741103e-08 8.6019884e-07
3.644587e-05 1.1379945e-05 3.0577896e-06 5.574802e-06 1.4553237e-06 3.2479209e-06 1.664189e-05 1.9805797e-05

exp_avg f4 [16]
00000000: 80d0 2a39 0000 0000 e0b4 6738 b82d 5339
00000010: 0000 0000 593e 16ba c06f ca38 54a2 86b8
00000020: 80cb a539 a066 0eb9 c8e1 a2b8 d044 e038
00000030: a885 86b8 2839 cfb8 b86f 5bb9 687f 8339
0.00016290136 0.0 5.5243145e-05 0.0002013956 0.0 -0.00057313364 9.652926e-05 -6.419854e-05
0.00031622872 -0.00013580406 -7.766817e-05 0.0001069397 -6.414513e-05 -9.881175e-05 -0.00020927086 0.00025081192

exp_avg_sq f4 [16]
00000000: dd9e a038 0000 0000 802f 1e37 d418 4539
00000010: 0000 0000 f194 1b39 0426 0036 2530 1a37
00000020: 065e 213a fa2b 3539 4bc3 3a38 fb3a b138
00000030: 4e7b c437 45c2 4338 e8fe 7b39 8479 a939
7.658985e-05 0.0 9.428593e-06 0.00018796633 0.0 0.00014837437 1.9095614e-06 9.190325e-06
0.0006155673 0.00017277888 4.4527736e-05 8.451004e-05 2.3422439e-05 4.667255e-05 0.00024032185 0.00032324728

exp_avg f4 [8, 16, 3]
00000000: 0400 0000 0400 0000 0000 0000 0000 0000
00000010: 0000 0000 0000 0000 0400 0000 0400 0000
00000020: 0000 0000 0400 0000 0400 0000 0000 0000
00000030: 0000 0000 0000 0000 0000 0000 0400 0000
00000040: 0400 0000 0000 0000 0000 0000 0400 0000
00000050: 0000 0000 0400 0000 0400 0000 0000 0000
00000060: 0400 0000 0400 0000 0000 0000 0400 0000
00000070: 0400 0000 0000 0000 0400 0000 0400 0000
00000080: 0000 0000 0400 0000 0400 0000 0000 0000
00000090: 0400 0000 0400 0000 0000 0000 0400 0000
000000a0: 0400 0000 0000 0000 0400 0000 0400 0000
000000b0: 0000 0000 0400 0000 0400 0000 0000 0000
000000c0: 0000 0000 0000 0000 0000 0000 0000 0000
000000d0: 0000 0000 0000 0000 0000 0000 0000 0000
000000e0: 0000 0000 0000 0000 0000 0000 0000 0000
000000f0: 0000 0000 0000 0000 0000 0000 0000 0000
00000100: 0000 0000 0000 0000 0000 0000 0000 0000
00000110: 0000 0000 0000 0000 0000 0000 0000 0000
00000120: 0000 0000 0000 0000 0000 0000 0000 0000
00000130: 0000 0000 0000 0000 0000 0000 0000 0000
00000140: 0000 0000 0000 0000 0000 0000 0000 0000
00000150: 0000 0000 0000 0000 0000 0000 0000 0000
00000160: 0000 0000 0000 0000 0000 0000 0000 0000
00000170: 0000 0000 0000 0000 0000 0000 0000 0000
00000180: d4a8 29b8 80af a8b6 806f ab35 0000 0000
00000190: 0000 0000 0000 0000 40ea b7b7 40c4 1f38
000001a0: 200d 4d38 0020 12b5 c0b5 3838 20bb 5d38
000001b0: 0000 0000 0000 0000 0000 0000 017d 2539
000001c0: 5022 e537 6cee b438 c804 bbb5 345e c936
000001d0: 8fa1 8137 c038 c238 b0c2 8338 907f 8938
000001e0: 2cfb 01b9 0098 48b5 80b1 a037 982c 7a39
000001f0: c01d b438 88e0 0739 d05d c038 e002 8e38
00000200: 1020 8e38 50b9 c738 60f6 6c38 c0d5 8438
00000210: 983c 1539 e035 7238 101e a938 7868 1c39
00000220: e0d6 7638 1073 af38 30bb 2539 5089 9438
00000230: a020 c338 801a 15b8 605d 9437 80ad dd37
00000240: 0400 0000 0400 0000 0400 0000 0000 0000
00000250: 0000 0000 0000 0000 0400 0000 0400 0000
00000260: 0400 0000 0400 0000 0400 0000 0400 0000
00000270: 0000 0000 0000 0000 0000 0000 0400 0000
00000280: 0400 0000 0400 0000 0400 0080 0400 0080
00000290: 0400 0000 0400 0000 0400 0000 0400 0000
000002a0: 0400 0000 0400 0000 0400 0000 0400 0000
000002b0: 0400 0000 0400 0000 0400 0000 0400 0000
000002c0: 0400 0000 0400 0000 0400 0000 0400 0000
000002d0: 0400 0000 0400 0000 0400 0000 0400 0000
000002e0: 0400 0000 0400 0000 0400 0000 0400 0000
000002f0: 0400 0000 0400 0000 0400 0000 0400 0000
00000300: 30a7 4237 d8ee ba37 008d 2e37 0000 0000
00000310: 0000 0000 0000 0000 5820 13b9 6085 f4b8
00000320: 7809 12b9 6c72 2bb9 341f 17b9 1890 2ab9
00000330: 0000 0000 0000 0000 0000 0000 e51f 97b8
00000340: b3ed 37b9 e6e8 5bb9 34ca 1c36 7028 ffb5
00000350: 45ab 36b7 e044 7cb9 b826 81b9 c8f0 81b9
00000360: 80f9 e736 6040 4438 00e3 0937 cc18 b1b9
00000370: 0849 e1b9 5ee2 edb9 a4b8 87b9 e8c7 87b9
00000380: eccb 87b9 781d 61b9 d436 70b9 4029 74b9
00000390: f456 6db9 d8ea 8fb9 d684 96b9 c800 72b9
000003a0: ae5c 94b9 2484 9bb9 c48c 90b9 f20c a9b9
000003b0: d874 afb9 18b2 84b8 b0dc 38b8 58ef 82b8
000003c0: 0400 0000 211e 648b 57d9 a88a 0000 0000
000003d0: 0000 0000 0000 0000 0400 0000 0afc a58c
000003e0: 62d1 818c 0400 0000 7ce3 a88c d653 8c8c
000003f0: 0000 0000 0000 0000 0000 0000 0400 0000
6e-45 6e-45 0.0 0.0 0.0 0.0 6e-45 6e-45
0.0 6e-45 6e-45 0.0 0.0 0.0 0.0 6e-45
6e-45 0.0 0.0 6e-45 0.0 6e-45 6e-45 0.0
6e-45 6e-45 0.0 6e-45 6e-45 0.0 6e-45 6e-45
0.0 6e-45 6e-45 0.0 6e-45 6e-45 0.0 6e-45
6e-45 0.0 6e-45 6e-45 0.0 6e-45 6e-45 0.0
0.0 0.0 0.0 0.0 0.0 0.0 0.0 0.0
0.0 0.0 0.0 0.0 0.0 0.0 0.0 0.0
0.0 0.0 0.0 0.0 0.0 0.0 0.0 0.0
0.0 0.0 0.0 0.0 0.0 0.0 0.0 0.0
0.0 0.0 0.0 0.0 0.0 0.0 0.0 0.0
0.0 0.0 0.0 0.0 0.0 0.0 0.0 0.0
-4.0449973e-05 -5.027221e-06 1.2772944e-06 0.0 0.0 0.0 -2.1924381e-05 3.8091326e-05
4.8888032e-05 -5.4435804e-07 4.4038286e-05 5.286478e-05 0.0 0.0 0.0 0.00015782194
2.7314905e-05 8.6274784e-05 -1.3933977e-06 6.0012335e-06 1.545323e-05 9.2612114e-05 6.28283e-05 6.5564294e-05
-0.00012395967 -7.4726995e-07 1.9156141e-05 0.0002385847 8.58861e-05 0.00012958248 9.1727474e-05 6.771623e-05
6.77706e-05 9.5235766e-05 5.649624e-05 6.3340645e-05 0.0001423232 5.774747e-05 8.0641476e-05 0.00014916237
5.885109e-05 8.366082e-05 0.00015805359 7.0827664e-05 9.3044015e-05 -3.554905e-05 1.7686456e-05 2.6426045e-05
6e-45 6e-45 6e-45 0.0 0.0 0.0 6e-45 6e-45
6e-45 6e-45 6e-45 6e-45 0.0 0.0 0.0 6e-45
6e-45 6e-45 -6e-45 -6e-45 6e-45 6e-45 6e-45 6e-45
6e-45 6e-45 6e-45 6e-45 6e-45 6e-45 6e-45 6e-45
6e-45 6e-45 6e-45 6e-45 6e-45 6e-45 6e-45 6e-45
6e-45 6e-45 6e-45 6e-45 6e-45 6e-45 6e-45 6e-45
1.16022275e-05 2.2284148e-05 1.0404037e-05 0.0 0.0 0.0 -0.00014031061 -0.0001165967
-0.00013927172 -0.00016350456 -0.00014412106 -0.00016266142 0.0 0.0 0.0 -7.206182e-05
-0.0001754079 -0.00020972229 2.336351e-06 -1.9010749e-06 -1.0887922e-05 -0.0002405825 -0.00024633645 -0.00024784193
6.913382e-06 4.6789995e-05 8.218689e-06 -0.00033778546 -0.00042969757 -0.0004537282 -0.00025886775 -0.00025898148
-0.0002590114 -0.0002146865 -0.00022908609 -0.0002328502 -0.00022634474 -0.00027450058 -0.000287092 -0.0002307921
-0.00028297812 -0.00029662356 -0.000275707 -0.00032243837 -0.00033465656 -6.327423e-05 -4.407455e-05 -6.243464e-05
6e-45 -4.393387e-32 -1.6259566e-32 0.0 0.0 0.0 6e-45 -2.5573966e-31
-2.0001615e-31 6e-45 -2.602141e-31 -2.1620872e-31 0.0 0.0 0.0 6e-45

exp_avg_sq f4 [8, 16, 3]
00000000: 93b8 b82a 6d20 2c2c 0000 0000 0000 0000
00000010: 0000 0000 0000 0000 81c5 742e ace4 d22e
00000020: 0000 0000 8d3c a92e cc6d d22e 0000 0000
00000030: 0000 0000 0000 0000 0000 0000 7fe1 d226
00000040: 3d57 a827 0000 0000 0000 0000 e730 f829
00000050: 0000 0000 1029 c12e 63f5 cd2e 0000 0000
00000060: 44ad 692d b0b3 362e 0000 0000 1a82 2c2f
00000070: 25b5 2b2f 0000 0000 542e dd2e 06d4 f12e
00000080: 0000 0000 8803 b92e eb9e b82e 0000 0000
00000090: 894e c22e c3a2 c12e 0000 0000 3340 a62e
000000a0: 28ae a52e 0000 0000 3f57 ec2e bcc3 eb2e
000000b0: 0000 0000 1dac ca2d bd99 132e 0000 0000
000000c0: 0000 0000 0000 0000 0000 0000 0000 0000
000000d0: 0000 0000 0000 0000 0000 0000 0000 0000
000000e0: 0000 0000 0000 0000 0000 0000 0000 0000
000000f0: 0000 0000 0000 0000 0000 0000 0000 0000
00000100: 0000 0000 0000 0000 0000 0000 0000 0000
00000110: 0000 0000 0000 0000 0000 0000 0000 0000
00000120: 0000 0000 0000 0000 0000 0000 0000 0000
00000130: 0000 0000 0000 0000 0000 0000 0000 0000
00000140: 0000 0000 0000 0000 0000 0000 0000 0000
00000150: 0000 0000 0000 0000 0000 0000 0000 0000
00000160: 0000 0000 0000 0000 0000 0000 0000 0000
00000170: 0000 0000 0000 0000 0000 0000 0000 0000
00000180: 3c92 3536 5d65 3536 7cbd 3f36 0000 0000
00000190: 0000 0000 0000 0000 d314 3839 5248 3a39
000001a0: 94ee 3c39 9b59 4b39 3503 4e39 2c39 5039
000001b0: 0000 0000 0000 0000 0000 0000 3ae2 3d36
000001c0: 4763 4736 e400 4b36 0d8b 2d30 5669 e72f
000001d0: 6862 ab31 1cc9 6b39 d9bd 6f39 53cd 6f39
000001e0: 43e2 5038 495b 5138 45cd 5a38 212c af39
000001f0: 8072 b239 441c b339 3693 8a39 e2e2 8c39
00000200: 9ce6 8c39 89e5 3039 77ec 3339 e412 3439
00000210: 21b7 2a39 7ccf 2d39 1b4e 2e39 5605 2e39
00000220: 6b32 3139 deba 3139 4d9d 8339 8df6 8539
00000230: 7e41 8639 417b 7238 3af2 7438 6bbb 7938
00000240: 7f92 d830 2e7f c430 3118 f730 0000 0000
00000250: 0000 0000 0000 0000 373e 4434 c56a 3934
00000260: 6ee0 4334 bd73 8d34 f1d5 8634 b87c 8934
00000270: 0000 0000 0000 0000 0000 0000 27be 612c
00000280: dde2 312c 7a15 812c 3726 8a27 8404 6a2b
00000290: 18eb b72c 7cf2 a234 0ae4 9b34 23af 9c34
000002a0: c36b 3f33 32a5 3133 3319 4a33 513f 1035
000002b0: 6ba7 0a35 d92b 0c35 5dfb b634 16ef ae34
000002c0: 314c b034 2456 9634 9031 9034 6ae7 9034
000002d0: 96f3 a134 ca83 9b34 aec7 9c34 407a 8c34
000002e0: 8ee9 8634 a001 8834 ee94 c634 7690 be34
000002f0: 33a9 bf34 f725 a533 59be 9c33 2082 a233
00000300: 89d1 2136 f730 1c36 95d5 2836 0000 0000
00000310: 0000 0000 0000 0000 b040 3239 e0c0 3039
00000320: 102f 3439 f7b4 4739 1c6e 4639 134b 4939
00000330: 0000 0000 0000 0000 0000 0000 2e40 8836
00000340: 654c 8636 49a5 8636 7634 7b31 16ae ec2e
00000350: afe7 b831 b6e2 6e39 69da 6e39 cade 6e39
00000360: f41c 3d38 54f5 3738 1ea4 4338 5644 ba39
00000370: 65eb b939 e821 ba39 8949 8b39 2947 8b39
00000380: 354d 8b39 c0b5 3439 7ba0 3439 5bae 3439
00000390: 55a7 3439 0866 3439 ae8f 3439 9fd2 3739
000003a0: f68b 3739 f9b7 3739 7ade 8839 c4b7 8839
000003b0: bccf 8839 367d 6938 97c3 6638 99e2 6c38
000003c0: 5752 6e30 ceec a630 1123 8530 0000 0000
000003d0: 0000 0000 0000 0000 9e8c c533 6ee9 ef33
000003e0: 625a e333 efe8 0834 02e9 2134 a8cd 1e34
000003f0: 0000 0000 0000 0000 0000 0000 8dd5 1b2c
3.281304e-13 2.446067e-12 0.0 0.0 0.0 0.0 5.5654596e-11 9.590315e-11
0.0 7.695986e-11 9.569198e-11 0.0 0.0 0.0 0.0 1.4632798e-15
4.672395e-15 0.0 0.0 1.10218956e-13 0.0 8.783918e-11 9.36591e-11 0.0
1.3282989e-11 4.1541603e-11 0.0 1.568953e-10 1.5616715e-10 0.0 1.0058146e-10 1.0997074e-10
0.0 8.413453e-11 8.395581e-11 0.0 8.836049e-11 8.805536e-11 0.0 7.56021e-11
7.534268e-11 0.0 1.07475355e-10 1.0721332e-10 0.0 2.3041175e-11 3.3560477e-11 0.0
0.0 0.0 0.0 0.0 0.0 0.0 0.0 0.0
0.0 0.0 0.0 0.0 0.0 0.0 0.0 0.0
0.0 0.0 0.0 0.0 0.0 0.0 0.0 0.0
0.0 0.0 0.0 0.0 0.0 0.0 0.0 0.0
0.0 0.0 0.0 0.0 0.0 0.0 0.0 0.0
0.0 0.0 0.0 0.0 0.0 0.0 0.0 0.0
2.7056221e-06 2.7030103e-06 2.8571512e-06 0.0 0.0 0.0 0.00017555365 0.00017765284
0.00018017954 0.00019392969 0.00019646886 0.00019857724 0.0 0.0 0.0 2.8294876e-06
2.9711098e-06 3.0249876e-06 6.3134636e-10 4.20935e-10 4.9879425e-09 0.00022486266 0.0002286354 0.00022869305
4.9801787e-05 4.99145e-05 5.2166422e-05 0.0003341148 0.00034036115 0.000341626 0.00026431092 0.00026871922
0.00026874698 0.00016870176 0.0001715886 0.00017173175 0.00016280684 0.0001657586 0.0001662303 0.00016595921
0.00016898818 0.00016949649 0.00025103465 0.00025551431 0.00025607267 5.7812085e-05 5.8399724e-05 5.9540773e-05
1.5757705e-09 1.4297024e-09 1.7978491e-09 0.0 0.0 0.0 1.8276556e-07 1.726831e-07
1.8242437e-07 2.6347507e-07 2.5115108e-07 2.5608983e-07 0.0 0.0 0.0 3.2079979e-12
2.5279147e-12 3.668785e-12 3.8344127e-15 8.3139767e-13 5.2272735e-12 3.0351282e-07 2.903692e-07 2.9184693e-07
4.456866e-08 4.1361268e-08 4.705471e-08 5.373632e-07 5.165263e-07 5.221787e-07 3.4083033e-07 3.2583984e-07
3.283799e-07 2.8002353e-07 2.6858152e-07 2.6990466e-07 3.016582e-07 2.896689e-07 2.920255e-07 2.616598e-07
2.5129378e-07 2.5333156e-07 3.6988735e-07 3.5495367e-07 3.569963e-07 7.690317e-08 7.29894e-08 7.5673825e-08
2.4112835e-06 2.3274313e-06 2.5158272e-06 0.0 0.0 0.0 0.00016999501 0.0001685652
0.0001718367 0.00019045534 0.0001892377 0.00019196821 0.0 0.0 0.0 4.0605873e-06
4.0024047e-06 4.012753e-06 3.6555128e-09 1.07629614e-10 5.381444e-09 0.00022781905 0.00022778813 0.00022780444
4.5088076e-05 4.385908e-05 4.664447e-05 0.000355276 0.00035461332 0.00035501947 0.00026566934 0.00026565164
0.0002656967 0.00017233845 0.00017225921 0.0001723109 0.00017228474 0.00017204147 0.00017219663 0.00017530702
0.0001750438 0.00017520775 0.000261057 0.00026076857 0.00026094716 5.566814e-05 5.501843e-05 5.647782e-05
8.670091e-10 1.2145394e-09 9.68699e-10 0.0 0.0 0.0 9.1991055e-08 1.11717654e-07
1.0586952e-07 1.2750728e-07 1.5079061e-07 1.4789714e-07 0.0 0.0 0.0 2.214537e-12

exp_avg f4 [8]
00000000: 0400 0000 0000 0000 a009 9138 0400 0000
00000010: 48d2 89b9 60d5 b38c f0b4 00ba 4c4b 95b7
6e-45 0.0 6.9159316e-05 6e-45 -0.00026287348 -2.7707737e-31 -0.0004909774 -1.7797247e-05

exp_avg_sq f4 [8]
00000000: 98c1 f62e 0000 0000 bbe8 9039 c897 c234
00000010: 995d 8f39 d0a8 6134 eb25 e23a ec41 a137
1.1221174e-10 0.0 0.00027639218 3.624575e-07 0.0002734482 2.1016172e-07 0.0017253732 1.9223393e-05

exp_avg f4 [8, 8, 3]
00000000: 0000 0000 0000 0000 0000 0000 0000 0000
00000010: 0000 0000 0000 0000 0000 0000 0000 0000
00000020: 0000 0000 0000 0000 0000 0000 0000 0000
00000030: 0000 0000 0000 0000 0000 0000 0000 0000
00000040: 0000 0000 0000 0000 0000 0000 0000 0000
00000050: 0000 0000 0000 0000 0000 0000 0000 0000
00000060: 0000 0000 0400 0080 0400 0080 0000 0000
00000070: 0000 0000 0000 0000 1ca6 08ba 9e5c e4b9
00000080: 8857 f0b9 0400 0080 0400 0080 0400 0080
00000090: 9827 cfb9 b6af 13ba 3d6c d5b9 27a7 5d8c
000000a0: 0799 710d 0400 0080 1346 0bba 88f9 40ba
000000b0: c6c0 01ba 08d7 e9b9 e0cd 6aba 0827 14ba
000000c0: 0000 0000 0000 0000 0400 0000 0000 0000
000000d0: 0000 0000 0000 0000 20bc bcb7 5814 98b9
000000e0: 6b0e eeb9 0400 0000 0400 0000 0400 0000
000000f0: 1cb6 8db7 4cbf 3eb9 9248 c2b9 0400 0000
00000100: 0400 0000 0400 0000 28fa a2b8 cf29 bcb9
00000110: e64a 26ba 78b4 06b9 e6b8 cab9 8823 3fba
00000120: 0000 0000 0400 0080 0400 0080 0000 0000
00000130: 0000 0000 0000 0000 b667 85ba 7e73 8cba
00000140: b266 1dba 0400 0080 0400 0080 0400 0080
00000150: 6fb8 75ba 2f56 83ba e79f 4cba e39c 828c
00000160: 60b0 2d0d 0400 0080 81df a2ba d0fc b7ba
00000170: 023e 5dba 2822 d0ba b95c bcba ae95 a4ba
00000180: 0000 0000 0000 0000 0000 0000 0000 0000
00000190: 0000 0000 0000 0000 d04b 6738 4e9c 6d38
000001a0: e03f 2ab6 0000 0000 0400 0000 0400 0000
000001b0: efdb 1537 4aa6 4437 6089 9d34 0000 0000
000001c0: 0400 0000 0400 0000 bab9 6038 59b7 5038
000001d0: c07f 17b6 10ce d338 e3c4 2339 60ac 48b6
000001e0: 0000 0000 0000 0000 0000 0000 0000 0000
000001f0: 0000 0000 0000 0000 0000 0000 0000 0000
00000200: 0000 0000 0000 0000 0000 0000 0000 0000
00000210: 0000 0000 0000 0000 0000 0000 0000 0000
00000220: 0000 0000 0000 0000 0000 0000 0000 0000
00000230: 0000 0000 0000 0000 0000 0000 0000 0000
00000240: 0000 0000 0400 0080 0400 0080 0000 0000
00000250: 0000 0000 0000 0000 3047 ad35 a446 04b9
00000260: c85b 28b8 0400 0080 0400 0080 0400 0080
00000270: 962f 50b8 10fe 18b8 3055 d8b8 0283 6b0b
00000280: 8cff e18c 0400 0080 c899 37b8 c70a c4b8
00000290: 3e05 f1b8 3064 1db9 72b6 38b8 ec7b 57b9
000002a0: 0000 0000 0000 0000 0000 0000 0000 0000
000002b0: 0000 0000 0000 0000 13fd 4139 3306 0c39
000002c0: f83d b137 0400 0080 0400 0080 0400 0080
000002d0: c82f 4239 f026 0b39 d42e 7e38 6b1c d309
000002e0: c501 400b 0400 0080 f35b 7539 6c22 3639
000002f0: 6063 2638 2c9d a639 4e69 4239 48be 9b38
0.0 0.0 0.0 0.0 0.0 0.0 0.0 0.0
0.0 0.0 0.0 0.0 0.0 0.0 0.0 0.0
0.0 0.0 0.0 0.0 0.0 0.0 0.0 0.0
0.0 -6e-45 -6e-45 0.0 0.0 0.0 -0.00052127405 -0.00043556554
-0.00045841583 -6e-45 -6e-45 -6e-45 -0.00039511616 -0.0005633788 -0.0004070717 -1.7075521e-31
7.444806e-31 -6e-45 -0.0005312871 -0.0007361402 -0.0004949685 -0.00044601434 -0.00089570694 -0.0005651568
0.0 0.0 6e-45 0.0 0.0 0.0 -2.2498949e-05 -0.00029006856
-0.0004540564 6e-45 6e-45 6e-45 -1.6893311e-05 -0.00018191076 -0.00037056633 6e-45
6e-45 6e-45 -7.771357e-05 -0.00035889304 -0.0006343558 -0.00012846466 -0.00038666202 -0.00072913663
0.0 -6e-45 -6e-45 0.0 0.0 0.0 -0.0010178003 -0.0010715572
-0.00060043775 -6e-45 -6e-45 -6e-45 -0.0009373491 -0.0010020192 -0.000780581 -2.0124094e-31
5.3522045e-31 -6e-45 -0.0012426228 -0.0014037136 -0.0008439721 -0.001587932 -0.0014370895 -0.0012556815
0.0 0.0 0.0 0.0 0.0 0.0 5.5145298e-05 5.6650773e-05
-2.5369154e-06 0.0 6e-45 6e-45 8.932299e-06 1.1721228e-05 2.9343482e-07 0.0
6e-45 6e-45 5.3578733e-05 4.976182e-05 -2.2575114e-06 0.00010099646 0.00015618237 -2.9902658e-06
0.0 0.0 0.0 0.0 0.0 0.0 0.0 0.0
0.0 0.0 0.0 0.0 0.0 0.0 0.0 0.0
0.0 0.0 0.0 0.0 0.0 0.0 0.0 0.0
0.0 -6e-45 -6e-45 0.0 0.0 0.0 1.2910223e-06 -0.00012614817
-4.01398e-05 -6e-45 -6e-45 -6e-45 -4.9635382e-05 -3.6476238e-05 -0.0001031555 4.5357913e-32
-3.482054e-31 -6e-45 -4.377382e-05 -9.348016e-05 -0.00011492752 -0.0001501001 -4.4038934e-05 -0.00020550162
0.0 0.0 0.0 0.0 0.0 0.0 0.00018500192 0.0001335375
2.11289e-05 -6e-45 -6e-45 -6e-45 0.00018519082 0.00013270578 6.060193e-05 5.0823126e-33
3.6979186e-32 -6e-45 0.00023399275 0.00017369696 3.9670034e-05 0.0003177909 0.00018540511 7.4264186e-05

exp_avg_sq f4 [8, 8, 3]
00000000: 0000 0000 0000 0000 0000 0000 0000 0000
00000010: 0000 0000 0000 0000 0000 0000 0000 0000
00000020: 0000 0000 0000 0000 0000 0000 0000 0000
00000030: 0000 0000 0000 0000 0000 0000 0000 0000
00000040: 0000 0000 0000 0000 0000 0000 0000 0000
00000050: 0000 0000 0000 0000 0000 0000 0000 0000
00000060: 0000 0000 91d8 da2b a794 ef29 0000 0000
00000070: 0000 0000 0000 0000 d314 be39 f08a c539
00000080: 104c b639 2dd6 7133 16d6 5833 e9a9 3a33
00000090: 6f4c aa38 0802 b538 3fbd a438 dc0a 9b31
000000a0: bbff 5631 369d 2531 3fac 8e39 9f53 9639
000000b0: 247c 8739 90d2 db39 8125 f139 5b28 dc39
000000c0: 0000 0000 0000 0000 f3a9 512c 0000 0000
000000d0: 0000 0000 0000 0000 57ba 9238 1305 a738
000000e0: c9a6 9a38 37cc 8833 9233 af33 dbc9 a033
000000f0: b979 9836 082d c336 8f85 b836 a79c 5f32
00000100: b94d 9e32 f702 8032 970d 0238 6ecb 2038
00000110: 07eb 0f38 1e80 9e38 16cd ce38 a17f b538
00000120: 0000 0000 d8b5 d029 5577 ad22 0000 0000
00000130: 0000 0000 0000 0000 a9fe 293a 5db1 363a
00000140: e087 2b3a 49e4 8633 5b78 a133 fb68 8933
00000150: a52b 3839 4968 4a39 bf96 3e39 30c1 ed31
00000160: dd42 1f32 8c79 ce31 8504 133a 9da4 203a
00000170: 4d84 143a ebdf 813a ede4 913a f069 8a3a
00000180: 0000 0000 0000 0000 0000 0000 0000 0000
00000190: 0000 0000 0000 0000 65cc 9e32 6258 a733
000001a0: c091 f032 0000 0000 4ce7 4c30 a4e7 1c30
000001b0: 80ce 9130 03d4 ef30 9692 e030 0000 0000
000001c0: 798b 1830 a476 882f 3260 9032 8d64 5d33
000001d0: 0514 d432 e9c8 7233 f84f a234 d159 a933
000001e0: 0000 0000 0000 0000 0000 0000 0000 0000
000001f0: 0000 0000 0000 0000 0000 0000 0000 0000
00000200: 0000 0000 0000 0000 0000 0000 0000 0000
00000210: 0000 0000 0000 0000 0000 0000 0000 0000
00000220: 0000 0000 0000 0000 0000 0000 0000 0000
00000230: 0000 0000 0000 0000 0000 0000 0000 0000
00000240: 0000 0000 a20c bc2a 2a19 462c 0000 0000
00000250: 0000 0000 0000 0000 78a9 fc37 acaf 0038
00000260: 8be0 f637 4879 1c34 4303 2634 c934 1034
00000270: aa6e 3436 d77f 3936 a338 3536 e8db f732
00000280: b018 f832 f58b c832 db09 7d37 eb27 8537
00000290: bbe8 7d37 5e31 7636 c503 8436 ec4d 8a36
000002a0: 0000 0000 0000 0000 0000 0000 0000 0000
000002b0: 0000 0000 0000 0000 94c2 a037 ec26 af37
000002c0: bc93 a237 7fe8 e932 7960 fa32 b087 e332
000002d0: 47a0 8e36 8b67 a336 5a3a 9936 ebb4 ce30
000002e0: 74c4 dd30 25f3 8b30 e307 8937 b51f 9b37
000002f0: 7c6e 8e37 6afd b437 61b4 da37 4002 cc37
0.0 0.0 0.0 0.0 0.0 0.0 0.0 0.0
0.0 0.0 0.0 0.0 0.0 0.0 0.0 0.0
0.0 0.0 0.0 0.0 0.0 0.0 0.0 0.0
0.0 1.5549941e-12 1.0639519e-13 0.0 0.0 0.0 0.0003625514 0.00037678285
0.00034770416 5.6306977e-08 5.048613e-08 4.3461032e-08 8.1204686e-05 8.631131e-05 7.855379e-05 4.5123283e-09
3.1286465e-09 2.4100024e-09 0.00027212684 0.00028672532 0.00025841699 0.00041927816 0.00045995045 0.00041991737
0.0 0.0 2.9795027e-12 0.0 0.0 0.0 6.996531e-05 7.964126e-05
7.3743584e-05 6.37014e-08 8.158453e-08 7.487298e-08 4.5441234e-06 5.816695e-06 5.4991756e-06 1.3015927e-08
1.8428965e-08 1.490251e-08 3.100707e-05 3.833643e-05 3.4312743e-05 7.557891e-05 9.861046e-05 8.654525e-05
0.0 9.2686004e-14 4.701809e-18 0.0 0.0 0.0 0.00064847857 0.0006969178
0.0006543379 6.281386e-08 7.519039e-08 6.3986555e-08 0.00017563866 0.0001930307 0.0001817597 6.9195707e-09
9.270221e-09 6.0092074e-09 0.00056082784 0.0006128045 0.00056654663 0.0009908652 0.0011130847 0.0010560136
0.0 0.0 0.0 0.0 0.0 0.0 1.8486569e-08 7.79262e-08
2.8005957e-08 0.0 7.454346e-10 5.708165e-10 1.0608829e-09 1.7449796e-09 1.6339807e-09 0.0
5.549548e-10 2.4822555e-10 1.6807551e-08 5.1547023e-08 2.4689152e-08 5.6527742e-08 3.0233036e-07 7.886013e-08
0.0 0.0 0.0 0.0 0.0 0.0 0.0 0.0
0.0 0.0 0.0 0.0 0.0 0.0 0.0 0.0
0.0 0.0 0.0 0.0 0.0 0.0 0.0 0.0
0.0 3.3404274e-13 2.8151461e-12 0.0 0.0 0.0 3.0119656e-05 3.0681185e-05
2.9430046e-05 1.4572754e-07 1.5461141e-07 1.3430248e-07 2.6886505e-06 2.764156e-06 2.7004069e-06 2.8854586e-08
2.8882226e-08 2.334671e-08 1.508227e-05 1.5873424e-05 1.5134162e-05 3.6685592e-06 3.9343454e-06 4.121792e-06
0.0 0.0 0.0 0.0 0.0 0.0 1.9164094e-05 2.087975e-05
1.9380699e-05 2.7230497e-08 2.9147701e-08 2.6487982e-08 4.2505885e-06 4.8698325e-06 4.5665483e-06 1.5039893e-09
1.6135702e-09 1.0182687e-09 1.6335345e-05 1.8492205e-05 1.6979167e-05 2.1575677e-05 2.607162e-05 2.4319743e-05

exp_avg f4 [8]
00000000: 0000 0000 a847 e3b9 d08a 33ba c61d 85ba
00000010: 9fca 7f39 0000 0000 1ba8 1eb9 50ba bd38
0.0 -0.00043350202 -0.0006848993 -0.0010155968 0.00024394177 0.0 -0.00015130678 9.046926e-05

exp_avg_sq f4 [8]
00000000: 0000 0000 29b2 993a 4e97 d739 b455 313b
00000010: e753 9635 0000 0000 09db e437 10c7 8838
0.0 0.001172607 0.00041120726 0.002705914 1.120029e-06 0.0 2.7281714e-05 6.5220636e-05

exp_avg f4 [16, 8, 3]
00000000: 0000 0000 0000 0000 0000 0000 be7a 46b9
00000010: 6913 20b9 c170 52b9 b87c 8835 9930 28b7
00000020: 4764 8fb6 9e97 55b8 0bb9 c1b8 2421 d0b8
00000030: f9e7 46b6 6335 efb5 4f0b e435 0000 0000
00000040: 0000 0000 0000 0000 e4d4 e7b8 f420 1db8
00000050: 610c c3b8 0ae1 68b8 3086 3cb7 1861 9fb8
00000060: 0000 0000 0000 0000 0000 0000 2100 0000
00000070: 2100 0000 0000 0000 3000 0000 3000 0000
00000080: 0000 0000 4a00 0000 4a00 0000 0000 0000
00000090: 0000 0000 0000 0000 0000 0000 0000 0000
000000a0: 0000 0000 0000 0000 1d00 0000 1d00 0000
000000b0: 0000 0000 7200 0000 7200 0000 0000 0000
000000c0: 0000 0000 0000 0000 0000 0000 0000 0000
000000d0: 0000 0000 0000 0000 0000 0000 0000 0000
000000e0: 0000 0000 0000 0000 0000 0000 0000 0000
000000f0: 0000 0000 0000 0000 0000 0000 0000 0000
00000100: 0000 0000 0000 0000 0000 0000 0000 0000
00000110: 0000 0000 0000 0000 0000 0000 0000 0000
00000120: 0000 0000 0000 0000 0000 0000 c697 1138
00000130: 7f14 c038 c992 cd38 625f a035 a057 d3b6
00000140: 3bea f4b6 deb0 e437 4c30 9a38 7378 8538
00000150: 0400 0080 93a2 a835 93a2 a835 0000 0000
00000160: 0000 0000 0000 0000 b557 4e37 34f5 0238
00000170: 4402 4b38 5b4e 9637 1b02 c637 9e79 0938
00000180: 0000 0000 0000 0000 0000 0000 9631 2d93
00000190: 8fe7 54b6 8fe7 54b6 9bf0 54a7 584f 48b4
000001a0: 584f 48b4 9c6b baa7 b56d 27b6 b56d 27b6
000001b0: abd0 6ca7 0c37 7734 0c37 7734 0000 0000
000001c0: 0000 0000 0000 0000 6c82 f0a6 0dd1 3eb5
000001d0: 0dd1 3eb5 bb13 7ba8 60a3 67b5 60a3 67b5
000001e0: 0000 0000 0000 0000 0000 0000 55a9 17ba
000001f0: 5106 39ba b723 ddb9 3cb6 5037 8011 f935
00000200: 87ab 08b8 4c14 81b9 1131 a6b9 8029 6eb9
00000210: 1763 9fb6 6391 e9b6 28dd 0db7 0000 0000
00000220: 0000 0000 0000 0000 0565 aab9 34ff a0b9
00000230: 03a5 13b9 3cb1 6eb9 0cf1 16b9 c0b0 65b7
00000240: 0000 0000 0000 0000 0000 0000 b87f c2b9
00000250: 3750 edb9 a15e 8eb9 51ef 9337 9f77 90b7
00000260: 844f cab7 40a9 1db9 f875 83b9 655f 08b9
00000270: 5c2c 10b6 0413 a5b6 32f2 6ab6 0000 0000
00000280: 0000 0000 0000 0000 6d8c 79b9 fc22 1fb9
00000290: 7a92 b9b8 f0d7 20b9 f843 78b8 0052 0635
000002a0: 0000 0000 0000 0000 0000 0000 5e26 cc39
000002b0: 728e ff39 0e9b 6439 1f5e c9b7 e825 3f36
000002c0: d099 ee37 5132 2039 73a1 7a39 70e5 f938
000002d0: d25b c035 b0ef 9e36 1199 d036 0000 0000
000002e0: 0000 0000 0000 0000 6838 6939 8a99 4139
000002f0: 08ac 4238 ea97 0339 9401 9638 98f8 3bb8
00000300: 0000 0000 0000 0000 0000 0000 8c77 1db9
00000310: a66a 6ab9 5458 e7b8 6eac 8ab6 de18 84b7
00000320: 0813 9eb7 a4d7 c6b8 7e51 0fb9 2887 65b8
00000330: 4503 0db5 be69 45b6 b04f 52b6 0000 0000
00000340: 0000 0000 0000 0000 4a7f b3b8 f483 89b8
00000350: 6078 d2b7 009b a4b8 981e 01b8 7034 9837
00000360: 0000 0000 0000 0000 0000 0000 c9bb 2eb9
00000370: 1145 54b9 5e7d 42b8 7c3d 5637 9273 61b7
00000380: 13dc 78b7 6c4f a5b8 eb03 fbb8 d043 0db8
00000390: 717f b5b5 9725 ffb5 a229 07b6 0000 0000
000003a0: 0000 0000 0000 0000 6b8f a1b8 f80f 49b8
000003b0: d041 f8b6 2032 a9b7 904d 1cb7 e0bd 7d37
000003c0: 0000 0000 0000 0000 0000 0000 3e56 04b7
000003d0: b3e0 ed38 3fdc 7338 8863 7635 a7cb ad35
000003e0: f81b d934 0489 2938 6ba1 d837 6951 a9b7
000003f0: 03aa b5b3 4a1f 7c34 257a ab34 0000 0000
0.0 0.0 0.0 -0.00018928476 -0.0001526602 -0.00020069165 1.0169088e-06 -1.0024895e-05
-4.273406e-06 -5.0924362e-05 -9.237424e-05 -9.924386e-05 -2.9639325e-06 -1.7822425e-06 1.6990615e-06 0.0
0.0 0.0 -0.00011054592 -3.7462407e-05 -9.30063e-05 -5.5522694e-05 -1.1236916e-05 -7.599796e-05
0.0 0.0 0.0 4.6e-44 4.6e-44 0.0 6.7e-44 6.7e-44
0.0 1.04e-43 1.04e-43 0.0 0.0 0.0 0.0 0.0
0.0 0.0 4e-44 4e-44 0.0 1.6e-43 1.6e-43 0.0
0.0 0.0 0.0 0.0 0.0 0.0 0.0 0.0
0.0 0.0 0.0 0.0 0.0 0.0 0.0 0.0
0.0 0.0 0.0 0.0 0.0 0.0 0.0 0.0
0.0 0.0 0.0 3.4712044e-05 9.159091e-05 9.8025026e-05 1.1948689e-06 -6.298491e-06
-7.2990347e-06 2.7262078e-05 7.352288e-05 6.3643696e-05 -6e-45 1.2564291e-06 1.2564291e-06 0.0
0.0 0.0 1.2298978e-05 3.122278e-05 4.840108e-05 1.791788e-05 2.360442e-05 3.277661e-05
0.0 0.0 0.0 -2.1860118e-27 -3.1725247e-06 -3.1725247e-06 -2.9551343e-15 -1.8655317e-07
-1.8655317e-07 -5.174204e-15 -2.4948797e-06 -2.4948797e-06 -3.2864698e-15 2.3023694e-07 2.3023694e-07 0.0
0.0 0.0 -1.6688696e-15 -7.1084725e-07 -7.1084725e-07 -1.3937577e-14 -8.629195e-07 -8.629195e-07
0.0 0.0 0.0 -0.00057854253 -0.0007058131 -0.00042179014 1.2440196e-05 1.8557039e-06
-3.2584674e-05 -0.0002461992 -0.00031698545 -0.00022712909 -4.750105e-06 -6.9608664e-06 -8.455747e-06 0.0
0.0 0.0 -0.00032500192 -0.0003070772 -0.00014080484 -0.00022763474 -0.00014394912 -1.36906165e-05
0.0 0.0 0.0 -0.0003709772 -0.00045263927 -0.00027154855 1.7635206e-05 -1.722184e-05
-2.4117304e-05 -0.00015035737 -0.0002507416 -0.00013005508 -2.1483493e-06 -4.919597e-06 -3.5009693e-06 0.0
0.0 0.0 -0.00023798803 -0.00015176454 -8.848771e-05 -0.00015339232 -5.919111e-05 5.0038216e-07
0.0 0.0 0.0 0.00038938498 0.0004874352 0.00021801537 -2.4004896e-05 2.8483282e-06
2.8443435e-05 0.00015277533 0.00023902002 0.00011915981 1.4331838e-06 4.7366702e-06 6.2167023e-06 0.0
0.0 0.0 0.00022241625 0.00018463112 4.641342e-05 0.00012549726 7.152851e-05 -4.4815795e-05
0.0 0.0 0.0 -0.00015017221 -0.00022355709 -0.00011031391 -4.132794e-06 -1.5747206e-05
-1.884393e-05 -9.481542e-05 -0.00013667901 -5.472373e-05 -5.253135e-07 -2.9416838e-06 -3.1338823e-06 0.0
0.0 0.0 -8.5590946e-05 -6.557247e-05 -2.5090005e-05 -7.8490004e-05 -3.078449e-05 1.814423e-05
0.0 0.0 0.0 -0.00016663889 -0.00020243625 -4.636996e-05 1.2769709e-05 -1.3437953e-05
-1.4833192e-05 -7.8826066e-05 -0.000119693424 -3.3680175e-05 -1.3522641e-06 -1.9009921e-06 -2.01408e-06 0.0
0.0 0.0 -7.703792e-05 -4.7937006e-05 -7.3986375e-06 -2.0169711e-05 -9.3163835e-06 1.5124184e-05
0.0 0.0 0.0 -7.887893e-06 0.00011342894 5.8140835e-05 9.178698e-07 1.2948775e-06
4.043975e-07 4.0420346e-05 2.5824373e-05 -2.018428e-05 -8.459394e-08 2.3480712e-07 3.1940104e-07 0.0
