models/TranAD/model.ckpt (torch, 93830 bytes, 102 tensors)

transformer_encoder.layers.0.self_attn.in_proj_weight f8 [24, 8]
0	0x3fc43dd97bbf69b9	0.15813749830597404
1	0x3fc434ced7167b75	0.15786157133421921
2	0xbfc41ec3788e5cef	-0.1571888292935237
3	0xbfc646c5684c08d6	-0.17403476326587136
4	0xbfc458f14e88a978	-0.15896431288394886
5	0x3f65e94d546c5600	0.002674723658297351
6	0xbfc54fc6e683bdf8	-0.16649709945293956
7	0x3fae68a13e91f4cd	0.05939201248927759
8	0x3fd54e640d287866	0.33290959629983374
9	0x3fe3eb11d97cfe40	0.6224450347726318
10	0x3fd5265963450e2c	0.33046564764319686
11	0x3fc4d3452bcfb5ad	0.16269745482661105
12	0x3fdb0200c646ae01	0.42199725497150103
13	0x3fd2a019900fd153	0.29102171963247264
14	0x3fdbde6f3f325ca6	0.43545132800631803
15	0x3fdde7b7bf346e97	0.4672679297670838
16	0x3fc6e1f289b06501	0.17877036784265246
17	0xbfcca0727313c3e7	-0.2236464559460096
18	0xbfd78a283903417c	-0.36780744140289534
19	0x3facf4e721bc433f	0.05655596052941413
20	0xbfbbb190dcfcdb43	-0.1081781901856234
21	0x3fa02ba2f58edaf5	0.031582920527787474
22	0x3fd40b91e52320ec	0.3132061708133864
23	0x3fd4d50df8835716	0.3255038191685896
24	0x3fd0caa283218def	0.262367847497642
25	0xbfc00a41631806da	-0.12531297052924267
26	0x3fce22bd81259cdf	0.2354351883506984
27	0xbfbe161b694b4e3d	-0.11752482720049158
28	0x3f741fc3150631a3	0.004913103141359096
29	0xbfdbbda50a72ad65	-0.4334499933272212
30	0xbfc53d2e4edf6131	-0.16592959262084997
31	0xbfd003a2b0ab239d	-0.25022189381393806
32	0x3fbeebce3f9342bd	0.1207856087887746
33	0xbfdf89bd4a313e16	-0.492781946614714
34	0x3fc3bcb75bdeca5e	0.1541966627679185
35	0xbfd5d2ed4be81ecb	-0.34099895870938884
36	0xbfe489022ea6b0df	-0.6417246733813292
37	0xbfd7175d29418753	-0.3608010199442237
38	0xbfd68274fafde9e3	-0.3517124606220518
39	0xbfc6cadddb4d04fc	-0.17806599815416024
40	0x3fc277885f7dea3e	0.14427284872711427
41	0x3fc5079a8f4493b3	0.16429454799177065
42	0xbfdac3f7f2e2ab4d	-0.4182109710624687
43	0xbfd49b38e8503ea1	-0.3219740170179453
44	0x3fd7884ad8c3d8eb	0.3676936261030181
45	0xbfcca065e7da5051	-0.22364496060311237
46	0x3fd06899778648a4	0.25638424560851036
47	0x3fd74b2a1fbdf144	0.36396267986107866
48	0xbf9d61add09e1824	-0.028692928178792113
49	0x3fdef6fc672e0444	0.4838248260130664
50	0xbfc76a42fd0903f5	-0.18293034892306506
51	0x3f8073226487c019	0.00803210133832981
52	0x3fc5ba2b946f5eed	0.16974396465115352
53	0xbfc181186c71d8bc	-0.13675217909957904
54	0x3fd50c397cc66c6b	0.32887112793986856
55	0x3fd7a84cf72d21c3	0.3696472562628765
56	0x3fb821f86304de8c	0.09426834504562914
57	0x3fd5a55814dc7e84	0.33821680104481566
58	0x3fd81a292d45b8dc	0.37659673138740657
59	0xbfa6c77b4bf7228e	-0.04449067404090555
60	0xbfc33d32c55705e9	-0.1503051246236702
61	0x3fa6601caddee65f	0.043702026581240665
62	0xbfb432fb5bcbfd5d	-0.07890292159207975
63	0x3fe12801d4a522ae	0.5361336854194485
64	0x3fe390a2e10f5125	0.6114057918262331
65	0xbfc9620b1c52f873	-0.19830454714787357
66	0xbfc5b07fbfb6a209	-0.16944882260328623
67	0xbfdf3b56fad3e62b	-0.4879968118180808
68	0x3fcc4255c03abbad	0.22077438245966388
69	0x3fb2555cab64d7fc	0.0716150206033887
70	0x3fb6525452a320af	0.08719374673376266
71	0x3fc74ddbdbe9a571	0.1820635627548586
72	0x3fc092f0d5b2be40	0.1294842761467283
73	0x3fc74fea676c8882	0.18212633180616328
74	0xbfc7e7e6c96821b1	-0.18676457247080472
75	0x3fcc7dc54363e176	0.2225882128766547
76	0xbf4000bdf7a2c725	-0.0004883697104302904
77	0xbfb9b9371643d019	-0.10048240941597476
78	0xbf71995e6463687e	-0.004296654433540435
79	0x3fb034ae6fd608a6	0.06330385427830496
80	0x3fd4409f567c2da9	0.3164442390995768
81	0xbf999b1c18a307e7	-0.025005759242738092
82	0xbfc5610c0ee877e6	-0.1670241425317151
83	0xbfd43ce06768a9a6	-0.3162156114437046
84	0xbf95c4b62330c6d9	-0.02125820722375846
85	0x3fd00df77afe1093	0.25085246096592434
86	0xbf7a54a430431657	-0.006428376542492473
87	0x3fd101c9bc829e85	0.2657341328544834
88	0xbfd8179c8530f871	-0.3764411259361458
89	0x3fc5a6f7dd9efe41	0.16915796586362045
90	0xbfc1cb629ed2c7a4	-0.13901932482764068
91	0x3fcbe18c30108d25	0.21782066676051062
92	0x3fb9b737e134b93f	0.10045193908874682
93	0xbfd2cd3737d56e46	-0.29377537205229876
94	0x3fd13db70d86e793	0.2693917877291991
95	0x3fb7b9156b149c3f	0.09266790260572665
96	0x3fd79c9a27f41d9d	0.3689332380458497
97	0x3fdb1b4b247490dc	0.4235408645638594
98	0xbf9cbf303cd1b948	-0.028073075973616995
99	0xbfdd8158794bb25a	-0.4610196289566254
100	0xbf9a1b5d49d3dd76	-0.025495011931494692
101	0xbfa187018a9fb55a	-0.034233139201982524
102	0xbfa16c6197d12118	-0.034030008108461185
103	0xbfa59b2ccb75c882	-0.04219951614040075
104	0xbfd3bc1d4d750677	-0.3083565956513676
105	0x3fdf8e4d4e96a9e2	0.49306042360936264
106	0x3fb84c386cdc1c0d	0.09491303117475543
107	0xbfa7ccf949449ec9	-0.04648570079217291
108	0xbfd60f1e969fd93d	-0.344672820181035
109	0x3fbe4240e4756d93	0.11819844796757754
110	0xbfccfd4c37e5b148	-0.2264800332008099
111	0x3fc6d5b29c9909c3	0.1783965363157006
112	0x3fc9b09cc7c995e8	0.20070228343244811
113	0x3fc9f4e5fd869076	0.20278620604688385
114	0x3fc3f74422739afd	0.15598346407133326
115	0xbfcc208017d263a6	-0.21974183238196793
116	0xbfd1dd8dfd3121c6	-0.2791476223542556
117	0xbfd4544fb375c126	-0.3176459553278782
118	0xbfcf77c6910cb8b5	-0.245842762780233
119	0x3fadd68798c228ae	0.058277356526632004
120	0x3fb8621c2f19c448	0.09524704122465366
121	0x3faa46d28ebe2fd7	0.05132158272235159
122	0xbfdf8f64b61c9d78	-0.4931270388064699
123	0x3fc3143564fc8ddd	0.14905421668036825
124	0xbfe0b863296f8ad8	-0.5225082215586907
125	0x3f9c7229c6350d2b	0.02777924797306956
126	0x3fd3f3faa7627975	0.3117663035026433
127	0xbfd9f0229b3eb922	-0.4052816883148741
128	0x3fb8082ce64ce408	0.09387474653784988
129	0x3fc96ef411678235	0.19869852876492336
130	0xbfb3970443fb48b0	-0.07652308139521113
131	0x3fd5a76b173144dd	0.33834340348137265
132	0xbfd19737965af31c	-0.27485456164485966
133	0x3fc47fe01534c860	0.1601524451776326
134	0x3fb0df373d04409d	0.06590600242293694
135	0xbfc5f563761b4f55	-0.17155116335799883
136	0x3f80fe73e8c5b1c4	0.008297830144066938
137	0x3fe1a774e8165523	0.551691487594017
138	0xbfd25b04253eaa78	-0.28680518757997886
139	0xbfd69f7935ee2d1b	-0.3534834887183977
140	0x3fdadd5ee18ecfbe	0.41976139094481
141	0x3fdbe0464e985db3	0.43556363749800225
142	0xbfbcdfebe140750d	-0.11279176949797805
143	0xbfb4676afdf91b10	-0.07970303249849686
144	0x3f965189db1cf7a7	0.021795419691663345
145	0xbfe18fa815f06c4b	-0.548786204194934
146	0xbfd705dafac69e1b	-0.3597323845847044
147	0xbfc0974063248f30	-0.12961582985837472
148	0xbfb9d3e0e5372986	-0.10088925930100431
149	0x3fc4cb60c9e6e36d	0.16245660646907414
150	0x3fd58678b34e24f2	0.3363324881580204
151	0x3fd779f76315ef08	0.36681923557601737
152	0xbfdacc29b9af55f0	-0.418711119969287
153	0xbfd28e5e0df354bc	-0.289939416526362
154	0x3fc929c10f0f6ed4	0.19658673510899993
155	0xbfbac0dca14d9961	-0.10450533807816022
156	0xbfbba33efc0d0b48	-0.10795968679034929
157	0xbfa90db1957437df	-0.048932599538701764
158	0xbf8c42b9a172496b	-0.013799143065885663
159	0x3fbfeeac4337828f	0.12473560944591554
160	0x3fe15504abb82f28	0.5416282037635698
161	0xbfe1ac7c5286ea2b	-0.5523053752761532
162	0x3f6dca9bbf2fbe44	0.0036366502695200104
163	0x3fb7c513074c0c16	0.09285086563254227
164	0x3fd74f47e7d995e5	0.3642139209899525
165	0x3fc8b7b254e5b33f	0.19310597558378537
166	0x3fda995cdda29ff6	0.4156105198294421
167	0xbfdb80b4346fe701	-0.42973046418011057
168	0x3fdaa75c27f948f6	0.4164648428315013
169	0xbfe38052f87660b9	-0.6094145634442817
170	0xbfa00ac72eb2f2ed	-0.03133223004394901
171	0x3fb10f35e8e317f0	0.06663834510536026
172	0x3fb6f964765a1b68	0.08974292649700788
173	0x3fcce59e5ba895dc	0.2257574031402062
174	0xbfcdcccc9aa8c0cb	-0.2328124766513667
175	0xbfb4322766d6d0a9	-0.07889028797837007
176	0x3fca0b885f21b276	0.2034769501218709
177	0x3fcf226f6a30e22f	0.2432383793364052
178	0xbfcf433300abd4eb	-0.24423825772070215
179	0xbfcf769d153b5836	-0.24580729996404366
180	0x3f8ecffd51352410	0.015045146027334894
181	0x3fc079f0a2491de5	0.12872131275274437
182	0xbfc2cf61724b41dc	-0.14695375519524034
183	0x3fc95bcd056717c6	0.19811404002956418
184	0x3fca96d77fac0882	0.20772832616791354
185	0x3f655c01f509ed8e	0.0026073492265916215
186	0xbfd3bfb763cb0f4f	-0.3085764383833877
187	0x3f9dd5a8e458e794	0.029135359704219946
188	0xbfc500eff12f83a5	-0.16409110333100077
189	0xbfcf92f4a1ffdbad	-0.24667222890977084
190	0x3fa92662eaa8e16c	0.049120989937764786
191	0xbfdbdfe37b35aa44	-0.43554007560911523

transformer_encoder.layers.0.self_attn.in_proj_bias f8 [24]
0	0xbfc9313a8b473398	-0.19681484032335272
1	0x3fac6831838e26ae	0.05548243266009699
2	0x3f94bff3cfeeaf0e	0.020263490263160704
3	0xbf7f1d94351064e4	-0.007596568045323358
4	0xbfd0fd3aa8cea1e6	-0.2654558800227548
5	0xbfa643c62abcb4b9	-0.04348582526868356
6	0xbfa53b9ce11e1cea	-0.041470434646777424
7	0x3fc04c98dc74c3bc	0.12733755840738847
8	0xbd05bc5d6ad69b58	-9.652634440834174e-15
9	0x3ccdd5f7ace5ee7f	8.281100937321947e-16
10	0x3ce1da4468f541cd	1.982037462338344e-15
11	0x3d0d8c70115f4c23	1.3122207773649083e-14
12	0xbd1074c33f82a6c4	-1.4615956666634368e-14
13	0xbcf38148bc70cda0	-4.330983597255981e-15
14	0xbd0f7c1ae2fc10d2	-1.3982053407459267e-14
15	0x3cef7dbafa03b873	3.496218235676037e-15
16	0x3fa9659d79f5bbc0	0.04960338701027167
17	0x3f9fa9e567e98ddb	0.03092153975229715
18	0x3f90667a9a0b5cd3	0.016015926029322735
19	0xbfa85ad509ffba4b	-0.04756799456651047
20	0xbf5583d7af2b0e7a	-0.0013131719867240086
21	0xbfa2a571e8494b2a	-0.0364184948017708
22	0x3f973b0da6fab449	0.02268620807324265
23	0xbf9adf7e70c781fd	-0.026243186601165636

transformer_encoder.layers.0.self_attn.out_proj.weight f8 [8, 8]
0	0x3fd42485a0eaa767	0.3147291251612984
1	0x3fcf293fb0ce9752	0.24344631322054028
2	0xbfe0e60cae8b506a	-0.528082219034798
3	0x3f91b269631aecdb	0.01728214900388712
4	0x3fd0cc431600572b	0.2624671664101352
5	0xbfce0f91de2b4d16	-0.23485015247442992
6	0x3fa2ba3ceaccd083	0.03657713285647992
7	0x3fb38f394832a34f	0.07640417111055096
8	0xbfc70609b6716e44	-0.17987176330903953
9	0x3fde7ce5d1615ad1	0.4763731522302069
10	0xbfd00542120cce0f	-0.25032092821786106
11	0xbfc3f34a0ecb065c	-0.15586209986035982
12	0x3fca2c330631d31d	0.20447385599586534
13	0xbfdc95d4c6a19e07	-0.4466449680098496
14	0xbfd459529a997cbc	-0.31795182321179616
15	0xbfd92fb3999fac00	-0.393536472342646
16	0x3fcb5c446948b645	0.21375327244588696
17	0xbfa113d7e20a49e0	-0.03335451730994854
18	0xbfe1f60020d4e406	-0.5612793580286286
19	0x3fc08db8a393e937	0.1293249891967407
20	0xbfc8822456692931	-0.1914716169288311
21	0x3fb158836f02d118	0.06775685749272886
22	0x3fd7ad1ca4ac5a1b	0.3699409111153799
23	0x3fc442242af7a9ce	0.1582684716989448
24	0x3fbf3ac80d1424ac	0.12199068373969862
25	0xbfb70fcb4131f42d	-0.09008474675825147
26	0x3fd592a3537bdb32	0.3370750727912536
27	0x3fd3227252448e85	0.2989774516483766
28	0x3fda73d052d266b6	0.4133187111670894
29	0x3fdc66cc974355fa	0.44377436420231187
30	0xbfd37d8e24de9f89	-0.30453828430699353
31	0xbfd74215e6451d64	-0.3634085415582915
32	0x3fa62a0d5ff3bc80	0.04328958317079756
33	0xbfd4d65ca17d620b	-0.3255836083458525
34	0xbfab741515aac40a	-0.053620013136772185
35	0x3fbdad394af9bc15	0.11592443542916471
36	0x3fd0ded05d95a00f	0.263599482909286
37	0xbfb63414d575d67e	-0.08673219882424552
38	0xbfd3e1d5b45e64e0	-0.3106588612950656
39	0xbfd4d47a707eea0d	-0.32546864496149014
40	0xbfc1bf0fcba51aff	-0.13864324039078466
41	0xbfc572448367c802	-0.16754967132834514
42	0xbfb391103da87907	-0.07643224244427325
43	0x3fd058dd96d84a42	0.2554239247412263
44	0xbf56d1d54c5c62ec	-0.001392801570039899
45	0x3fd6093307cbcc38	0.344311483014454
46	0x3fd51681ae6450a8	0.32949869184927616
47	0x3fd1fe2c272fc475	0.2811384566003377
48	0xbfcc9174a0dd6c11	-0.22318895201428338
49	0x3fc8ee3896fe96db	0.19476992962625314
50	0x3f90b48ec3b82c24	0.016313772865071866
51	0x3fcfdd3645289ca8	0.24893835427176225
52	0x3fb6e9af190cb7a6	0.08950323449673067
53	0x3fabeb1f3d57b1c3	0.05452821372805119
54	0xbfc026ac31975762	-0.1261801950592441
55	0xbf90cb44f731c6d9	-0.016400411212493225
56	0xbfa51f75ceef8d75	-0.0412556471926803
57	0x3fcdd52c74f0b4e5	0.23306804380391735
58	0xbfc0ecf050f3d46a	-0.1322307963634189
59	0x3fc4fd84e2e217e3	0.16398678854255797
60	0xbfa15d1904909cd9	-0.033913404280889466
61	0x3fb058a068fef84d	0.0638523346269448
62	0xbfc432ddd1c1f154	-0.15780232183522946
63	0x3fd6b309e1ce5036	0.3546776490341047

transformer_encoder.layers.0.self_attn.out_proj.bias f8 [8]
0	0x3f9ffccfc1a08246	0.031237837021878677
1	0x3fa461ac42e62b93	0.03980768505706247
2	0xbfa6a2a25d7d2fa1	-0.04420955077384226
3	0x3fa4977cfb161e68	0.04021826329249906
4	0x3f89cfc01df0fc06	0.012603283799874642
5	0xbf91409290af4bae	-0.016847887116295084
6	0xbfa7dc2d8b3503d0	-0.04660169910722056
7	0xbf9a50ab011e4ca2	-0.025698348944911083

transformer_encoder.layers.0.linear1.weight f8 [16, 8]
0	0xbfb8c19c82775e2e	-0.0967042749901956
1	0xbfd7fa22a98ba89e	-0.3746420531957798
2	0x3fd2154356da8414	0.28254779321474754
3	0xbfb51888befd4fc9	-0.08240561163739736
4	0x3fbd6e87b22d272b	0.11496780490884066
5	0x3fd0762ac0a24b41	0.2572123414221786
6	0xbfd50bd8f8393dd8	-0.3288481163080781
7	0xbfd4d42c767df317	-0.32545005389674614
8	0xbfaba5e3c3e2034d	-0.05400001302860478
9	0x3fd3d716d42ef4d1	0.31000300141370213
10	0xbfd0bf30ac9b0f34	-0.2616693196871325
11	0x3fd1442209944e6c	0.26978350577812793
12	0x3fb3cbf2089d5134	0.07733071050944745
13	0xbfc14146a86c9e18	-0.134804565657064
14	0x3fa7804d154ac1a7	0.04590073475754091
15	0x3fd26afb3cda963e	0.2877796263004234
16	0xbfd0f1651678b8d1	-0.26473357386101976
17	0x3fb23a505b53234e	0.07120229940040909
18	0x3fc4d8b1fad8baa5	0.16286301372880022
19	0x3faf71d2e8c19111	0.06141528216611126
20	0xbfd158d81b6742b1	-0.271047617684455
21	0x3fd31804ebecb09e	0.2983410171461943
22	0x3fb76060f453ffbd	0.09131437268297211
23	0x3fc343f8ccbba00e	0.15051183697437448
24	0xbfc35e6019cc49e5	-0.15131760844867795
25	0x3fa89d8e386723aa	0.048077053437345654
26	0xbfccf29345a9f56c	-0.22615281011159583
27	0xbfd07294d6051983	-0.25699349308379044
28	0x3fca57a06dcc0aea	0.20579915391143483
29	0xbfd8a8f7fa91779b	-0.38531302899888836
30	0xbfd53d6bdfc2d22f	-0.3318738637129028
31	0xbfa0a7ea8b7afd13	-0.03253109886781593
32	0xbfcacbeaa1997611	-0.20934803858374143
33	0x3f888666d3b18ca6	0.011975100837111018
34	0x3fca73042ef90ba9	0.20663502019496363
35	0x3fd61b2086508428	0.3454057037034226
36	0x3fd33aeb61bd4b10	0.3004711584555233
37	0xbfc6d2dfdfd3a42e	-0.17831037930526022
38	0x3fcbdee00af9dd56	0.2177391103357233
39	0x3fce9a3e42cb5779	0.2390821291107235
40	0x3fd12fa1f349710e	0.26853226431355004
41	0x3fd7df617073b1a3	0.37300907117494314
42	0xbfc35ccbc27d8420	-0.15126940723988103
43	0xbfc8dfe6534d02ed	-0.1943328768484415
44	0xbfd6e1a2309138e0	-0.3575215791978632
45	0xbfd7230206dbd550	-0.36151171369359236
46	0x3fcbf7d9e78f0d55	0.2185013180406751
47	0xbfbf7d798aa0b23f	-0.12300834307161156
48	0x3fd06266a7e81bf2	0.25600592038284653
49	0x3fb7f7e06cbe19b5	0.09362604765747203
50	0xbfc95c252e3a9c69	-0.19812454945824534
51	0xbfdacd5d1dbc1c57	-0.41878440765180386
52	0xbf87baabefcb5e13	-0.011586516623920884
53	0x3fce503c878ceaa7	0.23682362192797266
54	0xbfd9b97e5aaf06e0	-0.4019466291029925
55	0xbfa83243b05bcdbf	-0.047258487013006605
56	0x3fa9dc35a69f7378	0.050508190717414914
57	0x3fbfede53dbb624b	0.12472374684456004
58	0x3fce536d8c5645ab	0.23692101814644437
59	0xbfd1334cb7761fba	-0.26875608364252523
60	0xbfc021c99dda9c4a	-0.126031114651797
61	0xbfc64686ec0631f8	-0.1740273144208826
62	0xbfd677b893fabcea	-0.3510571904289025
63	0xbf841b58b04278e0	-0.009817784194009638
64	0xbfa6ec4d3e5c78f6	-0.04477158914800043
65	0xbfc738833be70f3e	-0.18141212868624196
66	0x3fbd9a9851bb42ba	0.11564018245122556
67	0x3fc62aae20b5075a	0.17317749592808235
68	0xbfd2394ed6bedc91	-0.2847478005528013
69	0xbfd19a04d3b3adeb	-0.2750255648995494
70	0xbfa5b3b0ae613e3e	-0.04238655213032104
71	0xbfc7b17b22c4ee5c	-0.18510379026143908
72	0x3fcd3fcf816de0c1	0.2285098440149849
73	0xbfb3b96f3a05aaa7	-0.07704825560146365
74	0xbfac25a09be8a0a7	-0.054974574119399926
75	0x3fcb1a9fa52a76d5	0.2117499882196429
76	0xbfbf4806f44e6a8f	-0.12219279732236486
77	0xbfa41bfef77228a6	-0.03927609224872812
78	0x3fbe380c28dc9da1	0.1180427169571119
79	0xbfd003dd6d48eac5	-0.25023589775416283
80	0x3fc867071b3259a0	0.1906441576763429
81	0xbfd765894ca95413	-0.36557228552311577
82	0xbfd2fd1d3e4c7096	-0.2966988666901299
83	0xbfcd4bdd0f6504e9	-0.22887767078103785
84	0x3fbc6f6b151a14c8	0.11107510819609268
85	0xbfa6c715beec8eb5	-0.04448764758697391
86	0x3fca7982f2b81cb0	0.20683323718569602
87	0x3fd05bbfe091917e	0.2555999463131896
88	0x3fc9f59288f16dbe	0.2028067749659907
89	0x3fcfc5622e13afa7	0.24821116685722908
90	0xbfbe5c6a385c579c	-0.118597639808597
91	0xbfd420c1ff4e7565	-0.31449937755845375
92	0xbfd4e063cd28c358	-0.326195669508754
93	0x3fcaa2269ba5f0a2	0.2080734500885955
94	0xbfc344302e3923fa	-0.15051843888275568
95	0xbfd404dd8c176e3c	-0.31279696160138193
96	0x3fb81416c8111da5	0.09405653366513052
97	0x3fd3c3cefa54b31f	0.30882620283482426
98	0xbfc2f7aae90de52a	-0.14818321590045375
99	0xbfc64b6fea36198a	-0.17417715965366326
100	0xbfd45751dfd368d8	-0.3178295789526948
101	0x3fb3600ae4dfc83d	0.07568424308536321
102	0xbfc2f6728d55d8bc	-0.1481459798921544
103	0xbf6dfc3416dac8ac	-0.0036602990502042267
104	0xbf87a693a956d0c0	-0.011548188786811742
105	0xbfd82b0aba3d8f59	-0.3776270693544937
106	0xbfd1e7eaf97bd71e	-0.27978014339110924
107	0xbfd173efb1fed9aa	-0.2727011907803908
108	0xbfb712063c0bd26b	-0.09011877981158427
109	0xbfc2a25ae53e82dc	-0.14557968324245152
110	0xbfa320c73536f080	-0.03735945248215078
111	0xbfc906012440979b	-0.19549574155933844
112	0x3fd8115a5138648e	0.37605913097065347
113	0x3fce07d676cca675	0.23461418915512736
114	0xbfd21239f1b89a25	-0.2823624477918279
115	0x3fbcf0ace0a4c64b	0.11304741367782715
116	0x3fd568372216de4b	0.33448580102001263
117	0xbfb03e62e480f7a8	-0.06345193937974491
118	0x3fb9f548c2377f21	0.10139899007435506
119	0x3fc5bb64fde9ecf0	0.16978132627614384
120	0x3faf190815241049	0.06073785074298194
121	0xbfbdf4dc359b89b2	-0.11701752003458557
122	0x3fa1c0588e8a21f0	0.034670607948161236
123	0xbf906dbee33e9715	-0.01604364644995034
124	0xbfc5771fd84c375f	-0.16769788800632576
125	0xbfd119b3623f4054	-0.2671936473316283
126	0x3fd40b76cc9177a1	0.31319971063009616
127	0xbfc6e2968efc2d7e	-0.17878992063229399

transformer_encoder.layers.0.linear1.bias f8 [16]
0	0x3fc7fa07198552f9	0.18731774088032419
1	0x3f94ae3389a069eb	0.020195775294363044
2	0x3fc833c68500aa4e	0.18908006185786735
3	0x3fd3323ff5729a04	0.29994200677393246
4	0x3fc564da19488c97	0.16714025721112044
5	0x3fd1c5da469c3f07	0.27770096679249473
6	0x3f7c87d505e2fe2b	0.006965477105211042
7	0xbfd7c5da22eb8587	-0.37145093355328423
8	0xbfc3aad52be85e7b	-0.15365090030603654
9	0x3fadf0f3f323eac1	0.05847894995709658
10	0xbfc9bf36e5cc688d	-0.20114790173176225
11	0x3fd3dd4e04c6ad39	0.31038237062849167
12	0xbfd023a84ee421a6	-0.2521763582631372
13	0xbfa1c56d3ad78940	-0.03470937102589966
14	0x3fd5e74b3278ac79	0.3422420494923198
15	0xbf9a81eac208036e	-0.025886219113093238

transformer_encoder.layers.0.linear2.weight f8 [8, 16]
0	0xbfd0c7dbe90b7277	-0.26219842680237754
1	0x3fc721de2cd57eab	0.1807210654178467
2	0x3fc86e4b0df84a93	0.1908658807957023
3	0x3fbde6955531cbd6	0.11679967241234065
4	0x3fac353b0ad23095	0.055093617506913585
5	0xbfc7e18cd419b66f	-0.18657074314562602
6	0x3f518c1e418a1f30	0.0010710044354329089
7	0xbfad89b08709ca0a	-0.05769111298004155
8	0xbf810063d04cd916	-0.008301524919812436
9	0xbfc9bbe351aeb591	-0.20104638565446156
10	0x3fc91ad003691572	0.1961307541516067
11	0x3fa41635378f397d	0.03923193267074774
12	0xbfc48edfcd2696af	-0.160610175296076
13	0xbfbcc725a984f1e1	-0.1124137438645856
14	0x3fd17803e552f139	0.27295014758034913
15	0x3fbaf9f45acd3646	0.10537650315128486
16	0xbfd4f996b630f8ae	-0.32773368637198075
17	0x3fcf8e1090923ed5	0.2465229707636271
18	0xbf8e1b575d109464	-0.01470058682213899
19	0xbfc2f2308e3a59eb	-0.14801604218219153
20	0x3fd14d8fcb887387	0.27035899044295103
21	0x3f6c23c853ea8c7e	0.0034350311901377153
22	0xbfcefedd7d6241f7	-0.2421528684831313
23	0x3fc1644f20058696	0.13587369025758694
24	0x3fbd208fe2415e1c	0.11377810739337985
25	0x3fc43235ad251e2e	0.15778227762551594
26	0xbfc7f99ff91486f4	-0.1873054472171628
27	0x3fc440c5efc64869	0.15822672088376358
28	0xbfc437b870704874	-0.15795045366445815
29	0xbfcf6622330987dc	-0.24530436985065662
30	0x3fcb7c9f2149d8a3	0.21474064946568658
31	0x3f7bad560e98ea67	0.00675710311912301
32	0xbfce10a046dcdda8	-0.23488238773437087
33	0x3fc826f96440b112	0.18868939776565036
34	0xbfaf9ec5017a43d2	-0.06175819056546285
35	0x3fd039d987fe9323	0.25353086739260017
36	0xbfc380e60cea52fa	-0.15237117415076523
37	0x3fa6946e6636f452	0.04410119054544083
38	0x3fa2cc295a22caa3	0.036713878872793225
39	0x3fc9296704a70016	0.19657600142636572
40	0xbfb2e4e858981efd	-0.07380535281128782
41	0x3fc1c43cf7a3255e	0.1388012131849718
42	0xbfc16984586f3029	-0.136032622509789
43	0x3fcf73511d38d3b9	0.24570669104437373
44	0x3fc449ea4b50f330	0.15850571324872353
45	0x3fbc54a2c10bd3de	0.11066643918077498
46	0xbf91f1f9cfa03696	-0.017524627015566972
47	0x3fb6ac8e6089a09d	0.08857049805522128
48	0x3fb1261d103c026e	0.0669878162989421
49	0x3fadce0de30b1492	0.058212694134945356
50	0x3fa69e6ba5283a8f	0.044177402411255
51	0x3fb5bad4c7257e9b	0.08488206731771657
52	0x3f706271015aeb67	0.0040001310605316314
53	0xbfc7188f493b88d1	-0.18043700290497225
54	0xbfb222243d2cbedd	-0.07083345883870203
55	0xbfb245744d4cdc78	-0.07137228858197087
56	0xbfc9bd40213d8e51	-0.2010879671389483
57	0xbf9bb8199e9081b8	-0.027069473555572293
58	0xbfb95a7d36830497	-0.0990370042882368
59	0xbfc07d6660573315	-0.1288269014752578
60	0xbfcdc4a226f0a421	-0.2325632753502598
61	0x3fb78c20d92f90c3	0.09198193838489303
62	0xbfb6cd95772b0e1f	-0.08907446059588907
63	0x3fca3a070223c578	0.20489585499266716
64	0xbfb86cf27fa17907	-0.09541240325913601
65	0xbfccec07f08e5e57	-0.22595309492020263
66	0xbfc426a11ca14b07	-0.15742887399627412
67	0xbfc228c412e74159	-0.141869076948306
68	0x3fc253891f8343be	0.1431743053313123
69	0x3f93238d74401139	0.018690309734681086
70	0xbfbd0de44930bcda	-0.11349322115778496
71	0xbfb92eec2e41e052	-0.0983722317631657
72	0x3f981f1fdff6487f	0.02355623058753808
73	0x3fa467c0e400f0fa	0.039854076225738624
74	0xbfc05eb5ea67a58a	-0.12789033837843206
75	0x3fcdcfa9bf487817	0.23289987411493548
76	0xbfb1299234f19e24	-0.06704057495664323
77	0xbf7894bbc32c40f0	-0.006001218268252936
78	0x3fa4451047188fd0	0.0395894133364717
79	0x3fa4aba4f00acf45	0.04037204199030823
80	0xbf813000cb5e5009	-0.008392339903174688
81	0xbfc4f741317708ea	-0.16379561343462196
82	0xbfb2e06b1bf4cbc1	-0.07373685295605893
83	0x3fbb8400aef26df8	0.1074829508892704
84	0xbfae3efdceb819fd	-0.05907433651377756
85	0x3fca56dd627aab67	0.20577590282968147
86	0x3fb7a7e5704b7ef3	0.09240564338278627
87	0x3fcad8442daec750	0.20972492437936774
88	0x3fba9a7824629058	0.10391951454454451
89	0xbfb6a903b685b215	-0.08851645666226944
90	0xbfbb302d75748cac	-0.10620388143120135
91	0xbfca751f28459613	-0.20669927088162918
92	0x3fcb6707005e4ef2	0.2140816451834478
93	0x3fca6fb1b23ac54a	0.20653363421073784
94	0xbfc5881e2131f8a7	-0.16821648236140627
95	0xbfbbe95b96fd1c3d	-0.10902950702903609
96	0x3fbfbfe1aab8cf25	0.12402162950530433
97	0x3f9b06b4e8db437f	0.026392771446640758
98	0xbfd118c1b79e8501	-0.2671360295444885
99	0x3fcfb62960e3a9bf	0.24774663191722188
100	0x3fbe983a102b09b2	0.11951029677132999
101	0xbfb29454ceced6ea	-0.07257585572264316
102	0x3fc78a2859a7a64b	0.18390373590163941
103	0xbfc217e364df67ab	-0.141354011778103
104	0x3fb5075b1b125f4d	0.08214349184924892
105	0xbfd1450b3a4d4510	-0.26983910268343525
106	0x3fc6a57ffa6ae1b0	0.17692565658013626
107	0xbfca7bc5f1e27f5c	-0.2069022589757833
108	0x3fa5fabe02bb5208	0.04292863639208028
109	0x3fcffd76b2251665	0.24992259691696286
110	0xbfafb3d5677714ec	-0.06191889656069258
111	0x3fc7ed4e30f730d1	0.186929487141589
112	0xbfb5d6cb2536a918	-0.08530873926671168
113	0xbfc4527817a265ec	-0.15876675752660618
114	0xbfb45b78b8105f7e	-0.07952074521779015
115	0xbf81a0e7fa4bc345	-0.008607685399938734
116	0xbfc34bdee041391e	-0.15075288724842378
117	0x3fbce1a0e4bba6af	0.112817817538281
118	0x3fb7502cab33a796	0.0910671155903898
119	0x3fa3045af9f178f8	0.03714260388436402
120	0x3fb034447a130f70	0.0632975385697685
121	0xbfd21d227cb5f606	-0.2830282419089091
122	0xbfc79a1d2aae8c9a	-0.18439068397592423
123	0xbfb5d5e2b7a9d997	-0.08529488548251717
124	0x3fb08df475a9de60	0.06466606018681764
125	0xbfa52db54f49dce8	-0.04136435120465781
126	0xbfb89a475e084f56	-0.09610410733904237
127	0x3fb144665f5c656d	0.06744994953296209

transformer_encoder.layers.0.linear2.bias f8 [8]
0	0xbfc467727f9cd299	-0.159406959830126
1	0x3fc2153810520cb8	0.14127255246066794
2	0xbfd28f505ceb80fc	-0.289997187368513
3	0xbf9379a09f2c7220	-0.01901865932005553
4	0xbfa788cdcab4f69c	-0.045965605730527076
5	0xbfc338f308993bc6	-0.15017545623638123
6	0xbfc739b7203be30e	-0.18144883226320768
7	0xbfcd645e6794ab55	-0.22962551171925819

transformer_decoder1.layers.0.self_attn.in_proj_weight f8 [24, 8]
0	0x3fd5d563b7cc8beb	0.34114926289674824
1	0xbfd203eb018593b2	-0.2814891352521115
2	0x3fcde4d791920bf2	0.2335462055962974
3	0xbfdaff25076b39cf	-0.42182279324052
4	0x3fda0c52a0ab8aa6	0.40700212183416296
5	0xbfca7d892a4c7979	-0.20695604863517383
6	0x3fca5aeba4b5049f	0.20589967291201547
7	0x3f9345bacc022961	0.018820685102164506
8	0x3fd6f505fc5c3a99	0.3587050404029611
9	0xbfd8a48e5323c7d9	-0.3850436984931754
10	0x3fd91fbbb52aa633	0.39256184284258494
11	0xbfc2b7ab586340b1	-0.14623014274412108
12	0x3fcaf7a9ad2077ab	0.21068306878526974
13	0xbfcac1d376330e5c	-0.2090401007791226
14	0x3fd22aed43c2f632	0.2838700448736261
15	0x3fc18ea2daff4ce6	0.13716540997720655
16	0x3fc0e589dc00e878	0.13200495951042845
17	0x3fd0de5a417c5c02	0.2635713233480034
18	0xbfc677459c4c1d15	-0.17551489001946466
19	0x3fca6fb5b4d8c351	0.20653411226660492
20	0xbfc230c45f4e53ec	-0.14211325315105172
21	0xbfd6dfb14ca23e1c	-0.35740311130300184
22	0x3fda2284cfbc8c0c	0.40835686003464455
23	0xbfc05975e6ded35e	-0.12773011944741602
24	0x3fd4c090cafda162	0.3242532713252527
25	0xbfb284c47f389de4	-0.07233837228761036
26	0xbfc800ea2ffbb5d8	-0.1875279173176938
27	0xbfc48d7591faf37e	-0.16056699397986657
28	0x3fd4559bdc96d0ac	0.3177251486006394
29	0xbfd68c4fcc3eeff4	-0.35231394716151887
30	0x3fd7a4a3b66187fc	0.36942379770891853
31	0x3fba4c50afd98149	0.10272697728351433
32	0xbfd8a28c34ac01e3	-0.38492112296810727
33	0x3f8bcf1b28c35342	0.01357861726902743
34	0xbfd1cb6eac9d822b	-0.2780415235229465
35	0xbfa68d14cba8a552	-0.04404511438435556
36	0x3fb656fd34ed1c19	0.08726484815734671
37	0x3fcae45f9bd7c4da	0.2100944052649883
38	0x3fac734a4b815a71	0.05556709453292264
39	0x3fcfe648c9dc3ab5	0.2492152200361112
40	0xbfb0f0e9d35356cc	-0.0661760464602949
41	0xbfd6848e1229de67	-0.3518405129793564
42	0x3fdadbcee2609ea1	0.419666024276447
43	0x3fcabef87860bcb8	0.20895295980287698
44	0xbfc27b0966a5195d	-0.14437978279074573
45	0xbfd48275ba5f2f68	-0.32046263885853543
46	0x3fc65506166cf1b4	0.17446971983907889
47	0xbfc249f76c14c239	-0.1428822782268229
48	0x3fc19ad4f1b16db6	0.13753759194774567
49	0xbfd29f23ab1a14b7	-0.29096309384506064
50	0xbfdacf9d0bae4d4a	-0.4189217199393239
51	0xbfbe1f2b6512685e	-0.11766310899329954
52	0x3fd9a93f0c41ab70	0.4009549731915092
53	0xbf8eadf9581ffba7	-0.014980266572818325
54	0xbfa539feee59b47f	-0.04145809802580746
55	0xbfd18676213bdcc6	-0.2738318752812571
56	0xbfcec0f429a52460	-0.24026348145915488
57	0x3fbaece4b557c945	0.10517720629994638
58	0x3fd1f70eab555548	0.2807041810204578
59	0x3fd880204eeeb0f7	0.38282020290604585
60	0x3fce13a1cddfbb29	0.23497412254752106
61	0xbfd4d35c3ca6ee5a	-0.3254004089646735
62	0xbfda25d96d32141c	-0.4085601393092604
63	0xbfd301c07fde8c67	-0.296981930611031
64	0x3fd566060cc2db50	0.33435202833373
65	0xbfd32755e3324baa	-0.29927584826617226
66	0x3fd5d3b899126693	0.3410474295465999
67	0xbfd6a7f7b725991f	-0.35400193105160044
68	0x3fd587421367ff9c	0.33638049979344387
69	0x3fd22b3d23860651	0.28388908833594423
70	0xbfc7d53d714d9c96	-0.18619506866818786
71	0xbfd7ad076ffb02b8	-0.3699358552512808
72	0xbfd62825b8a9889e	-0.34620039971754035
73	0xbfa2d5c8a169c311	-0.03678729029059558
74	0x3fbe68050d7e65e2	0.11877471522748054
75	0x3fd63feb0686fe5c	0.34765124928887814
76	0xbfd2b2b25c2e6d0c	-0.2921567821701536
77	0x3fdae85bb8cd839f	0.4204320244517081
78	0xbfc3196f2dcd44e7	-0.14921369301240547
79	0xbfd2f4d909b6cab6	-0.29619432400356105
80	0x3fd7a4d6163b19b7	0.36943580790503056
81	0x3fd0f8c62d541882	0.26518396784411646
82	0x3fc18e509b3e0ca9	0.1371556051272809
83	0xbf90629cdfe3590a	-0.01600117794517878
84	0xbfd0d5a7081f880b	-0.2630403117492512
85	0x3fb6209cde6912f6	0.08643513135855216
86	0xbf82dd715b91e746	-0.009211431128494884
87	0x3fdaf48a4f824fb1	0.42117555393746914
88	0xbfda1d0e73e75e61	-0.4080234653351678
89	0x3fdb5e8e1ea114ac	0.427646188651418
90	0x3fd69f09ddf57e82	0.3534569423263535
91	0xbfc4dd21f53257e2	-0.16299843285076948
92	0x3fb6125b89492faa	0.08621761419016019
93	0xbfcd49d107d74d39	-0.22881520159590155
94	0xbf9b4214b45a3f68	-0.026619266040654038
95	0xbfc13be8fa1c1db0	-0.13464081013101525
96	0xbfbadaf4230780fa	-0.1049034677048474
97	0x3fd2e4e9f5dec2a9	0.295221796138359
98	0x3fce8dcf50a9ce6c	0.23870269240034092
99	0x3fb5f9a29c259659	0.08584038078478197
100	0xbfdaeb39b69d8b7e	-0.42060702165161235
101	0x3f881dcbd9f3028b	0.011775581921370978
102	0xbfd2af98de8bc9e9	-0.29196759922993337
103	0x3fb94c65b3178ad9	0.09882197973596919
104	0x3fbd057f7bf6403f	0.11336514259733209
105	0x3fcab7973e020c04	0.20872774627432034
106	0x3fb904eac99ff6bf	0.09773127958757309
107	0x3fd0d341a9f379b7	0.26289407345566523
108	0xbfc06b473946f2fe	-0.1282738713906823
109	0x3fdb780a6b2fa0b6	0.42920170276057534
110	0xbfad53d340348ef9	-0.05728016051059898
111	0x3fb15d0960d6553b	0.06782587637129193
112	0xbfcc144d13f93353	-0.2193695399786529
113	0xbfd37410e8a87024	-0.303959109501877
114	0x3fd663ff4b008dac	0.3498533470576273
115	0xbfc154ef4704af49	-0.13540450065317547
116	0x3fb1a0a3cd43170f	0.0688574195983984
117	0xbfb3b4d2b7411053	-0.07697789167383577
118	0x3fb9f731f0c9e1eb	0.10142814758899703
119	0x3fac5274c48e039b	0.05531659030294308
120	0xbfdb21f7ccda0ec6	-0.42394824032838263
121	0xbfb301ed3fbc6874	-0.07424814992956091
122	0xbfc32c769f48cbf2	-0.14979441430622803
123	0x3fc5e2806dcbadc1	0.17097478257288226
124	0x3fd54b7b2102c4fd	0.3327319929476998
125	0xbfc58de56e578b26	-0.16839282882491452
126	0xbf988db384936b5f	-0.02397804733923736
127	0x3fcaf02412dd876a	0.21045351906928583
128	0x3fbe2b863d0c0456	0.117851629165686
129	0xbfbda4b7bab34da3	-0.11579464252581899
130	0x3f94bcf0d27394df	0.020252001614513012
131	0x3fcdaf655d2b5cf2	0.2319151596954963
132	0xbfc01b872f6b42c7	-0.1258400899446512
133	0xbfa91baec8aca099	-0.0490393276180054
134	0xbfb50036b1425aa6	-0.0820345099221905
135	0xbfd55d1de224e7a0	-0.33380839428320463
136	0xbfd850745224445a	-0.37991054555556547
137	0x3fcda395536f6d22	0.23155466627108817
138	0xbfd01509dc95ba96	-0.2512840894841387
139	0xbfc3cb6b8586fca2	-0.1546453859318478
140	0xbf97649314b23fed	-0.022844598901940506
141	0x3fcc44867f42c778	0.2208412286177539
142	0x3fd00d3c9f81f5c7	0.25080791069907743
143	0xbfdaaaa517a40cb7	-0.4166653376452802
144	0x3fdc449381a8b7e3	0.4416855589105337
145	0x3fdccff2d28378ff	0.45019217069592793
146	0xbfc2acf0e0601bda	-0.14590273814994142
147	0x3fcdcd9f628e5627	0.23283760368637837
148	0x3f81d2b4b78d4fa7	0.008702670909464262
149	0x3fb72fa8836b883b	0.090570957264874
150	0xbfc4e4909f54541c	-0.16322524814373274
151	0x3fdf2c5def558609	0.48708294270008473
152	0x3f90a7e14a1d1d33	0.01626541151861467
153	0xbfe3527589e51b38	-0.6038158124218631
154	0xbfdc54d4c57c52d1	-0.442677681786603
155	0xbfb5ae13f6682226	-0.08468746915617284
156	0xbfe24a5f9bccb5e6	-0.5715787928544926
157	0xbfd856298e2496c1	-0.38025893098015834
158	0xbf9315197cfe70df	-0.018635175947211088
159	0x3fbe9820e82ca97b	0.11950879734346202
160	0xbfbdfb7050d3ee82	-0.11711790059410457
161	0xbfc9966f826c3e4f	-0.19990342968275107
162	0x3fc5ab8b690d3759	0.16929762486909786
163	0x3fc567a0b0e60864	0.16722496640801687
164	0xbfbf8d765e1eb961	-0.12325229451991994
165	0x3fd251462299323d	0.28621056917907933
166	0xbfa816c34a001909	-0.04704866674733139
167	0x3fcc00b46848ed7e	0.21877150623354774
168	0xbfd060ad8acf6ab8	-0.25590075069127804
169	0xbfe00fa8a9615577	-0.5019114788253053
170	0x3fd8706f1d9e8a8f	0.3818624295474046
171	0x3faaa92fd8357199	0.052072043554946386
172	0xbfd00d802a445889	-0.25082401397356385
173	0xbfd34e0e7a11368d	-0.3016391937315824
174	0x3fc75d071271df11	0.1825264778196858
175	0x3fd6d409776d6b27	0.3566917101176607
176	0x3fcb0bfb7b22f5ed	0.21130317223098363
177	0xbfe1c54389129e1a	-0.5553300549699458
178	0xbfd8afc7ff54d90a	-0.38572883543692227
179	0x3fcd8efc1287fdfd	0.23092604546398823
180	0xbfc5b5ccb2633675	-0.1696105834038694
181	0xbfc9651c0f3e9213	-0.198398120349467
182	0x3fb64b414adb2402	0.0870858009103728
183	0x3fbd806a2d1b22d4	0.11524070359440525
184	0xbfa2753e6f807643	-0.036050749884662746
185	0x3fc06af8b0477b50	0.1282645092714696
186	0xbfaf4f5cebe953b5	-0.061152366445333874
187	0x3fd2332fdfa08621	0.2843742069108846
188	0x3fe14fb1babd2a3a	0.5409783026928559
189	0xbfaf72c226ec8a10	-0.061422412158453565
190	0xbfd364cd8e2a92a1	-0.30302752383640025
191	0xbfb08799db001779	-0.06456910702408249

transformer_decoder1.layers.0.self_attn.in_proj_bias f8 [24]
0	0x0000000000000000	0.0
1	0x0000000000000000	0.0
2	0x0000000000000000	0.0
3	0x0000000000000000	0.0
4	0x0000000000000000	0.0
5	0x0000000000000000	0.0
6	0x0000000000000000	0.0
7	0x0000000000000000	0.0
8	0x0000000000000000	0.0
9	0x0000000000000000	0.0
10	0x0000000000000000	0.0
11	0x0000000000000000	0.0
12	0x0000000000000000	0.0
13	0x0000000000000000	0.0
14	0x0000000000000000	0.0
15	0x0000000000000000	0.0
16	0xbfb8df24a6dd5d89	-0.0971548945793669
17	0xbfae46e040176074	-0.059134490798613465
18	0x3fc19aaaef8afaff	0.13753258415632527
19	0x3f9f1e64012a7033	0.030389368601945143
20	0xbfb55b687f87d435	-0.08342602838077158
21	0x3f74bce2eb3f0137	0.005062948610373311
22	0x3fb0d70068934161	0.06578066399675243
23	0x3fb700bec6176933	0.08985512100426689

transformer_decoder1.layers.0.self_attn.out_proj.weight f8 [8, 8]
0	0x3fd2c0249f305f34	0.2929774813251129
1	0x3fd8ac91b07406a0	0.38553278190384255
2	0x3f73a909f602a32d	0.004799879942006408
3	0x3f8150fa9eeb5399	0.008455236410932975
4	0x3fd36a547e1edf97	0.3033648711821057
5	0xbfc82b62be8976ff	-0.18882402709544263
6	0xbfd481d446e5a64f	-0.3204241459230603
7	0xbfcd5e65ca22d502	-0.22944328660893382
8	0xbfc293dcef456b0d	-0.14513742144739475
9	0x3fc911efd00985aa	0.19585988672319604
10	0xbfbcc68436b70ad2	-0.11240412078681608
11	0xbfd8b9f901f27f77	-0.3863508719459711
12	0x3faafa059152f4d4	0.05268876456237029
13	0xbfb904fcb0f9d511	-0.09773234673214783
14	0xbfe1815ea25a1a78	-0.5470421954094737
15	0x3fd0b458fb00af0b	0.2610075427244147
16	0xbfd573852b01be3b	-0.33517579269298253
17	0x3faeb07f6013e215	0.059940319517355935
18	0x3f91d7876f9a9e6d	0.017423740565077162
19	0xbfce6211f1e04b68	-0.23736786184653202
20	0xbfd2f12639340ef1	-0.29596858583702984
21	0xbfd6fa316f64c599	-0.35902057531628767
22	0xbfc002495541509b	-0.12506977713440368
23	0x3fc5875bf9228f18	0.16819333710474704
24	0xbfc785dace6934ec	-0.18377242163334218
25	0x3fd3ecc8019da940	0.31132698209571075
26	0x3fd613543375c6b6	0.3449297430553132
27	0xbfbe31666d7bcfaf	-0.11794128582897544
28	0x3fc7afb89c592851	0.18505008348648969
29	0xbfaf48cd50ecd70e	-0.06110231030326761
30	0x3fbb2527e8c43c65	0.1060357039716436
31	0x3fc3cace6a48460a	0.1546266573864588
32	0xbfd0b62a9ff2ac2b	-0.26111856098094915
33	0x3fc85bb9bcda856f	0.1902992412697517
34	0x3fd4206e20a51e5b	0.31447938144672144
35	0x3fd81ad043e5e5f3	0.37663656836193055
36	0x3fc0decd96d134b5	0.1317994104778443
37	0x3fb55cc910751db6	0.08344704295915659
38	0x3fdc3a3c4e8ddbf0	0.4410544173364874
39	0xbf6912f5ea4e71a9	-0.0030607989342128117
40	0xbfc1e6bf1327e9fc	-0.1398543208632218
41	0x3fd1607ad54b2091	0.27151366071167
42	0x3fb09b902c4377d8	0.06487370567944539
43	0xbfd22980169ff7ce	-0.2837829800554318
44	0xbf939053e353a55c	-0.019105253934787
45	0xbfc14b13eb67abc4	-0.13510369295485536
46	0xbfd1819a5b123609	-0.27353533643403743
47	0xbfd6015690f5c7a9	-0.34383167415864563
48	0xbfdcab1c302b9f99	-0.44794373230114953
49	0xbfb72c121f1e5f7d	-0.09051621684773
50	0x3fc31580ad5a9251	0.1490937086538389
51	0xbfd8d0852cfa7e5b	-0.3877270640605041
52	0xbfc22165e48d8c7f	-0.14164422664461893
53	0xbfc5165f2b11ffd3	-0.16474523165743324
54	0x3fad3d028c063ab7	0.057106093972028864
55	0x3fd11338a79d7b64	0.2667981755129658
56	0xbfc8bc970286dfb0	-0.19325530646687872
57	0x3fd8221b11223de3	0.37708164857119025
58	0xbfd3e848068b333a	-0.3110523284820378
59	0x3fd70d0b916adf78	0.36017121506619487
60	0xbfda4f55a90285b9	-0.411092200325665
61	0xbfca953a2c98e760	-0.207679054046646
62	0xbfd3328a39bc29e4	-0.2999597133463381
63	0xbfd68caf3a7d3470	-0.35233669959854463

transformer_decoder1.layers.0.self_attn.out_proj.bias f8 [8]
0	0xbfaf4b568614db64	-0.06112165819870688
1	0xbf9fcde494549f09	-0.031058856538179778
2	0xbf9d0d2d8608421a	-0.02837058191841111
3	0x3fa5a23238cbea58	0.0422530836421699
4	0x3faddba516cbe544	0.05831638243939577
5	0xbfb8291e630f775f	-0.094377421555206
6	0x3fbd70183e9445b5	0.11499167945682738
7	0xbfb15d010ab54c75	-0.06782537948065388

transformer_decoder1.layers.0.multihead_attn.in_proj_weight f8 [24, 8]
0	0x3fd6e0a2689a63cd	0.3574605962290292
1	0xbf7c32458ddfed6b	-0.006883880325399753
2	0x3fcfe25d5ed31650	0.24909560327630453
3	0x3fd35d439b4d9fd1	0.30256738821344437
4	0x3fc6cedfea19e26a	0.17818831377714456
5	0x3fc3d51cc0daef1f	0.15494117180593833
6	0x3fa07dfa85e8906e	0.03221114048599892
7	0x3fcabfb1604ff018	0.2089750023150152
8	0xbfcb3380b276091d	-0.21250923837585214
9	0x3fe7d3e4200ddc71	0.7446156145150679
10	0x3fe3b94966b6fe3b	0.616368008246304
11	0x3fa730d6b2abf8dc	0.04529448443462211
12	0x3fd3110add22aca6	0.29791518779047477
13	0x3fdec1c003e33ca6	0.4805755651440883
14	0x3fd24fac03d4937b	0.2861127889066705
15	0x3fd65be4cbc9fc27	0.34935874844808484
16	0x3fd3418ee0f72749	0.3008763501098782
17	0x3fd179b218e343f2	0.2730527155918586
18	0x3fd8d25baf80dbbf	0.38783924235343287
19	0xbf984f2adcbbac15	-0.023739499781111634
20	0xbfa200f50607d9bd	-0.03516355227104693
21	0x3fe57e948f22c2b6	0.671701697885587
22	0x3fdc37954b70d9d7	0.44089252822177855
23	0xbfaa79c3ddc87ff4	-0.051710244010109735
24	0x3fa055862d025b35	0.031902497286117194
25	0x3fe12e6e8b7004f9	0.5369179461851267
26	0x3fdba591dce813c5	0.43198057721047817
27	0xbf981a61db85d12e	-0.02353814031944628
28	0xbfdae5b0cbb08473	-0.420269202151821
29	0x3fd3d896b93c1fd7	0.31009452905027274
30	0x3fc9cb6cb1dd3d7d	0.2015205257871279
31	0xbfd35a9f9d414d17	-0.3024062190717855
32	0x3fb10b63c86d4ec5	0.06658004420506376
33	0x3fd1df48a0035f79	0.27925315500532794
34	0xbfda8c8ef7b80c23	-0.4148290080194689
35	0x3fd374bf2e7ea636	0.30400065937519416
36	0x3fdde616256757e9	0.4671683659811366
37	0xbfb388473b739b29	-0.07629819108443016
38	0xbfc20cebf913819b	-0.14101934110568667
39	0xbfb40c55af7d8734	-0.07831321272308572
40	0x3fd05bc4997fdbc8	0.2556010722177544
41	0xbfe462f93fb73d82	-0.6370817417572854
42	0xbfb4b6ddfabaa4cb	-0.08091533061328275
43	0xbfd110053f604275	-0.2666028136164081
44	0x3f9dbf8e61498b50	0.029051041305489023
45	0xbfd32ebcde3547ae	-0.29972764682781416
46	0x3fadaee439b607d4	0.05797494129639316
47	0xbfcb139928a296c8	-0.2115355919278754
48	0x3fd01064434f7beb	0.25100046704568396
49	0x3fe008c0551702f6	0.5010682737266439
50	0x3fdd248670cb022e	0.45535431876126864
51	0x3fd0b6feb0b34a47	0.2611691213216187
52	0xbfce660f40e8daf2	-0.2374896113339769
53	0x3fda7c8dbdb561d9	0.4138521530744846
54	0x3fe047d263165330	0.5087673125550278
55	0x3f8780447ad86905	0.011475119589750902
56	0xbfcb54536d5977d6	-0.21351092185335457
57	0xbf6d337faca5bbc4	-0.0035645955696774496
58	0xbfd841a6f3321ade	-0.37900708913404724
59	0x3fbbd86793eb9214	0.10877082215626671
60	0x3fb1b94648f0dbc1	0.06923331528456257
61	0x3fd5741527769ca7	0.3352101216682492
62	0x3fd12ad99a815112	0.2682403572882929
63	0xbf93964af45f7d03	-0.01912800900015289
64	0x3fd7239f122a6b56	0.36154915594095394
65	0xbfa222f23867b18f	-0.03542286814249273
66	0xbfa5c449357fc168	-0.04251316812576783
67	0xbfc0dd04a9d16dfb	-0.131744940680491
68	0xbfc2a5477f6d4586	-0.14566892358793043
69	0x3fca3b89750e51e3	0.20494192329046176
70	0xbfc32f8b8522232c	-0.14988845825816932
71	0x3fd3b412a5922fb9	0.3078657738594717
72	0xbfc7b2e106c8adcf	-0.18514645415539951
73	0x3fe1967c734b5dec	0.5496198894351756
74	0x3fc0093eada4013d	0.1252821300368029
75	0x3f8fd2da57f35b50	0.015538888749160457
76	0x3fcfad3e6a1227e3	0.24747448138469882
77	0xbfcba7b908b185a9	-0.21605599331364303
78	0xbfe008227074ebbb	-0.5009929844303466
79	0x3fbede91272fda25	0.12058360296928379
80	0xbfc4a26373d25ac4	-0.16120570330959627
81	0xbfdafff26a12b819	-0.4218717609281853
82	0x3fd3f50e521e3976	0.3118320276197645
83	0xbfd6d1804eb9a361	-0.35653693855288365
84	0x3fafad5568c51cc4	0.061869305648139
85	0x3fe0f21d48580d1b	0.5295549786536954
86	0xbfb2899daaf7086d	-0.07241235183667678
87	0xbfaccf09c2d7be27	-0.05626707557155113
88	0x3fd1a1090cdb1edc	0.2754538178964887
89	0xbfc420b970e3c21c	-0.1572486687869209
90	0x3fe1cc5c7a4c477e	0.5561964405662676
91	0xbfc2ce590f010af4	-0.14692223770733615
92	0xbfb2d2a391976fa1	-0.073526595158397
93	0x3fd544ba36948335	0.33231978731241735
94	0xbfd78d50d21a7fd3	-0.36800022619172273
95	0x3fe1ae356a3441f5	0.552515704564995
96	0xbfc1c783549eb6da	-0.13890115386805385
97	0xbfdc5407c1c0e9a5	-0.44262880250212283
98	0xbfd8b0c184978c39	-0.38578832577167393
99	0xbfaec15e93aca0d1	-0.060069041754390214
100	0xbfdecf2828159434	-0.4813938514183207
101	0x3f71fa0682b18d35	0.004388833457684972
102	0x3f8c2b0f1447859d	0.013754003340127602
103	0xbfd33ae99792d058	-0.3004707317552451
104	0xbfd61397289dd61c	-0.34494570700130267
105	0x3fc2db7b4fe88888	0.1473230495622071
106	0xbfc69bb1a947e373	-0.17662640348114741
107	0xbfaebc777c9194d7	-0.0600316371499418
108	0xbfd1d714fcb1c869	-0.2787525623053911
109	0xbfd47a1befac7c18	-0.3199529495777269
110	0x3fb59485eb1b04c1	0.08429753293877963
111	0x3fd9f0653c3002fd	0.4052975738305092
112	0xbfdd627a79f1548e	-0.4591356459471364
113	0x3fc5e336887a5c13	0.17099649108851675
114	0x3fba9d16b75c48d2	0.10395948387693757
115	0xbfb1fc54f7642bf7	-0.07025652923418578
116	0xbfc0dd675c726311	-0.13175670637135586
117	0x3fdfbaea66f554e0	0.49578342489742333
118	0xbfcb8593dadb01d6	-0.21501396356872132
119	0x3fc87304662fe162	0.19101004590607845
120	0x3fb2a1335a1c2845	0.07277222585631289
121	0x3fd5785cfb2aeead	0.33547138717743047
122	0xbfce646c1654e14a	-0.2374396428147157
123	0x3fc0e693236d3e86	0.13203658323117312
124	0x3fc8f4b653a96c04	0.1949680241112618
125	0xbfb74a5752f2f5a0	-0.09097810530780359
126	0xbfc524bfd5fb8420	-0.16518400143016354
127	0x3fd7e4b6a374c74f	0.37333456003681403
128	0xbfde1f5192cb9e5b	-0.4706615384625132
129	0xbfd64186ff652f69	-0.34774947110121573
130	0xbf9fa5d63ab0d21d	-0.030906054813572326
131	0xbfdde89f02975493	-0.46732306721725897
132	0xbfb0e103ac301857	-0.06593344644360975
133	0xbf9f586a2d73f587	-0.030610713028172334
134	0xbfd2277dae93f00c	-0.28366033600445983
135	0xbfc957a2559dfd3f	-0.1979868810703724
136	0xbfa8c9d4106d45a3	-0.04841482830546375
137	0xbfa40a2884d65d14	-0.03914000150251176
138	0xbfd5785e74dcab95	-0.33547173893264787
139	0x3fb7d72b75454d0f	0.09312697995237705
140	0x3fb32b3dfee4675e	0.07487857315973431
141	0x3fb8a8dc2f9e785a	0.09632660067151858
142	0x3fd437a345b6041f	0.3158958607455719
143	0x3fd635f169eae67f	0.3470424208022464
144	0x3fb4152ca55e378d	0.07844809567742868
145	0xbfd23673fc270841	-0.28457355140938395
146	0x3fd67e272de446b9	0.351449770752065
147	0xbfdc64e45a8ed5dc	-0.443657959399699
148	0x3fd2b510d9fc6422	0.29230138099370795
149	0x3fd9c760728201cc	0.40279399092108004
150	0xbfdf83cb204587d5	-0.49241903449558083
151	0x3fcea38859fcf92e	0.23936561960176433
152	0xbfb2fc1d974bea6b	-0.0741594786049206
153	0xbfb73f916f619b84	-0.09081372231740487
154	0x3fd5b94825e4cf5b	0.33943370533528644
155	0xbfd55a23682539b0	-0.3336266057057413
156	0x3fb1e00dce09195c	0.06982504158177022
157	0x3fd7372c20ccfb17	0.36274245455926873
158	0xbfdf1f6fa073a76d	-0.48629370373838904
159	0xbfd50864feabce57	-0.32863736028887075
160	0xbfa2f98859d7b837	-0.03706003281318753
161	0x3f9d5b7c44fee374	0.028669301711235787
162	0x3fd3f40d690e416a	0.31177077540725995
163	0x3fd4b8d43f57cccb	0.32378107248150617
164	0x3fd0bf879951e42d	0.2616900441422015
165	0xbfd08d2258563d1d	-0.25861414553306067
166	0x3fc9da7f88c49c50	0.2019805352985906
167	0xbfbbb6ae5bbcf60f	-0.10825624217701367
168	0x3fb3a1f60e056c5a	0.07669008104623867
169	0xbfb3a2bcc13bb3b4	-0.07670192449195562
170	0xbfb2e28319abd413	-0.0737688005136337
171	0x3fd7d001ff43a1d3	0.37207078865187987
172	0x3fc574ccc35d8c09	0.1676269487316804
173	0xbf4c47c3858f6d94	-0.0008630470939538387
174	0xbfd89254e685363a	-0.3839313746619585
175	0xbfc5924a4ba15ed8	-0.1685269231118045
176	0x3fd313de05b8c4f1	0.2980876022221102
177	0x3f968f1ca0accfbc	0.022030303294016326
178	0xbfc78641af040be3	-0.1837846855706565
179	0xbfa927a262ed318a	-0.04913051087951022
180	0x3fcf16c27accbc6c	0.24288207050401256
181	0xbfd729d0ac17cc45	-0.3619271927447623
182	0xbfd4e1c42d3c1954	-0.3262796823259084
183	0xbfd2988031ac87e5	-0.2905579075905947
184	0x3fd436bdc0ef5564	0.31584113923357493
185	0xbfd3884cda3b0fd0	-0.30519410430519844
186	0xbfd64fe96d7b21eb	-0.3486274308347947
187	0x3fb6474a68afd3fc	0.08702530914145251
188	0xbfd96c5dbad0324e	-0.3972391437862698
189	0xbf9ea68035613c38	-0.029932025201841322
190	0x3fc66d837a9b1e11	0.1752170895253902
191	0xbfcf9dc1ff8ee735	-0.24700188616207588

transformer_decoder1.layers.0.multihead_attn.in_proj_bias f8 [24]
0	0x3fb814a26e27bcf8	0.09406485738121606
1	0xbfb3b4e27e055e17	-0.07697883202251209
2	0xbfb2177468797750	-0.07067039061209113
3	0xbfa6c57567204adc	-0.04447523959983865
4	0x3fa70915147a2725	0.04499116778340654
5	0xbf9a86a725bd7128	-0.025904285124270704
6	0xbfb091beabd029b6	-0.06472388929993297
7	0x3f72fb60407ab9f2	0.004634262069585381
8	0x3d14296923e67cc0	1.790724063493222e-14
9	0x3d2016bd47bb16bc	2.8579495546350484e-14
10	0x3cf37cf6ac9ecacb	4.327236114116663e-15
11	0x3d1110393e64f6eb	1.5155320083312927e-14
12	0xbd2540b2a81cebae	-3.7752425336576065e-14
13	0x3d2e6884d749d552	5.4015950809730255e-14
14	0x3d19b5ac9264dc31	2.2834769175510607e-14
15	0x3d0cf8a80dd54cd8	1.2865848076286967e-14
16	0xbfb167d659818da9	-0.06799068150717481
17	0xbfa2778482a2b22f	-0.03606809706375135
18	0xbf9a57853b8b1298	-0.025724488982421606
19	0xbfa373bf2a426e8d	-0.03799245253432302
20	0xbf9d28acc817842b	-0.028475475037229508
21	0x3fafa8b3f87e8573	0.06183397682549243
22	0x3f9c354952f52634	0.027547021568613952
23	0x3f924e7d06455376	0.017877534396876858

transformer_decoder1.layers.0.multihead_attn.out_proj.weight f8 [8, 8]
0	0x3fb2a43793a9d0b0	0.07281825404226328
1	0x3f88ce2d759d548e	0.012112002517520783
2	0xbfbc6fac124fbf2c	-0.11107898184831971
3	0xbfa3ee5414f01208	-0.0389276767309959
4	0x3fd0f16d9e55dee0	0.2647356077427343
5	0xbfd2293b59167482	-0.28376659107181734
6	0xbfd7c163d8ac97e9	-0.3711785903891483
7	0x3fb2c8f07bc7f5b6	0.07337859174727765
8	0xbf711bda07c2b74d	-0.004176952057759764
9	0xbfbc1e64fdb2ce4e	-0.10983878320512838
10	0x3fbd6b25a551e775	0.11491618429309176
11	0x3fc594b8e7bac065	0.1686011439792338
12	0x3fb3724d8f2fedc3	0.0759628748491457
13	0x3fc50a589773cbf2	0.16437823672421775
14	0xbfd0625cb2488277	-0.2560035458609841
15	0xbfd32bdd28c0a14d	-0.2995522401784186
16	0xbfceea15ed0969b5	-0.24151872705517766
17	0x3fab633737f36833	0.053491330699856475
18	0x3fb7371e7c7eeda7	0.09068480052422122
19	0xbfd07e58377b9dd5	-0.25771146219491686
20	0x3f745225e809d1bc	0.00496115500628885
21	0x3fd2311c42bc3014	0.284247460528378
22	0xbfa9392fb5cfd818	-0.049264422363123284
23	0x3fd1b179948c348b	0.27645720965012605
24	0xbfa3dea3ef41f7b1	-0.03880798621774718
25	0x3fba1832bbe364e3	0.10193173491588285
26	0x3fa793c6ec2e79ff	0.04604932435107755
27	0xbfc0b8b76993c74c	-0.1306370988382305
28	0x3fb6c843b7758bc7	0.08899329403861521
29	0xbfc07cc6055bbb1c	-0.12880778562199502
30	0xbfc388a3a7916a6d	-0.15260739976914142
31	0xbfd9b3fa61f25357	-0.40160998883339033
32	0x3fcf42fa17fcc6bf	0.2442314736486448
33	0x3fd8b4ba44d7e803	0.3860307380961105
34	0xbfd0f849ab914817	-0.26515428309096606
35	0xbfd54e944682e0fb	-0.33292109380592166
36	0x3fbee3b83fd781c2	0.12066222723615908
37	0xbfb47d42f3a1473f	-0.08003633926389585
38	0x3fc06e43df9ca9cb	0.12836502474358577
39	0x3fcbaf25a4ee5a99	0.2162825637176027
40	0x3fd623119776615b	0.3458904246449685
41	0xbfd2483a68c960ab	-0.2856584571177431
42	0x3fb0f95d0e92b5dd	0.06630498510158796
43	0x3fd5d1957d9b0c0c	0.34091698900391587
44	0xbfbc5ce707a25332	-0.11079257904414133
45	0xbfbc75f3aecbd7e8	-0.1111748029469194
46	0xbfd5027ca244d286	-0.32827678534093996
47	0xbfb1c9c28d8fb7bf	-0.06948486286248022
48	0xbfbb5d09b56b11b2	-0.10688839606434078
49	0xbfcae5e5cc352ada	-0.21014091940954566
50	0xbfc913fa4002a6e0	-0.19592216611390878
51	0xbfd14fb63f4a22d9	-0.27049022846817433
52	0x3fd39c93e788d9cb	0.3064317475395028
53	0x3fc1c9a3a90e8862	0.13896604304051424
54	0xbfc88f82c412201e	-0.19187960218209893
55	0x3fd49ef146cccfff	0.3222010795027472
56	0x3fc5211e72ce37e9	0.16507320981730736
57	0x3fcad5aea59d974a	0.20964606367777555
58	0x3fd653e85a2a7585	0.34887131505259844
59	0x3fac2e41e9fbbd5b	0.055040416538640634
60	0x3fcecab4259effcc	0.24056102597205464
61	0xbfd1bb9692fb4235	-0.27707447389278467
62	0x3fadcc57f18be5b0	0.05819964240613318
63	0xbfc7a1d7a3c37f08	-0.1846265363337738

transformer_decoder1.layers.0.multihead_attn.out_proj.bias f8 [8]
0	0xbfaed6c1b92d64b5	-0.060232213835385386
1	0x3f9a7f7614ba14ff	0.02587685109621862
2	0xbf9b56950c7f5571	-0.026697472465305908
3	0x3fac725ff2ee0d51	0.05556011047795074
4	0x3f842008b8db31fa	0.009826725140919191
5	0xbfa932274c22397c	-0.0492107658802636
6	0x3fb2169096136901	0.07065681137047265
7	0xbfa9f079809f9ff3	-0.05066280074225906
