notebooks/lightning_logs/version_3/checkpoints/epoch=0-step=1351.ckpt (torch, 65051 bytes, 30 tensors)

encoder.0.weight f4 [32, 1, 1]
00000000: bc2c 6c3f 907c f23e 0079 15bc bf48 ae3d
00000010: fa68 60bf 10d1 1fbe 9d93 6dbf 2e46 21bf
00000020: 1266 79bf 1b4f 893e 47b6 f23e d0c6 6abf
00000030: 1f4a eb3e c1f1 d1bd ead3 4a3e fe4c 7a3f
00000040: 1800 bdbe 0cef c63e 721b 023e a0bf 81bd
00000050: b0ce c6bd 1771 633f 53ff 21bf 913e 02bf
00000060: db93 a3be a8dd 803f b916 903f ae8b 84ba
00000070: 0a9c 723f 901c 803e 3e28 6e3f 48c8 093e
0.9225576 0.4736066 -0.009123087 0.08509969 -0.8766018 -0.15607095 -0.92803365 -0.6299771
-0.9742137 0.26818165 0.47404692 -0.91709614 0.45954987 -0.10251189 0.19807401 0.9777373
-0.36914134 0.38854253 0.12705782 -0.06335378 -0.09707391 0.88844436 -0.6328022 -0.5087672
-0.31948742 1.0067644 1.1256934 -0.0010112429 0.94769347 0.2502179 0.93030155 0.13455307

encoder.0.bias f4 [32]
00000000: da4a c4be 2a3d 0e3f 48d7 69be f59f be3e
00000010: 645c e2be 7045 aabe 6a1e 313f caec 33bf
00000020: 462e 22bf 3e91 9d3e 4ec7 38bc 9265 36bf
00000030: 7a02 8c3e 51e7 e63e e5f5 a6bc 8685 093d
00000040: 489f babe 302d 623f 1183 d53d 8c56 6cbf
00000050: fa37 55bf 0723 d9bd 1761 8c3e b5cb 983d
00000060: cb53 ba3e 9d7c 0c3f 1520 3abf 65ad 303f
00000070: 31cc ddbd 7cd0 143e 6335 d83e 7afa 5abf
-0.38338357 0.5556208 -0.2283603 0.37231413 -0.44211113 -0.33256102 0.69187033 -0.70283186
-0.6335186 0.30774873 -0.011277987 -0.71248734 0.2734564 0.45098355 -0.020380924 0.033574603
-0.36449647 0.883502 0.104253896 -0.9231956 -0.8328854 -0.10602384 0.27417824 0.07460729
0.36392054 0.54877645 -0.72705203 0.6901458 -0.10829962 0.14532655 0.4222823 -0.85538447

encoder.3.weight f4 [16, 32, 3]
00000000: 0206 6e3d c9bd b4bc 1ad0 d4bd db3c 5a3c
00000010: bff3 74bd 430b d8bd dd93 82bd b0b1 2bbc
00000020: acca 7a3d a9e1 aebc 4eda e4bc e168 373d
00000030: e484 f2bc dc00 1abd e81c 3dbc 521b 8b3d
00000040: 7881 af3d 607a 883c 2041 babd ec8f 5a3d
00000050: 6f7b a3bd 6f20 c3bd c838 49bc 2830 413d
00000060: bc12 693d 7833 6dbc d0ba 163c 3cf1 833b
00000070: c42a ad3d 2c8e b4bc 4668 233d 1158 5bbd
00000080: d833 6cbd 14ab 9b3c 0095 dc3a 40c1 a43c
00000090: 54fc 59bd 24cf d5bd db37 173d e2a3 ce3c
000000a0: 772f 22bd 2a91 673d 0157 8b3d a6fa 16bd
000000b0: 713e b5bd 3e31 433d 4326 dd3a ba23 8e3c
000000c0: fb43 2fbd 5066 6abd 969b 15bd 1b8d 07bd
000000d0: 287d 85bd 87a9 233d 3610 943a 51b2 4bbd
000000e0: 5ada 9b3d ccc7 963d 110f 6ebd d807 653d
000000f0: 8503 a0bd a0c1 4f3c c0cd b1ba 6557 41bd
00000100: 4c05 8b3d 2751 063d da8e 993d 4447 3f3d
00000110: c2ec b73d 11bf c2bd 1abd 9e3d effc 40bd
00000120: 9191 28bc dc67 c3bd e1e4 5c3c 4389 99bd
00000130: 151b 27bc 2c9c 093d fcfe adbd d66b e13b
00000140: 265d 40bd 7f6a c8ba ba2a 2abd 9c9e 8abd
00000150: 6db2 983d 60ce 72bb 2c9b e63c 7b00 ad3d
00000160: 304b 663d 01d6 07bd 5c5d 503d 65b5 84bd
00000170: d618 873d dc39 6b3d 34d7 973d 007f c4bb
00000180: 8cc3 5a3d 7b80 f5bb b0ac 93be eae7 c6bb
00000190: 6f52 9a3d 68ec 12bd e89c f33c 0e31 a53d
000001a0: 802b 49bb d98f 853d 1f0e cb3d d989 99bd
000001b0: e8f8 a23c f8ae c13c c625 853d 2203 c8bd
000001c0: 66e0 c13d 1001 8f3d 673d b0bc 450e 03bd
000001d0: 10fb 4d3b b01e 2e3d 8bd1 a3bd bc72 963d
000001e0: e66c c33d 885c 5fbc 1c55 ce3d 0109 b73d
000001f0: 175f 49bd 4a86 123c 2f27 0b3e b9e3 f73d
00000200: 58d8 c1bd 10a5 5b3c 50eb cb3c 2d88 64bd
00000210: 2b6f 673d 1a6b 9c3d 40b4 c5bc a974 40bd
00000220: 1f9f 863d b29e 72bd af5e 2e3d 5f80 183e
00000230: 3260 24be ca2d 103d 1699 5a3d 53fb d5bd
00000240: a0e1 95bb 28a9 a1bd 053b c3bd 8b56 3cbd
00000250: 131b b63d 0154 1a3c cd8f 5e3d e650 38bd
00000260: f170 46bc 7008 e6bc ca2e bdbd 94b9 203d
00000270: 364e c0bd 00ea 1dbb b062 9ebc 678e 643e
00000280: 8cb1 2e3e 692c b6bd 3551 aebd af29 b8bd
00000290: 1705 223e 5fe8 543e d4c9 12be e308 c6bb
000002a0: f951 6abd c129 583c bdf5 bfbc 8519 d03d
000002b0: a209 643d 261c eabd d653 3cbc 9203 763d
000002c0: fe99 fabc 8913 73bd b1a0 86bc 202a 5c3d
000002d0: c9f9 003e 4d96 9b3d d77b 67be 9bf3 81bd
000002e0: 796b a6bc 1553 c0bd b04c 543d a662 f7bc
000002f0: 157d 2cbd 885c b4bd a47e 8a3d ead9 24bd
00000300: 1d84 313a cf31 12bd bc35 b3bd abcb 833b
00000310: 081e 13bd 3d33 753d 3c46 513d a6c9 b0bd
00000320: 36af 2abd af19 b5bd 2cf5 9b3d 11fc 023d
00000330: c581 2ebd d040 583d 20f4 cdbc a080 053d
00000340: 50d2 15bc c077 a83d c0ff f5bc 3eab 6dbd
00000350: 8520 503c 7692 863d aa4b 81bd bc82 9dbd
00000360: c0e9 60bc c488 e4bc 805f 18ba 6ad5 28bd
00000370: ea18 a8bc edce 3b3c 2a0a febc 8749 4a3d
00000380: 5a99 f73b 6886 c43d 4496 18bd 00e1 3d3c
00000390: ebc3 07bd 30d8 3dbd a28c 8e3d bbcc b7bc
000003a0: 365e ac3d f24d f8bc 0278 23bb fc74 bd3d
000003b0: 25e2 8dbd 63a4 8e3d 2778 41bc 6c17 d43d
000003c0: b8b0 603d 1def 2bbd d0c2 9d3d 9c6b 7a3d
000003d0: 323e a73d e57c 02bd 7b29 683d 25dd 8dbd
000003e0: 7620 be3d 5aa3 a83d 08bc 793d 1cd1 7c3d
000003f0: b29e ccbd 4cde 263d 685a eabc 54f2 bb3d
0.0581112 -0.022063153 -0.10391255 0.013320173 -0.059802767 -0.10549023 -0.06375859 -0.010479376
0.06122844 -0.021347838 -0.027936127 0.044777755 -0.029604383 -0.037598476 -0.011542536 0.0679232
0.08569616 0.016659915 -0.09094453 0.05335991 -0.079825275 -0.095276706 -0.012281604 0.047165066
0.056902632 -0.014477603 0.009199813 0.00402656 0.084554225 -0.02204045 0.039894365 -0.053550784
-0.05766663 0.019002475 0.0016829073 0.02011168 -0.053219154 -0.104398996 0.036918502 0.02522463
-0.039596047 0.056534924 0.06803704 -0.03686013 -0.088498004 0.047654383 0.0016872365 0.01735102
-0.04278944 -0.05722648 -0.03652533 -0.033093553 -0.06518012 0.039956596 0.0011296335 -0.049730603
0.07610007 0.07362327 -0.058119837 0.055915684 -0.07813171 0.012680441 -0.0013565347 -0.047202487
0.0678812 0.032792237 0.0749795 0.046698824 0.08980705 -0.09509099 0.07750912 -0.047116216
-0.010288612 -0.09541294 0.013482303 -0.07496884 -0.010199328 0.033596203 -0.084959 0.00687931
-0.046963833 -0.0015290527 -0.041544653 -0.067685336 0.07455907 -0.0037049279 0.028150164 0.08447357
0.05622405 -0.033163074 0.050870284 -0.06479911 0.06596534 0.057428226 0.074140936 -0.005996585
0.053409144 -0.0074921227 -0.28842688 -0.006070127 0.07535254 -0.035869986 0.029737905 0.08065997
-0.0030696094 0.065215774 0.09914803 -0.074969955 0.019894078 0.023643002 0.06501345 -0.097662225
0.09466629 0.069826245 -0.021513654 -0.03199603 0.0031430162 0.042509735 -0.079989515 0.073461026
0.09542255 -0.013632901 0.10074827 0.08937264 -0.04916295 0.00894315 0.13589166 0.121039815
-0.094650924 0.013406053 0.02489248 -0.05579393 0.056502502 0.076376155 -0.024133801 -0.046986256
0.06573319 -0.059233375 0.042570766 0.1489272 -0.1605232 0.035199918 0.05336865 -0.10448327
-0.0045740157 -0.07893592 -0.095327415 -0.04598097 0.08891883 0.009419442 0.054336358 -0.044999026
-0.012111888 -0.028080195 -0.0923744 0.03923948 -0.093899176 -0.0024095774 -0.019334167 0.22319947
0.17059916 -0.08895189 -0.08511583 -0.089923255 0.15822254 0.20791768 -0.14334804 -0.00604354
-0.05720708 0.013193549 -0.023432607 0.101611175 0.05567325 -0.1143115 -0.011494597 0.060062
-0.030591007 -0.059344802 -0.016434046 0.05375111 0.12595285 0.07597027 -0.22605835 -0.06345292
-0.020314919 -0.09390847 0.051830947 -0.030198406 -0.042111475 -0.088067114 0.06762436 -0.04024688
0.00067717006 -0.035692032 -0.087504834 0.004022082 -0.035917312 0.059863318 0.05109237 -0.086322114
-0.041671 -0.088427894 0.07615122 0.03197867 -0.042604227 0.052796185 -0.025140822 0.03259337
-0.009144381 0.082259655 -0.030029178 -0.058024637 0.012703066 0.06570904 -0.0631326 -0.07690951
-0.013727605 -0.027897246 -0.00058125705 -0.041219153 -0.020519692 0.011462909 -0.031010706 0.049386527
0.0075561227 0.095959485 -0.03725268 0.011589289 -0.033145826 -0.04634875 0.06960417 -0.02243649
0.08416407 -0.030310605 -0.0024943356 0.092508286 -0.06927899 0.06964948 -0.011808432 0.1035603
0.054856032 -0.041976083 0.07703173 0.06113778 0.0816616 -0.03185739 0.056680184 -0.069269456
0.09283535 0.08234282 0.060970336 0.06172286 -0.09991206 0.040739343 -0.028607562 0.0917708

encoder.3.bias f4 [16]
00000000: 50da 3dbd 53f3 5cbd a365 83bc bb3e 55bd
00000010: b50c 343c faa4 9a3c 2e9d 973d 5c45 de3c
00000020: e31b 00bd 0782 1e3d 906b 24bd 1b8f a43d
00000030: 3550 6b3d 532a e6bc 4e54 833d b84b 843d
-0.046350777 -0.05394299 -0.016039675 -0.052061778 0.010989358 0.018877495 0.074030265 0.027132683
-0.031276595 0.038698222 -0.040141642 0.08035108 0.05744954 -0.028096354 0.06412564 0.06459755

decoder.0.weight f4 [16, 16, 3]
00000000: abac ed3d 5602 afbd 4539 a9bb 0d20 fbbd
00000010: 47d7 e33d 634a 2d3d 7a40 2cbc 1193 8c3d
00000020: 6c18 133c 4e2e cf3d 5e72 2abc c96d b53d
00000030: 4567 b73d ea48 253e 6472 01be b935 b53d
00000040: b473 ef3d 0dd5 0dbe d991 443b 9deb 59bc
00000050: 82bc a8bd 72a9 a6bd b930 bbbd 9f15 2f3d
00000060: 8cb5 ee3b d170 4c3c 0ed1 03be d705 a4bd
00000070: e497 273e b8f6 ebbd f046 8b3d e38b 133e
00000080: 587a 583d 0cb8 523d 49e6 ccbd 1fa1 153e
00000090: 50b1 4abd 3292 23be 8d55 533d ea0d aa3d
000000a0: d4ed 103d 6bb2 b5bd 1cb9 c8bd 9f66 f53d
000000b0: fee6 023d 4477 a53d 60f3 60bd 89c8 0a3d
000000c0: 47b7 d4bd 07e9 473d 6186 c2bd 23f0 093d
000000d0: 1127 9b3c c506 3e3d 64ac 283d 7897 073e
000000e0: bfae febd 8046 033d 53cb e0bd 8dfc c13d
000000f0: b786 0f3c c4c5 b63d 5168 ab3d 6785 a1bc
00000100: 1d40 04bd 3598 aebd ab2d bf3d 9722 8fbd
00000110: 92f1 8bbc a4e9 643d f6d1 40ba a49f ff3d
00000120: a55e aebd 6320 973d c670 6b3b a23b 693d
00000130: 82bc 253d bd99 59bd d2d3 1e3e 41b6 b73c
00000140: 9fe1 df3d 81f2 95bd 426b 23bd 5d09 b33d
00000150: 0539 1fbe 8eb0 2cbe 3731 d4bd 2214 053e
00000160: fa0c edbd b752 0bbe 25db c6bd 7849 8bba
00000170: 9aa7 013e 6067 f33d 7d6f b33d fee6 9fbc
00000180: 181d 61bc c3e2 813a 33b9 cdbd 3cf6 123e
00000190: a780 57be 79a9 a13d 0e99 da3d ee6f 77bd
000001a0: 0d65 283e 99be 773d e6c2 00be 69f2 aa3d
000001b0: 35bb 17be f779 893c 8ebc 0f3d 8b3d bf3c
000001c0: bed1 ea3d c953 4ebe ca8e 2abe 25b5 213e
000001d0: acf7 5c3d 15ac c2bd 767c 96bd b7ec 7b3d
000001e0: 4f2c 433e 4402 93bd ca7b a2bd 2ba1 13bc
000001f0: efdf 6fbd c525 b73d 6e65 1cbe 29ca b3bd
00000200: 92b4 7a3d 5c92 bbb9 f297 273e 6657 b33d
00000210: 7d70 7a3d c131 553d e819 673c 837f bbbd
00000220: e8fc c53c 17f1 d03d df47 0b3e 92f3 b13a
00000230: c1b0 6dbd bafc 673d a8fb ff3d 1f7e 193e
00000240: 746a 93bd ac0f 633d 60be 0bbe 7d4e 1a3e
00000250: 2a4a de3d 123b c7bc e56c 12bd 5402 053d
00000260: df29 1abe 9b1c 75bd 0a50 d0bd 2ee4 14be
00000270: 0803 bf3d 5e39 00be 22bc 153e 956e 603d
00000280: 1612 b93d 59de 10be 5626 913c 1081 c03d
00000290: f015 5cbd bce2 21be aa25 e93c 9613 24be
000002a0: 4695 d83d a875 debd 0cf2 07be 4272 febd
000002b0: a826 a4bd c900 783d 9668 8f3d 3f04 bfbc
000002c0: c387 2ebd bd2c d83d f60a e2bd ea6b 39bd
000002d0: 8fc7 3d3d d7f7 133e 46e9 9f3d 04d6 e3bc
000002e0: 88c9 a6bd f572 febd deca 17be f658 f23d
000002f0: 0b3d 0a3d 483e e13d 2e8e 35be c318 dbbd
00000300: 7e86 023e 8096 2b3d 02e9 12bd 0ba4 e7bd
00000310: 2409 c0bd 8696 e1bd a0e2 a53c 8c18 213d
00000320: 7a3d b1bd a0d7 d0bd c38c 12be e1a6 fbbd
00000330: d5d8 a6bd ca06 03be 226c bcbd 68fa 983d
00000340: 71c6 ebbd a4fc 05be 40f7 fbbd b681 0d3e
00000350: 8903 a4bd 9030 3bbc b4df cb3d 0cb8 253d
00000360: dd98 04be 0c4d e93d c24d 853d 7c2b 633d
00000370: 1b6b a4bd 0eb4 8e3d 9c27 f63d 50cf b53c
00000380: 00f6 b3bd ec53 53bd 08ac 7abd f088 523c
00000390: 30b7 3a3c 20f9 573d f5f3 bdbd 445b 033e
000003a0: f41d f93d ab00 07be 28c5 a93c 78f7 e13c
000003b0: 0a8b b03d 0c45 33bd 7b29 83bd 0a1b a7bd
000003c0: 0429 c6bd 1f9f 83bb 1cde 213d 3896 38be
000003d0: ecaf 2abc b6a7 753d 7dab e5bd 9068 5f3a
000003e0: 9f83 353d 9afb 81bc bca2 ea3d 840c 30bd
000003f0: 41c1 ec3d 229f aa3d ea1e 8c3d 063a 603d
0.116051994 -0.085453674 -0.0051642978 -0.122619726 0.11125045 0.04230727 -0.010513419 0.06863988
0.008977991 0.10116254 -0.010403244 0.088588305 0.08955244 0.16141096 -0.12641293 0.088481374
0.116919905 -0.13850804 0.0029994159 -0.0133008035 -0.0823908 -0.08137788 -0.091401525 0.04274523
0.0072848257 0.012478069 -0.12872717 -0.08008926 0.16366535 -0.11521667 0.0680064 0.14408831
0.05285105 0.051445052 -0.10004861 0.14612244 -0.049485505 -0.15973738 0.05159526 0.08303435
0.03538306 -0.08871921 -0.09800932 0.11982464 0.031958573 0.08079389 -0.0549196 0.03388265
-0.1038652 0.048806217 -0.09498287 0.033676278 0.018939527 0.046393175 0.04118003 0.13241374
-0.12435674 0.032049656 -0.10976281 0.09471998 0.008760146 0.089244395 0.08369506 -0.019716932
-0.032287706 -0.08525125 0.09334882 -0.06989019 -0.017082963 0.05588688 -0.00073555054 0.12481621
-0.08514146 0.07379224 0.0035925373 0.056941636 0.04046298 -0.053125132 0.1551049 0.022425773
0.10931706 -0.073216446 -0.03989721 0.0874202 -0.15549095 -0.16864225 -0.103609495 0.12995961
-0.11574741 -0.13605772 -0.09709767 -0.0010626754 0.12661591 0.118849516 0.08761499 -0.019519325
-0.013739847 0.0009909499 -0.100450896 0.14351743 -0.2104517 0.078936525 0.10673724 -0.06040948
0.16444798 0.060484502 -0.12574348 0.08347017 -0.14817508 0.01678179 0.03509193 0.023344776
0.114657864 -0.20149149 -0.16656032 0.15791757 0.053947136 -0.09505478 -0.07347958 0.061505046
0.19059871 -0.071781665 -0.07933767 -0.009010593 -0.05856317 0.08942751 -0.15273067 -0.08778793
0.06120736 -0.00035776466 0.16366556 0.08756904 0.061142433 0.052049402 0.014105298 -0.0915518
0.024168447 0.10202234 0.13601635 0.0013576618 -0.058029894 0.056637503 0.124991715 0.14989518
-0.07198039 0.055434868 -0.13646841 0.15069003 0.108539894 -0.02432016 -0.03574838 0.032472923
-0.15055035 -0.059841733 -0.10171516 -0.14540169 0.0932675 -0.12521884 0.14622548 0.05479296
0.09036653 -0.14147319 0.017718475 0.09399617 -0.05373186 -0.15809149 0.028460342 -0.16023096
0.10575347 -0.10862285 -0.13275927 -0.12424137 -0.080151856 0.060547624 0.0700237 -0.023317454
-0.04260994 0.10555408 -0.11037247 -0.04526893 0.046332892 0.14450012 0.07808165 -0.027812012
-0.08143908 -0.1242427 -0.14823481 0.11833374 0.03374962 0.10998207 -0.17730018 -0.10698082
0.12746617 0.041891575 -0.035866745 -0.113105856 -0.093767434 -0.11015038 0.020249665 0.03933005
-0.08654304 -0.10197377 -0.14311509 -0.12287689 -0.08146826 -0.12795559 -0.09200312 0.07469636
-0.11512459 -0.13084656 -0.123030186 0.13819012 -0.08008487 -0.011425152 0.09954777 0.040458724
-0.12948938 0.11391649 0.06508972 0.05546139 -0.08028241 0.069679365 0.12019274 0.02219358
-0.08787155 -0.051593706 -0.061199218 0.012850031 0.011396214 0.05272782 -0.09275047 0.12827784
0.12163916 -0.13183849 0.020723894 0.027583823 0.086202696 -0.04376702 -0.06404396 -0.08159454
-0.09675792 -0.0040167714 0.03951846 -0.18026054 -0.01041792 0.059974395 -0.112143494 0.0008522356
0.044314977 -0.015867043 0.1145682 -0.042980686 0.11560298 0.083311334 0.06841834 0.054742835

decoder.0.bias f4 [16]
00000000: 0346 113e c470 173e c3fc 833b 3216 ff3d
00000010: e013 bcbc 60c4 563d 6fde d03d 2828 77bd
00000020: c90d 8dbc f4b8 2d3a b4ce 613b abcb 16bd
00000030: ab53 cd3c 88c7 373c c8d8 ba3d 2726 19be
0.14186864 0.1478911 0.0040279343 0.12455405 -0.022958696 0.05243337 0.10198676 -0.06034103
-0.017218487 0.00066269864 0.003445548 -0.036815327 0.02506431 0.011217006 0.09123379 -0.1495596

decoder.3.weight f4 [32, 16, 3]
00000000: 2507 853d 5b0a 9f3d 5716 a73d c8c2 8a3d
00000010: 83b3 5abd a237 c63d 76b1 0a3e 7cb0 b23d
00000020: f786 d9bd b3ab 26bc 6699 e7bd 6ca0 05be
00000030: 20d1 a3bb 241f 463d 0c50 db3d 8ce8 a63b
00000040: 1531 9d3d f31f 52bd 663e ab3d 0f53 2dbc
00000050: 1961 4039 198f 00be 85bb 9ebd bb7c d8bd
00000060: ae54 1dbe be59 27be 0b5a 80bd 369b 9d3c
00000070: d75d 76bc 8a05 153e 3eec b3bd 7fc6 01be
00000080: 4ba1 cabd 8adb bd3d 2f37 35bd 2d7b 333e
00000090: 1f99 89bd 5b39 893d 4e9a f53c 0cf5 eb3c
000000a0: 907c f0bc a79c b4bd 9ff4 6b3b 4534 6fbd
000000b0: 14e5 4ebd e686 a1bd b031 473d b3a8 85bd
000000c0: 72b2 eebd 4784 343d 64d9 7d3d 4b3f 6b3c
000000d0: d48c bd3d e687 93bd 4e7e 8fbd 4167 7dbd
000000e0: e047 c73d 75e4 e53d 28d0 a1bd 4879 82bd
000000f0: 9c40 a63d 7638 aa3d b4b8 e63d ae09 1dbd
00000100: 27e9 923c b074 ea3d 44c8 f73d e07c 69bd
00000110: 4ea5 04bd 9c9d 00bd f12a 04be a018 5dbd
00000120: 9cb8 373d 0f75 02be 4f4a a8bd a3cd 2a3d
00000130: 8366 c9bc 401a 83bb 5746 c6bc 171f 02be
00000140: 47cb d1bd 5af4 36bd 1ce2 e7bd d281 02be
00000150: 08b3 663d 7e34 5abd 3760 ecbd 7cf7 053d
00000160: 48c3 94bc f080 55bd b8c9 8fbd 6d37 ab3d
00000170: e0e1 a1bd f3e6 b0bd 68c8 be3d 98a0 913c
00000180: cb83 c93d 87c7 c1bc e75b 19be 6133 af3c
00000190: 79b9 a23d 7e00 e2bc 67b7 08bc 5147 ee3d
000001a0: 1843 283d 879a 19bd 5f3f bebd 3acf 8a3d
000001b0: 592f e9bd 2072 123d eede bd3d 506f ffbd
000001c0: 53e7 35bd 7749 d13d 217f c8bc 488f bb3d
000001d0: 30d0 d63d ab94 18be 736e e9bd 0de3 863d
000001e0: 64b3 fbbc 009f 423a 18dc 4e3d 7dc5 20bc
000001f0: 73c5 a7bd b0b8 fe3d 72e3 15be de6c 05be
00000200: 3c5b fc3c 2aca 773d 75bb e23d 3465 eebc
00000210: 0ccb e7bd e485 dfbd 5c8b 12be 03e7 fe3d
00000220: 1f9d 41be 121d 9e3d 3332 45bc a78b 01bc
00000230: d78d 803d 2766 92bd 6e19 06bd bcf8 bcbd
00000240: bc91 a2bd 185b 183e 63ee 883c c28e 183e
00000250: 68b0 fcbd a727 aa3c 37f3 43bd 7fcf 0a3e
00000260: 57d3 a8bd 135f a5bd a7bb 753d 8409 c5bd
00000270: cc36 ffbc 481a 4b3d e8cf 813c 280f 1cbc
00000280: a276 0e3c 57b5 0e3e d649 d73d 9e57 ed3d
00000290: e2ec dbbc 5a34 dc3d ebbe bbbc 0f25 00bc
000002a0: f8f9 963d dd1b 21be 2d26 97bd 3edb 87bb
000002b0: aba0 313e 13d9 acbd cccd e4bd 77fe b23d
000002c0: cd62 033e 745e e9bd 417e b3bd c697 debc
000002d0: f4fe acbd 286d f5bd b7b1 b93d fe6b 143e
000002e0: 275c 6a3e 7fe7 b33d 5e92 30bd a114 ba3d
000002f0: ad10 00be 46b0 4b3d 50e8 ec3c f87c 15bd
00000300: 4b7b cbbd e05c 37bd 096f 113d 22ac 953d
00000310: 1c80 65bd b0e4 b43d b0e6 06be 0012 373d
00000320: 31ab 943c fef0 9d3d 3d86 6dbd a437 bebd
00000330: 5087 3cbc 9069 85bc 1e3a a83d 352e 23bc
00000340: 7627 07be 20df 13be 6f0c 3fbd 3914 0dbd
00000350: 8cc8 12be c313 00be 90d9 e0bd 493a 80bd
00000360: 5342 e33d 9f95 13bd 44c0 f13d 8552 8e3d
00000370: a678 23be 3ba2 d2bc e39e fabb 9cc2 f93d
00000380: df3f d43d 076d 59bd f5b0 843d 3889 e6bd
00000390: 32de e9bc 8a48 abbd 2da3 053d 5708 d73d
000003a0: 4c7e ce3d ac2a 573d 9208 89bd 41f5 edbc
000003b0: 933f 8bbd fc1d d73d cab8 c43d 64b1 48bd
000003c0: 9691 953b 8aef 6b3d de70 e63d 10c5 dd3d
000003d0: e667 fd3c 1e74 b2bd 0eec 513d 8864 8c3a
000003e0: 2e5f 753d 522d 25be cac8 47be 4008 dfbc
000003f0: b166 85bd 6c02 f3bd f455 bdbd 6174 dabc
0.06495503 0.07765647 0.08158558 0.06775433 -0.053393852 0.0967858 0.13544258 0.08725068
-0.106214456 -0.010172772 -0.11308555 -0.13049477 -0.004999295 0.04836954 0.10708627 0.0050936397
0.07675377 -0.0513 0.08361511 -0.010578885 0.00018346719 -0.12554587 -0.0775061 -0.105706654
-0.15364334 -0.16342828 -0.06267174 0.01923905 -0.015037022 0.14552894 -0.08785294 -0.12673377
-0.098940454 0.092703894 -0.04424208 0.17527457 -0.06718659 0.06700393 0.029980805 0.02880337
-0.029356271 -0.088189416 0.003600396 -0.058399457 -0.050511435 -0.07887058 0.04863137 -0.065263174
-0.116551295 0.044071462 0.061974898 0.014358352 0.092553765 -0.07203655 -0.070065126 -0.06186605
0.09730506 0.11225215 -0.07901031 -0.06370789 0.08117792 0.0831155 0.11265698 -0.03833931
0.017933441 0.114480376 0.120987445 -0.057003856 -0.03238421 -0.031400308 -0.12907006 -0.053978562
0.04485379 -0.12739967 -0.08217298 0.041700017 -0.024585014 -0.004000932 -0.024203463 -0.12707172
-0.1024385 -0.044666626 -0.11322424 -0.12744835 0.05632308 -0.053272717 -0.11541789 0.032706723
-0.018159524 -0.052124918 -0.07020897 0.08360181 -0.0790441 -0.086378 0.09315568 0.017776772
0.09839591 -0.023654712 -0.14976464 0.021386804 0.07945532 -0.027588125 -0.008344508 0.11634696
0.04107961 -0.037500884 -0.09289431 0.067778066 -0.11385984 0.03575337 0.09271036 -0.12472403
-0.04441006 0.102190904 -0.024474682 0.09158188 0.10488927 -0.14900462 -0.1139802 0.06586275
-0.030725189 0.00074242055 0.050502867 -0.00981271 -0.08191957 0.1243757 -0.14637545 -0.13029811
0.030805223 0.060495533 0.11070911 -0.029100992 -0.11318025 -0.109142095 -0.14310974 0.12446406
-0.18907593 0.077203885 -0.012035894 -0.007906831 0.06277054 -0.0714839 -0.032739095 -0.0922713
-0.07937953 0.148785 0.016715234 0.14898208 -0.12338334 0.02077086 -0.04783937 0.13555716
-0.08243435 -0.080747746 0.059993412 -0.096209556 -0.031154059 0.04958561 0.015846208 -0.009525098
0.008695276 0.13936363 0.1051213 0.11588977 -0.026846353 0.10752173 -0.022918185 -0.007821335
0.073718965 -0.15733285 -0.07380328 -0.0041460088 0.17346446 -0.08439841 -0.11172065 0.087399416
0.12830658 -0.11394969 -0.087643154 -0.02717198 -0.08447066 -0.119837105 0.090670995 0.14494321
0.22886716 0.08784389 -0.043108337 0.09085966 -0.12506361 0.049728654 0.028919369 -0.036496133
-0.09935626 -0.044766307 0.035506282 0.07308222 -0.056030378 0.08832681 -0.13173938 0.0446949
0.018148037 0.07711981 -0.057989348 -0.09287956 -0.01150687 -0.016285688 0.0821421 -0.009959747
-0.13198647 -0.14440584 -0.046642717 -0.034443114 -0.14334315 -0.12507538 -0.10978997 -0.06261117
0.11096635 -0.03603136 0.1180425 0.06949333 -0.15963992 -0.025712123 -0.0076483353 0.12195322
0.10363745 -0.053082492 0.064790644 -0.11256641 -0.028548334 -0.08363445 0.03262632 0.104996376
0.10082683 0.05253093 -0.06691088 -0.02904761 -0.06799235 0.10503766 0.09605558 -0.048997298
0.0045644743 0.05760149 0.112519965 0.10828602 0.030933332 -0.08713554 0.05125051 0.0010711113
0.059905224 -0.1613057 -0.19510189 -0.027225614 -0.065137275 -0.11865696 -0.0924491 -0.026666822

decoder.3.bias f4 [32]
00000000: af2d c43d 32e6 4bbd c41d b0bd c9ff b03c
00000010: d58d 773d 9e2c 793d 0353 c33d 522f 13be
00000020: 6787 0f3e faf3 c63d ec8b 25bc be5b ae3d
00000030: 8d8f f63c 1524 ac3d 2868 303d 1518 943d
00000040: 0976 113e 08f6 673d 3da1 85bd 6e57 0bbe
00000050: e2d3 573d 58ee 6a3b 6dce a33c 285f 4dbd
00000060: 74e1 d9bb 9596 6d3d b2cf b6bd 4454 1bbd
00000070: e6da 8bbd b21b 033d 4cfb b23c ca2f 153e
0.09579026 -0.04978008 -0.08599427 0.021606343 0.060437996 0.060833566 0.095373176 -0.1437352
0.14016496 0.097145036 -0.010104161 0.08513592 0.030097747 0.084053196 0.04306808 0.07231156
0.14205183 0.056631118 -0.065248944 -0.1360757 0.0526923 0.003584763 0.019995892 -0.050139576
-0.0066491906 0.058004934 -0.089263335 -0.03792216 -0.06828861 0.032008834 0.021848343 0.14569011

decoder.6.weight f4 [3, 32, 3]
00000000: 39b0 943d 6868 10bd 8bd2 bc3d dc7f e6bc
00000010: 54dc 08bd 3561 623d f45b 4cbd 2711 6cbb
00000020: 36f6 40bd f7fd ac3d de46 46bc 29f6 873d
00000030: c948 053d b21f b33d 84d8 0cbd 26f8 19bd
00000040: eed2 643c 6599 30bd 9e8d 653d 0279 39bd
00000050: 2df9 d13d 5eb7 4b3d 9f02 af3b 27fe ce3c
00000060: 0aab f13d 3e09 ee3d e074 dfbc 7558 90bb
00000070: 480c e53c fbe9 21be f395 07be 22e6 873d
00000080: adf4 053d 8b86 3fbd 0abe 023c 3334 c6bc
00000090: 9bec 83be 6c84 36be 04bc f7bd e36a 5fbd
000000a0: b288 043d b299 073e 34e8 11bd 0c08 e63a
000000b0: 12c4 4d3d 772b 903d a819 0a3e 2cb9 c7bc
000000c0: 5aa1 7c3d 542c 40bd dd16 b83d 9b0f 44bc
000000d0: 22a9 4abd 1961 01bd fc79 d1bc 4c74 563d
000000e0: 8dc1 b2bd 7a0c 36bd 1403 5dbd b1ed 9cbd
000000f0: 7694 803d e573 263d 3be8 a43d 89bc cc3a
00000100: 9f16 2ebc 1c5b 2d3e d402 36bd 2820 6c3c
00000110: d90b 403c 7cf5 84bd a616 a83d a499 223d
00000120: f0d9 d63d e6f2 8cba e72d 20b8 076d 8abd
00000130: 6405 d9bb a011 2c3d d052 3d3d c682 19bd
00000140: aab4 c6bd 7be9 003e bd4a 853d cb1e 30bc
00000150: d00c e53c 8fac 873d 95ef 5d3c 5a8d 503d
00000160: 366b 5e3d 001f 02bd 0ef6 17bd 8c39 f43d
00000170: 87e2 7d3e 140f c23c ce16 fd3d 1a44 e63d
00000180: 314f 543d f409 a73d a207 be3d 1870 073d
00000190: ff83 61bd ab89 673d cace 9fbd 486d 4e3d
000001a0: f92e 79bc 048b 893d 9f32 b23d 6c48 e83c
000001b0: bda2 b0bd 8559 89bc 5fb8 0a3d 1cab 833d
000001c0: a311 833d 3c74 dc3d c84c 1c3d d871 723d
000001d0: f866 eb3d 323f 39bd 1b86 ecbc a4d2 853c
000001e0: b686 ca3d 0b48 033d ab33 0dbd 6755 b13b
000001f0: c14a 7a3d 07bf f7bd 5aa6 d7bd f66c 4ebd
00000200: 9aa6 e63c bce4 cc3d 7a27 6b3d caf4 f23c
00000210: f2c1 95be fd93 08be c0e0 85bd d741 8cbc
00000220: ce39 df3d f012 b53d 53fb d43d 4a60 8cbd
00000230: 9dc6 da3d 7f9a a13d 1181 b9bc a2ab 5a3c
00000240: 8471 7e3d 858f f5bb 9c71 973b d972 95bd
00000250: afa3 743c 06e9 04bd f4cb 803d 86ea e63d
00000260: 609e 713d c4d1 80bd 3525 5c3d 5ca7 853d
00000270: fbd4 c43c 96e6 c63d 2df5 9cbc ac1c b73d
00000280: ca44 033c 9a5f bc3d 9560 41bd 8b2d a6bd
00000290: 815c 86bc 9653 01bd acd4 a33d 3663 03bd
000002a0: aca8 a2bd e11f 82bc 2c3b f5bb 8db3 49bc
000002b0: 2608 a63d 6b03 5ebd e0fa c23d d2e7 b43d
000002c0: 7046 76bc d1b3 7a3d 26dc 46bd 67c0 213a
000002d0: f2e4 d5bd 9141 b73d 0294 763d b3c2 92bd
000002e0: fe2d 84bd 3d53 c33c 792c a53d 9d1e c73d
000002f0: d241 373e 4bfb 5d3d 3ea4 82bd 5f88 ef3d
00000300: 9ed8 b23d 9781 843d 76e2 503d dadf 47bd
00000310: 410a 9cbd 76cf a4bc a63e b93d 7980 15bd
00000320: a799 793b 63b2 553d a1ef 493d f3ac 253d
00000330: 487f ffbc 6248 aabd 59ce cbbc cca9 273d
00000340: b2c7 393b 3b2c 83bd bb65 163d ec73 6c3d
00000350: ff4b be3d 1196 583d 4a02 5b3d fd3b dd3c
00000360: 022c db3d b1eb 973d acf1 9e3d db9c b03d
00000370: 918e e3bc 6d8f c5bd 44be 99bd 717b bf3a
00000380: b434 25bd cf11 a43d e449 b7bb 8343 44bd
00000390: a4de 01be 9db0 9dbe 364f 2bbd ef84 883b
000003a0: ab24 8f3d d04e 01bd efec a83d dc3b c33d
000003b0: 6d0d adbb 29c5 b93b 9331 043e a6cd 95bd
000003c0: 682f 793d 6989 2d3d c0b3 0a3d f481 b8bc
000003d0: 1d39 98bd 6bb2 aabc a483 c4bd c4eb 153d
000003e0: 1a2d 8cbc d972 b5bd e103 7a3d f8a4 a43d
000003f0: a4c4 73bd 291d 7e3d 11d2 693c 5e6c 0ebd
0.07260174 -0.03525582 0.092198454 -0.02813714 -0.033413246 0.055268485 -0.04989238 -0.0036020966
-0.047109805 0.084468774 -0.012101857 0.06638748 0.032540116 0.0874628 -0.034386173 -0.03759017
0.013966305 -0.04311504 0.05604326 -0.045281418 0.10252605 0.04973542 0.0053408886 0.025267674
0.11800201 0.116228566 -0.02727741 -0.004405076 0.027959958 -0.15811913 -0.13240795 0.06635691
0.032704044 -0.04675917 0.007979879 -0.024194812 -0.25766453 -0.17823952 -0.12096408 -0.054545294
0.032356925 0.13242224 -0.035621837 0.0017550006 0.050235815 0.0703954 0.1348635 -0.024380289
0.061677314 -0.046917275 0.08988736 -0.011966611 -0.049477704 -0.03158674 -0.025570862 0.052357003
-0.08728323 -0.044445492 -0.053958014 -0.076625235 0.06278317 0.04063787 0.08052107 0.0015620153
-0.0106255105 0.16929287 -0.04443629 0.0144119635 0.011721575 -0.06492135 0.08207445 0.039697304
0.10490787 -0.0010753542 -3.8189723e-05 -0.067590766 -0.006622957 0.042008996 0.046221554 -0.03747823
-0.09702428 0.12589066 0.06508396 -0.010749529 0.027960211 0.0662471 0.01354589 0.050916053
0.054301463 -0.031767845 -0.03709989 0.11925039 0.24793445 0.02368883 0.12357865 0.11243458
0.051833335 0.08156195 0.092787996 0.033065885 -0.055057522 0.056527775 -0.07803114 0.050397187
-0.015208953 0.06715968 0.087010615 0.028354846 -0.0862479 -0.016766319 0.033867236 0.06429121
0.06399848 0.107643574 0.03815916 0.0591906 0.11494249 -0.045226283 -0.02887254 0.016335793
0.09888975 0.032051127 -0.034473103 0.005411792 0.061106447 -0.120969824 -0.10529776 -0.050396882
0.028155614 0.10004565 0.057410695 0.02965774 -0.2924953 -0.13337703 -0.06537008 -0.017121239
0.10899697 0.08841503 0.10399499 -0.06854303 0.10682414 0.07890796 -0.022644551 0.0133465845
0.062119976 -0.0074939155 0.0046216976 -0.07297296 0.014931603 -0.03244879 0.06288901 0.112752005
0.05898893 -0.062900096 0.05374642 0.06526062 0.024027338 0.097119495 -0.019159878 0.089410156
0.008012006 0.09197922 -0.04721125 -0.081141554 -0.016401531 -0.031573854 0.07999548 -0.032077037
-0.07942328 -0.015884342 -0.0074838605 -0.012310875 0.08107023 -0.05420248 0.09520507 0.08833279
-0.015031442 0.061206643 -0.048549794 0.0006170333 -0.104440585 0.08948053 0.060199745 -0.07166042
-0.06454085 0.023843402 0.08065123 0.09722636 0.17896202 0.05419473 -0.06378983 0.116959326
0.08732723 0.0647003 0.05099722 -0.048797466 -0.07619143 -0.020118456 0.09045152 -0.036499474
0.0038085969 0.052172076 0.049300794 0.04044814 -0.031188622 -0.08314587 -0.024878668 0.040933415
0.0028347787 -0.06404921 0.03671811 0.05772774 0.09291839 0.05287749 0.05346898 0.027006144
0.10701753 0.074180014 0.07760939 0.08623668 -0.027777942 -0.09646497 -0.075069934 0.0014608932
-0.040333465 0.08011209 -0.0055935252 -0.047915947 -0.12682587 -0.30798808 -0.04182359 0.0041662375
0.06989416 -0.031569302 0.082483165 0.09532902 -0.0052811415 0.0056692553 0.12909536 -0.07314615
0.060836226 0.042367373 0.03386283 -0.022522904 -0.074327685 -0.02083703 -0.09595421 0.036601797
-0.01711135 -0.08859796 0.061038855 0.08039278 -0.059513703 0.062039528 0.014271275 -0.034771316

decoder.6.bias f4 [3]
00000000: c3eb b83c 54b8 763d 57b2 5abd
0.022573357 0.060234383 -0.053392734

exp_avg f4 [32, 1, 1]
00000000: 1c73 dfb7 5a61 de36 0000 0000 7261 95b7
00000010: 0000 0000 0000 0000 5f59 db39 0000 0000
00000020: 0000 0000 c099 1838 12dc aab9 0000 0000
00000030: c07a 5ab7 6ce1 01b8 f511 adb9 107d 0bb9
00000040: 0000 0000 4a5a a3b8 60ab d1b8 0000 0000
00000050: 0000 0000 e647 ceb9 223f 9239 7ae0 8338
00000060: 0e12 4339 e01b 2bb9 edaa ae36 2865 4c37
00000070: c473 06ba 8711 6438 9872 33b9 0000 0000
-2.6637274e-05 6.627449e-06 0.0 -1.780756e-05 0.0 0.0 0.00041837522 0.0
0.0 3.6382815e-05 -0.00032588892 0.0 -1.30223925e-05 -3.0965937e-05 -0.0003301051 -0.00013302662
0.0 -7.789263e-05 -9.997818e-05 0.0 0.0 -0.0003934495 0.00027894328 6.288379e-05
0.00018603375 -0.00016318215 5.2055025e-06 1.21829e-05 -0.0005128945 5.437576e-05 -0.0001711346 0.0

exp_avg_sq f4 [32, 1, 1]
00000000: 8272 8c34 4af4 ab32 0000 0000 6b8f a634
00000010: 0000 0000 0000 0000 0aa4 1d38 0000 0000
00000020: 0000 0000 466e 9a34 85e0 b637 0000 0000
00000030: 7f2b f932 50ad 0c35 faf1 bd37 7379 9436
00000040: 0000 0000 8d11 7f35 a876 3536 0000 0000
00000050: 0000 0000 ff10 f637 aae1 8c37 cde9 7b35
00000060: d430 d036 8b0c a936 719c 0834 7226 f733
00000070: 3700 5f38 87f0 4635 99ca c936 0000 0000
2.6160347e-07 2.001811e-08 0.0 3.102426e-07 0.0 0.0 3.758449e-05 0.0
0.0 2.876497e-07 2.180064e-05 0.0 2.9007195e-08 5.2406267e-07 2.2643235e-05 4.4248823e-06
0.0 9.502044e-07 2.7040169e-06 0.0 0.0 2.93334e-05 1.6794384e-05 9.384501e-07
6.2045674e-06 5.0380527e-06 1.27229e-07 1.1508827e-07 5.3167543e-05 7.411076e-07 6.0138523e-06 0.0

exp_avg f4 [32]
00000000: c065 84b6 f750 e137 0000 0000 4482 b2b8
00000010: 0000 0000 0000 0000 76a9 e93a 0000 0000
00000020: 0000 0000 fadb 2839 64db abba 0000 0000
00000030: 24fd 74b7 8648 56b9 bb41 b2ba 00a7 0eba
00000040: 0000 0000 ecba 82b9 0ee1 e9b9 0000 0000
00000050: 0000 0000 e69b e4ba 061d b33a d74e f139
00000060: fac7 573a c00e 17ba 3ec1 cc37 7b6d dd38
00000070: 083b 10bb 36be 8839 9674 2bba 0000 0000
-3.945752e-06 2.6859792e-05 0.0 -8.511965e-05 0.0 0.0 0.0017826993 0.0
0.0 0.00016103676 -0.0013111648 0.0 -1.4602472e-05 -0.00020435647 -0.0013599911 -0.0005441755
0.0 -0.000249348 -0.00044608902 0.0 0.0 -0.0017441481 0.0013665266 0.00046025842
0.0008231398 -0.0005762391 2.440868e-05 0.000105584935 -0.0022007842 0.0002608166 -0.0006540505 0.0

exp_avg_sq f4 [32]
00000000: 15bd 8335 c0d8 a934 0000 0000 4816 5336
00000010: 0000 0000 0000 0000 40df 013a 0000 0000
00000020: 0000 0000 c206 3736 7e36 8339 0000 0000
00000030: 13b9 8634 695f 1a37 352d 8c39 e52c 4d38
00000040: 0000 0000 c8e0 4037 aaa9 0138 0000 0000
00000050: 0000 0000 2a41 ad39 cad8 8d39 1934 4f38
00000060: f0da b338 8f34 8138 efc5 5234 dfc5 f835
00000070: ce76 253a bf6b 1637 d70e 9538 0000 0000
9.815291e-07 3.163641e-07 0.0 3.145442e-06 0.0 0.0 0.00049542263 0.0
0.0 2.7273059e-06 0.00025026867 0.0 2.5094104e-07 9.20133e-06 0.00026736563 4.891762e-05
0.0 1.1496428e-05 3.091401e-05 0.0 0.0 0.00033045682 0.00027055136 4.9401166e-05
8.5761654e-05 6.160989e-05 1.9629782e-07 1.8535028e-06 0.0006311954 8.965783e-06 7.107638e-05 0.0

exp_avg f4 [16, 32, 3]
00000000: 0400 0000 0400 0000 0400 0000 0400 0000
00000010: 0400 0000 0400 0000 0000 0000 0000 0000
00000020: 0000 0000 0400 0000 0400 0000 0400 0000
00000030: 0000 0000 0000 0000 0000 0000 0000 0000
00000040: 0000 0000 0000 0000 0000 0000 0000 0000
00000050: 0000 0000 0000 0000 0000 0000 0000 0000
00000060: 0000 0000 0000 0000 0000 0000 0400 0000
00000070: 0400 0000 0400 0000 0400 0000 0400 0000
00000080: 0400 0000 0000 0000 0000 0000 0000 0000
00000090: 0400 0000 0400 0000 0400 0000 0400 0000
000000a0: 0400 0000 0400 0000 0400 0000 0400 0000
000000b0: 0400 0000 0400 0000 0400 0000 0400 0000
000000c0: 0000 0000 0000 0000 0000 0000 0400 0000
000000d0: 0400 0000 0400 0000 0400 0000 0400 0000
000000e0: 0400 0000 0000 0000 0000 0000 0000 0000
000000f0: 0000 0000 0000 0000 0000 0000 0400 0000
00000100: 0400 0000 0400 0000 0000 0000 0000 0000
00000110: 0000 0000 0000 0000 0000 0000 0000 0000
00000120: 0400 0000 0400 0000 0400 0000 0400 0000
00000130: 0400 0000 0400 0000 0400 0000 0400 0000
00000140: 0400 0000 0400 0000 0400 0000 0400 0000
00000150: 0400 0000 0400 0000 0400 0000 0400 0000
00000160: 0400 0000 0400 0000 0400 0000 0400 0000
00000170: 0400 0000 0000 0000 0000 0000 0000 0000
00000180: e26b 8e37 c046 e5b4 d506 2937 1cae 00b9
00000190: fd71 13b9 e92c dcb7 0000 0000 0000 0000
000001a0: 0000 0000 9173 9bb8 0834 a2b8 c073 f1b7
000001b0: 0000 0000 0000 0000 0000 0000 0000 0000
000001c0: 0000 0000 0000 0000 0652 01b9 2656 bcb8
000001d0: 4d05 f6b8 0000 0000 0000 0000 0000 0000
000001e0: 0000 0000 0000 0000 0000 0000 4004 8fb8
000001f0: 6247 a4b8 8f1f 6fb7 566e 6eb7 c5b6 06b8
00000200: b530 c737 0000 0000 0000 0000 0000 0000
00000210: de04 8fb8 8268 b3b8 1ee0 0ab6 1a2e b2b8
00000220: 96eb aab8 bf32 41b8 676e 42b6 fc47 2eb7
00000230: da03 3d37 52c7 28b8 28d9 a1b8 f27e 3838
00000240: 0000 0000 0000 0000 0000 0000 6443 3fb9
00000250: 67a6 4eb9 f1d8 78b8 5cc8 cbb7 c40f f4b7
00000260: 1b1a 51b6 0000 0000 0000 0000 0000 0000
00000270: 0000 0000 0000 0000 0000 0000 78c3 28b7
00000280: 9e10 37b8 6d68 5738 08ea 09b8 2575 ccb7
00000290: c70e 58b8 1f78 aab6 acd5 efb6 99cb 31b6
000002a0: b604 8ab8 664d 66b8 f626 58b8 fc94 12b9
000002b0: c975 3ab9 80d0 b7b3 6b4f b036 3d4c 84b5
000002c0: 906e dab4 b876 0ab9 9566 0ab9 3caf 7fb8
000002d0: c961 47b7 b85f 47b8 f2b4 6438 5223 19b8
000002e0: e5c9 40b8 8a3f 54b5 3edd ecb8 4c48 1bb9
000002f0: d770 f836 0000 0000 0000 0000 0000 0000
00000300: 58d7 47b7 5280 87b6 7074 df35 c4c0 0cba
00000310: 481b 0aba 8c33 12ba 0000 0000 0000 0000
00000320: 0000 0000 ef5b a2b9 5b68 a1b9 2468 afb9
00000330: 0000 0000 0000 0000 0000 0000 0000 0000
00000340: 0000 0000 0000 0000 0851 cab9 592b b4b9
00000350: 0ef1 e5b9 0000 0000 0000 0000 0000 0000
00000360: 0000 0000 0000 0000 0000 0000 62a2 9cb9
00000370: c2a2 99b9 5c86 a2b9 882a bfb8 2c07 aab8
00000380: 909f 8eb8 0000 0000 0000 0000 0000 0000
00000390: e470 a3b9 664f 9eb9 aa3b a3b9 92d1 afb9
000003a0: c762 adb9 8117 c2b9 0e10 d5b7 ccfa b1b7
000003b0: 8840 74b7 d892 74b9 2fbb 5eb9 1411 47b9
000003c0: 0000 0000 0000 0000 0000 0000 0621 4bba
000003d0: 8df5 48ba 484c 58ba 4ae6 e2b8 0c39 ddb8
000003e0: 3859 e7b8 0000 0000 0000 0000 0000 0000
000003f0: 0000 0000 0000 0000 0000 0000 00b0 d7b8
6e-45 6e-45 6e-45 6e-45 6e-45 6e-45 0.0 0.0
0.0 6e-45 6e-45 6e-45 0.0 0.0 0.0 0.0
0.0 0.0 0.0 0.0 0.0 0.0 0.0 0.0
0.0 0.0 0.0 6e-45 6e-45 6e-45 6e-45 6e-45
6e-45 0.0 0.0 0.0 6e-45 6e-45 6e-45 6e-45
6e-45 6e-45 6e-45 6e-45 6e-45 6e-45 6e-45 6e-45
0.0 0.0 0.0 6e-45 6e-45 6e-45 6e-45 6e-45
6e-45 0.0 0.0 0.0 0.0 0.0 0.0 6e-45
6e-45 6e-45 0.0 0.0 0.0 0.0 0.0 0.0
6e-45 6e-45 6e-45 6e-45 6e-45 6e-45 6e-45 6e-45
6e-45 6e-45 6e-45 6e-45 6e-45 6e-45 6e-45 6e-45
6e-45 6e-45 6e-45 6e-45 6e-45 0.0 0.0 0.0
1.6977956e-05 -4.270605e-07 1.0074776e-05 -0.00012271892 -0.00014061476 -2.6246957e-05 0.0 0.0
0.0 -7.412502e-05 -7.7344535e-05 -2.8783339e-05 0.0 0.0 0.0 0.0
0.0 0.0 -0.00012332955 -8.980585e-05 -0.000117311814 0.0 0.0 0.0
0.0 0.0 0.0 -6.819563e-05 -7.8334255e-05 -1.4252858e-05 -1.4211595e-05 -3.2118307e-05
2.374533e-05 0.0 0.0 0.0 -6.819678e-05 -8.554851e-05 -2.0694056e-06 -8.4962885e-05
-8.150113e-05 -4.6062047e-05 -2.8972515e-06 -1.0387968e-05 1.1266175e-05 -4.0239953e-05 -7.717527e-05 4.3987246e-05
0.0 0.0 0.0 -0.00018240284 -0.0001970768 -5.932985e-05 -2.4292785e-05 -2.9094408e-05
-3.1158622e-06 0.0 0.0 0.0 0.0 0.0 0.0 -1.0059091e-05
-4.3646076e-05 5.135725e-05 -3.2881304e-05 -2.4373245e-05 -5.1512176e-05 -5.0803787e-06 -7.1476297e-06 -2.6493565e-06
-6.58123e-05 -5.4908356e-05 -5.15347e-05 -0.00013979146 -0.0001778222 -8.5595275e-08 5.254454e-06 -9.856955e-07
-4.068611e-07 -0.00013204932 -0.0001319892 -6.0959937e-05 -1.1884092e-05 -4.7534442e-05 5.4527954e-05 -3.6510937e-05
-4.5964396e-05 -7.9068616e-07 -0.000112945665 -0.00014808885 7.4041122e-06 0.0 0.0 0.0
-1.1911463e-05 -4.038252e-06 1.6648683e-06 -0.00053693005 -0.00052683474 -0.0005577139 0.0 0.0
0.0 -0.00030967544 -0.00030786064 -0.00033456192 0.0 0.0 0.0 0.0
0.0 0.0 -0.00038588815 -0.00034364572 -0.00043857883 0.0 0.0 0.0
0.0 0.0 0.0 -0.00029875623 -0.00029303698 -0.00030999153 -9.115512e-05 -8.1075676e-05
-6.8008085e-05 0.0 0.0 0.0 -0.00031173893 -0.00030195265 -0.00031134236 -0.00033534743
-0.00033070726 -0.00037020075 -2.5399055e-05 -2.121683e-05 -1.4558558e-05 -0.00023324357 -0.00021241301 -0.00018984481
0.0 0.0 0.0 -0.00077487563 -0.00076659844 -0.0008251113 -0.000108194145 -0.00010548727
-0.00011031557 0.0 0.0 0.0 0.0 0.0 0.0 -0.000102847815

exp_avg_sq f4 [16, 32, 3]
00000000: 7dbf 4929 e296 3b29 3cf8 3e29 ccae b12a
00000010: 661e af2a d6bc af2a 0000 0000 0000 0000
00000020: 0000 0000 56d4 6f29 03e8 6e29 3a21 6f29
00000030: 0000 0000 0000 0000 0000 0000 0000 0000
00000040: 0000 0000 0000 0000 0000 0000 0000 0000
00000050: 0000 0000 0000 0000 0000 0000 0000 0000
00000060: 0000 0000 0000 0000 0000 0000 bca2 d529
00000070: 5f89 d229 e048 d329 0192 7b29 96f1 7229
00000080: d704 7529 0000 0000 0000 0000 0000 0000
00000090: 5b3f 282a 9ece 242a f3a2 252a ee9a 3329
000000a0: a780 3329 6f33 3329 a00b e127 631c d827
000000b0: e941 da27 4b49 9c2a 6830 972a 546a 982a
000000c0: 0000 0000 0000 0000 0000 0000 9fc7 fb2a
000000d0: 0a59 f92a 8fef f92a 142c 8e28 59b0 8b28
000000e0: c449 8c28 0000 0000 0000 0000 0000 0000
000000f0: 0000 0000 0000 0000 0000 0000 769e 272a
00000100: a0f4 202a 648e 222a 0000 0000 0000 0000
00000110: 0000 0000 0000 0000 0000 0000 0000 0000
00000120: 236f 9d26 418c 9b26 e212 9626 0fd8 3a2b
00000130: 21d6 362b 72cd 372b 8e7b a127 6907 7327
00000140: a1ab 8227 09dc 0e2a 89d7 0e2a 4fca 0e2a
00000150: 9989 482a 98ba 402a ec9a 422a 8a75 0529
00000160: dccb 0229 3b70 0329 0622 102b 41d0 0c2b
00000170: 119d 0d2b 0000 0000 0000 0000 0000 0000
00000180: 94eb 2631 84da f230 4874 c830 4d9d 9636
00000190: 3957 9636 6264 4036 0000 0000 0000 0000
000001a0: 0000 0000 da39 c035 351f c035 4652 7435
000001b0: 0000 0000 0000 0000 0000 0000 0000 0000
000001c0: 0000 0000 0000 0000 84d8 b735 66e9 1936
000001d0: 3710 9035 0000 0000 0000 0000 0000 0000
000001e0: 0000 0000 0000 0000 0000 0000 df24 c135
000001f0: 56c4 c035 0625 7635 14ea 1e34 efdb 1c34
00000200: f0bb c933 0000 0000 0000 0000 0000 0000
00000210: 6fab cb35 660a cb35 ef44 8135 81b7 d835
00000220: bcc3 e435 b014 8d35 6c42 5f32 53d8 5a32
00000230: 3ed3 0d32 0fd6 7835 2c4b 7635 aae3 1d35
00000240: 0000 0000 0000 0000 0000 0000 494f 1737
00000250: 1f25 1737 d053 c036 be3e 4434 4abe 4334
00000260: 0721 f933 0000 0000 0000 0000 0000 0000
00000270: 0000 0000 0000 0000 0000 0000 4db4 5a34
00000280: 1d85 5534 fb46 0b34 3dc1 7d33 9eda 6534
00000290: 974c 8233 7178 7a31 0e4f 7132 51fd 6530
000002a0: ddaf 2635 f165 5b35 7c39 ed34 d407 d836
000002b0: f448 d736 e312 8936 ae78 b62f ef3c 692f
000002c0: 5363 ec2e b750 9336 196b 9336 8669 3b36
000002d0: e294 8934 a680 8634 3b60 2f34 2d09 f434
000002e0: 9542 f334 ed0d 9b34 f8b7 9236 6b23 9236
000002f0: 7122 3a36 0000 0000 0000 0000 0000 0000
00000300: 763a 8032 d47f 8132 d605 6732 7d65 2338
00000310: d142 2338 7d47 1638 0000 0000 0000 0000
00000320: 0000 0000 d7f3 5137 19e6 5137 306c 4137
00000330: 0000 0000 0000 0000 0000 0000 0000 0000
00000340: 0000 0000 0000 0000 90a3 7a37 f14e 7537
00000350: 3554 5937 0000 0000 0000 0000 0000 0000
00000360: 0000 0000 0000 0000 0000 0000 d658 4f37
00000370: fd2a 4f37 72a5 3e37 0aab ba35 2edd b935
00000380: 2e88 a935 0000 0000 0000 0000 0000 0000
00000390: 56ff 6137 64b0 6137 5e67 4f37 f3bc 6f37
000003a0: 442d 6f37 55a0 5b37 3cf6 0434 382c 0434
000003b0: 29fe ef33 af46 1037 75c1 0f37 735b 0337
000003c0: 0000 0000 0000 0000 0000 0000 12c5 a538
000003d0: 5db0 a538 c598 9838 53e5 d935 49a7 d935
000003e0: db2f c835 0000 0000 0000 0000 0000 0000
000003f0: 0000 0000 0000 0000 0000 0000 5f15 0a36
4.4797055e-14 4.165321e-14 4.2403784e-14 3.1562806e-13 3.1107338e-13 3.1217276e-13 0.0 0.0
0.0 5.3252833e-14 5.3047854e-14 5.309748e-14 0.0 0.0 0.0 0.0
0.0 0.0 0.0 0.0 0.0 0.0 0.0 0.0
0.0 0.0 0.0 9.48733e-14 9.3497035e-14 9.382924e-14 5.5859834e-14 5.3944337e-14
5.4405126e-14 0.0 0.0 0.0 1.4943378e-13 1.4637811e-13 1.4711478e-13 3.9880364e-14
3.9857572e-14 3.9790596e-14 6.246265e-15 5.998282e-15 6.0578615e-15 2.7762024e-13 2.6856577e-13 2.7074404e-13
0.0 0.0 0.0 4.4725072e-13 4.4293069e-13 4.4397512e-13 1.5784283e-14 1.5508579e-14
1.5575113e-14 0.0 0.0 0.0 0.0 0.0 0.0 1.4887557e-13
1.4295726e-13 1.4437892e-13 0.0 0.0 0.0 0.0 0.0 0.0
1.0924187e-15 1.0793301e-15 1.0413459e-15 6.6380316e-13 6.495655e-13 6.5299773e-13 4.4820435e-15 3.3727041e-15
3.626833e-15 1.2688474e-13 1.2686912e-13 1.2682323e-13 1.7811307e-13 1.7117763e-13 1.728441e-13 2.963388e-14
2.904262e-14 2.9185188e-14 5.1206294e-13 5.0027e-13 5.0311236e-13 0.0 0.0 0.0
2.429009e-09 1.7669923e-09 1.4584964e-09 4.4886606e-06 4.4805024e-06 2.866866e-06 0.0 0.0
0.0 1.4321952e-06 1.4314197e-06 9.1016807e-07 0.0 0.0 0.0 0.0
0.0 0.0 1.3697577e-06 2.2934632e-06 1.0733555e-06 0.0 0.0 0.0
0.0 0.0 0.0 1.4390351e-06 1.4362256e-06 9.169602e-07 1.4800054e-07 1.4608644e-07
9.3939775e-08 0.0 0.0 0.0 1.5174572e-06 1.5127705e-06 9.631311e-07 1.6146661e-06
1.704429e-06 1.051134e-06 1.2995411e-08 1.27384565e-08 8.255311e-09 9.2698696e-07 9.175153e-07 5.881835e-07
0.0 0.0 0.0 9.018761e-06 9.008944e-06 5.731803e-06 1.8276748e-07 1.8230017e-07
1.1600974e-07 0.0 0.0 0.0 0.0 0.0 0.0 2.0368425e-07
1.9885597e-07 1.2971206e-07 5.9081902e-08 2.140682e-07 6.067528e-08 3.644825e-09 1.4046021e-08 8.36697e-10
6.2095734e-07 8.17322e-07 4.4186515e-07 6.438213e-06 6.415992e-06 4.085117e-06 3.3191355e-10 2.1212875e-10
1.0749681e-10 4.390338e-06 4.393409e-06 2.7926594e-06 2.5626565e-07 2.505305e-07 1.6333153e-07 4.5455218e-07
4.5310722e-07 2.8881132e-07 4.372556e-06 4.3552623e-06 2.7736207e-06 0.0 0.0 0.0
1.4927746e-08 1.5075706e-08 1.3447297e-08 3.8956747e-05 3.8924456e-05 3.5829366e-05 0.0 0.0
0.0 1.2514144e-05 1.25109445e-05 1.1528886e-05 0.0 0.0 0.0 0.0
0.0 0.0 1.4939244e-05 1.4621518e-05 1.2953814e-05 0.0 0.0 0.0
0.0 0.0 0.0 1.2358845e-05 1.23481705e-05 1.1363403e-05 1.3907859e-06 1.3847946e-06
1.2631115e-06 0.0 0.0 0.0 1.3470495e-05 1.3452114e-05 1.23622285e-05 1.4289503e-05
1.4256049e-05 1.3090747e-05 1.2383038e-07 1.2309545e-07 1.1175536e-07 8.599526e-06 8.568507e-06 7.829501e-06
0.0 0.0 0.0 7.90452e-05 7.900663e-05 7.27638e-05 1.6234502e-06 1.6216446e-06
1.4915089e-06 0.0 0.0 0.0 0.0 0.0 0.0 2.0576042e-06

exp_avg f4 [16]
00000000: 0400 0000 c391 48b9 b99e 4dba 33e5 eab9
00000010: 0482 56b9 74ee 49b9 f40b 20ba 1eba 3639
00000020: 30ba 8b3a 3cc7 daba 39d3 f0ba 0400 0000
00000030: c87b de3a 0400 0000 0400 0000 bdba 36ba
6e-45 -0.00019127787 -0.0007843781 -0.00044802725 -0.00020457065 -0.00019257684 -0.0006105297 0.00017426207
0.0010660347 -0.0016691457 -0.0018373496 6e-45 0.0016974146 6e-45 6e-45 -0.0006970575

exp_avg_sq f4 [16]
00000000: 3287 9e2a 60d0 1637 5bac a438 b498 7838
00000010: b551 bf37 6f96 ba36 4d65 3138 d476 3636
00000020: f2e1 2f39 d8de d539 32ed 043a 8636 dd30
00000030: fd61 093a d012 a227 a182 7d32 0ab7 df38
2.816025e-13 8.989213e-06 7.852233e-05 5.9270023e-05 2.2807022e-05 5.5607447e-06 4.2294432e-05 2.718928e-06
0.00016773472 0.00040792557 0.0005070745 1.6095363e-09 0.00052407366 4.498443e-15 1.475624e-08 0.00010667562

exp_avg f4 [16, 16, 3]
00000000: 0400 0080 0400 0080 0400 0080 e8b9 69b8
00000010: bcd8 3db9 dc4f 76b8 627e 5ab9 0387 88b9
00000020: 5816 60b9 3f8a 10ba f511 2cba 0011 13ba
00000030: b096 70b8 7b16 02b9 3a23 f1b8 921b b6b9
00000040: c911 14ba aa90 06ba 4c67 dab8 9f05 18b9
00000050: 3004 09b9 c4dc f2b9 b564 09ba 062d e7b9
00000060: 6834 0aba ad93 09ba 90fe 07ba fb01 c2b9
00000070: fe06 e3b9 00f7 d0b9 be13 cbb9 609a f5b9
00000080: 68cd e3b9 0400 0080 0400 0080 0400 0080
00000090: 1417 0aba f81c 09ba 552f 11ba 0000 0000
000000a0: 0400 0080 0400 0080 0400 0080 0400 0080
000000b0: 0400 0080 0a39 4bb9 6e45 77b9 0cbc 58b9
000000c0: 0400 0080 0400 0080 0400 0080 78a8 29b8
000000d0: 1a80 2ab8 b8d3 adb8 88d1 d4b8 b05f e6b8
000000e0: f06f ffb8 f8af 91b9 282a 99b9 079b 94b9
000000f0: f40d 56b8 8645 4bb8 70dd 89b8 4a5c 7db9
00000100: 2e47 75b9 a2ca 79b9 7477 74b8 3a6a 84b8
00000110: 9cc5 8ab8 3040 66b9 78c9 76b9 c287 5fb9
00000120: 4caa 68b9 9e93 85b9 657f 68b9 0fe7 3fb9
00000130: 6a06 4fb9 3390 5bb9 6e31 51b9 ac85 61b9
00000140: 3c08 65b9 0400 0080 0400 0080 0400 0080
00000150: b0a9 6db9 9d5c 88b9 04d7 72b9 0000 0000
00000160: 0400 0080 0400 0080 0400 0080 0400 0080
00000170: 0400 0080 8292 d4b8 9838 e4b8 f8f4 d5b8
00000180: 0400 0080 0400 0080 0400 0080 c1cb 07b9
00000190: a4f5 2739 52b3 db37 1036 e937 66a7 dd38
000001a0: 460e de38 0edf f338 86e1 6139 1a6d 6639
000001b0: 30b0 2737 99d0 2738 26f4 bc38 8633 2039
000001c0: 3a4d c038 caea b439 a824 3d38 92d2 4038
000001d0: 0efb a138 182d e338 be3e 2939 95eb 1539
000001e0: dc86 d938 0b18 2b39 cd6a 1739 a8a1 8f38
000001f0: 0a09 2839 dca4 4839 ca89 d838 cd34 1c39
00000200: 80ef 5339 0400 0080 0400 0080 0400 0080
00000210: 7223 0039 c3c6 0b39 3612 4339 0000 0000
00000220: 0000 0000 0400 0080 0400 0000 0400 0080
00000230: 0400 0000 1a5a 3e38 2f0b ba38 b8b2 af38
00000240: 0000 0000 0000 0000 0000 0000 46c9 df37
00000250: 1e5e 6138 b087 a0b6 bcbc 0538 1ab8 0138
00000260: 36fc 0db7 4896 0838 3257 f637 632d 1ab8
00000270: aa3d 4b37 5ac7 7c37 8891 d4b5 2482 bb37
00000280: 6c64 1c37 9890 01b8 ed53 fd37 a922 ae37
00000290: cba5 2235 9dda 8c37 224d 1637 0047 19b8
000002a0: fa33 0ab8 b971 e6b7 93d7 85b8 a27d 1d38
000002b0: e1c7 0038 8fc4 99b7 1fd8 1f38 7b52 0b38
000002c0: 4fa9 9bb7 0400 0000 0400 0000 0400 0000
000002d0: eadf 42b8 987c 0bb8 e423 92b8 0000 0000
000002e0: 0000 0000 0000 0000 0400 0000 0400 0000
000002f0: 0400 0000 e372 e337 cc7c 8e37 78cf d0b6
00000300: 0000 0000 0000 0000 0000 0000 0000 0000
00000310: 0000 0000 0000 0000 0000 0000 0000 0000
00000320: 0000 0000 0000 0000 0000 0000 0000 0000
00000330: 0000 0000 0000 0000 0000 0000 0000 0000
00000340: 0000 0000 0000 0000 0000 0000 0000 0000
00000350: 0000 0000 0000 0000 0000 0000 0000 0000
00000360: 0000 0000 0000 0000 0000 0000 0000 0000
00000370: 0000 0000 0000 0000 0000 0000 0000 0000
00000380: 0000 0000 0000 0000 0000 0000 0000 0000
00000390: 0000 0000 0000 0000 0000 0000 0000 0000
000003a0: 0000 0000 0000 0000 0000 0000 0000 0000
000003b0: 0000 0000 0000 0000 0000 0000 0000 0000
000003c0: 0400 0080 0400 0080 0400 0080 18b6 49b8
000003d0: 8c09 ffb8 6cc5 e6b8 cc2c 4db9 d81f 76b9
000003e0: 040e 6fb9 8874 16ba ec25 22ba 0021 15ba
000003f0: 84d3 93b8 cc96 bfb8 a49a f8b8 10c2 edb9
-6e-45 -6e-45 -6e-45 -5.5724668e-05 -0.00018105184 -5.8725345e-05 -0.00020837181 -0.00026040533
-0.00021370628 -0.00055137643 -0.0006563955 -0.0005610138 -5.7360798e-05 -0.00012406141 -0.00011498337 -0.00034734287
-0.0005648402 -0.0005133251 -0.000104142906 -0.00014497944 -0.00013066898 -0.0004632232 -0.0005241142 -0.00044093298
-0.00052720914 -0.00052481407 -0.0005187774 -0.0003700404 -0.00043302024 -0.0003985688 -0.00038733886 -0.0004684506
-0.00043449854 -6e-45 -6e-45 -6e-45 -0.0005267721 -0.0005230452 -0.0005538364 0.0
-6e-45 -6e-45 -6e-45 -6e-45 -6e-45 -0.00019380837 -0.0002358162 -0.00020669418
-6e-45 -6e-45 -6e-45 -4.044964e-05 -4.0650462e-05 -8.2887185e-05 -0.00010147976 -0.00010985078
-0.000121801975 -0.00027787662 -0.00029213843 -0.00028344264 -5.103457e-05 -4.846372e-05 -6.573915e-05 -0.0002416234
-0.00023391537 -0.00023821977 -5.8285383e-05 -6.314037e-05 -6.6171604e-05 -0.00021958421 -0.00023535441 -0.00021317511
-0.00022188685 -0.0002547772 -0.00022172702 -0.00018301255 -0.00019743448 -0.00020939186 -0.00019950207 -0.00021507469
-0.0002184221 -6e-45 -6e-45 -6e-45 -0.00022665295 -0.00026008944 -0.00023159018 0.0
-6e-45 -6e-45 -6e-45 -6e-45 -6e-45 -0.00010136237 -0.000108824286 -0.000102022605
-6e-45 -6e-45 -6e-45 -0.00012950508 0.0001601787 2.6190337e-05 2.780094e-05 0.000105692816
0.000105884435 0.0001162869 0.00021541686 0.00021975153 9.9949975e-06 4.0010174e-05 9.010015e-05 0.00015277983
9.169658e-05 0.00034507207 4.509525e-05 4.5972476e-05 7.723841e-05 0.00010832603 0.00016140469 0.00014297508
0.00010372486 0.00016316788 0.00014440269 6.848882e-05 0.00016025096 0.00019134901 0.00010325348 0.00014896989
0.00020211749 -6e-45 -6e-45 -6e-45 0.00012220236 0.00013330118 0.00018603433 0.0
0.0 -6e-45 6e-45 -6e-45 6e-45 4.5383444e-05 8.871254e-05 8.377939e-05
0.0 0.0 0.0 2.6677397e-05 5.3731834e-05 -4.7841677e-06 3.1885444e-05 3.0927455e-05
-8.462977e-06 3.2564887e-05 2.9366089e-05 -3.675873e-05 1.21141e-05 1.5066786e-05 -1.5837586e-06 2.2352739e-05
9.321706e-06 -3.089066e-05 3.0199031e-05 2.0758556e-05 6.0590963e-07 1.67911e-05 8.958656e-06 -3.6544167e-05
-3.295017e-05 -2.7471093e-05 -6.382088e-05 3.754872e-05 3.070373e-05 -1.8330551e-05 3.8109833e-05 3.3217e-05
-1.855628e-05 6e-45 6e-45 6e-45 -4.646174e-05 -3.325622e-05 -6.968508e-05 0.0
0.0 0.0 6e-45 6e-45 6e-45 2.7114007e-05 1.6985832e-05 -6.2230356e-06
0.0 0.0 0.0 0.0 0.0 0.0 0.0 0.0
0.0 0.0 0.0 0.0 0.0 0.0 0.0 0.0
0.0 0.0 0.0 0.0 0.0 0.0 0.0 0.0
0.0 0.0 0.0 0.0 0.0 0.0 0.0 0.0
0.0 0.0 0.0 0.0 0.0 0.0 0.0 0.0
0.0 0.0 0.0 0.0 0.0 0.0 0.0 0.0
-6e-45 -6e-45 -6e-45 -4.8091722e-05 -0.00012161126 -0.00011004027 -0.00019567012 -0.00023472251
-0.00022798037 -0.00057394104 -0.00061854604 -0.00056888163 -7.048904e-05 -9.135678e-05 -0.000118543656 -0.0004534875
